…
I0509 15:17:20.260277  7019 net.cpp:294] The NetState phase (0) differed from the phase (1) specified by a rule in layer data
I0509 15:17:20.260289  7019 net.cpp:294] The NetState phase (0) differed from the phase (1) specified by a rule in layer accuracy
I0509 15:17:20.260365  7019 net.cpp:51] Initializing net from parameters: 
name: "LeNet"
state {
  phase: TRAIN
  level: 0
  stage: ""
}
layer {
  name: "data"
  type: "Data"
  top: "data"
  top: "label"
  include {
    phase: TRAIN
  }
  transform_param {
    scale: 0.00390625
  }
  data_param {
    source: "examples/final_sp/sp_train_lmdb_int1"
    batch_size: 64
    backend: LMDB
  }
}
layer {
  name: "conv1"
  type: "Convolution"
  bottom: "data"
  top: "conv1"
  param {
    lr_mult: 1
  }
  param {
    lr_mult: 2
  }
  convolution_param {
    num_output: 20
    kernel_size: 5
    stride: 1
    weight_filler {
      type: "xavier"
    }
    bias_filler {
      type: "constant"
    }
  }
}
layer {
  name: "pool1"
  type: "Pooling"
  bottom: "conv1"
  top: "pool1"
  pooling_param {
    pool: MAX
    kernel_size: 2
    stride: 2
  }
}
layer {
  name: "conv2"
  type: "Convolution"
  bottom: "pool1"
  top: "conv2"
  param {
    lr_mult: 1
  }
  param {
    lr_mult: 2
  }
  convolution_param {
    num_output: 50
    kernel_size: 5
    stride: 1
    weight_filler {
      type: "xavier"
    }
    bias_filler {
      type: "constant"
    }
  }
}
layer {
  name: "pool2"
  type: "Pooling"
  bottom: "conv2"
  top: "pool2"
  pooling_param {
    pool: MAX
    kernel_size: 2
    stride: 2
  }
}
layer {
  name: "ip1"
  type: "InnerProduct"
  bottom: "pool2"
  top: "ip1"
  param {
    lr_mult: 1
  }
  param {
    lr_mult: 2
  }
  inner_product_param {
    num_output: 500
    weight_filler {
      type: "xavier"
    }
    bias_filler {
      type: "constant"
    }
  }
}
layer {
  name: "relu1"
  type: "ReLU"
  bottom: "ip1"
  top: "ip1"
}
layer {
  name: "ip2"
  type: "InnerProduct"
  bottom: "ip1"
  top: "ip2"
  param {
    lr_mult: 1
  }
  param {
    lr_mult: 2
  }
  inner_product_param {
    num_output: 52
    weight_filler {
      type: "xavier"
    }
    bias_filler {
      type: "constant"
    }
  }
}
layer {
  name: "loss"
  type: "SoftmaxWithLoss"
  bottom: "ip2"
  bottom: "label"
  top: "loss"
}
I0509 15:17:20.260445  7019 layer_factory.hpp:77] Creating layer data
I0509 15:17:20.260529  7019 db_lmdb.cpp:35] Opened lmdb examples/final_sp/sp_train_lmdb_int1
I0509 15:17:20.260550  7019 net.cpp:84] Creating Layer data
I0509 15:17:20.260560  7019 net.cpp:380] data -> data
I0509 15:17:20.260579  7019 net.cpp:380] data -> label
I0509 15:17:20.261101  7019 data_layer.cpp:45] output data size: 64,3,28,28
I0509 15:17:20.265079  7019 net.cpp:122] Setting up data
I0509 15:17:20.265105  7019 net.cpp:129] Top shape: 64 3 28 28 (150528)
I0509 15:17:20.265110  7019 net.cpp:129] Top shape: 64 (64)
I0509 15:17:20.265113  7019 net.cpp:137] Memory required for data: 602368
I0509 15:17:20.265126  7019 layer_factory.hpp:77] Creating layer conv1
I0509 15:17:20.265152  7019 net.cpp:84] Creating Layer conv1
I0509 15:17:20.265161  7019 net.cpp:406] conv1 <- data
I0509 15:17:20.265175  7019 net.cpp:380] conv1 -> conv1
I0509 15:17:20.266539  7019 net.cpp:122] Setting up conv1
I0509 15:17:20.266583  7019 net.cpp:129] Top shape: 64 20 24 24 (737280)
I0509 15:17:20.266590  7019 net.cpp:137] Memory required for data: 3551488
I0509 15:17:20.266615  7019 layer_factory.hpp:77] Creating layer pool1
I0509 15:17:20.266628  7019 net.cpp:84] Creating Layer pool1
I0509 15:17:20.266656  7019 net.cpp:406] pool1 <- conv1
I0509 15:17:20.266664  7019 net.cpp:380] pool1 -> pool1
I0509 15:17:20.266937  7019 net.cpp:122] Setting up pool1
I0509 15:17:20.266945  7019 net.cpp:129] Top shape: 64 20 12 12 (184320)
I0509 15:17:20.266950  7019 net.cpp:137] Memory required for data: 4288768
I0509 15:17:20.266964  7019 layer_factory.hpp:77] Creating layer conv2
I0509 15:17:20.266976  7019 net.cpp:84] Creating Layer conv2
I0509 15:17:20.266981  7019 net.cpp:406] conv2 <- pool1
I0509 15:17:20.266988  7019 net.cpp:380] conv2 -> conv2
I0509 15:17:20.267657  7019 net.cpp:122] Setting up conv2
I0509 15:17:20.267669  7019 net.cpp:129] Top shape: 64 50 8 8 (204800)
I0509 15:17:20.267678  7019 net.cpp:137] Memory required for data: 5107968
I0509 15:17:20.267706  7019 layer_factory.hpp:77] Creating layer pool2
I0509 15:17:20.267714  7019 net.cpp:84] Creating Layer pool2
I0509 15:17:20.267729  7019 net.cpp:406] pool2 <- conv2
I0509 15:17:20.267737  7019 net.cpp:380] pool2 -> pool2
I0509 15:17:20.267768  7019 net.cpp:122] Setting up pool2
I0509 15:17:20.267776  7019 net.cpp:129] Top shape: 64 50 4 4 (51200)
I0509 15:17:20.267779  7019 net.cpp:137] Memory required for data: 5312768
I0509 15:17:20.267784  7019 layer_factory.hpp:77] Creating layer ip1
I0509 15:17:20.267792  7019 net.cpp:84] Creating Layer ip1
I0509 15:17:20.267798  7019 net.cpp:406] ip1 <- pool2
I0509 15:17:20.267803  7019 net.cpp:380] ip1 -> ip1
I0509 15:17:20.269979  7019 net.cpp:122] Setting up ip1
I0509 15:17:20.269991  7019 net.cpp:129] Top shape: 64 500 (32000)
I0509 15:17:20.269994  7019 net.cpp:137] Memory required for data: 5440768
I0509 15:17:20.270007  7019 layer_factory.hpp:77] Creating layer relu1
I0509 15:17:20.270035  7019 net.cpp:84] Creating Layer relu1
I0509 15:17:20.270043  7019 net.cpp:406] relu1 <- ip1
I0509 15:17:20.270077  7019 net.cpp:367] relu1 -> ip1 (in-place)
I0509 15:17:20.270088  7019 net.cpp:122] Setting up relu1
I0509 15:17:20.270094  7019 net.cpp:129] Top shape: 64 500 (32000)
I0509 15:17:20.270109  7019 net.cpp:137] Memory required for data: 5568768
I0509 15:17:20.270117  7019 layer_factory.hpp:77] Creating layer ip2
I0509 15:17:20.270126  7019 net.cpp:84] Creating Layer ip2
I0509 15:17:20.270130  7019 net.cpp:406] ip2 <- ip1
I0509 15:17:20.270138  7019 net.cpp:380] ip2 -> ip2
I0509 15:17:20.270457  7019 net.cpp:122] Setting up ip2
I0509 15:17:20.270464  7019 net.cpp:129] Top shape: 64 52 (3328)
I0509 15:17:20.270468  7019 net.cpp:137] Memory required for data: 5582080
I0509 15:17:20.270475  7019 layer_factory.hpp:77] Creating layer loss
I0509 15:17:20.270484  7019 net.cpp:84] Creating Layer loss
I0509 15:17:20.270489  7019 net.cpp:406] loss <- ip2
I0509 15:17:20.270494  7019 net.cpp:406] loss <- label
I0509 15:17:20.270503  7019 net.cpp:380] loss -> loss
I0509 15:17:20.270519  7019 layer_factory.hpp:77] Creating layer loss
…
I0509 15:17:20.270957  7019 solver.cpp:190] Creating test net (#0) specified by net file: models/sp_lenet_int1/lenet_train_val.prototxt
I0509 15:17:20.271003  7019 net.cpp:294] The NetState phase (1) differed from the phase (0) specified by a rule in layer data
I0509 15:17:20.271113  7019 net.cpp:51] Initializing net from parameters: 
name: "LeNet"
state {
  phase: TEST
}
layer {
  name: "data"
  type: "Data"
  top: "data"
  top: "label"
  include {
    phase: TEST
  }
  transform_param {
    scale: 0.00390625
  }
  data_param {
    source: "examples/final_sp/sp_val_lmdb_int1"
    batch_size: 64
    backend: LMDB
  }
}
layer {
  name: "conv1"
  type: "Convolution"
  bottom: "data"
  top: "conv1"
  param {
    lr_mult: 1
  }
  param {
    lr_mult: 2
  }
  convolution_param {
    num_output: 20
    kernel_size: 5
    stride: 1
    weight_filler {
      type: "xavier"
    }
    bias_filler {
      type: "constant"
    }
  }
}
layer {
  name: "pool1"
  type: "Pooling"
  bottom: "conv1"
  top: "pool1"
  pooling_param {
    pool: MAX
    kernel_size: 2
    stride: 2
  }
}
layer {
  name: "conv2"
  type: "Convolution"
  bottom: "pool1"
  top: "conv2"
  param {
    lr_mult: 1
  }
  param {
    lr_mult: 2
  }
  convolution_param {
    num_output: 50
    kernel_size: 5
    stride: 1
    weight_filler {
      type: "xavier"
    }
    bias_filler {
      type: "constant"
    }
  }
}
layer {
  name: "pool2"
  type: "Pooling"
  bottom: "conv2"
  top: "pool2"
  pooling_param {
    pool: MAX
    kernel_size: 2
    stride: 2
  }
}
layer {
  name: "ip1"
  type: "InnerProduct"
  bottom: "pool2"
  top: "ip1"
  param {
    lr_mult: 1
  }
  param {
    lr_mult: 2
  }
  inner_product_param {
    num_output: 500
    weight_filler {
      type: "xavier"
    }
    bias_filler {
      type: "constant"
    }
  }
}
layer {
  name: "relu1"
  type: "ReLU"
  bottom: "ip1"
  top: "ip1"
}
layer {
  name: "ip2"
  type: "InnerProduct"
  bottom: "ip1"
  top: "ip2"
  param {
    lr_mult: 1
  }
  param {
    lr_mult: 2
  }
  inner_product_param {
    num_output: 52
    weight_filler {
      type: "xavier"
    }
    bias_filler {
      type: "constant"
    }
  }
}
layer {
  name: "accuracy"
  type: "Accuracy"
  bottom: "ip2"
  bottom: "label"
  top: "accuracy"
  include {
    phase: TEST
  }
}
layer {
  name: "loss"
  type: "SoftmaxWithLoss"
  bottom: "ip2"
  bottom: "label"
  top: "loss"
}
I0509 15:17:20.271186  7019 layer_factory.hpp:77] Creating layer data
I0509 15:17:20.271265  7019 db_lmdb.cpp:35] Opened lmdb examples/final_sp/sp_val_lmdb_int1
I0509 15:17:20.271286  7019 net.cpp:84] Creating Layer data
I0509 15:17:20.271293  7019 net.cpp:380] data -> data
I0509 15:17:20.271324  7019 net.cpp:380] data -> label
I0509 15:17:20.271422  7019 data_layer.cpp:45] output data size: 64,3,28,28
I0509 15:17:20.276473  7019 net.cpp:122] Setting up data
I0509 15:17:20.276500  7019 net.cpp:129] Top shape: 64 3 28 28 (150528)
I0509 15:17:20.276507  7019 net.cpp:129] Top shape: 64 (64)
I0509 15:17:20.276512  7019 net.cpp:137] Memory required for data: 602368
I0509 15:17:20.276520  7019 layer_factory.hpp:77] Creating layer label_data_1_split
I0509 15:17:20.276535  7019 net.cpp:84] Creating Layer label_data_1_split
I0509 15:17:20.276541  7019 net.cpp:406] label_data_1_split <- label
I0509 15:17:20.276551  7019 net.cpp:380] label_data_1_split -> label_data_1_split_0
I0509 15:17:20.276563  7019 net.cpp:380] label_data_1_split -> label_data_1_split_1
I0509 15:17:20.276623  7019 net.cpp:122] Setting up label_data_1_split
I0509 15:17:20.276631  7019 net.cpp:129] Top shape: 64 (64)
I0509 15:17:20.276636  7019 net.cpp:129] Top shape: 64 (64)
I0509 15:17:20.276640  7019 net.cpp:137] Memory required for data: 602880
I0509 15:17:20.276645  7019 layer_factory.hpp:77] Creating layer conv1
I0509 15:17:20.276659  7019 net.cpp:84] Creating Layer conv1
I0509 15:17:20.276664  7019 net.cpp:406] conv1 <- data
I0509 15:17:20.276671  7019 net.cpp:380] conv1 -> conv1
I0509 15:17:20.276851  7019 net.cpp:122] Setting up conv1
I0509 15:17:20.276860  7019 net.cpp:129] Top shape: 64 20 24 24 (737280)
I0509 15:17:20.276865  7019 net.cpp:137] Memory required for data: 3552000
I0509 15:17:20.276876  7019 layer_factory.hpp:77] Creating layer pool1
I0509 15:17:20.276893  7019 net.cpp:84] Creating Layer pool1
I0509 15:17:20.276899  7019 net.cpp:406] pool1 <- conv1
I0509 15:17:20.276906  7019 net.cpp:380] pool1 -> pool1
I0509 15:17:20.276938  7019 net.cpp:122] Setting up pool1
I0509 15:17:20.276945  7019 net.cpp:129] Top shape: 64 20 12 12 (184320)
I0509 15:17:20.276949  7019 net.cpp:137] Memory required for data: 4289280
I0509 15:17:20.276953  7019 layer_factory.hpp:77] Creating layer conv2
I0509 15:17:20.276963  7019 net.cpp:84] Creating Layer conv2
I0509 15:17:20.276968  7019 net.cpp:406] conv2 <- pool1
I0509 15:17:20.276974  7019 net.cpp:380] conv2 -> conv2
I0509 15:17:20.277287  7019 net.cpp:122] Setting up conv2
I0509 15:17:20.277294  7019 net.cpp:129] Top shape: 64 50 8 8 (204800)
I0509 15:17:20.277299  7019 net.cpp:137] Memory required for data: 5108480
I0509 15:17:20.277309  7019 layer_factory.hpp:77] Creating layer pool2
I0509 15:17:20.277317  7019 net.cpp:84] Creating Layer pool2
I0509 15:17:20.277323  7019 net.cpp:406] pool2 <- conv2
I0509 15:17:20.277328  7019 net.cpp:380] pool2 -> pool2
I0509 15:17:20.282611  7019 net.cpp:122] Setting up pool2
I0509 15:17:20.282620  7019 net.cpp:129] Top shape: 64 50 4 4 (51200)
I0509 15:17:20.282624  7019 net.cpp:137] Memory required for data: 5313280
I0509 15:17:20.282627  7019 layer_factory.hpp:77] Creating layer ip1
I0509 15:17:20.282636  7019 net.cpp:84] Creating Layer ip1
I0509 15:17:20.282641  7019 net.cpp:406] ip1 <- pool2
I0509 15:17:20.282649  7019 net.cpp:380] ip1 -> ip1
I0509 15:17:20.285207  7019 net.cpp:122] Setting up ip1
I0509 15:17:20.285223  7019 net.cpp:129] Top shape: 64 500 (32000)
I0509 15:17:20.285226  7019 net.cpp:137] Memory required for data: 5441280
I0509 15:17:20.285240  7019 layer_factory.hpp:77] Creating layer relu1
I0509 15:17:20.285250  7019 net.cpp:84] Creating Layer relu1
I0509 15:17:20.285254  7019 net.cpp:406] relu1 <- ip1
I0509 15:17:20.285261  7019 net.cpp:367] relu1 -> ip1 (in-place)
I0509 15:17:20.285270  7019 net.cpp:122] Setting up relu1
I0509 15:17:20.285274  7019 net.cpp:129] Top shape: 64 500 (32000)
I0509 15:17:20.285279  7019 net.cpp:137] Memory required for data: 5569280
I0509 15:17:20.285281  7019 layer_factory.hpp:77] Creating layer ip2
I0509 15:17:20.285290  7019 net.cpp:84] Creating Layer ip2
I0509 15:17:20.285295  7019 net.cpp:406] ip2 <- ip1
I0509 15:17:20.285301  7019 net.cpp:380] ip2 -> ip2
I0509 15:17:20.285630  7019 net.cpp:122] Setting up ip2
I0509 15:17:20.285639  7019 net.cpp:129] Top shape: 64 52 (3328)
I0509 15:17:20.285641  7019 net.cpp:137] Memory required for data: 5582592
I0509 15:17:20.285648  7019 layer_factory.hpp:77] Creating layer ip2_ip2_0_split
I0509 15:17:20.285655  7019 net.cpp:84] Creating Layer ip2_ip2_0_split
I0509 15:17:20.285660  7019 net.cpp:406] ip2_ip2_0_split <- ip2
I0509 15:17:20.285666  7019 net.cpp:380] ip2_ip2_0_split -> ip2_ip2_0_split_0
I0509 15:17:20.285675  7019 net.cpp:380] ip2_ip2_0_split -> ip2_ip2_0_split_1
I0509 15:17:20.285706  7019 net.cpp:122] Setting up ip2_ip2_0_split
I0509 15:17:20.285713  7019 net.cpp:129] Top shape: 64 52 (3328)
I0509 15:17:20.285719  7019 net.cpp:129] Top shape: 64 52 (3328)
I0509 15:17:20.285722  7019 net.cpp:137] Memory required for data: 5609216
I0509 15:17:20.285727  7019 layer_factory.hpp:77] Creating layer accuracy
I0509 15:17:20.285733  7019 net.cpp:84] Creating Layer accuracy
I0509 15:17:20.285738  7019 net.cpp:406] accuracy <- ip2_ip2_0_split_0
I0509 15:17:20.285743  7019 net.cpp:406] accuracy <- label_data_1_split_0
I0509 15:17:20.285749  7019 net.cpp:380] accuracy -> accuracy
…
