…
I0528 12:32:00.998931 13551 net.cpp:294] The NetState phase (0) differed from the phase (1) specified by a rule in layer data
I0528 12:32:00.998980 13551 net.cpp:294] The NetState phase (0) differed from the phase (1) specified by a rule in layer accuracy
I0528 12:32:00.999258 13551 net.cpp:51] Initializing net from parameters: 
name: "LeNet"
state {
  phase: TRAIN
  level: 0
  stage: ""
}
layer {
  name: "data"
  type: "Data"
  top: "data"
  top: "label"
  include {
    phase: TRAIN
  }
  transform_param {
    scale: 0.00390625
  }
  data_param {
    source: "/home/lincy/workflow_structure/USERS/shebna/examples/sp_train_lmdb"
    batch_size: 64
    backend: LMDB
  }
}
layer {
  name: "conv1"
  type: "Convolution"
  bottom: "data"
  top: "conv1"
  param {
    lr_mult: 1
  }
  param {
    lr_mult: 2
  }
  convolution_param {
    num_output: 20
    kernel_size: 5
    stride: 1
    weight_filler {
      type: "xavier"
    }
    bias_filler {
      type: "constant"
    }
  }
}
layer {
  name: "pool1"
  type: "Pooling"
  bottom: "conv1"
  top: "pool1"
  pooling_param {
    pool: MAX
    kernel_size: 2
    stride: 2
  }
}
layer {
  name: "conv2"
  type: "Convolution"
  bottom: "pool1"
  top: "conv2"
  param {
    lr_mult: 1
  }
  param {
    lr_mult: 2
  }
  convolution_param {
    num_output: 50
    kernel_size: 5
    stride: 1
    weight_filler {
      type: "xavier"
    }
    bias_filler {
      type: "constant"
    }
  }
}
layer {
  name: "pool2"
  type: "Pooling"
  bottom: "conv2"
  top: "pool2"
  pooling_param {
    pool: MAX
    kernel_size: 2
    stride: 2
  }
}
layer {
  name: "ip1"
  type: "InnerProduct"
  bottom: "pool2"
  top: "ip1"
  param {
    lr_mult: 1
  }
  param {
    lr_mult: 2
  }
  inner_product_param {
    num_output: 500
    weight_filler {
      type: "xavier"
    }
    bias_filler {
      type: "constant"
    }
  }
}
layer {
  name: "relu1"
  type: "ReLU"
  bottom: "ip1"
  top: "ip1"
}
layer {
  name: "ip2"
  type: "InnerProduct"
  bottom: "ip1"
  top: "ip2"
  param {
    lr_mult: 1
  }
  param {
    lr_mult: 2
  }
  inner_product_param {
    num_output: 52
    weight_filler {
      type: "xavier"
    }
    bias_filler {
      type: "constant"
    }
  }
}
layer {
  name: "loss"
  type: "SoftmaxWithLoss"
  bottom: "ip2"
  bottom: "label"
  top: "loss"
}
I0528 12:32:00.999450 13551 layer_factory.hpp:77] Creating layer data
I0528 12:32:00.999737 13551 db_lmdb.cpp:35] Opened lmdb /home/lincy/workflow_structure/USERS/shebna/examples/sp_train_lmdb
I0528 12:32:00.999809 13551 net.cpp:84] Creating Layer data
I0528 12:32:00.999850 13551 net.cpp:380] data -> data
I0528 12:32:00.999927 13551 net.cpp:380] data -> label
I0528 12:32:01.001724 13551 data_layer.cpp:45] output data size: 64,3,28,28
I0528 12:32:01.011340 13551 net.cpp:122] Setting up data
I0528 12:32:01.011546 13551 net.cpp:129] Top shape: 64 3 28 28 (150528)
I0528 12:32:01.011787 13551 net.cpp:129] Top shape: 64 (64)
I0528 12:32:01.011888 13551 net.cpp:137] Memory required for data: 602368
I0528 12:32:01.011939 13551 layer_factory.hpp:77] Creating layer conv1
I0528 12:32:01.012020 13551 net.cpp:84] Creating Layer conv1
I0528 12:32:01.012147 13551 net.cpp:406] conv1 <- data
I0528 12:32:01.012207 13551 net.cpp:380] conv1 -> conv1
I0528 12:32:01.016175 13551 net.cpp:122] Setting up conv1
I0528 12:32:01.016232 13551 net.cpp:129] Top shape: 64 20 24 24 (737280)
I0528 12:32:01.016304 13551 net.cpp:137] Memory required for data: 3551488
I0528 12:32:01.016371 13551 layer_factory.hpp:77] Creating layer pool1
I0528 12:32:01.016422 13551 net.cpp:84] Creating Layer pool1
I0528 12:32:01.016448 13551 net.cpp:406] pool1 <- conv1
I0528 12:32:01.016476 13551 net.cpp:380] pool1 -> pool1
I0528 12:32:01.016707 13551 net.cpp:122] Setting up pool1
I0528 12:32:01.016738 13551 net.cpp:129] Top shape: 64 20 12 12 (184320)
I0528 12:32:01.016749 13551 net.cpp:137] Memory required for data: 4288768
I0528 12:32:01.016764 13551 layer_factory.hpp:77] Creating layer conv2
I0528 12:32:01.016814 13551 net.cpp:84] Creating Layer conv2
I0528 12:32:01.016839 13551 net.cpp:406] conv2 <- pool1
I0528 12:32:01.016880 13551 net.cpp:380] conv2 -> conv2
I0528 12:32:01.019737 13551 net.cpp:122] Setting up conv2
I0528 12:32:01.019798 13551 net.cpp:129] Top shape: 64 50 8 8 (204800)
I0528 12:32:01.019812 13551 net.cpp:137] Memory required for data: 5107968
I0528 12:32:01.019860 13551 layer_factory.hpp:77] Creating layer pool2
I0528 12:32:01.019966 13551 net.cpp:84] Creating Layer pool2
I0528 12:32:01.019999 13551 net.cpp:406] pool2 <- conv2
I0528 12:32:01.020025 13551 net.cpp:380] pool2 -> pool2
I0528 12:32:01.020170 13551 net.cpp:122] Setting up pool2
I0528 12:32:01.020203 13551 net.cpp:129] Top shape: 64 50 4 4 (51200)
I0528 12:32:01.020215 13551 net.cpp:137] Memory required for data: 5312768
I0528 12:32:01.020231 13551 layer_factory.hpp:77] Creating layer ip1
I0528 12:32:01.020283 13551 net.cpp:84] Creating Layer ip1
I0528 12:32:01.020308 13551 net.cpp:406] ip1 <- pool2
I0528 12:32:01.020341 13551 net.cpp:380] ip1 -> ip1
I0528 12:32:01.028717 13551 net.cpp:122] Setting up ip1
I0528 12:32:01.028754 13551 net.cpp:129] Top shape: 64 500 (32000)
I0528 12:32:01.028761 13551 net.cpp:137] Memory required for data: 5440768
I0528 12:32:01.028796 13551 layer_factory.hpp:77] Creating layer relu1
I0528 12:32:01.028865 13551 net.cpp:84] Creating Layer relu1
I0528 12:32:01.028883 13551 net.cpp:406] relu1 <- ip1
I0528 12:32:01.028908 13551 net.cpp:367] relu1 -> ip1 (in-place)
I0528 12:32:01.028935 13551 net.cpp:122] Setting up relu1
I0528 12:32:01.028951 13551 net.cpp:129] Top shape: 64 500 (32000)
I0528 12:32:01.028990 13551 net.cpp:137] Memory required for data: 5568768
I0528 12:32:01.029006 13551 layer_factory.hpp:77] Creating layer ip2
I0528 12:32:01.029026 13551 net.cpp:84] Creating Layer ip2
I0528 12:32:01.029036 13551 net.cpp:406] ip2 <- ip1
I0528 12:32:01.029060 13551 net.cpp:380] ip2 -> ip2
I0528 12:32:01.029556 13551 net.cpp:122] Setting up ip2
I0528 12:32:01.029574 13551 net.cpp:129] Top shape: 64 52 (3328)
I0528 12:32:01.029582 13551 net.cpp:137] Memory required for data: 5582080
I0528 12:32:01.029598 13551 layer_factory.hpp:77] Creating layer loss
I0528 12:32:01.029621 13551 net.cpp:84] Creating Layer loss
I0528 12:32:01.029636 13551 net.cpp:406] loss <- ip2
I0528 12:32:01.029649 13551 net.cpp:406] loss <- label
I0528 12:32:01.029669 13551 net.cpp:380] loss -> loss
I0528 12:32:01.029703 13551 layer_factory.hpp:77] Creating layer loss
…
I0528 12:32:01.030602 13551 solver.cpp:190] Creating test net (#0) specified by net file: /home/lincy/workflow_structure/USERS/shebna/lenet_train_val.prototxt
I0528 12:32:01.030714 13551 net.cpp:294] The NetState phase (1) differed from the phase (0) specified by a rule in layer data
I0528 12:32:01.030946 13551 net.cpp:51] Initializing net from parameters: 
name: "LeNet"
state {
  phase: TEST
}
layer {
  name: "data"
  type: "Data"
  top: "data"
  top: "label"
  include {
    phase: TEST
  }
  transform_param {
    scale: 0.00390625
  }
  data_param {
    source: "/home/lincy/workflow_structure/USERS/shebna/examples/sp_val_lmdb"
    batch_size: 64
    backend: LMDB
  }
}
layer {
  name: "conv1"
  type: "Convolution"
  bottom: "data"
  top: "conv1"
  param {
    lr_mult: 1
  }
  param {
    lr_mult: 2
  }
  convolution_param {
    num_output: 20
    kernel_size: 5
    stride: 1
    weight_filler {
      type: "xavier"
    }
    bias_filler {
      type: "constant"
    }
  }
}
layer {
  name: "pool1"
  type: "Pooling"
  bottom: "conv1"
  top: "pool1"
  pooling_param {
    pool: MAX
    kernel_size: 2
    stride: 2
  }
}
layer {
  name: "conv2"
  type: "Convolution"
  bottom: "pool1"
  top: "conv2"
  param {
    lr_mult: 1
  }
  param {
    lr_mult: 2
  }
  convolution_param {
    num_output: 50
    kernel_size: 5
    stride: 1
    weight_filler {
      type: "xavier"
    }
    bias_filler {
      type: "constant"
    }
  }
}
layer {
  name: "pool2"
  type: "Pooling"
  bottom: "conv2"
  top: "pool2"
  pooling_param {
    pool: MAX
    kernel_size: 2
    stride: 2
  }
}
layer {
  name: "ip1"
  type: "InnerProduct"
  bottom: "pool2"
  top: "ip1"
  param {
    lr_mult: 1
  }
  param {
    lr_mult: 2
  }
  inner_product_param {
    num_output: 500
    weight_filler {
      type: "xavier"
    }
    bias_filler {
      type: "constant"
    }
  }
}
layer {
  name: "relu1"
  type: "ReLU"
  bottom: "ip1"
  top: "ip1"
}
layer {
  name: "ip2"
  type: "InnerProduct"
  bottom: "ip1"
  top: "ip2"
  param {
    lr_mult: 1
  }
  param {
    lr_mult: 2
  }
  inner_product_param {
    num_output: 52
    weight_filler {
      type: "xavier"
    }
    bias_filler {
      type: "constant"
    }
  }
}
layer {
  name: "accuracy"
  type: "Accuracy"
  bottom: "ip2"
  bottom: "label"
  top: "accuracy"
  include {
    phase: TEST
  }
}
layer {
  name: "loss"
  type: "SoftmaxWithLoss"
  bottom: "ip2"
  bottom: "label"
  top: "loss"
}
I0528 12:32:01.031133 13551 layer_factory.hpp:77] Creating layer data
I0528 12:32:01.031270 13551 db_lmdb.cpp:35] Opened lmdb /home/lincy/workflow_structure/USERS/shebna/examples/sp_val_lmdb
I0528 12:32:01.031298 13551 net.cpp:84] Creating Layer data
I0528 12:32:01.031313 13551 net.cpp:380] data -> data
I0528 12:32:01.031333 13551 net.cpp:380] data -> label
I0528 12:32:01.031530 13551 data_layer.cpp:45] output data size: 64,3,28,28
I0528 12:32:01.037314 13551 net.cpp:122] Setting up data
I0528 12:32:01.037348 13551 net.cpp:129] Top shape: 64 3 28 28 (150528)
I0528 12:32:01.037358 13551 net.cpp:129] Top shape: 64 (64)
I0528 12:32:01.037364 13551 net.cpp:137] Memory required for data: 602368
I0528 12:32:01.037372 13551 layer_factory.hpp:77] Creating layer label_data_1_split
I0528 12:32:01.037391 13551 net.cpp:84] Creating Layer label_data_1_split
I0528 12:32:01.037403 13551 net.cpp:406] label_data_1_split <- label
I0528 12:32:01.037417 13551 net.cpp:380] label_data_1_split -> label_data_1_split_0
I0528 12:32:01.037436 13551 net.cpp:380] label_data_1_split -> label_data_1_split_1
I0528 12:32:01.037530 13551 net.cpp:122] Setting up label_data_1_split
I0528 12:32:01.037544 13551 net.cpp:129] Top shape: 64 (64)
I0528 12:32:01.037549 13551 net.cpp:129] Top shape: 64 (64)
I0528 12:32:01.037552 13551 net.cpp:137] Memory required for data: 602880
I0528 12:32:01.037559 13551 layer_factory.hpp:77] Creating layer conv1
I0528 12:32:01.037581 13551 net.cpp:84] Creating Layer conv1
I0528 12:32:01.037587 13551 net.cpp:406] conv1 <- data
I0528 12:32:01.037613 13551 net.cpp:380] conv1 -> conv1
I0528 12:32:01.037917 13551 net.cpp:122] Setting up conv1
I0528 12:32:01.037931 13551 net.cpp:129] Top shape: 64 20 24 24 (737280)
I0528 12:32:01.037936 13551 net.cpp:137] Memory required for data: 3552000
I0528 12:32:01.037953 13551 layer_factory.hpp:77] Creating layer pool1
I0528 12:32:01.037967 13551 net.cpp:84] Creating Layer pool1
I0528 12:32:01.037974 13551 net.cpp:406] pool1 <- conv1
I0528 12:32:01.037984 13551 net.cpp:380] pool1 -> pool1
I0528 12:32:01.038039 13551 net.cpp:122] Setting up pool1
I0528 12:32:01.038053 13551 net.cpp:129] Top shape: 64 20 12 12 (184320)
I0528 12:32:01.038059 13551 net.cpp:137] Memory required for data: 4289280
I0528 12:32:01.038066 13551 layer_factory.hpp:77] Creating layer conv2
I0528 12:32:01.038079 13551 net.cpp:84] Creating Layer conv2
I0528 12:32:01.038084 13551 net.cpp:406] conv2 <- pool1
I0528 12:32:01.038098 13551 net.cpp:380] conv2 -> conv2
I0528 12:32:01.038884 13551 net.cpp:122] Setting up conv2
I0528 12:32:01.038897 13551 net.cpp:129] Top shape: 64 50 8 8 (204800)
I0528 12:32:01.038902 13551 net.cpp:137] Memory required for data: 5108480
I0528 12:32:01.038915 13551 layer_factory.hpp:77] Creating layer pool2
I0528 12:32:01.038933 13551 net.cpp:84] Creating Layer pool2
I0528 12:32:01.038938 13551 net.cpp:406] pool2 <- conv2
I0528 12:32:01.038945 13551 net.cpp:380] pool2 -> pool2
I0528 12:32:01.039000 13551 net.cpp:122] Setting up pool2
I0528 12:32:01.039010 13551 net.cpp:129] Top shape: 64 50 4 4 (51200)
I0528 12:32:01.039014 13551 net.cpp:137] Memory required for data: 5313280
I0528 12:32:01.039018 13551 layer_factory.hpp:77] Creating layer ip1
I0528 12:32:01.039041 13551 net.cpp:84] Creating Layer ip1
I0528 12:32:01.039048 13551 net.cpp:406] ip1 <- pool2
I0528 12:32:01.039064 13551 net.cpp:380] ip1 -> ip1
I0528 12:32:01.042387 13551 net.cpp:122] Setting up ip1
I0528 12:32:01.042409 13551 net.cpp:129] Top shape: 64 500 (32000)
I0528 12:32:01.042412 13551 net.cpp:137] Memory required for data: 5441280
I0528 12:32:01.042428 13551 layer_factory.hpp:77] Creating layer relu1
I0528 12:32:01.042439 13551 net.cpp:84] Creating Layer relu1
I0528 12:32:01.042444 13551 net.cpp:406] relu1 <- ip1
I0528 12:32:01.042457 13551 net.cpp:367] relu1 -> ip1 (in-place)
I0528 12:32:01.042469 13551 net.cpp:122] Setting up relu1
I0528 12:32:01.042475 13551 net.cpp:129] Top shape: 64 500 (32000)
I0528 12:32:01.042480 13551 net.cpp:137] Memory required for data: 5569280
I0528 12:32:01.042487 13551 layer_factory.hpp:77] Creating layer ip2
I0528 12:32:01.042500 13551 net.cpp:84] Creating Layer ip2
I0528 12:32:01.042505 13551 net.cpp:406] ip2 <- ip1
I0528 12:32:01.042510 13551 net.cpp:380] ip2 -> ip2
I0528 12:32:01.042821 13551 net.cpp:122] Setting up ip2
I0528 12:32:01.042831 13551 net.cpp:129] Top shape: 64 52 (3328)
I0528 12:32:01.042834 13551 net.cpp:137] Memory required for data: 5582592
I0528 12:32:01.042843 13551 layer_factory.hpp:77] Creating layer ip2_ip2_0_split
I0528 12:32:01.042852 13551 net.cpp:84] Creating Layer ip2_ip2_0_split
I0528 12:32:01.042857 13551 net.cpp:406] ip2_ip2_0_split <- ip2
I0528 12:32:01.042868 13551 net.cpp:380] ip2_ip2_0_split -> ip2_ip2_0_split_0
I0528 12:32:01.042881 13551 net.cpp:380] ip2_ip2_0_split -> ip2_ip2_0_split_1
I0528 12:32:01.042925 13551 net.cpp:122] Setting up ip2_ip2_0_split
I0528 12:32:01.042937 13551 net.cpp:129] Top shape: 64 52 (3328)
I0528 12:32:01.042943 13551 net.cpp:129] Top shape: 64 52 (3328)
I0528 12:32:01.042948 13551 net.cpp:137] Memory required for data: 5609216
I0528 12:32:01.042953 13551 layer_factory.hpp:77] Creating layer accuracy
I0528 12:32:01.042963 13551 net.cpp:84] Creating Layer accuracy
I0528 12:32:01.042968 13551 net.cpp:406] accuracy <- ip2_ip2_0_split_0
I0528 12:32:01.042975 13551 net.cpp:406] accuracy <- label_data_1_split_0
I0528 12:32:01.042987 13551 net.cpp:380] accuracy -> accuracy
…
