…
I0503 09:17:06.064291  8043 net.cpp:294] The NetState phase (0) differed from the phase (1) specified by a rule in layer data
I0503 09:17:06.064312  8043 net.cpp:294] The NetState phase (0) differed from the phase (1) specified by a rule in layer accuracy
I0503 09:17:06.064412  8043 net.cpp:51] Initializing net from parameters: 
name: "LeNet"
state {
  phase: TRAIN
  level: 0
  stage: ""
}
layer {
  name: "data"
  type: "Data"
  top: "data"
  top: "label"
  include {
    phase: TRAIN
  }
  transform_param {
    scale: 0.00390625
  }
  data_param {
    source: "examples/final_sp/sp_train_lmdb"
    batch_size: 64
    backend: LMDB
  }
}
layer {
  name: "conv1"
  type: "Convolution"
  bottom: "data"
  top: "conv1"
  param {
    lr_mult: 1
  }
  param {
    lr_mult: 2
  }
  convolution_param {
    num_output: 20
    kernel_size: 5
    stride: 1
    weight_filler {
      type: "xavier"
    }
    bias_filler {
      type: "constant"
    }
  }
}
layer {
  name: "pool1"
  type: "Pooling"
  bottom: "conv1"
  top: "pool1"
  pooling_param {
    pool: MAX
    kernel_size: 2
    stride: 2
  }
}
layer {
  name: "conv2"
  type: "Convolution"
  bottom: "pool1"
  top: "conv2"
  param {
    lr_mult: 1
  }
  param {
    lr_mult: 2
  }
  convolution_param {
    num_output: 50
    kernel_size: 5
    stride: 1
    weight_filler {
      type: "xavier"
    }
    bias_filler {
      type: "constant"
    }
  }
}
layer {
  name: "pool2"
  type: "Pooling"
  bottom: "conv2"
  top: "pool2"
  pooling_param {
    pool: MAX
    kernel_size: 2
    stride: 2
  }
}
layer {
  name: "ip1"
  type: "InnerProduct"
  bottom: "pool2"
  top: "ip1"
  param {
    lr_mult: 1
  }
  param {
    lr_mult: 2
  }
  inner_product_param {
    num_output: 500
    weight_filler {
      type: "xavier"
    }
    bias_filler {
      type: "constant"
    }
  }
}
layer {
  name: "relu1"
  type: "ReLU"
  bottom: "ip1"
  top: "ip1"
}
layer {
  name: "ip2"
  type: "InnerProduct"
  bottom: "ip1"
  top: "ip2"
  param {
    lr_mult: 1
  }
  param {
    lr_mult: 2
  }
  inner_product_param {
    num_output: 52
    weight_filler {
      type: "xavier"
    }
    bias_filler {
      type: "constant"
    }
  }
}
layer {
  name: "loss"
  type: "SoftmaxWithLoss"
  bottom: "ip2"
  bottom: "label"
  top: "loss"
}
I0503 09:17:06.064491  8043 layer_factory.hpp:77] Creating layer data
I0503 09:17:06.064600  8043 db_lmdb.cpp:35] Opened lmdb examples/final_sp/sp_train_lmdb
I0503 09:17:06.064631  8043 net.cpp:84] Creating Layer data
I0503 09:17:06.064644  8043 net.cpp:380] data -> data
I0503 09:17:06.064677  8043 net.cpp:380] data -> label
I0503 09:17:06.065369  8043 data_layer.cpp:45] output data size: 64,3,28,28
I0503 09:17:06.069820  8043 net.cpp:122] Setting up data
I0503 09:17:06.069852  8043 net.cpp:129] Top shape: 64 3 28 28 (150528)
I0503 09:17:06.069860  8043 net.cpp:129] Top shape: 64 (64)
I0503 09:17:06.069865  8043 net.cpp:137] Memory required for data: 602368
I0503 09:17:06.069876  8043 layer_factory.hpp:77] Creating layer conv1
I0503 09:17:06.069936  8043 net.cpp:84] Creating Layer conv1
I0503 09:17:06.069947  8043 net.cpp:406] conv1 <- data
I0503 09:17:06.069967  8043 net.cpp:380] conv1 -> conv1
I0503 09:17:06.071343  8043 net.cpp:122] Setting up conv1
I0503 09:17:06.071372  8043 net.cpp:129] Top shape: 64 20 24 24 (737280)
I0503 09:17:06.071375  8043 net.cpp:137] Memory required for data: 3551488
I0503 09:17:06.071400  8043 layer_factory.hpp:77] Creating layer pool1
I0503 09:17:06.071436  8043 net.cpp:84] Creating Layer pool1
I0503 09:17:06.071442  8043 net.cpp:406] pool1 <- conv1
I0503 09:17:06.071449  8043 net.cpp:380] pool1 -> pool1
I0503 09:17:06.071799  8043 net.cpp:122] Setting up pool1
I0503 09:17:06.071810  8043 net.cpp:129] Top shape: 64 20 12 12 (184320)
I0503 09:17:06.071812  8043 net.cpp:137] Memory required for data: 4288768
I0503 09:17:06.071818  8043 layer_factory.hpp:77] Creating layer conv2
I0503 09:17:06.071833  8043 net.cpp:84] Creating Layer conv2
I0503 09:17:06.071841  8043 net.cpp:406] conv2 <- pool1
I0503 09:17:06.071861  8043 net.cpp:380] conv2 -> conv2
I0503 09:17:06.072695  8043 net.cpp:122] Setting up conv2
I0503 09:17:06.072708  8043 net.cpp:129] Top shape: 64 50 8 8 (204800)
I0503 09:17:06.072715  8043 net.cpp:137] Memory required for data: 5107968
I0503 09:17:06.072727  8043 layer_factory.hpp:77] Creating layer pool2
I0503 09:17:06.072754  8043 net.cpp:84] Creating Layer pool2
I0503 09:17:06.072762  8043 net.cpp:406] pool2 <- conv2
I0503 09:17:06.072770  8043 net.cpp:380] pool2 -> pool2
I0503 09:17:06.072810  8043 net.cpp:122] Setting up pool2
I0503 09:17:06.072820  8043 net.cpp:129] Top shape: 64 50 4 4 (51200)
I0503 09:17:06.072825  8043 net.cpp:137] Memory required for data: 5312768
I0503 09:17:06.072830  8043 layer_factory.hpp:77] Creating layer ip1
I0503 09:17:06.072841  8043 net.cpp:84] Creating Layer ip1
I0503 09:17:06.072849  8043 net.cpp:406] ip1 <- pool2
I0503 09:17:06.072856  8043 net.cpp:380] ip1 -> ip1
I0503 09:17:06.081429  8043 net.cpp:122] Setting up ip1
I0503 09:17:06.081454  8043 net.cpp:129] Top shape: 64 500 (32000)
I0503 09:17:06.081459  8043 net.cpp:137] Memory required for data: 5440768
I0503 09:17:06.081483  8043 layer_factory.hpp:77] Creating layer relu1
I0503 09:17:06.081498  8043 net.cpp:84] Creating Layer relu1
I0503 09:17:06.081511  8043 net.cpp:406] relu1 <- ip1
I0503 09:17:06.081522  8043 net.cpp:367] relu1 -> ip1 (in-place)
I0503 09:17:06.081537  8043 net.cpp:122] Setting up relu1
I0503 09:17:06.081544  8043 net.cpp:129] Top shape: 64 500 (32000)
I0503 09:17:06.081548  8043 net.cpp:137] Memory required for data: 5568768
I0503 09:17:06.081554  8043 layer_factory.hpp:77] Creating layer ip2
I0503 09:17:06.081564  8043 net.cpp:84] Creating Layer ip2
I0503 09:17:06.081570  8043 net.cpp:406] ip2 <- ip1
I0503 09:17:06.081581  8043 net.cpp:380] ip2 -> ip2
I0503 09:17:06.081846  8043 net.cpp:122] Setting up ip2
I0503 09:17:06.081854  8043 net.cpp:129] Top shape: 64 52 (3328)
I0503 09:17:06.081859  8043 net.cpp:137] Memory required for data: 5582080
I0503 09:17:06.081868  8043 layer_factory.hpp:77] Creating layer loss
I0503 09:17:06.081881  8043 net.cpp:84] Creating Layer loss
I0503 09:17:06.081888  8043 net.cpp:406] loss <- ip2
I0503 09:17:06.081894  8043 net.cpp:406] loss <- label
I0503 09:17:06.081904  8043 net.cpp:380] loss -> loss
I0503 09:17:06.081925  8043 layer_factory.hpp:77] Creating layer loss
…
I0503 09:17:06.082370  8043 solver.cpp:190] Creating test net (#0) specified by net file: models/sp_final_lenet/lenet_train_val.prototxt
I0503 09:17:06.082419  8043 net.cpp:294] The NetState phase (1) differed from the phase (0) specified by a rule in layer data
I0503 09:17:06.082510  8043 net.cpp:51] Initializing net from parameters: 
name: "LeNet"
state {
  phase: TEST
}
layer {
  name: "data"
  type: "Data"
  top: "data"
  top: "label"
  include {
    phase: TEST
  }
  transform_param {
    scale: 0.00390625
  }
  data_param {
    source: "examples/final_sp/sp_val_lmdb"
    batch_size: 64
    backend: LMDB
  }
}
layer {
  name: "conv1"
  type: "Convolution"
  bottom: "data"
  top: "conv1"
  param {
    lr_mult: 1
  }
  param {
    lr_mult: 2
  }
  convolution_param {
    num_output: 20
    kernel_size: 5
    stride: 1
    weight_filler {
      type: "xavier"
    }
    bias_filler {
      type: "constant"
    }
  }
}
layer {
  name: "pool1"
  type: "Pooling"
  bottom: "conv1"
  top: "pool1"
  pooling_param {
    pool: MAX
    kernel_size: 2
    stride: 2
  }
}
layer {
  name: "conv2"
  type: "Convolution"
  bottom: "pool1"
  top: "conv2"
  param {
    lr_mult: 1
  }
  param {
    lr_mult: 2
  }
  convolution_param {
    num_output: 50
    kernel_size: 5
    stride: 1
    weight_filler {
      type: "xavier"
    }
    bias_filler {
      type: "constant"
    }
  }
}
layer {
  name: "pool2"
  type: "Pooling"
  bottom: "conv2"
  top: "pool2"
  pooling_param {
    pool: MAX
    kernel_size: 2
    stride: 2
  }
}
layer {
  name: "ip1"
  type: "InnerProduct"
  bottom: "pool2"
  top: "ip1"
  param {
    lr_mult: 1
  }
  param {
    lr_mult: 2
  }
  inner_product_param {
    num_output: 500
    weight_filler {
      type: "xavier"
    }
    bias_filler {
      type: "constant"
    }
  }
}
layer {
  name: "relu1"
  type: "ReLU"
  bottom: "ip1"
  top: "ip1"
}
layer {
  name: "ip2"
  type: "InnerProduct"
  bottom: "ip1"
  top: "ip2"
  param {
    lr_mult: 1
  }
  param {
    lr_mult: 2
  }
  inner_product_param {
    num_output: 52
    weight_filler {
      type: "xavier"
    }
    bias_filler {
      type: "constant"
    }
  }
}
layer {
  name: "accuracy"
  type: "Accuracy"
  bottom: "ip2"
  bottom: "label"
  top: "accuracy"
  include {
    phase: TEST
  }
}
layer {
  name: "loss"
  type: "SoftmaxWithLoss"
  bottom: "ip2"
  bottom: "label"
  top: "loss"
}
I0503 09:17:06.082610  8043 layer_factory.hpp:77] Creating layer data
I0503 09:17:06.082711  8043 db_lmdb.cpp:35] Opened lmdb examples/final_sp/sp_val_lmdb
I0503 09:17:06.082729  8043 net.cpp:84] Creating Layer data
I0503 09:17:06.082739  8043 net.cpp:380] data -> data
I0503 09:17:06.082757  8043 net.cpp:380] data -> label
I0503 09:17:06.082862  8043 data_layer.cpp:45] output data size: 64,3,28,28
I0503 09:17:06.087357  8043 net.cpp:122] Setting up data
I0503 09:17:06.087390  8043 net.cpp:129] Top shape: 64 3 28 28 (150528)
I0503 09:17:06.087399  8043 net.cpp:129] Top shape: 64 (64)
I0503 09:17:06.087404  8043 net.cpp:137] Memory required for data: 602368
I0503 09:17:06.087411  8043 layer_factory.hpp:77] Creating layer label_data_1_split
I0503 09:17:06.087430  8043 net.cpp:84] Creating Layer label_data_1_split
I0503 09:17:06.087438  8043 net.cpp:406] label_data_1_split <- label
I0503 09:17:06.087450  8043 net.cpp:380] label_data_1_split -> label_data_1_split_0
I0503 09:17:06.087481  8043 net.cpp:380] label_data_1_split -> label_data_1_split_1
I0503 09:17:06.087532  8043 net.cpp:122] Setting up label_data_1_split
I0503 09:17:06.087540  8043 net.cpp:129] Top shape: 64 (64)
I0503 09:17:06.087546  8043 net.cpp:129] Top shape: 64 (64)
I0503 09:17:06.087551  8043 net.cpp:137] Memory required for data: 602880
I0503 09:17:06.087556  8043 layer_factory.hpp:77] Creating layer conv1
I0503 09:17:06.087577  8043 net.cpp:84] Creating Layer conv1
I0503 09:17:06.087584  8043 net.cpp:406] conv1 <- data
I0503 09:17:06.087594  8043 net.cpp:380] conv1 -> conv1
I0503 09:17:06.087827  8043 net.cpp:122] Setting up conv1
I0503 09:17:06.087839  8043 net.cpp:129] Top shape: 64 20 24 24 (737280)
I0503 09:17:06.087843  8043 net.cpp:137] Memory required for data: 3552000
I0503 09:17:06.087875  8043 layer_factory.hpp:77] Creating layer pool1
I0503 09:17:06.087887  8043 net.cpp:84] Creating Layer pool1
I0503 09:17:06.087893  8043 net.cpp:406] pool1 <- conv1
I0503 09:17:06.087899  8043 net.cpp:380] pool1 -> pool1
I0503 09:17:06.087954  8043 net.cpp:122] Setting up pool1
I0503 09:17:06.087962  8043 net.cpp:129] Top shape: 64 20 12 12 (184320)
I0503 09:17:06.087966  8043 net.cpp:137] Memory required for data: 4289280
I0503 09:17:06.087971  8043 layer_factory.hpp:77] Creating layer conv2
I0503 09:17:06.087987  8043 net.cpp:84] Creating Layer conv2
I0503 09:17:06.087993  8043 net.cpp:406] conv2 <- pool1
I0503 09:17:06.088003  8043 net.cpp:380] conv2 -> conv2
I0503 09:17:06.088675  8043 net.cpp:122] Setting up conv2
I0503 09:17:06.088687  8043 net.cpp:129] Top shape: 64 50 8 8 (204800)
I0503 09:17:06.088692  8043 net.cpp:137] Memory required for data: 5108480
I0503 09:17:06.088706  8043 layer_factory.hpp:77] Creating layer pool2
I0503 09:17:06.088713  8043 net.cpp:84] Creating Layer pool2
I0503 09:17:06.088719  8043 net.cpp:406] pool2 <- conv2
I0503 09:17:06.088727  8043 net.cpp:380] pool2 -> pool2
I0503 09:17:06.088783  8043 net.cpp:122] Setting up pool2
I0503 09:17:06.088793  8043 net.cpp:129] Top shape: 64 50 4 4 (51200)
I0503 09:17:06.088796  8043 net.cpp:137] Memory required for data: 5313280
I0503 09:17:06.088801  8043 layer_factory.hpp:77] Creating layer ip1
I0503 09:17:06.088814  8043 net.cpp:84] Creating Layer ip1
I0503 09:17:06.088819  8043 net.cpp:406] ip1 <- pool2
I0503 09:17:06.088824  8043 net.cpp:380] ip1 -> ip1
I0503 09:17:06.096794  8043 net.cpp:122] Setting up ip1
I0503 09:17:06.096822  8043 net.cpp:129] Top shape: 64 500 (32000)
I0503 09:17:06.096827  8043 net.cpp:137] Memory required for data: 5441280
I0503 09:17:06.096848  8043 layer_factory.hpp:77] Creating layer relu1
I0503 09:17:06.096860  8043 net.cpp:84] Creating Layer relu1
I0503 09:17:06.096866  8043 net.cpp:406] relu1 <- ip1
I0503 09:17:06.096875  8043 net.cpp:367] relu1 -> ip1 (in-place)
I0503 09:17:06.096887  8043 net.cpp:122] Setting up relu1
I0503 09:17:06.096894  8043 net.cpp:129] Top shape: 64 500 (32000)
I0503 09:17:06.096899  8043 net.cpp:137] Memory required for data: 5569280
I0503 09:17:06.096904  8043 layer_factory.hpp:77] Creating layer ip2
I0503 09:17:06.096921  8043 net.cpp:84] Creating Layer ip2
I0503 09:17:06.096928  8043 net.cpp:406] ip2 <- ip1
I0503 09:17:06.096937  8043 net.cpp:380] ip2 -> ip2
I0503 09:17:06.097198  8043 net.cpp:122] Setting up ip2
I0503 09:17:06.097208  8043 net.cpp:129] Top shape: 64 52 (3328)
I0503 09:17:06.097210  8043 net.cpp:137] Memory required for data: 5582592
I0503 09:17:06.097219  8043 layer_factory.hpp:77] Creating layer ip2_ip2_0_split
I0503 09:17:06.097230  8043 net.cpp:84] Creating Layer ip2_ip2_0_split
I0503 09:17:06.097239  8043 net.cpp:406] ip2_ip2_0_split <- ip2
I0503 09:17:06.097249  8043 net.cpp:380] ip2_ip2_0_split -> ip2_ip2_0_split_0
I0503 09:17:06.097262  8043 net.cpp:380] ip2_ip2_0_split -> ip2_ip2_0_split_1
I0503 09:17:06.097311  8043 net.cpp:122] Setting up ip2_ip2_0_split
I0503 09:17:06.097318  8043 net.cpp:129] Top shape: 64 52 (3328)
I0503 09:17:06.097322  8043 net.cpp:129] Top shape: 64 52 (3328)
I0503 09:17:06.097327  8043 net.cpp:137] Memory required for data: 5609216
I0503 09:17:06.097332  8043 layer_factory.hpp:77] Creating layer accuracy
I0503 09:17:06.097343  8043 net.cpp:84] Creating Layer accuracy
I0503 09:17:06.097349  8043 net.cpp:406] accuracy <- ip2_ip2_0_split_0
I0503 09:17:06.097355  8043 net.cpp:406] accuracy <- label_data_1_split_0
I0503 09:17:06.097364  8043 net.cpp:380] accuracy -> accuracy
…
