…
I0503 09:46:24.671057  9142 net.cpp:294] The NetState phase (0) differed from the phase (1) specified by a rule in layer data
I0503 09:46:24.671070  9142 net.cpp:294] The NetState phase (0) differed from the phase (1) specified by a rule in layer accuracy
I0503 09:46:24.671161  9142 net.cpp:51] Initializing net from parameters: 
name: "LeNet"
state {
  phase: TRAIN
  level: 0
  stage: ""
}
layer {
  name: "data"
  type: "Data"
  top: "data"
  top: "label"
  include {
    phase: TRAIN
  }
  transform_param {
    scale: 0.00390625
  }
  data_param {
    source: "examples/final_sp/sp_train_lmdb"
    batch_size: 64
    backend: LMDB
  }
}
layer {
  name: "conv1"
  type: "Convolution"
  bottom: "data"
  top: "conv1"
  param {
    lr_mult: 1
  }
  param {
    lr_mult: 2
  }
  convolution_param {
    num_output: 20
    kernel_size: 5
    stride: 1
    weight_filler {
      type: "xavier"
    }
    bias_filler {
      type: "constant"
    }
  }
}
layer {
  name: "pool1"
  type: "Pooling"
  bottom: "conv1"
  top: "pool1"
  pooling_param {
    pool: MAX
    kernel_size: 2
    stride: 2
  }
}
layer {
  name: "conv2"
  type: "Convolution"
  bottom: "pool1"
  top: "conv2"
  param {
    lr_mult: 1
  }
  param {
    lr_mult: 2
  }
  convolution_param {
    num_output: 50
    kernel_size: 5
    stride: 1
    weight_filler {
      type: "xavier"
    }
    bias_filler {
      type: "constant"
    }
  }
}
layer {
  name: "pool2"
  type: "Pooling"
  bottom: "conv2"
  top: "pool2"
  pooling_param {
    pool: MAX
    kernel_size: 2
    stride: 2
  }
}
layer {
  name: "ip1"
  type: "InnerProduct"
  bottom: "pool2"
  top: "ip1"
  param {
    lr_mult: 1
  }
  param {
    lr_mult: 2
  }
  inner_product_param {
    num_output: 500
    weight_filler {
      type: "xavier"
    }
    bias_filler {
      type: "constant"
    }
  }
}
layer {
  name: "relu1"
  type: "ReLU"
  bottom: "ip1"
  top: "ip1"
}
layer {
  name: "ip2"
  type: "InnerProduct"
  bottom: "ip1"
  top: "ip2"
  param {
    lr_mult: 1
  }
  param {
    lr_mult: 2
  }
  inner_product_param {
    num_output: 52
    weight_filler {
      type: "xavier"
    }
    bias_filler {
      type: "constant"
    }
  }
}
layer {
  name: "loss"
  type: "SoftmaxWithLoss"
  bottom: "ip2"
  bottom: "label"
  top: "loss"
}
I0503 09:46:24.671218  9142 layer_factory.hpp:77] Creating layer data
I0503 09:46:24.671329  9142 db_lmdb.cpp:35] Opened lmdb examples/final_sp/sp_train_lmdb
I0503 09:46:24.671352  9142 net.cpp:84] Creating Layer data
I0503 09:46:24.671360  9142 net.cpp:380] data -> data
I0503 09:46:24.671381  9142 net.cpp:380] data -> label
I0503 09:46:24.672029  9142 data_layer.cpp:45] output data size: 64,3,28,28
I0503 09:46:24.676443  9142 net.cpp:122] Setting up data
I0503 09:46:24.676468  9142 net.cpp:129] Top shape: 64 3 28 28 (150528)
I0503 09:46:24.676475  9142 net.cpp:129] Top shape: 64 (64)
I0503 09:46:24.676477  9142 net.cpp:137] Memory required for data: 602368
I0503 09:46:24.676489  9142 layer_factory.hpp:77] Creating layer conv1
I0503 09:46:24.676518  9142 net.cpp:84] Creating Layer conv1
I0503 09:46:24.676550  9142 net.cpp:406] conv1 <- data
I0503 09:46:24.676584  9142 net.cpp:380] conv1 -> conv1
I0503 09:46:24.677970  9142 net.cpp:122] Setting up conv1
I0503 09:46:24.677989  9142 net.cpp:129] Top shape: 64 20 24 24 (737280)
I0503 09:46:24.677995  9142 net.cpp:137] Memory required for data: 3551488
I0503 09:46:24.678021  9142 layer_factory.hpp:77] Creating layer pool1
I0503 09:46:24.678058  9142 net.cpp:84] Creating Layer pool1
I0503 09:46:24.678066  9142 net.cpp:406] pool1 <- conv1
I0503 09:46:24.678076  9142 net.cpp:380] pool1 -> pool1
I0503 09:46:24.678364  9142 net.cpp:122] Setting up pool1
I0503 09:46:24.678375  9142 net.cpp:129] Top shape: 64 20 12 12 (184320)
I0503 09:46:24.678381  9142 net.cpp:137] Memory required for data: 4288768
I0503 09:46:24.678388  9142 layer_factory.hpp:77] Creating layer conv2
I0503 09:46:24.678402  9142 net.cpp:84] Creating Layer conv2
I0503 09:46:24.678411  9142 net.cpp:406] conv2 <- pool1
I0503 09:46:24.678421  9142 net.cpp:380] conv2 -> conv2
I0503 09:46:24.679302  9142 net.cpp:122] Setting up conv2
I0503 09:46:24.679318  9142 net.cpp:129] Top shape: 64 50 8 8 (204800)
I0503 09:46:24.679324  9142 net.cpp:137] Memory required for data: 5107968
I0503 09:46:24.679338  9142 layer_factory.hpp:77] Creating layer pool2
I0503 09:46:24.679350  9142 net.cpp:84] Creating Layer pool2
I0503 09:46:24.679358  9142 net.cpp:406] pool2 <- conv2
I0503 09:46:24.679366  9142 net.cpp:380] pool2 -> pool2
I0503 09:46:24.679407  9142 net.cpp:122] Setting up pool2
I0503 09:46:24.679417  9142 net.cpp:129] Top shape: 64 50 4 4 (51200)
I0503 09:46:24.679422  9142 net.cpp:137] Memory required for data: 5312768
I0503 09:46:24.679427  9142 layer_factory.hpp:77] Creating layer ip1
I0503 09:46:24.679437  9142 net.cpp:84] Creating Layer ip1
I0503 09:46:24.679443  9142 net.cpp:406] ip1 <- pool2
I0503 09:46:24.679456  9142 net.cpp:380] ip1 -> ip1
I0503 09:46:24.682992  9142 net.cpp:122] Setting up ip1
I0503 09:46:24.683013  9142 net.cpp:129] Top shape: 64 500 (32000)
I0503 09:46:24.683020  9142 net.cpp:137] Memory required for data: 5440768
I0503 09:46:24.683044  9142 layer_factory.hpp:77] Creating layer relu1
I0503 09:46:24.683081  9142 net.cpp:84] Creating Layer relu1
I0503 09:46:24.683109  9142 net.cpp:406] relu1 <- ip1
I0503 09:46:24.683123  9142 net.cpp:367] relu1 -> ip1 (in-place)
I0503 09:46:24.683138  9142 net.cpp:122] Setting up relu1
I0503 09:46:24.683147  9142 net.cpp:129] Top shape: 64 500 (32000)
I0503 09:46:24.683156  9142 net.cpp:137] Memory required for data: 5568768
I0503 09:46:24.683166  9142 layer_factory.hpp:77] Creating layer ip2
I0503 09:46:24.683193  9142 net.cpp:84] Creating Layer ip2
I0503 09:46:24.683200  9142 net.cpp:406] ip2 <- ip1
I0503 09:46:24.683210  9142 net.cpp:380] ip2 -> ip2
I0503 09:46:24.683526  9142 net.cpp:122] Setting up ip2
I0503 09:46:24.683629  9142 net.cpp:129] Top shape: 64 52 (3328)
I0503 09:46:24.683703  9142 net.cpp:137] Memory required for data: 5582080
I0503 09:46:24.683780  9142 layer_factory.hpp:77] Creating layer loss
I0503 09:46:24.683797  9142 net.cpp:84] Creating Layer loss
I0503 09:46:24.683804  9142 net.cpp:406] loss <- ip2
I0503 09:46:24.683828  9142 net.cpp:406] loss <- label
I0503 09:46:24.683858  9142 net.cpp:380] loss -> loss
I0503 09:46:24.683882  9142 layer_factory.hpp:77] Creating layer loss
…
I0503 09:46:24.684370  9142 solver.cpp:190] Creating test net (#0) specified by net file: models/sp_final_lenet/lenet_train_val.prototxt
I0503 09:46:24.684417  9142 net.cpp:294] The NetState phase (1) differed from the phase (0) specified by a rule in layer data
I0503 09:46:24.684509  9142 net.cpp:51] Initializing net from parameters: 
name: "LeNet"
state {
  phase: TEST
}
layer {
  name: "data"
  type: "Data"
  top: "data"
  top: "label"
  include {
    phase: TEST
  }
  transform_param {
    scale: 0.00390625
  }
  data_param {
    source: "examples/final_sp/sp_val_lmdb"
    batch_size: 64
    backend: LMDB
  }
}
layer {
  name: "conv1"
  type: "Convolution"
  bottom: "data"
  top: "conv1"
  param {
    lr_mult: 1
  }
  param {
    lr_mult: 2
  }
  convolution_param {
    num_output: 20
    kernel_size: 5
    stride: 1
    weight_filler {
      type: "xavier"
    }
    bias_filler {
      type: "constant"
    }
  }
}
layer {
  name: "pool1"
  type: "Pooling"
  bottom: "conv1"
  top: "pool1"
  pooling_param {
    pool: MAX
    kernel_size: 2
    stride: 2
  }
}
layer {
  name: "conv2"
  type: "Convolution"
  bottom: "pool1"
  top: "conv2"
  param {
    lr_mult: 1
  }
  param {
    lr_mult: 2
  }
  convolution_param {
    num_output: 50
    kernel_size: 5
    stride: 1
    weight_filler {
      type: "xavier"
    }
    bias_filler {
      type: "constant"
    }
  }
}
layer {
  name: "pool2"
  type: "Pooling"
  bottom: "conv2"
  top: "pool2"
  pooling_param {
    pool: MAX
    kernel_size: 2
    stride: 2
  }
}
layer {
  name: "ip1"
  type: "InnerProduct"
  bottom: "pool2"
  top: "ip1"
  param {
    lr_mult: 1
  }
  param {
    lr_mult: 2
  }
  inner_product_param {
    num_output: 500
    weight_filler {
      type: "xavier"
    }
    bias_filler {
      type: "constant"
    }
  }
}
layer {
  name: "relu1"
  type: "ReLU"
  bottom: "ip1"
  top: "ip1"
}
layer {
  name: "ip2"
  type: "InnerProduct"
  bottom: "ip1"
  top: "ip2"
  param {
    lr_mult: 1
  }
  param {
    lr_mult: 2
  }
  inner_product_param {
    num_output: 52
    weight_filler {
      type: "xavier"
    }
    bias_filler {
      type: "constant"
    }
  }
}
layer {
  name: "accuracy"
  type: "Accuracy"
  bottom: "ip2"
  bottom: "label"
  top: "accuracy"
  include {
    phase: TEST
  }
}
layer {
  name: "loss"
  type: "SoftmaxWithLoss"
  bottom: "ip2"
  bottom: "label"
  top: "loss"
}
I0503 09:46:24.684592  9142 layer_factory.hpp:77] Creating layer data
I0503 09:46:24.684655  9142 db_lmdb.cpp:35] Opened lmdb examples/final_sp/sp_val_lmdb
I0503 09:46:24.684674  9142 net.cpp:84] Creating Layer data
I0503 09:46:24.684684  9142 net.cpp:380] data -> data
I0503 09:46:24.684696  9142 net.cpp:380] data -> label
I0503 09:46:24.684787  9142 data_layer.cpp:45] output data size: 64,3,28,28
I0503 09:46:24.694615  9142 net.cpp:122] Setting up data
I0503 09:46:24.694643  9142 net.cpp:129] Top shape: 64 3 28 28 (150528)
I0503 09:46:24.694651  9142 net.cpp:129] Top shape: 64 (64)
I0503 09:46:24.694656  9142 net.cpp:137] Memory required for data: 602368
I0503 09:46:24.694665  9142 layer_factory.hpp:77] Creating layer label_data_1_split
I0503 09:46:24.694684  9142 net.cpp:84] Creating Layer label_data_1_split
I0503 09:46:24.694691  9142 net.cpp:406] label_data_1_split <- label
I0503 09:46:24.694702  9142 net.cpp:380] label_data_1_split -> label_data_1_split_0
I0503 09:46:24.694720  9142 net.cpp:380] label_data_1_split -> label_data_1_split_1
I0503 09:46:24.694846  9142 net.cpp:122] Setting up label_data_1_split
I0503 09:46:24.694856  9142 net.cpp:129] Top shape: 64 (64)
I0503 09:46:24.694861  9142 net.cpp:129] Top shape: 64 (64)
I0503 09:46:24.694865  9142 net.cpp:137] Memory required for data: 602880
I0503 09:46:24.694870  9142 layer_factory.hpp:77] Creating layer conv1
I0503 09:46:24.694886  9142 net.cpp:84] Creating Layer conv1
I0503 09:46:24.694892  9142 net.cpp:406] conv1 <- data
I0503 09:46:24.694902  9142 net.cpp:380] conv1 -> conv1
I0503 09:46:24.695138  9142 net.cpp:122] Setting up conv1
I0503 09:46:24.695148  9142 net.cpp:129] Top shape: 64 20 24 24 (737280)
I0503 09:46:24.695152  9142 net.cpp:137] Memory required for data: 3552000
I0503 09:46:24.695186  9142 layer_factory.hpp:77] Creating layer pool1
I0503 09:46:24.695197  9142 net.cpp:84] Creating Layer pool1
I0503 09:46:24.695204  9142 net.cpp:406] pool1 <- conv1
I0503 09:46:24.695212  9142 net.cpp:380] pool1 -> pool1
I0503 09:46:24.695258  9142 net.cpp:122] Setting up pool1
I0503 09:46:24.695266  9142 net.cpp:129] Top shape: 64 20 12 12 (184320)
I0503 09:46:24.695271  9142 net.cpp:137] Memory required for data: 4289280
I0503 09:46:24.695276  9142 layer_factory.hpp:77] Creating layer conv2
I0503 09:46:24.695288  9142 net.cpp:84] Creating Layer conv2
I0503 09:46:24.695294  9142 net.cpp:406] conv2 <- pool1
I0503 09:46:24.695303  9142 net.cpp:380] conv2 -> conv2
I0503 09:46:24.696008  9142 net.cpp:122] Setting up conv2
I0503 09:46:24.696018  9142 net.cpp:129] Top shape: 64 50 8 8 (204800)
I0503 09:46:24.696022  9142 net.cpp:137] Memory required for data: 5108480
I0503 09:46:24.696033  9142 layer_factory.hpp:77] Creating layer pool2
I0503 09:46:24.696040  9142 net.cpp:84] Creating Layer pool2
I0503 09:46:24.696048  9142 net.cpp:406] pool2 <- conv2
I0503 09:46:24.696055  9142 net.cpp:380] pool2 -> pool2
I0503 09:46:24.696101  9142 net.cpp:122] Setting up pool2
I0503 09:46:24.696113  9142 net.cpp:129] Top shape: 64 50 4 4 (51200)
I0503 09:46:24.696117  9142 net.cpp:137] Memory required for data: 5313280
I0503 09:46:24.696122  9142 layer_factory.hpp:77] Creating layer ip1
I0503 09:46:24.696132  9142 net.cpp:84] Creating Layer ip1
I0503 09:46:24.696138  9142 net.cpp:406] ip1 <- pool2
I0503 09:46:24.696146  9142 net.cpp:380] ip1 -> ip1
I0503 09:46:24.700428  9142 net.cpp:122] Setting up ip1
I0503 09:46:24.700453  9142 net.cpp:129] Top shape: 64 500 (32000)
I0503 09:46:24.700459  9142 net.cpp:137] Memory required for data: 5441280
I0503 09:46:24.700476  9142 layer_factory.hpp:77] Creating layer relu1
I0503 09:46:24.700489  9142 net.cpp:84] Creating Layer relu1
I0503 09:46:24.700511  9142 net.cpp:406] relu1 <- ip1
I0503 09:46:24.700522  9142 net.cpp:367] relu1 -> ip1 (in-place)
I0503 09:46:24.700534  9142 net.cpp:122] Setting up relu1
I0503 09:46:24.700542  9142 net.cpp:129] Top shape: 64 500 (32000)
I0503 09:46:24.700547  9142 net.cpp:137] Memory required for data: 5569280
I0503 09:46:24.700552  9142 layer_factory.hpp:77] Creating layer ip2
I0503 09:46:24.700565  9142 net.cpp:84] Creating Layer ip2
I0503 09:46:24.700572  9142 net.cpp:406] ip2 <- ip1
I0503 09:46:24.700580  9142 net.cpp:380] ip2 -> ip2
I0503 09:46:24.701071  9142 net.cpp:122] Setting up ip2
I0503 09:46:24.701081  9142 net.cpp:129] Top shape: 64 52 (3328)
I0503 09:46:24.701088  9142 net.cpp:137] Memory required for data: 5582592
I0503 09:46:24.701098  9142 layer_factory.hpp:77] Creating layer ip2_ip2_0_split
I0503 09:46:24.701109  9142 net.cpp:84] Creating Layer ip2_ip2_0_split
I0503 09:46:24.701126  9142 net.cpp:406] ip2_ip2_0_split <- ip2
I0503 09:46:24.701136  9142 net.cpp:380] ip2_ip2_0_split -> ip2_ip2_0_split_0
I0503 09:46:24.701149  9142 net.cpp:380] ip2_ip2_0_split -> ip2_ip2_0_split_1
I0503 09:46:24.701187  9142 net.cpp:122] Setting up ip2_ip2_0_split
I0503 09:46:24.701196  9142 net.cpp:129] Top shape: 64 52 (3328)
I0503 09:46:24.701202  9142 net.cpp:129] Top shape: 64 52 (3328)
I0503 09:46:24.701216  9142 net.cpp:137] Memory required for data: 5609216
I0503 09:46:24.701222  9142 layer_factory.hpp:77] Creating layer accuracy
I0503 09:46:24.701232  9142 net.cpp:84] Creating Layer accuracy
I0503 09:46:24.701238  9142 net.cpp:406] accuracy <- ip2_ip2_0_split_0
I0503 09:46:24.701246  9142 net.cpp:406] accuracy <- label_data_1_split_0
I0503 09:46:24.701256  9142 net.cpp:380] accuracy -> accuracy
…
