…
I0503 09:29:21.882201  8462 net.cpp:294] The NetState phase (0) differed from the phase (1) specified by a rule in layer data
I0503 09:29:21.882215  8462 net.cpp:294] The NetState phase (0) differed from the phase (1) specified by a rule in layer accuracy
I0503 09:29:21.882310  8462 net.cpp:51] Initializing net from parameters: 
name: "LeNet"
state {
  phase: TRAIN
  level: 0
  stage: ""
}
layer {
  name: "data"
  type: "Data"
  top: "data"
  top: "label"
  include {
    phase: TRAIN
  }
  transform_param {
    scale: 0.00390625
  }
  data_param {
    source: "examples/final_sp/sp_train_lmdb"
    batch_size: 64
    backend: LMDB
  }
}
layer {
  name: "conv1"
  type: "Convolution"
  bottom: "data"
  top: "conv1"
  param {
    lr_mult: 1
  }
  param {
    lr_mult: 2
  }
  convolution_param {
    num_output: 20
    kernel_size: 5
    stride: 1
    weight_filler {
      type: "xavier"
    }
    bias_filler {
      type: "constant"
    }
  }
}
layer {
  name: "pool1"
  type: "Pooling"
  bottom: "conv1"
  top: "pool1"
  pooling_param {
    pool: MAX
    kernel_size: 2
    stride: 2
  }
}
layer {
  name: "conv2"
  type: "Convolution"
  bottom: "pool1"
  top: "conv2"
  param {
    lr_mult: 1
  }
  param {
    lr_mult: 2
  }
  convolution_param {
    num_output: 50
    kernel_size: 5
    stride: 1
    weight_filler {
      type: "xavier"
    }
    bias_filler {
      type: "constant"
    }
  }
}
layer {
  name: "pool2"
  type: "Pooling"
  bottom: "conv2"
  top: "pool2"
  pooling_param {
    pool: MAX
    kernel_size: 2
    stride: 2
  }
}
layer {
  name: "ip1"
  type: "InnerProduct"
  bottom: "pool2"
  top: "ip1"
  param {
    lr_mult: 1
  }
  param {
    lr_mult: 2
  }
  inner_product_param {
    num_output: 500
    weight_filler {
      type: "xavier"
    }
    bias_filler {
      type: "constant"
    }
  }
}
layer {
  name: "relu1"
  type: "ReLU"
  bottom: "ip1"
  top: "ip1"
}
layer {
  name: "ip2"
  type: "InnerProduct"
  bottom: "ip1"
  top: "ip2"
  param {
    lr_mult: 1
  }
  param {
    lr_mult: 2
  }
  inner_product_param {
    num_output: 52
    weight_filler {
      type: "xavier"
    }
    bias_filler {
      type: "constant"
    }
  }
}
layer {
  name: "loss"
  type: "SoftmaxWithLoss"
  bottom: "ip2"
  bottom: "label"
  top: "loss"
}
I0503 09:29:21.882380  8462 layer_factory.hpp:77] Creating layer data
I0503 09:29:21.882489  8462 db_lmdb.cpp:35] Opened lmdb examples/final_sp/sp_train_lmdb
I0503 09:29:21.882514  8462 net.cpp:84] Creating Layer data
I0503 09:29:21.882524  8462 net.cpp:380] data -> data
I0503 09:29:21.882546  8462 net.cpp:380] data -> label
I0503 09:29:21.883180  8462 data_layer.cpp:45] output data size: 64,3,28,28
I0503 09:29:21.887507  8462 net.cpp:122] Setting up data
I0503 09:29:21.887538  8462 net.cpp:129] Top shape: 64 3 28 28 (150528)
I0503 09:29:21.887544  8462 net.cpp:129] Top shape: 64 (64)
I0503 09:29:21.887549  8462 net.cpp:137] Memory required for data: 602368
I0503 09:29:21.887562  8462 layer_factory.hpp:77] Creating layer conv1
I0503 09:29:21.887594  8462 net.cpp:84] Creating Layer conv1
I0503 09:29:21.887603  8462 net.cpp:406] conv1 <- data
I0503 09:29:21.887625  8462 net.cpp:380] conv1 -> conv1
I0503 09:29:21.888788  8462 net.cpp:122] Setting up conv1
I0503 09:29:21.888804  8462 net.cpp:129] Top shape: 64 20 24 24 (737280)
I0503 09:29:21.888808  8462 net.cpp:137] Memory required for data: 3551488
I0503 09:29:21.888830  8462 layer_factory.hpp:77] Creating layer pool1
I0503 09:29:21.888896  8462 net.cpp:84] Creating Layer pool1
I0503 09:29:21.888906  8462 net.cpp:406] pool1 <- conv1
I0503 09:29:21.888916  8462 net.cpp:380] pool1 -> pool1
I0503 09:29:21.888985  8462 net.cpp:122] Setting up pool1
I0503 09:29:21.888998  8462 net.cpp:129] Top shape: 64 20 12 12 (184320)
I0503 09:29:21.889003  8462 net.cpp:137] Memory required for data: 4288768
I0503 09:29:21.889008  8462 layer_factory.hpp:77] Creating layer conv2
I0503 09:29:21.889024  8462 net.cpp:84] Creating Layer conv2
I0503 09:29:21.889030  8462 net.cpp:406] conv2 <- pool1
I0503 09:29:21.889040  8462 net.cpp:380] conv2 -> conv2
I0503 09:29:21.890172  8462 net.cpp:122] Setting up conv2
I0503 09:29:21.890185  8462 net.cpp:129] Top shape: 64 50 8 8 (204800)
I0503 09:29:21.890192  8462 net.cpp:137] Memory required for data: 5107968
I0503 09:29:21.890204  8462 layer_factory.hpp:77] Creating layer pool2
I0503 09:29:21.890220  8462 net.cpp:84] Creating Layer pool2
I0503 09:29:21.890226  8462 net.cpp:406] pool2 <- conv2
I0503 09:29:21.890235  8462 net.cpp:380] pool2 -> pool2
I0503 09:29:21.890292  8462 net.cpp:122] Setting up pool2
I0503 09:29:21.890305  8462 net.cpp:129] Top shape: 64 50 4 4 (51200)
I0503 09:29:21.890310  8462 net.cpp:137] Memory required for data: 5312768
I0503 09:29:21.890314  8462 layer_factory.hpp:77] Creating layer ip1
I0503 09:29:21.890326  8462 net.cpp:84] Creating Layer ip1
I0503 09:29:21.890331  8462 net.cpp:406] ip1 <- pool2
I0503 09:29:21.890342  8462 net.cpp:380] ip1 -> ip1
I0503 09:29:21.894502  8462 net.cpp:122] Setting up ip1
I0503 09:29:21.895948  8462 net.cpp:129] Top shape: 64 500 (32000)
I0503 09:29:21.895958  8462 net.cpp:137] Memory required for data: 5440768
I0503 09:29:21.895974  8462 layer_factory.hpp:77] Creating layer relu1
I0503 09:29:21.895987  8462 net.cpp:84] Creating Layer relu1
I0503 09:29:21.895993  8462 net.cpp:406] relu1 <- ip1
I0503 09:29:21.896005  8462 net.cpp:367] relu1 -> ip1 (in-place)
I0503 09:29:21.896018  8462 net.cpp:122] Setting up relu1
I0503 09:29:21.896024  8462 net.cpp:129] Top shape: 64 500 (32000)
I0503 09:29:21.896028  8462 net.cpp:137] Memory required for data: 5568768
I0503 09:29:21.896033  8462 layer_factory.hpp:77] Creating layer ip2
I0503 09:29:21.896041  8462 net.cpp:84] Creating Layer ip2
I0503 09:29:21.896046  8462 net.cpp:406] ip2 <- ip1
I0503 09:29:21.896054  8462 net.cpp:380] ip2 -> ip2
I0503 09:29:21.896317  8462 net.cpp:122] Setting up ip2
I0503 09:29:21.896327  8462 net.cpp:129] Top shape: 64 52 (3328)
I0503 09:29:21.896332  8462 net.cpp:137] Memory required for data: 5582080
I0503 09:29:21.896340  8462 layer_factory.hpp:77] Creating layer loss
I0503 09:29:21.896353  8462 net.cpp:84] Creating Layer loss
I0503 09:29:21.896358  8462 net.cpp:406] loss <- ip2
I0503 09:29:21.896364  8462 net.cpp:406] loss <- label
I0503 09:29:21.896376  8462 net.cpp:380] loss -> loss
I0503 09:29:21.896395  8462 layer_factory.hpp:77] Creating layer loss
…
I0503 09:29:21.896919  8462 solver.cpp:190] Creating test net (#0) specified by net file: models/sp_final_lenet/lenet_train_val.prototxt
I0503 09:29:21.896965  8462 net.cpp:294] The NetState phase (1) differed from the phase (0) specified by a rule in layer data
I0503 09:29:21.897055  8462 net.cpp:51] Initializing net from parameters: 
name: "LeNet"
state {
  phase: TEST
}
layer {
  name: "data"
  type: "Data"
  top: "data"
  top: "label"
  include {
    phase: TEST
  }
  transform_param {
    scale: 0.00390625
  }
  data_param {
    source: "examples/final_sp/sp_val_lmdb"
    batch_size: 64
    backend: LMDB
  }
}
layer {
  name: "conv1"
  type: "Convolution"
  bottom: "data"
  top: "conv1"
  param {
    lr_mult: 1
  }
  param {
    lr_mult: 2
  }
  convolution_param {
    num_output: 20
    kernel_size: 5
    stride: 1
    weight_filler {
      type: "xavier"
    }
    bias_filler {
      type: "constant"
    }
  }
}
layer {
  name: "pool1"
  type: "Pooling"
  bottom: "conv1"
  top: "pool1"
  pooling_param {
    pool: MAX
    kernel_size: 2
    stride: 2
  }
}
layer {
  name: "conv2"
  type: "Convolution"
  bottom: "pool1"
  top: "conv2"
  param {
    lr_mult: 1
  }
  param {
    lr_mult: 2
  }
  convolution_param {
    num_output: 50
    kernel_size: 5
    stride: 1
    weight_filler {
      type: "xavier"
    }
    bias_filler {
      type: "constant"
    }
  }
}
layer {
  name: "pool2"
  type: "Pooling"
  bottom: "conv2"
  top: "pool2"
  pooling_param {
    pool: MAX
    kernel_size: 2
    stride: 2
  }
}
layer {
  name: "ip1"
  type: "InnerProduct"
  bottom: "pool2"
  top: "ip1"
  param {
    lr_mult: 1
  }
  param {
    lr_mult: 2
  }
  inner_product_param {
    num_output: 500
    weight_filler {
      type: "xavier"
    }
    bias_filler {
      type: "constant"
    }
  }
}
layer {
  name: "relu1"
  type: "ReLU"
  bottom: "ip1"
  top: "ip1"
}
layer {
  name: "ip2"
  type: "InnerProduct"
  bottom: "ip1"
  top: "ip2"
  param {
    lr_mult: 1
  }
  param {
    lr_mult: 2
  }
  inner_product_param {
    num_output: 52
    weight_filler {
      type: "xavier"
    }
    bias_filler {
      type: "constant"
    }
  }
}
layer {
  name: "accuracy"
  type: "Accuracy"
  bottom: "ip2"
  bottom: "label"
  top: "accuracy"
  include {
    phase: TEST
  }
}
layer {
  name: "loss"
  type: "SoftmaxWithLoss"
  bottom: "ip2"
  bottom: "label"
  top: "loss"
}
I0503 09:29:21.897155  8462 layer_factory.hpp:77] Creating layer data
I0503 09:29:21.897225  8462 db_lmdb.cpp:35] Opened lmdb examples/final_sp/sp_val_lmdb
I0503 09:29:21.897243  8462 net.cpp:84] Creating Layer data
I0503 09:29:21.897253  8462 net.cpp:380] data -> data
I0503 09:29:21.897265  8462 net.cpp:380] data -> label
I0503 09:29:21.897385  8462 data_layer.cpp:45] output data size: 64,3,28,28
I0503 09:29:21.902050  8462 net.cpp:122] Setting up data
I0503 09:29:21.902081  8462 net.cpp:129] Top shape: 64 3 28 28 (150528)
I0503 09:29:21.902088  8462 net.cpp:129] Top shape: 64 (64)
I0503 09:29:21.902092  8462 net.cpp:137] Memory required for data: 602368
I0503 09:29:21.902101  8462 layer_factory.hpp:77] Creating layer label_data_1_split
I0503 09:29:21.902120  8462 net.cpp:84] Creating Layer label_data_1_split
I0503 09:29:21.902125  8462 net.cpp:406] label_data_1_split <- label
I0503 09:29:21.902138  8462 net.cpp:380] label_data_1_split -> label_data_1_split_0
I0503 09:29:21.902153  8462 net.cpp:380] label_data_1_split -> label_data_1_split_1
I0503 09:29:21.902230  8462 net.cpp:122] Setting up label_data_1_split
I0503 09:29:21.902240  8462 net.cpp:129] Top shape: 64 (64)
I0503 09:29:21.902276  8462 net.cpp:129] Top shape: 64 (64)
I0503 09:29:21.902281  8462 net.cpp:137] Memory required for data: 602880
I0503 09:29:21.902287  8462 layer_factory.hpp:77] Creating layer conv1
I0503 09:29:21.902305  8462 net.cpp:84] Creating Layer conv1
I0503 09:29:21.902312  8462 net.cpp:406] conv1 <- data
I0503 09:29:21.902323  8462 net.cpp:380] conv1 -> conv1
I0503 09:29:21.902565  8462 net.cpp:122] Setting up conv1
I0503 09:29:21.902575  8462 net.cpp:129] Top shape: 64 20 24 24 (737280)
I0503 09:29:21.902581  8462 net.cpp:137] Memory required for data: 3552000
I0503 09:29:21.902612  8462 layer_factory.hpp:77] Creating layer pool1
I0503 09:29:21.902622  8462 net.cpp:84] Creating Layer pool1
I0503 09:29:21.902628  8462 net.cpp:406] pool1 <- conv1
I0503 09:29:21.902638  8462 net.cpp:380] pool1 -> pool1
I0503 09:29:21.902691  8462 net.cpp:122] Setting up pool1
I0503 09:29:21.902704  8462 net.cpp:129] Top shape: 64 20 12 12 (184320)
I0503 09:29:21.902709  8462 net.cpp:137] Memory required for data: 4289280
I0503 09:29:21.902714  8462 layer_factory.hpp:77] Creating layer conv2
I0503 09:29:21.902730  8462 net.cpp:84] Creating Layer conv2
I0503 09:29:21.902736  8462 net.cpp:406] conv2 <- pool1
I0503 09:29:21.902750  8462 net.cpp:380] conv2 -> conv2
I0503 09:29:21.903604  8462 net.cpp:122] Setting up conv2
I0503 09:29:21.903621  8462 net.cpp:129] Top shape: 64 50 8 8 (204800)
I0503 09:29:21.903628  8462 net.cpp:137] Memory required for data: 5108480
I0503 09:29:21.903642  8462 layer_factory.hpp:77] Creating layer pool2
I0503 09:29:21.903652  8462 net.cpp:84] Creating Layer pool2
I0503 09:29:21.903659  8462 net.cpp:406] pool2 <- conv2
I0503 09:29:21.903671  8462 net.cpp:380] pool2 -> pool2
I0503 09:29:21.903715  8462 net.cpp:122] Setting up pool2
I0503 09:29:21.903728  8462 net.cpp:129] Top shape: 64 50 4 4 (51200)
I0503 09:29:21.903733  8462 net.cpp:137] Memory required for data: 5313280
I0503 09:29:21.903738  8462 layer_factory.hpp:77] Creating layer ip1
I0503 09:29:21.903765  8462 net.cpp:84] Creating Layer ip1
I0503 09:29:21.903774  8462 net.cpp:406] ip1 <- pool2
I0503 09:29:21.903784  8462 net.cpp:380] ip1 -> ip1
I0503 09:29:21.906716  8462 net.cpp:122] Setting up ip1
I0503 09:29:21.906739  8462 net.cpp:129] Top shape: 64 500 (32000)
I0503 09:29:21.906744  8462 net.cpp:137] Memory required for data: 5441280
I0503 09:29:21.906764  8462 layer_factory.hpp:77] Creating layer relu1
I0503 09:29:21.906777  8462 net.cpp:84] Creating Layer relu1
I0503 09:29:21.906783  8462 net.cpp:406] relu1 <- ip1
I0503 09:29:21.906793  8462 net.cpp:367] relu1 -> ip1 (in-place)
I0503 09:29:21.906805  8462 net.cpp:122] Setting up relu1
I0503 09:29:21.906811  8462 net.cpp:129] Top shape: 64 500 (32000)
I0503 09:29:21.906816  8462 net.cpp:137] Memory required for data: 5569280
I0503 09:29:21.906821  8462 layer_factory.hpp:77] Creating layer ip2
I0503 09:29:21.906836  8462 net.cpp:84] Creating Layer ip2
I0503 09:29:21.906842  8462 net.cpp:406] ip2 <- ip1
I0503 09:29:21.906852  8462 net.cpp:380] ip2 -> ip2
I0503 09:29:21.907130  8462 net.cpp:122] Setting up ip2
I0503 09:29:21.907141  8462 net.cpp:129] Top shape: 64 52 (3328)
I0503 09:29:21.907146  8462 net.cpp:137] Memory required for data: 5582592
I0503 09:29:21.907155  8462 layer_factory.hpp:77] Creating layer ip2_ip2_0_split
I0503 09:29:21.907167  8462 net.cpp:84] Creating Layer ip2_ip2_0_split
I0503 09:29:21.907173  8462 net.cpp:406] ip2_ip2_0_split <- ip2
I0503 09:29:21.907182  8462 net.cpp:380] ip2_ip2_0_split -> ip2_ip2_0_split_0
I0503 09:29:21.907192  8462 net.cpp:380] ip2_ip2_0_split -> ip2_ip2_0_split_1
I0503 09:29:21.907240  8462 net.cpp:122] Setting up ip2_ip2_0_split
I0503 09:29:21.907253  8462 net.cpp:129] Top shape: 64 52 (3328)
I0503 09:29:21.907260  8462 net.cpp:129] Top shape: 64 52 (3328)
I0503 09:29:21.907264  8462 net.cpp:137] Memory required for data: 5609216
I0503 09:29:21.907271  8462 layer_factory.hpp:77] Creating layer accuracy
I0503 09:29:21.907281  8462 net.cpp:84] Creating Layer accuracy
I0503 09:29:21.907287  8462 net.cpp:406] accuracy <- ip2_ip2_0_split_0
I0503 09:29:21.907294  8462 net.cpp:406] accuracy <- label_data_1_split_0
I0503 09:29:21.907305  8462 net.cpp:380] accuracy -> accuracy
…
