…
I0503 09:36:28.718305  8823 net.cpp:294] The NetState phase (0) differed from the phase (1) specified by a rule in layer data
I0503 09:36:28.718323  8823 net.cpp:294] The NetState phase (0) differed from the phase (1) specified by a rule in layer accuracy
I0503 09:36:28.718407  8823 net.cpp:51] Initializing net from parameters: 
name: "LeNet"
state {
  phase: TRAIN
  level: 0
  stage: ""
}
layer {
  name: "data"
  type: "Data"
  top: "data"
  top: "label"
  include {
    phase: TRAIN
  }
  transform_param {
    scale: 0.00390625
  }
  data_param {
    source: "examples/final_sp/sp_train_lmdb"
    batch_size: 64
    backend: LMDB
  }
}
layer {
  name: "conv1"
  type: "Convolution"
  bottom: "data"
  top: "conv1"
  param {
    lr_mult: 1
  }
  param {
    lr_mult: 2
  }
  convolution_param {
    num_output: 20
    kernel_size: 5
    stride: 1
    weight_filler {
      type: "xavier"
    }
    bias_filler {
      type: "constant"
    }
  }
}
layer {
  name: "pool1"
  type: "Pooling"
  bottom: "conv1"
  top: "pool1"
  pooling_param {
    pool: MAX
    kernel_size: 2
    stride: 2
  }
}
layer {
  name: "conv2"
  type: "Convolution"
  bottom: "pool1"
  top: "conv2"
  param {
    lr_mult: 1
  }
  param {
    lr_mult: 2
  }
  convolution_param {
    num_output: 50
    kernel_size: 5
    stride: 1
    weight_filler {
      type: "xavier"
    }
    bias_filler {
      type: "constant"
    }
  }
}
layer {
  name: "pool2"
  type: "Pooling"
  bottom: "conv2"
  top: "pool2"
  pooling_param {
    pool: MAX
    kernel_size: 2
    stride: 2
  }
}
layer {
  name: "ip1"
  type: "InnerProduct"
  bottom: "pool2"
  top: "ip1"
  param {
    lr_mult: 1
  }
  param {
    lr_mult: 2
  }
  inner_product_param {
    num_output: 500
    weight_filler {
      type: "xavier"
    }
    bias_filler {
      type: "constant"
    }
  }
}
layer {
  name: "relu1"
  type: "ReLU"
  bottom: "ip1"
  top: "ip1"
}
layer {
  name: "ip2"
  type: "InnerProduct"
  bottom: "ip1"
  top: "ip2"
  param {
    lr_mult: 1
  }
  param {
    lr_mult: 2
  }
  inner_product_param {
    num_output: 52
    weight_filler {
      type: "xavier"
    }
    bias_filler {
      type: "constant"
    }
  }
}
layer {
  name: "loss"
  type: "SoftmaxWithLoss"
  bottom: "ip2"
  bottom: "label"
  top: "loss"
}
I0503 09:36:28.718479  8823 layer_factory.hpp:77] Creating layer data
I0503 09:36:28.718586  8823 db_lmdb.cpp:35] Opened lmdb examples/final_sp/sp_train_lmdb
I0503 09:36:28.718611  8823 net.cpp:84] Creating Layer data
I0503 09:36:28.718621  8823 net.cpp:380] data -> data
I0503 09:36:28.718646  8823 net.cpp:380] data -> label
I0503 09:36:28.719280  8823 data_layer.cpp:45] output data size: 64,3,28,28
I0503 09:36:28.723677  8823 net.cpp:122] Setting up data
I0503 09:36:28.723711  8823 net.cpp:129] Top shape: 64 3 28 28 (150528)
I0503 09:36:28.723719  8823 net.cpp:129] Top shape: 64 (64)
I0503 09:36:28.723724  8823 net.cpp:137] Memory required for data: 602368
I0503 09:36:28.723736  8823 layer_factory.hpp:77] Creating layer conv1
I0503 09:36:28.723767  8823 net.cpp:84] Creating Layer conv1
I0503 09:36:28.723774  8823 net.cpp:406] conv1 <- data
I0503 09:36:28.723793  8823 net.cpp:380] conv1 -> conv1
I0503 09:36:28.725105  8823 net.cpp:122] Setting up conv1
I0503 09:36:28.725121  8823 net.cpp:129] Top shape: 64 20 24 24 (737280)
I0503 09:36:28.725127  8823 net.cpp:137] Memory required for data: 3551488
I0503 09:36:28.725178  8823 layer_factory.hpp:77] Creating layer pool1
I0503 09:36:28.725208  8823 net.cpp:84] Creating Layer pool1
I0503 09:36:28.725217  8823 net.cpp:406] pool1 <- conv1
I0503 09:36:28.725229  8823 net.cpp:380] pool1 -> pool1
I0503 09:36:28.725652  8823 net.cpp:122] Setting up pool1
I0503 09:36:28.725666  8823 net.cpp:129] Top shape: 64 20 12 12 (184320)
I0503 09:36:28.725672  8823 net.cpp:137] Memory required for data: 4288768
I0503 09:36:28.725682  8823 layer_factory.hpp:77] Creating layer conv2
I0503 09:36:28.725694  8823 net.cpp:84] Creating Layer conv2
I0503 09:36:28.725700  8823 net.cpp:406] conv2 <- pool1
I0503 09:36:28.725706  8823 net.cpp:380] conv2 -> conv2
I0503 09:36:28.726548  8823 net.cpp:122] Setting up conv2
I0503 09:36:28.726562  8823 net.cpp:129] Top shape: 64 50 8 8 (204800)
I0503 09:36:28.726568  8823 net.cpp:137] Memory required for data: 5107968
I0503 09:36:28.726581  8823 layer_factory.hpp:77] Creating layer pool2
I0503 09:36:28.726593  8823 net.cpp:84] Creating Layer pool2
I0503 09:36:28.726599  8823 net.cpp:406] pool2 <- conv2
I0503 09:36:28.726610  8823 net.cpp:380] pool2 -> pool2
I0503 09:36:28.726651  8823 net.cpp:122] Setting up pool2
I0503 09:36:28.726660  8823 net.cpp:129] Top shape: 64 50 4 4 (51200)
I0503 09:36:28.726665  8823 net.cpp:137] Memory required for data: 5312768
I0503 09:36:28.726670  8823 layer_factory.hpp:77] Creating layer ip1
I0503 09:36:28.726682  8823 net.cpp:84] Creating Layer ip1
I0503 09:36:28.726689  8823 net.cpp:406] ip1 <- pool2
I0503 09:36:28.726699  8823 net.cpp:380] ip1 -> ip1
I0503 09:36:28.730191  8823 net.cpp:122] Setting up ip1
I0503 09:36:28.730216  8823 net.cpp:129] Top shape: 64 500 (32000)
I0503 09:36:28.730221  8823 net.cpp:137] Memory required for data: 5440768
I0503 09:36:28.730242  8823 layer_factory.hpp:77] Creating layer relu1
I0503 09:36:28.730269  8823 net.cpp:84] Creating Layer relu1
I0503 09:36:28.730273  8823 net.cpp:406] relu1 <- ip1
I0503 09:36:28.730280  8823 net.cpp:367] relu1 -> ip1 (in-place)
I0503 09:36:28.730294  8823 net.cpp:122] Setting up relu1
I0503 09:36:28.730299  8823 net.cpp:129] Top shape: 64 500 (32000)
I0503 09:36:28.730303  8823 net.cpp:137] Memory required for data: 5568768
I0503 09:36:28.730305  8823 layer_factory.hpp:77] Creating layer ip2
I0503 09:36:28.730312  8823 net.cpp:84] Creating Layer ip2
I0503 09:36:28.730317  8823 net.cpp:406] ip2 <- ip1
I0503 09:36:28.730325  8823 net.cpp:380] ip2 -> ip2
I0503 09:36:28.730602  8823 net.cpp:122] Setting up ip2
I0503 09:36:28.730612  8823 net.cpp:129] Top shape: 64 52 (3328)
I0503 09:36:28.730615  8823 net.cpp:137] Memory required for data: 5582080
I0503 09:36:28.730621  8823 layer_factory.hpp:77] Creating layer loss
I0503 09:36:28.730630  8823 net.cpp:84] Creating Layer loss
I0503 09:36:28.730634  8823 net.cpp:406] loss <- ip2
I0503 09:36:28.730638  8823 net.cpp:406] loss <- label
I0503 09:36:28.730648  8823 net.cpp:380] loss -> loss
I0503 09:36:28.730662  8823 layer_factory.hpp:77] Creating layer loss
…
I0503 09:36:28.732404  8823 solver.cpp:190] Creating test net (#0) specified by net file: models/sp_final_lenet/lenet_train_val.prototxt
I0503 09:36:28.732455  8823 net.cpp:294] The NetState phase (1) differed from the phase (0) specified by a rule in layer data
I0503 09:36:28.732559  8823 net.cpp:51] Initializing net from parameters: 
name: "LeNet"
state {
  phase: TEST
}
layer {
  name: "data"
  type: "Data"
  top: "data"
  top: "label"
  include {
    phase: TEST
  }
  transform_param {
    scale: 0.00390625
  }
  data_param {
    source: "examples/final_sp/sp_val_lmdb"
    batch_size: 64
    backend: LMDB
  }
}
layer {
  name: "conv1"
  type: "Convolution"
  bottom: "data"
  top: "conv1"
  param {
    lr_mult: 1
  }
  param {
    lr_mult: 2
  }
  convolution_param {
    num_output: 20
    kernel_size: 5
    stride: 1
    weight_filler {
      type: "xavier"
    }
    bias_filler {
      type: "constant"
    }
  }
}
layer {
  name: "pool1"
  type: "Pooling"
  bottom: "conv1"
  top: "pool1"
  pooling_param {
    pool: MAX
    kernel_size: 2
    stride: 2
  }
}
layer {
  name: "conv2"
  type: "Convolution"
  bottom: "pool1"
  top: "conv2"
  param {
    lr_mult: 1
  }
  param {
    lr_mult: 2
  }
  convolution_param {
    num_output: 50
    kernel_size: 5
    stride: 1
    weight_filler {
      type: "xavier"
    }
    bias_filler {
      type: "constant"
    }
  }
}
layer {
  name: "pool2"
  type: "Pooling"
  bottom: "conv2"
  top: "pool2"
  pooling_param {
    pool: MAX
    kernel_size: 2
    stride: 2
  }
}
layer {
  name: "ip1"
  type: "InnerProduct"
  bottom: "pool2"
  top: "ip1"
  param {
    lr_mult: 1
  }
  param {
    lr_mult: 2
  }
  inner_product_param {
    num_output: 500
    weight_filler {
      type: "xavier"
    }
    bias_filler {
      type: "constant"
    }
  }
}
layer {
  name: "relu1"
  type: "ReLU"
  bottom: "ip1"
  top: "ip1"
}
layer {
  name: "ip2"
  type: "InnerProduct"
  bottom: "ip1"
  top: "ip2"
  param {
    lr_mult: 1
  }
  param {
    lr_mult: 2
  }
  inner_product_param {
    num_output: 52
    weight_filler {
      type: "xavier"
    }
    bias_filler {
      type: "constant"
    }
  }
}
layer {
  name: "accuracy"
  type: "Accuracy"
  bottom: "ip2"
  bottom: "label"
  top: "accuracy"
  include {
    phase: TEST
  }
}
layer {
  name: "loss"
  type: "SoftmaxWithLoss"
  bottom: "ip2"
  bottom: "label"
  top: "loss"
}
I0503 09:36:28.732666  8823 layer_factory.hpp:77] Creating layer data
I0503 09:36:28.732744  8823 db_lmdb.cpp:35] Opened lmdb examples/final_sp/sp_val_lmdb
I0503 09:36:28.732764  8823 net.cpp:84] Creating Layer data
I0503 09:36:28.732771  8823 net.cpp:380] data -> data
I0503 09:36:28.732784  8823 net.cpp:380] data -> label
I0503 09:36:28.732918  8823 data_layer.cpp:45] output data size: 64,3,28,28
I0503 09:36:28.737601  8823 net.cpp:122] Setting up data
I0503 09:36:28.737630  8823 net.cpp:129] Top shape: 64 3 28 28 (150528)
I0503 09:36:28.737635  8823 net.cpp:129] Top shape: 64 (64)
I0503 09:36:28.737639  8823 net.cpp:137] Memory required for data: 602368
I0503 09:36:28.737648  8823 layer_factory.hpp:77] Creating layer label_data_1_split
I0503 09:36:28.737663  8823 net.cpp:84] Creating Layer label_data_1_split
I0503 09:36:28.737668  8823 net.cpp:406] label_data_1_split <- label
I0503 09:36:28.737680  8823 net.cpp:380] label_data_1_split -> label_data_1_split_0
I0503 09:36:28.737696  8823 net.cpp:380] label_data_1_split -> label_data_1_split_1
I0503 09:36:28.737766  8823 net.cpp:122] Setting up label_data_1_split
I0503 09:36:28.737777  8823 net.cpp:129] Top shape: 64 (64)
I0503 09:36:28.737782  8823 net.cpp:129] Top shape: 64 (64)
I0503 09:36:28.737787  8823 net.cpp:137] Memory required for data: 602880
I0503 09:36:28.737792  8823 layer_factory.hpp:77] Creating layer conv1
I0503 09:36:28.737808  8823 net.cpp:84] Creating Layer conv1
I0503 09:36:28.737817  8823 net.cpp:406] conv1 <- data
I0503 09:36:28.737828  8823 net.cpp:380] conv1 -> conv1
I0503 09:36:28.738061  8823 net.cpp:122] Setting up conv1
I0503 09:36:28.738070  8823 net.cpp:129] Top shape: 64 20 24 24 (737280)
I0503 09:36:28.738075  8823 net.cpp:137] Memory required for data: 3552000
I0503 09:36:28.738107  8823 layer_factory.hpp:77] Creating layer pool1
I0503 09:36:28.738118  8823 net.cpp:84] Creating Layer pool1
I0503 09:36:28.738124  8823 net.cpp:406] pool1 <- conv1
I0503 09:36:28.738134  8823 net.cpp:380] pool1 -> pool1
I0503 09:36:28.738183  8823 net.cpp:122] Setting up pool1
I0503 09:36:28.738193  8823 net.cpp:129] Top shape: 64 20 12 12 (184320)
I0503 09:36:28.738198  8823 net.cpp:137] Memory required for data: 4289280
I0503 09:36:28.738204  8823 layer_factory.hpp:77] Creating layer conv2
I0503 09:36:28.738215  8823 net.cpp:84] Creating Layer conv2
I0503 09:36:28.738222  8823 net.cpp:406] conv2 <- pool1
I0503 09:36:28.738231  8823 net.cpp:380] conv2 -> conv2
I0503 09:36:28.738936  8823 net.cpp:122] Setting up conv2
I0503 09:36:28.738948  8823 net.cpp:129] Top shape: 64 50 8 8 (204800)
I0503 09:36:28.738951  8823 net.cpp:137] Memory required for data: 5108480
I0503 09:36:28.738963  8823 layer_factory.hpp:77] Creating layer pool2
I0503 09:36:28.738975  8823 net.cpp:84] Creating Layer pool2
I0503 09:36:28.738981  8823 net.cpp:406] pool2 <- conv2
I0503 09:36:28.738996  8823 net.cpp:380] pool2 -> pool2
I0503 09:36:28.739043  8823 net.cpp:122] Setting up pool2
I0503 09:36:28.739055  8823 net.cpp:129] Top shape: 64 50 4 4 (51200)
I0503 09:36:28.739060  8823 net.cpp:137] Memory required for data: 5313280
I0503 09:36:28.739065  8823 layer_factory.hpp:77] Creating layer ip1
I0503 09:36:28.739076  8823 net.cpp:84] Creating Layer ip1
I0503 09:36:28.739081  8823 net.cpp:406] ip1 <- pool2
I0503 09:36:28.739092  8823 net.cpp:380] ip1 -> ip1
I0503 09:36:28.742064  8823 net.cpp:122] Setting up ip1
I0503 09:36:28.742087  8823 net.cpp:129] Top shape: 64 500 (32000)
I0503 09:36:28.742092  8823 net.cpp:137] Memory required for data: 5441280
I0503 09:36:28.742110  8823 layer_factory.hpp:77] Creating layer relu1
I0503 09:36:28.742121  8823 net.cpp:84] Creating Layer relu1
I0503 09:36:28.742127  8823 net.cpp:406] relu1 <- ip1
I0503 09:36:28.742139  8823 net.cpp:367] relu1 -> ip1 (in-place)
I0503 09:36:28.742151  8823 net.cpp:122] Setting up relu1
I0503 09:36:28.742158  8823 net.cpp:129] Top shape: 64 500 (32000)
I0503 09:36:28.742166  8823 net.cpp:137] Memory required for data: 5569280
I0503 09:36:28.742171  8823 layer_factory.hpp:77] Creating layer ip2
I0503 09:36:28.742182  8823 net.cpp:84] Creating Layer ip2
I0503 09:36:28.742187  8823 net.cpp:406] ip2 <- ip1
I0503 09:36:28.742197  8823 net.cpp:380] ip2 -> ip2
I0503 09:36:28.742488  8823 net.cpp:122] Setting up ip2
I0503 09:36:28.742499  8823 net.cpp:129] Top shape: 64 52 (3328)
I0503 09:36:28.742504  8823 net.cpp:137] Memory required for data: 5582592
I0503 09:36:28.742513  8823 layer_factory.hpp:77] Creating layer ip2_ip2_0_split
I0503 09:36:28.742524  8823 net.cpp:84] Creating Layer ip2_ip2_0_split
I0503 09:36:28.742530  8823 net.cpp:406] ip2_ip2_0_split <- ip2
I0503 09:36:28.742543  8823 net.cpp:380] ip2_ip2_0_split -> ip2_ip2_0_split_0
I0503 09:36:28.742554  8823 net.cpp:380] ip2_ip2_0_split -> ip2_ip2_0_split_1
I0503 09:36:28.742602  8823 net.cpp:122] Setting up ip2_ip2_0_split
I0503 09:36:28.742611  8823 net.cpp:129] Top shape: 64 52 (3328)
I0503 09:36:28.742617  8823 net.cpp:129] Top shape: 64 52 (3328)
I0503 09:36:28.742622  8823 net.cpp:137] Memory required for data: 5609216
I0503 09:36:28.742626  8823 layer_factory.hpp:77] Creating layer accuracy
I0503 09:36:28.742638  8823 net.cpp:84] Creating Layer accuracy
I0503 09:36:28.742645  8823 net.cpp:406] accuracy <- ip2_ip2_0_split_0
I0503 09:36:28.742651  8823 net.cpp:406] accuracy <- label_data_1_split_0
I0503 09:36:28.742662  8823 net.cpp:380] accuracy -> accuracy
…
