…
I0509 16:28:19.738354  8113 net.cpp:294] The NetState phase (0) differed from the phase (1) specified by a rule in layer data
I0509 16:28:19.738365  8113 net.cpp:294] The NetState phase (0) differed from the phase (1) specified by a rule in layer accuracy
I0509 16:28:19.738440  8113 net.cpp:51] Initializing net from parameters: 
name: "LeNet"
state {
  phase: TRAIN
  level: 0
  stage: ""
}
layer {
  name: "data"
  type: "Data"
  top: "data"
  top: "label"
  include {
    phase: TRAIN
  }
  transform_param {
    scale: 0.00390625
  }
  data_param {
    source: "examples/final_sp/sp_train_lmdb_int2"
    batch_size: 64
    backend: LMDB
  }
}
layer {
  name: "conv1"
  type: "Convolution"
  bottom: "data"
  top: "conv1"
  param {
    lr_mult: 1
  }
  param {
    lr_mult: 2
  }
  convolution_param {
    num_output: 20
    kernel_size: 5
    stride: 1
    weight_filler {
      type: "xavier"
    }
    bias_filler {
      type: "constant"
    }
  }
}
layer {
  name: "pool1"
  type: "Pooling"
  bottom: "conv1"
  top: "pool1"
  pooling_param {
    pool: MAX
    kernel_size: 2
    stride: 2
  }
}
layer {
  name: "conv2"
  type: "Convolution"
  bottom: "pool1"
  top: "conv2"
  param {
    lr_mult: 1
  }
  param {
    lr_mult: 2
  }
  convolution_param {
    num_output: 50
    kernel_size: 5
    stride: 1
    weight_filler {
      type: "xavier"
    }
    bias_filler {
      type: "constant"
    }
  }
}
layer {
  name: "pool2"
  type: "Pooling"
  bottom: "conv2"
  top: "pool2"
  pooling_param {
    pool: MAX
    kernel_size: 2
    stride: 2
  }
}
layer {
  name: "ip1"
  type: "InnerProduct"
  bottom: "pool2"
  top: "ip1"
  param {
    lr_mult: 1
  }
  param {
    lr_mult: 2
  }
  inner_product_param {
    num_output: 500
    weight_filler {
      type: "xavier"
    }
    bias_filler {
      type: "constant"
    }
  }
}
layer {
  name: "relu1"
  type: "ReLU"
  bottom: "ip1"
  top: "ip1"
}
layer {
  name: "ip2"
  type: "InnerProduct"
  bottom: "ip1"
  top: "ip2"
  param {
    lr_mult: 1
  }
  param {
    lr_mult: 2
  }
  inner_product_param {
    num_output: 52
    weight_filler {
      type: "xavier"
    }
    bias_filler {
      type: "constant"
    }
  }
}
layer {
  name: "loss"
  type: "SoftmaxWithLoss"
  bottom: "ip2"
  bottom: "label"
  top: "loss"
}
I0509 16:28:19.738493  8113 layer_factory.hpp:77] Creating layer data
I0509 16:28:19.738606  8113 db_lmdb.cpp:35] Opened lmdb examples/final_sp/sp_train_lmdb_int2
I0509 16:28:19.738628  8113 net.cpp:84] Creating Layer data
I0509 16:28:19.738638  8113 net.cpp:380] data -> data
I0509 16:28:19.738662  8113 net.cpp:380] data -> label
I0509 16:28:19.739226  8113 data_layer.cpp:45] output data size: 64,3,28,28
I0509 16:28:19.743180  8113 net.cpp:122] Setting up data
I0509 16:28:19.743209  8113 net.cpp:129] Top shape: 64 3 28 28 (150528)
I0509 16:28:19.743216  8113 net.cpp:129] Top shape: 64 (64)
I0509 16:28:19.743221  8113 net.cpp:137] Memory required for data: 602368
I0509 16:28:19.743232  8113 layer_factory.hpp:77] Creating layer conv1
I0509 16:28:19.743261  8113 net.cpp:84] Creating Layer conv1
I0509 16:28:19.743269  8113 net.cpp:406] conv1 <- data
I0509 16:28:19.743286  8113 net.cpp:380] conv1 -> conv1
I0509 16:28:19.744232  8113 net.cpp:122] Setting up conv1
I0509 16:28:19.744246  8113 net.cpp:129] Top shape: 64 20 24 24 (737280)
I0509 16:28:19.744251  8113 net.cpp:137] Memory required for data: 3551488
I0509 16:28:19.744272  8113 layer_factory.hpp:77] Creating layer pool1
I0509 16:28:19.744287  8113 net.cpp:84] Creating Layer pool1
I0509 16:28:19.744305  8113 net.cpp:406] pool1 <- conv1
I0509 16:28:19.744325  8113 net.cpp:380] pool1 -> pool1
I0509 16:28:19.744371  8113 net.cpp:122] Setting up pool1
I0509 16:28:19.744379  8113 net.cpp:129] Top shape: 64 20 12 12 (184320)
I0509 16:28:19.744383  8113 net.cpp:137] Memory required for data: 4288768
I0509 16:28:19.744387  8113 layer_factory.hpp:77] Creating layer conv2
I0509 16:28:19.744397  8113 net.cpp:84] Creating Layer conv2
I0509 16:28:19.744402  8113 net.cpp:406] conv2 <- pool1
I0509 16:28:19.744410  8113 net.cpp:380] conv2 -> conv2
I0509 16:28:19.745523  8113 net.cpp:122] Setting up conv2
I0509 16:28:19.745537  8113 net.cpp:129] Top shape: 64 50 8 8 (204800)
I0509 16:28:19.745542  8113 net.cpp:137] Memory required for data: 5107968
I0509 16:28:19.745553  8113 layer_factory.hpp:77] Creating layer pool2
I0509 16:28:19.745563  8113 net.cpp:84] Creating Layer pool2
I0509 16:28:19.745568  8113 net.cpp:406] pool2 <- conv2
I0509 16:28:19.745574  8113 net.cpp:380] pool2 -> pool2
I0509 16:28:19.745627  8113 net.cpp:122] Setting up pool2
I0509 16:28:19.745635  8113 net.cpp:129] Top shape: 64 50 4 4 (51200)
I0509 16:28:19.745638  8113 net.cpp:137] Memory required for data: 5312768
I0509 16:28:19.745642  8113 layer_factory.hpp:77] Creating layer ip1
I0509 16:28:19.745651  8113 net.cpp:84] Creating Layer ip1
I0509 16:28:19.745656  8113 net.cpp:406] ip1 <- pool2
I0509 16:28:19.745662  8113 net.cpp:380] ip1 -> ip1
I0509 16:28:19.748013  8113 net.cpp:122] Setting up ip1
I0509 16:28:19.748031  8113 net.cpp:129] Top shape: 64 500 (32000)
I0509 16:28:19.748035  8113 net.cpp:137] Memory required for data: 5440768
I0509 16:28:19.748055  8113 layer_factory.hpp:77] Creating layer relu1
I0509 16:28:19.748069  8113 net.cpp:84] Creating Layer relu1
I0509 16:28:19.748073  8113 net.cpp:406] relu1 <- ip1
I0509 16:28:19.748095  8113 net.cpp:367] relu1 -> ip1 (in-place)
I0509 16:28:19.748107  8113 net.cpp:122] Setting up relu1
I0509 16:28:19.748113  8113 net.cpp:129] Top shape: 64 500 (32000)
I0509 16:28:19.748117  8113 net.cpp:137] Memory required for data: 5568768
I0509 16:28:19.748121  8113 layer_factory.hpp:77] Creating layer ip2
I0509 16:28:19.748136  8113 net.cpp:84] Creating Layer ip2
I0509 16:28:19.748142  8113 net.cpp:406] ip2 <- ip1
I0509 16:28:19.748148  8113 net.cpp:380] ip2 -> ip2
I0509 16:28:19.748394  8113 net.cpp:122] Setting up ip2
I0509 16:28:19.748401  8113 net.cpp:129] Top shape: 64 52 (3328)
I0509 16:28:19.748405  8113 net.cpp:137] Memory required for data: 5582080
I0509 16:28:19.748412  8113 layer_factory.hpp:77] Creating layer loss
I0509 16:28:19.748422  8113 net.cpp:84] Creating Layer loss
I0509 16:28:19.748426  8113 net.cpp:406] loss <- ip2
I0509 16:28:19.748432  8113 net.cpp:406] loss <- label
I0509 16:28:19.748440  8113 net.cpp:380] loss -> loss
I0509 16:28:19.748456  8113 layer_factory.hpp:77] Creating layer loss
…
I0509 16:28:19.748777  8113 solver.cpp:190] Creating test net (#0) specified by net file: models/sp_lenet_int2/lenet_train_val.prototxt
I0509 16:28:19.748828  8113 net.cpp:294] The NetState phase (1) differed from the phase (0) specified by a rule in layer data
I0509 16:28:19.748904  8113 net.cpp:51] Initializing net from parameters: 
name: "LeNet"
state {
  phase: TEST
}
layer {
  name: "data"
  type: "Data"
  top: "data"
  top: "label"
  include {
    phase: TEST
  }
  transform_param {
    scale: 0.00390625
  }
  data_param {
    source: "examples/final_sp/sp_val_lmdb_int2"
    batch_size: 64
    backend: LMDB
  }
}
layer {
  name: "conv1"
  type: "Convolution"
  bottom: "data"
  top: "conv1"
  param {
    lr_mult: 1
  }
  param {
    lr_mult: 2
  }
  convolution_param {
    num_output: 20
    kernel_size: 5
    stride: 1
    weight_filler {
      type: "xavier"
    }
    bias_filler {
      type: "constant"
    }
  }
}
layer {
  name: "pool1"
  type: "Pooling"
  bottom: "conv1"
  top: "pool1"
  pooling_param {
    pool: MAX
    kernel_size: 2
    stride: 2
  }
}
layer {
  name: "conv2"
  type: "Convolution"
  bottom: "pool1"
  top: "conv2"
  param {
    lr_mult: 1
  }
  param {
    lr_mult: 2
  }
  convolution_param {
    num_output: 50
    kernel_size: 5
    stride: 1
    weight_filler {
      type: "xavier"
    }
    bias_filler {
      type: "constant"
    }
  }
}
layer {
  name: "pool2"
  type: "Pooling"
  bottom: "conv2"
  top: "pool2"
  pooling_param {
    pool: MAX
    kernel_size: 2
    stride: 2
  }
}
layer {
  name: "ip1"
  type: "InnerProduct"
  bottom: "pool2"
  top: "ip1"
  param {
    lr_mult: 1
  }
  param {
    lr_mult: 2
  }
  inner_product_param {
    num_output: 500
    weight_filler {
      type: "xavier"
    }
    bias_filler {
      type: "constant"
    }
  }
}
layer {
  name: "relu1"
  type: "ReLU"
  bottom: "ip1"
  top: "ip1"
}
layer {
  name: "ip2"
  type: "InnerProduct"
  bottom: "ip1"
  top: "ip2"
  param {
    lr_mult: 1
  }
  param {
    lr_mult: 2
  }
  inner_product_param {
    num_output: 52
    weight_filler {
      type: "xavier"
    }
    bias_filler {
      type: "constant"
    }
  }
}
layer {
  name: "accuracy"
  type: "Accuracy"
  bottom: "ip2"
  bottom: "label"
  top: "accuracy"
  include {
    phase: TEST
  }
}
layer {
  name: "loss"
  type: "SoftmaxWithLoss"
  bottom: "ip2"
  bottom: "label"
  top: "loss"
}
I0509 16:28:19.748970  8113 layer_factory.hpp:77] Creating layer data
I0509 16:28:19.749032  8113 db_lmdb.cpp:35] Opened lmdb examples/final_sp/sp_val_lmdb_int2
I0509 16:28:19.749047  8113 net.cpp:84] Creating Layer data
I0509 16:28:19.749053  8113 net.cpp:380] data -> data
I0509 16:28:19.749064  8113 net.cpp:380] data -> label
I0509 16:28:19.749156  8113 data_layer.cpp:45] output data size: 64,3,28,28
I0509 16:28:19.756296  8113 net.cpp:122] Setting up data
I0509 16:28:19.756371  8113 net.cpp:129] Top shape: 64 3 28 28 (150528)
I0509 16:28:19.756394  8113 net.cpp:129] Top shape: 64 (64)
I0509 16:28:19.756402  8113 net.cpp:137] Memory required for data: 602368
I0509 16:28:19.756408  8113 layer_factory.hpp:77] Creating layer label_data_1_split
I0509 16:28:19.756422  8113 net.cpp:84] Creating Layer label_data_1_split
I0509 16:28:19.756428  8113 net.cpp:406] label_data_1_split <- label
I0509 16:28:19.756438  8113 net.cpp:380] label_data_1_split -> label_data_1_split_0
I0509 16:28:19.756450  8113 net.cpp:380] label_data_1_split -> label_data_1_split_1
I0509 16:28:19.756680  8113 net.cpp:122] Setting up label_data_1_split
I0509 16:28:19.756688  8113 net.cpp:129] Top shape: 64 (64)
I0509 16:28:19.756693  8113 net.cpp:129] Top shape: 64 (64)
I0509 16:28:19.756697  8113 net.cpp:137] Memory required for data: 602880
I0509 16:28:19.756701  8113 layer_factory.hpp:77] Creating layer conv1
I0509 16:28:19.756714  8113 net.cpp:84] Creating Layer conv1
I0509 16:28:19.756736  8113 net.cpp:406] conv1 <- data
I0509 16:28:19.756747  8113 net.cpp:380] conv1 -> conv1
I0509 16:28:19.756934  8113 net.cpp:122] Setting up conv1
I0509 16:28:19.756944  8113 net.cpp:129] Top shape: 64 20 24 24 (737280)
I0509 16:28:19.756949  8113 net.cpp:137] Memory required for data: 3552000
I0509 16:28:19.756960  8113 layer_factory.hpp:77] Creating layer pool1
I0509 16:28:19.756991  8113 net.cpp:84] Creating Layer pool1
I0509 16:28:19.756999  8113 net.cpp:406] pool1 <- conv1
I0509 16:28:19.757014  8113 net.cpp:380] pool1 -> pool1
I0509 16:28:19.757066  8113 net.cpp:122] Setting up pool1
I0509 16:28:19.757073  8113 net.cpp:129] Top shape: 64 20 12 12 (184320)
I0509 16:28:19.757077  8113 net.cpp:137] Memory required for data: 4289280
I0509 16:28:19.757082  8113 layer_factory.hpp:77] Creating layer conv2
I0509 16:28:19.757107  8113 net.cpp:84] Creating Layer conv2
I0509 16:28:19.757114  8113 net.cpp:406] conv2 <- pool1
I0509 16:28:19.757122  8113 net.cpp:380] conv2 -> conv2
I0509 16:28:19.757480  8113 net.cpp:122] Setting up conv2
I0509 16:28:19.757489  8113 net.cpp:129] Top shape: 64 50 8 8 (204800)
I0509 16:28:19.757529  8113 net.cpp:137] Memory required for data: 5108480
I0509 16:28:19.757541  8113 layer_factory.hpp:77] Creating layer pool2
I0509 16:28:19.757560  8113 net.cpp:84] Creating Layer pool2
I0509 16:28:19.757573  8113 net.cpp:406] pool2 <- conv2
I0509 16:28:19.757592  8113 net.cpp:380] pool2 -> pool2
I0509 16:28:19.758158  8113 net.cpp:122] Setting up pool2
I0509 16:28:19.758167  8113 net.cpp:129] Top shape: 64 50 4 4 (51200)
I0509 16:28:19.758172  8113 net.cpp:137] Memory required for data: 5313280
I0509 16:28:19.758177  8113 layer_factory.hpp:77] Creating layer ip1
I0509 16:28:19.758195  8113 net.cpp:84] Creating Layer ip1
I0509 16:28:19.758200  8113 net.cpp:406] ip1 <- pool2
I0509 16:28:19.758206  8113 net.cpp:380] ip1 -> ip1
I0509 16:28:19.761631  8113 net.cpp:122] Setting up ip1
I0509 16:28:19.761647  8113 net.cpp:129] Top shape: 64 500 (32000)
I0509 16:28:19.761652  8113 net.cpp:137] Memory required for data: 5441280
I0509 16:28:19.761667  8113 layer_factory.hpp:77] Creating layer relu1
I0509 16:28:19.761680  8113 net.cpp:84] Creating Layer relu1
I0509 16:28:19.761685  8113 net.cpp:406] relu1 <- ip1
I0509 16:28:19.761693  8113 net.cpp:367] relu1 -> ip1 (in-place)
I0509 16:28:19.761703  8113 net.cpp:122] Setting up relu1
I0509 16:28:19.761708  8113 net.cpp:129] Top shape: 64 500 (32000)
I0509 16:28:19.761713  8113 net.cpp:137] Memory required for data: 5569280
I0509 16:28:19.761716  8113 layer_factory.hpp:77] Creating layer ip2
I0509 16:28:19.761729  8113 net.cpp:84] Creating Layer ip2
I0509 16:28:19.761734  8113 net.cpp:406] ip2 <- ip1
I0509 16:28:19.761741  8113 net.cpp:380] ip2 -> ip2
I0509 16:28:19.761940  8113 net.cpp:122] Setting up ip2
I0509 16:28:19.761948  8113 net.cpp:129] Top shape: 64 52 (3328)
I0509 16:28:19.761952  8113 net.cpp:137] Memory required for data: 5582592
I0509 16:28:19.761960  8113 layer_factory.hpp:77] Creating layer ip2_ip2_0_split
I0509 16:28:19.761968  8113 net.cpp:84] Creating Layer ip2_ip2_0_split
I0509 16:28:19.761972  8113 net.cpp:406] ip2_ip2_0_split <- ip2
I0509 16:28:19.761981  8113 net.cpp:380] ip2_ip2_0_split -> ip2_ip2_0_split_0
I0509 16:28:19.761989  8113 net.cpp:380] ip2_ip2_0_split -> ip2_ip2_0_split_1
I0509 16:28:19.762019  8113 net.cpp:122] Setting up ip2_ip2_0_split
I0509 16:28:19.762027  8113 net.cpp:129] Top shape: 64 52 (3328)
I0509 16:28:19.762032  8113 net.cpp:129] Top shape: 64 52 (3328)
I0509 16:28:19.762035  8113 net.cpp:137] Memory required for data: 5609216
I0509 16:28:19.762042  8113 layer_factory.hpp:77] Creating layer accuracy
I0509 16:28:19.762048  8113 net.cpp:84] Creating Layer accuracy
I0509 16:28:19.762053  8113 net.cpp:406] accuracy <- ip2_ip2_0_split_0
I0509 16:28:19.762059  8113 net.cpp:406] accuracy <- label_data_1_split_0
I0509 16:28:19.762065  8113 net.cpp:380] accuracy -> accuracy
…
