…
I0502 02:50:12.294657 14878 net.cpp:294] The NetState phase (0) differed from the phase (1) specified by a rule in layer data
I0502 02:50:12.294672 14878 net.cpp:294] The NetState phase (0) differed from the phase (1) specified by a rule in layer accuracy
I0502 02:50:12.294754 14878 net.cpp:51] Initializing net from parameters: 
name: "LeNet"
state {
  phase: TRAIN
  level: 0
  stage: ""
}
layer {
  name: "data"
  type: "Data"
  top: "data"
  top: "label"
  include {
    phase: TRAIN
  }
  transform_param {
    scale: 0.00390625
  }
  data_param {
    source: "examples/final_sp/sp_train_lmdb"
    batch_size: 64
    backend: LMDB
  }
}
layer {
  name: "conv1"
  type: "Convolution"
  bottom: "data"
  top: "conv1"
  param {
    lr_mult: 1
  }
  param {
    lr_mult: 2
  }
  convolution_param {
    num_output: 20
    kernel_size: 5
    stride: 1
    weight_filler {
      type: "xavier"
    }
    bias_filler {
      type: "constant"
    }
  }
}
layer {
  name: "pool1"
  type: "Pooling"
  bottom: "conv1"
  top: "pool1"
  pooling_param {
    pool: MAX
    kernel_size: 2
    stride: 2
  }
}
layer {
  name: "conv2"
  type: "Convolution"
  bottom: "pool1"
  top: "conv2"
  param {
    lr_mult: 1
  }
  param {
    lr_mult: 2
  }
  convolution_param {
    num_output: 50
    kernel_size: 5
    stride: 1
    weight_filler {
      type: "xavier"
    }
    bias_filler {
      type: "constant"
    }
  }
}
layer {
  name: "pool2"
  type: "Pooling"
  bottom: "conv2"
  top: "pool2"
  pooling_param {
    pool: MAX
    kernel_size: 2
    stride: 2
  }
}
layer {
  name: "ip1"
  type: "InnerProduct"
  bottom: "pool2"
  top: "ip1"
  param {
    lr_mult: 1
  }
  param {
    lr_mult: 2
  }
  inner_product_param {
    num_output: 500
    weight_filler {
      type: "xavier"
    }
    bias_filler {
      type: "constant"
    }
  }
}
layer {
  name: "relu1"
  type: "ReLU"
  bottom: "ip1"
  top: "ip1"
}
layer {
  name: "ip2"
  type: "InnerProduct"
  bottom: "ip1"
  top: "ip2"
  param {
    lr_mult: 1
  }
  param {
    lr_mult: 2
  }
  inner_product_param {
    num_output: 52
    weight_filler {
      type: "xavier"
    }
    bias_filler {
      type: "constant"
    }
  }
}
layer {
  name: "loss"
  type: "SoftmaxWithLoss"
  bottom: "ip2"
  bottom: "label"
  top: "loss"
}
I0502 02:50:12.294811 14878 layer_factory.hpp:77] Creating layer data
I0502 02:50:12.294914 14878 db_lmdb.cpp:35] Opened lmdb examples/final_sp/sp_train_lmdb
I0502 02:50:12.294936 14878 net.cpp:84] Creating Layer data
I0502 02:50:12.294946 14878 net.cpp:380] data -> data
I0502 02:50:12.294970 14878 net.cpp:380] data -> label
I0502 02:50:12.295572 14878 data_layer.cpp:45] output data size: 64,3,28,28
I0502 02:50:12.300184 14878 net.cpp:122] Setting up data
I0502 02:50:12.300221 14878 net.cpp:129] Top shape: 64 3 28 28 (150528)
I0502 02:50:12.300230 14878 net.cpp:129] Top shape: 64 (64)
I0502 02:50:12.300235 14878 net.cpp:137] Memory required for data: 602368
I0502 02:50:12.300247 14878 layer_factory.hpp:77] Creating layer conv1
I0502 02:50:12.300287 14878 net.cpp:84] Creating Layer conv1
I0502 02:50:12.300294 14878 net.cpp:406] conv1 <- data
I0502 02:50:12.300313 14878 net.cpp:380] conv1 -> conv1
I0502 02:50:12.308508 14878 net.cpp:122] Setting up conv1
I0502 02:50:12.308547 14878 net.cpp:129] Top shape: 64 20 24 24 (737280)
I0502 02:50:12.308552 14878 net.cpp:137] Memory required for data: 3551488
I0502 02:50:12.308588 14878 layer_factory.hpp:77] Creating layer pool1
I0502 02:50:12.308719 14878 net.cpp:84] Creating Layer pool1
I0502 02:50:12.308743 14878 net.cpp:406] pool1 <- conv1
I0502 02:50:12.308756 14878 net.cpp:380] pool1 -> pool1
I0502 02:50:12.308925 14878 net.cpp:122] Setting up pool1
I0502 02:50:12.308939 14878 net.cpp:129] Top shape: 64 20 12 12 (184320)
I0502 02:50:12.308944 14878 net.cpp:137] Memory required for data: 4288768
I0502 02:50:12.308948 14878 layer_factory.hpp:77] Creating layer conv2
I0502 02:50:12.308964 14878 net.cpp:84] Creating Layer conv2
I0502 02:50:12.308972 14878 net.cpp:406] conv2 <- pool1
I0502 02:50:12.309000 14878 net.cpp:380] conv2 -> conv2
I0502 02:50:12.310312 14878 net.cpp:122] Setting up conv2
I0502 02:50:12.310346 14878 net.cpp:129] Top shape: 64 50 8 8 (204800)
I0502 02:50:12.310353 14878 net.cpp:137] Memory required for data: 5107968
I0502 02:50:12.310366 14878 layer_factory.hpp:77] Creating layer pool2
I0502 02:50:12.310379 14878 net.cpp:84] Creating Layer pool2
I0502 02:50:12.310386 14878 net.cpp:406] pool2 <- conv2
I0502 02:50:12.310398 14878 net.cpp:380] pool2 -> pool2
I0502 02:50:12.310446 14878 net.cpp:122] Setting up pool2
I0502 02:50:12.310456 14878 net.cpp:129] Top shape: 64 50 4 4 (51200)
I0502 02:50:12.310461 14878 net.cpp:137] Memory required for data: 5312768
I0502 02:50:12.310467 14878 layer_factory.hpp:77] Creating layer ip1
I0502 02:50:12.310479 14878 net.cpp:84] Creating Layer ip1
I0502 02:50:12.310489 14878 net.cpp:406] ip1 <- pool2
I0502 02:50:12.310499 14878 net.cpp:380] ip1 -> ip1
I0502 02:50:12.315605 14878 net.cpp:122] Setting up ip1
I0502 02:50:12.315626 14878 net.cpp:129] Top shape: 64 500 (32000)
I0502 02:50:12.315630 14878 net.cpp:137] Memory required for data: 5440768
I0502 02:50:12.315645 14878 layer_factory.hpp:77] Creating layer relu1
I0502 02:50:12.315657 14878 net.cpp:84] Creating Layer relu1
I0502 02:50:12.315665 14878 net.cpp:406] relu1 <- ip1
I0502 02:50:12.315672 14878 net.cpp:367] relu1 -> ip1 (in-place)
I0502 02:50:12.315685 14878 net.cpp:122] Setting up relu1
I0502 02:50:12.315691 14878 net.cpp:129] Top shape: 64 500 (32000)
I0502 02:50:12.315696 14878 net.cpp:137] Memory required for data: 5568768
I0502 02:50:12.315702 14878 layer_factory.hpp:77] Creating layer ip2
I0502 02:50:12.315713 14878 net.cpp:84] Creating Layer ip2
I0502 02:50:12.315718 14878 net.cpp:406] ip2 <- ip1
I0502 02:50:12.315726 14878 net.cpp:380] ip2 -> ip2
I0502 02:50:12.316123 14878 net.cpp:122] Setting up ip2
I0502 02:50:12.316133 14878 net.cpp:129] Top shape: 64 52 (3328)
I0502 02:50:12.316136 14878 net.cpp:137] Memory required for data: 5582080
I0502 02:50:12.316144 14878 layer_factory.hpp:77] Creating layer loss
I0502 02:50:12.316156 14878 net.cpp:84] Creating Layer loss
I0502 02:50:12.316162 14878 net.cpp:406] loss <- ip2
I0502 02:50:12.316169 14878 net.cpp:406] loss <- label
I0502 02:50:12.316177 14878 net.cpp:380] loss -> loss
I0502 02:50:12.316196 14878 layer_factory.hpp:77] Creating layer loss
…
I0502 02:50:12.316685 14878 solver.cpp:190] Creating test net (#0) specified by net file: models/sp_final_lenet/lenet_train_val.prototxt
I0502 02:50:12.316733 14878 net.cpp:294] The NetState phase (1) differed from the phase (0) specified by a rule in layer data
I0502 02:50:12.316854 14878 net.cpp:51] Initializing net from parameters: 
name: "LeNet"
state {
  phase: TEST
}
layer {
  name: "data"
  type: "Data"
  top: "data"
  top: "label"
  include {
    phase: TEST
  }
  transform_param {
    scale: 0.00390625
  }
  data_param {
    source: "examples/final_sp/sp_val_lmdb"
    batch_size: 64
    backend: LMDB
  }
}
layer {
  name: "conv1"
  type: "Convolution"
  bottom: "data"
  top: "conv1"
  param {
    lr_mult: 1
  }
  param {
    lr_mult: 2
  }
  convolution_param {
    num_output: 20
    kernel_size: 5
    stride: 1
    weight_filler {
      type: "xavier"
    }
    bias_filler {
      type: "constant"
    }
  }
}
layer {
  name: "pool1"
  type: "Pooling"
  bottom: "conv1"
  top: "pool1"
  pooling_param {
    pool: MAX
    kernel_size: 2
    stride: 2
  }
}
layer {
  name: "conv2"
  type: "Convolution"
  bottom: "pool1"
  top: "conv2"
  param {
    lr_mult: 1
  }
  param {
    lr_mult: 2
  }
  convolution_param {
    num_output: 50
    kernel_size: 5
    stride: 1
    weight_filler {
      type: "xavier"
    }
    bias_filler {
      type: "constant"
    }
  }
}
layer {
  name: "pool2"
  type: "Pooling"
  bottom: "conv2"
  top: "pool2"
  pooling_param {
    pool: MAX
    kernel_size: 2
    stride: 2
  }
}
layer {
  name: "ip1"
  type: "InnerProduct"
  bottom: "pool2"
  top: "ip1"
  param {
    lr_mult: 1
  }
  param {
    lr_mult: 2
  }
  inner_product_param {
    num_output: 500
    weight_filler {
      type: "xavier"
    }
    bias_filler {
      type: "constant"
    }
  }
}
layer {
  name: "relu1"
  type: "ReLU"
  bottom: "ip1"
  top: "ip1"
}
layer {
  name: "ip2"
  type: "InnerProduct"
  bottom: "ip1"
  top: "ip2"
  param {
    lr_mult: 1
  }
  param {
    lr_mult: 2
  }
  inner_product_param {
    num_output: 52
    weight_filler {
      type: "xavier"
    }
    bias_filler {
      type: "constant"
    }
  }
}
layer {
  name: "accuracy"
  type: "Accuracy"
  bottom: "ip2"
  bottom: "label"
  top: "accuracy"
  include {
    phase: TEST
  }
}
layer {
  name: "loss"
  type: "SoftmaxWithLoss"
  bottom: "ip2"
  bottom: "label"
  top: "loss"
}
I0502 02:50:12.316946 14878 layer_factory.hpp:77] Creating layer data
I0502 02:50:12.317013 14878 db_lmdb.cpp:35] Opened lmdb examples/final_sp/sp_val_lmdb
I0502 02:50:12.317030 14878 net.cpp:84] Creating Layer data
I0502 02:50:12.317037 14878 net.cpp:380] data -> data
I0502 02:50:12.317050 14878 net.cpp:380] data -> label
I0502 02:50:12.317150 14878 data_layer.cpp:45] output data size: 64,3,28,28
I0502 02:50:12.327584 14878 net.cpp:122] Setting up data
I0502 02:50:12.327622 14878 net.cpp:129] Top shape: 64 3 28 28 (150528)
I0502 02:50:12.327631 14878 net.cpp:129] Top shape: 64 (64)
I0502 02:50:12.327636 14878 net.cpp:137] Memory required for data: 602368
I0502 02:50:12.327646 14878 layer_factory.hpp:77] Creating layer label_data_1_split
I0502 02:50:12.327663 14878 net.cpp:84] Creating Layer label_data_1_split
I0502 02:50:12.327670 14878 net.cpp:406] label_data_1_split <- label
I0502 02:50:12.327684 14878 net.cpp:380] label_data_1_split -> label_data_1_split_0
I0502 02:50:12.327720 14878 net.cpp:380] label_data_1_split -> label_data_1_split_1
I0502 02:50:12.327800 14878 net.cpp:122] Setting up label_data_1_split
I0502 02:50:12.327810 14878 net.cpp:129] Top shape: 64 (64)
I0502 02:50:12.327816 14878 net.cpp:129] Top shape: 64 (64)
I0502 02:50:12.327821 14878 net.cpp:137] Memory required for data: 602880
I0502 02:50:12.327826 14878 layer_factory.hpp:77] Creating layer conv1
I0502 02:50:12.327845 14878 net.cpp:84] Creating Layer conv1
I0502 02:50:12.327852 14878 net.cpp:406] conv1 <- data
I0502 02:50:12.327862 14878 net.cpp:380] conv1 -> conv1
I0502 02:50:12.328097 14878 net.cpp:122] Setting up conv1
I0502 02:50:12.328109 14878 net.cpp:129] Top shape: 64 20 24 24 (737280)
I0502 02:50:12.328114 14878 net.cpp:137] Memory required for data: 3552000
I0502 02:50:12.328130 14878 layer_factory.hpp:77] Creating layer pool1
I0502 02:50:12.328156 14878 net.cpp:84] Creating Layer pool1
I0502 02:50:12.328163 14878 net.cpp:406] pool1 <- conv1
I0502 02:50:12.328173 14878 net.cpp:380] pool1 -> pool1
I0502 02:50:12.328223 14878 net.cpp:122] Setting up pool1
I0502 02:50:12.328233 14878 net.cpp:129] Top shape: 64 20 12 12 (184320)
I0502 02:50:12.328238 14878 net.cpp:137] Memory required for data: 4289280
I0502 02:50:12.328244 14878 layer_factory.hpp:77] Creating layer conv2
I0502 02:50:12.328260 14878 net.cpp:84] Creating Layer conv2
I0502 02:50:12.328267 14878 net.cpp:406] conv2 <- pool1
I0502 02:50:12.328277 14878 net.cpp:380] conv2 -> conv2
I0502 02:50:12.328985 14878 net.cpp:122] Setting up conv2
I0502 02:50:12.328997 14878 net.cpp:129] Top shape: 64 50 8 8 (204800)
I0502 02:50:12.329004 14878 net.cpp:137] Memory required for data: 5108480
I0502 02:50:12.329017 14878 layer_factory.hpp:77] Creating layer pool2
I0502 02:50:12.329030 14878 net.cpp:84] Creating Layer pool2
I0502 02:50:12.329036 14878 net.cpp:406] pool2 <- conv2
I0502 02:50:12.329046 14878 net.cpp:380] pool2 -> pool2
I0502 02:50:12.329095 14878 net.cpp:122] Setting up pool2
I0502 02:50:12.329107 14878 net.cpp:129] Top shape: 64 50 4 4 (51200)
I0502 02:50:12.329113 14878 net.cpp:137] Memory required for data: 5313280
I0502 02:50:12.329119 14878 layer_factory.hpp:77] Creating layer ip1
I0502 02:50:12.329131 14878 net.cpp:84] Creating Layer ip1
I0502 02:50:12.329140 14878 net.cpp:406] ip1 <- pool2
I0502 02:50:12.329149 14878 net.cpp:380] ip1 -> ip1
I0502 02:50:12.332046 14878 net.cpp:122] Setting up ip1
I0502 02:50:12.332094 14878 net.cpp:129] Top shape: 64 500 (32000)
I0502 02:50:12.332099 14878 net.cpp:137] Memory required for data: 5441280
I0502 02:50:12.332116 14878 layer_factory.hpp:77] Creating layer relu1
I0502 02:50:12.332131 14878 net.cpp:84] Creating Layer relu1
I0502 02:50:12.332137 14878 net.cpp:406] relu1 <- ip1
I0502 02:50:12.332147 14878 net.cpp:367] relu1 -> ip1 (in-place)
I0502 02:50:12.332156 14878 net.cpp:122] Setting up relu1
I0502 02:50:12.332164 14878 net.cpp:129] Top shape: 64 500 (32000)
I0502 02:50:12.332168 14878 net.cpp:137] Memory required for data: 5569280
I0502 02:50:12.332172 14878 layer_factory.hpp:77] Creating layer ip2
I0502 02:50:12.332187 14878 net.cpp:84] Creating Layer ip2
I0502 02:50:12.332195 14878 net.cpp:406] ip2 <- ip1
I0502 02:50:12.332204 14878 net.cpp:380] ip2 -> ip2
I0502 02:50:12.332473 14878 net.cpp:122] Setting up ip2
I0502 02:50:12.332484 14878 net.cpp:129] Top shape: 64 52 (3328)
I0502 02:50:12.332489 14878 net.cpp:137] Memory required for data: 5582592
I0502 02:50:12.332497 14878 layer_factory.hpp:77] Creating layer ip2_ip2_0_split
I0502 02:50:12.332506 14878 net.cpp:84] Creating Layer ip2_ip2_0_split
I0502 02:50:12.332512 14878 net.cpp:406] ip2_ip2_0_split <- ip2
I0502 02:50:12.332520 14878 net.cpp:380] ip2_ip2_0_split -> ip2_ip2_0_split_0
I0502 02:50:12.332535 14878 net.cpp:380] ip2_ip2_0_split -> ip2_ip2_0_split_1
I0502 02:50:12.332579 14878 net.cpp:122] Setting up ip2_ip2_0_split
I0502 02:50:12.332589 14878 net.cpp:129] Top shape: 64 52 (3328)
I0502 02:50:12.332595 14878 net.cpp:129] Top shape: 64 52 (3328)
I0502 02:50:12.332599 14878 net.cpp:137] Memory required for data: 5609216
I0502 02:50:12.332605 14878 layer_factory.hpp:77] Creating layer accuracy
I0502 02:50:12.332618 14878 net.cpp:84] Creating Layer accuracy
I0502 02:50:12.332624 14878 net.cpp:406] accuracy <- ip2_ip2_0_split_0
I0502 02:50:12.332631 14878 net.cpp:406] accuracy <- label_data_1_split_0
I0502 02:50:12.332641 14878 net.cpp:380] accuracy -> accuracy
…
