…
I0509 15:08:26.239853  5393 net.cpp:294] The NetState phase (0) differed from the phase (1) specified by a rule in layer data
I0509 15:08:26.239866  5393 net.cpp:294] The NetState phase (0) differed from the phase (1) specified by a rule in layer accuracy
I0509 15:08:26.239933  5393 net.cpp:51] Initializing net from parameters: 
name: "LeNet"
state {
  phase: TRAIN
  level: 0
  stage: ""
}
layer {
  name: "data"
  type: "Data"
  top: "data"
  top: "label"
  include {
    phase: TRAIN
  }
  transform_param {
    scale: 0.00390625
  }
  data_param {
    source: "examples/final_sp/sp_train_lmdb_int1"
    batch_size: 64
    backend: LMDB
  }
}
layer {
  name: "conv1"
  type: "Convolution"
  bottom: "data"
  top: "conv1"
  param {
    lr_mult: 1
  }
  param {
    lr_mult: 2
  }
  convolution_param {
    num_output: 20
    kernel_size: 5
    stride: 1
    weight_filler {
      type: "xavier"
    }
    bias_filler {
      type: "constant"
    }
  }
}
layer {
  name: "pool1"
  type: "Pooling"
  bottom: "conv1"
  top: "pool1"
  pooling_param {
    pool: MAX
    kernel_size: 2
    stride: 2
  }
}
layer {
  name: "conv2"
  type: "Convolution"
  bottom: "pool1"
  top: "conv2"
  param {
    lr_mult: 1
  }
  param {
    lr_mult: 2
  }
  convolution_param {
    num_output: 50
    kernel_size: 5
    stride: 1
    weight_filler {
      type: "xavier"
    }
    bias_filler {
      type: "constant"
    }
  }
}
layer {
  name: "pool2"
  type: "Pooling"
  bottom: "conv2"
  top: "pool2"
  pooling_param {
    pool: MAX
    kernel_size: 2
    stride: 2
  }
}
layer {
  name: "ip1"
  type: "InnerProduct"
  bottom: "pool2"
  top: "ip1"
  param {
    lr_mult: 1
  }
  param {
    lr_mult: 2
  }
  inner_product_param {
    num_output: 500
    weight_filler {
      type: "xavier"
    }
    bias_filler {
      type: "constant"
    }
  }
}
layer {
  name: "relu1"
  type: "ReLU"
  bottom: "ip1"
  top: "ip1"
}
layer {
  name: "ip2"
  type: "InnerProduct"
  bottom: "ip1"
  top: "ip2"
  param {
    lr_mult: 1
  }
  param {
    lr_mult: 2
  }
  inner_product_param {
    num_output: 52
    weight_filler {
      type: "xavier"
    }
    bias_filler {
      type: "constant"
    }
  }
}
layer {
  name: "loss"
  type: "SoftmaxWithLoss"
  bottom: "ip2"
  bottom: "label"
  top: "loss"
}
I0509 15:08:26.239976  5393 layer_factory.hpp:77] Creating layer data
I0509 15:08:26.268244  5393 db_lmdb.cpp:35] Opened lmdb examples/final_sp/sp_train_lmdb_int1
I0509 15:08:26.292109  5393 net.cpp:84] Creating Layer data
I0509 15:08:26.292229  5393 net.cpp:380] data -> data
I0509 15:08:26.292366  5393 net.cpp:380] data -> label
I0509 15:08:26.294066  5393 data_layer.cpp:45] output data size: 64,3,28,28
I0509 15:08:26.314695  5393 net.cpp:122] Setting up data
I0509 15:08:26.314781  5393 net.cpp:129] Top shape: 64 3 28 28 (150528)
I0509 15:08:26.314810  5393 net.cpp:129] Top shape: 64 (64)
I0509 15:08:26.314837  5393 net.cpp:137] Memory required for data: 602368
I0509 15:08:26.314875  5393 layer_factory.hpp:77] Creating layer conv1
I0509 15:08:26.314962  5393 net.cpp:84] Creating Layer conv1
I0509 15:08:26.314990  5393 net.cpp:406] conv1 <- data
I0509 15:08:26.315052  5393 net.cpp:380] conv1 -> conv1
I0509 15:08:26.318783  5393 net.cpp:122] Setting up conv1
I0509 15:08:26.318835  5393 net.cpp:129] Top shape: 64 20 24 24 (737280)
I0509 15:08:26.318850  5393 net.cpp:137] Memory required for data: 3551488
I0509 15:08:26.318904  5393 layer_factory.hpp:77] Creating layer pool1
I0509 15:08:26.318946  5393 net.cpp:84] Creating Layer pool1
I0509 15:08:26.318994  5393 net.cpp:406] pool1 <- conv1
I0509 15:08:26.319022  5393 net.cpp:380] pool1 -> pool1
I0509 15:08:26.319171  5393 net.cpp:122] Setting up pool1
I0509 15:08:26.319197  5393 net.cpp:129] Top shape: 64 20 12 12 (184320)
I0509 15:08:26.319212  5393 net.cpp:137] Memory required for data: 4288768
I0509 15:08:26.319228  5393 layer_factory.hpp:77] Creating layer conv2
I0509 15:08:26.319272  5393 net.cpp:84] Creating Layer conv2
I0509 15:08:26.319288  5393 net.cpp:406] conv2 <- pool1
I0509 15:08:26.319319  5393 net.cpp:380] conv2 -> conv2
I0509 15:08:26.321337  5393 net.cpp:122] Setting up conv2
I0509 15:08:26.321379  5393 net.cpp:129] Top shape: 64 50 8 8 (204800)
I0509 15:08:26.321395  5393 net.cpp:137] Memory required for data: 5107968
I0509 15:08:26.321496  5393 layer_factory.hpp:77] Creating layer pool2
I0509 15:08:26.321540  5393 net.cpp:84] Creating Layer pool2
I0509 15:08:26.321580  5393 net.cpp:406] pool2 <- conv2
I0509 15:08:26.321607  5393 net.cpp:380] pool2 -> pool2
I0509 15:08:26.321738  5393 net.cpp:122] Setting up pool2
I0509 15:08:26.321763  5393 net.cpp:129] Top shape: 64 50 4 4 (51200)
I0509 15:08:26.321779  5393 net.cpp:137] Memory required for data: 5312768
I0509 15:08:26.321792  5393 layer_factory.hpp:77] Creating layer ip1
I0509 15:08:26.321825  5393 net.cpp:84] Creating Layer ip1
I0509 15:08:26.321841  5393 net.cpp:406] ip1 <- pool2
I0509 15:08:26.321876  5393 net.cpp:380] ip1 -> ip1
I0509 15:08:26.332100  5393 net.cpp:122] Setting up ip1
I0509 15:08:26.332146  5393 net.cpp:129] Top shape: 64 500 (32000)
I0509 15:08:26.332168  5393 net.cpp:137] Memory required for data: 5440768
I0509 15:08:26.332192  5393 layer_factory.hpp:77] Creating layer relu1
I0509 15:08:26.332207  5393 net.cpp:84] Creating Layer relu1
I0509 15:08:26.332214  5393 net.cpp:406] relu1 <- ip1
I0509 15:08:26.332231  5393 net.cpp:367] relu1 -> ip1 (in-place)
I0509 15:08:26.332249  5393 net.cpp:122] Setting up relu1
I0509 15:08:26.332262  5393 net.cpp:129] Top shape: 64 500 (32000)
I0509 15:08:26.332267  5393 net.cpp:137] Memory required for data: 5568768
I0509 15:08:26.332301  5393 layer_factory.hpp:77] Creating layer ip2
I0509 15:08:26.332317  5393 net.cpp:84] Creating Layer ip2
I0509 15:08:26.332324  5393 net.cpp:406] ip2 <- ip1
I0509 15:08:26.332356  5393 net.cpp:380] ip2 -> ip2
I0509 15:08:26.332876  5393 net.cpp:122] Setting up ip2
I0509 15:08:26.332890  5393 net.cpp:129] Top shape: 64 52 (3328)
I0509 15:08:26.332895  5393 net.cpp:137] Memory required for data: 5582080
I0509 15:08:26.332903  5393 layer_factory.hpp:77] Creating layer loss
I0509 15:08:26.332916  5393 net.cpp:84] Creating Layer loss
I0509 15:08:26.332924  5393 net.cpp:406] loss <- ip2
I0509 15:08:26.332932  5393 net.cpp:406] loss <- label
I0509 15:08:26.332944  5393 net.cpp:380] loss -> loss
I0509 15:08:26.332970  5393 layer_factory.hpp:77] Creating layer loss
…
I0509 15:08:26.333513  5393 solver.cpp:190] Creating test net (#0) specified by net file: models/sp_lenet_int1/lenet_train_val.prototxt
I0509 15:08:26.333583  5393 net.cpp:294] The NetState phase (1) differed from the phase (0) specified by a rule in layer data
I0509 15:08:26.333716  5393 net.cpp:51] Initializing net from parameters: 
name: "LeNet"
state {
  phase: TEST
}
layer {
  name: "data"
  type: "Data"
  top: "data"
  top: "label"
  include {
    phase: TEST
  }
  transform_param {
    scale: 0.00390625
  }
  data_param {
    source: "examples/final_sp/sp_val_lmdb_int1"
    batch_size: 64
    backend: LMDB
  }
}
layer {
  name: "conv1"
  type: "Convolution"
  bottom: "data"
  top: "conv1"
  param {
    lr_mult: 1
  }
  param {
    lr_mult: 2
  }
  convolution_param {
    num_output: 20
    kernel_size: 5
    stride: 1
    weight_filler {
      type: "xavier"
    }
    bias_filler {
      type: "constant"
    }
  }
}
layer {
  name: "pool1"
  type: "Pooling"
  bottom: "conv1"
  top: "pool1"
  pooling_param {
    pool: MAX
    kernel_size: 2
    stride: 2
  }
}
layer {
  name: "conv2"
  type: "Convolution"
  bottom: "pool1"
  top: "conv2"
  param {
    lr_mult: 1
  }
  param {
    lr_mult: 2
  }
  convolution_param {
    num_output: 50
    kernel_size: 5
    stride: 1
    weight_filler {
      type: "xavier"
    }
    bias_filler {
      type: "constant"
    }
  }
}
layer {
  name: "pool2"
  type: "Pooling"
  bottom: "conv2"
  top: "pool2"
  pooling_param {
    pool: MAX
    kernel_size: 2
    stride: 2
  }
}
layer {
  name: "ip1"
  type: "InnerProduct"
  bottom: "pool2"
  top: "ip1"
  param {
    lr_mult: 1
  }
  param {
    lr_mult: 2
  }
  inner_product_param {
    num_output: 500
    weight_filler {
      type: "xavier"
    }
    bias_filler {
      type: "constant"
    }
  }
}
layer {
  name: "relu1"
  type: "ReLU"
  bottom: "ip1"
  top: "ip1"
}
layer {
  name: "ip2"
  type: "InnerProduct"
  bottom: "ip1"
  top: "ip2"
  param {
    lr_mult: 1
  }
  param {
    lr_mult: 2
  }
  inner_product_param {
    num_output: 52
    weight_filler {
      type: "xavier"
    }
    bias_filler {
      type: "constant"
    }
  }
}
layer {
  name: "accuracy"
  type: "Accuracy"
  bottom: "ip2"
  bottom: "label"
  top: "accuracy"
  include {
    phase: TEST
  }
}
layer {
  name: "loss"
  type: "SoftmaxWithLoss"
  bottom: "ip2"
  bottom: "label"
  top: "loss"
}
I0509 15:08:26.333843  5393 layer_factory.hpp:77] Creating layer data
I0509 15:08:26.341675  5393 db_lmdb.cpp:35] Opened lmdb examples/final_sp/sp_val_lmdb_int1
I0509 15:08:26.353628  5393 net.cpp:84] Creating Layer data
I0509 15:08:26.353682  5393 net.cpp:380] data -> data
I0509 15:08:26.353709  5393 net.cpp:380] data -> label
I0509 15:08:26.354019  5393 data_layer.cpp:45] output data size: 64,3,28,28
I0509 15:08:26.360831  5393 net.cpp:122] Setting up data
I0509 15:08:26.360872  5393 net.cpp:129] Top shape: 64 3 28 28 (150528)
I0509 15:08:26.360883  5393 net.cpp:129] Top shape: 64 (64)
I0509 15:08:26.360893  5393 net.cpp:137] Memory required for data: 602368
I0509 15:08:26.360908  5393 layer_factory.hpp:77] Creating layer label_data_1_split
I0509 15:08:26.360934  5393 net.cpp:84] Creating Layer label_data_1_split
I0509 15:08:26.360988  5393 net.cpp:406] label_data_1_split <- label
I0509 15:08:26.361021  5393 net.cpp:380] label_data_1_split -> label_data_1_split_0
I0509 15:08:26.361080  5393 net.cpp:380] label_data_1_split -> label_data_1_split_1
I0509 15:08:26.361243  5393 net.cpp:122] Setting up label_data_1_split
I0509 15:08:26.361268  5393 net.cpp:129] Top shape: 64 (64)
I0509 15:08:26.361276  5393 net.cpp:129] Top shape: 64 (64)
I0509 15:08:26.361285  5393 net.cpp:137] Memory required for data: 602880
I0509 15:08:26.361296  5393 layer_factory.hpp:77] Creating layer conv1
I0509 15:08:26.361333  5393 net.cpp:84] Creating Layer conv1
I0509 15:08:26.361348  5393 net.cpp:406] conv1 <- data
I0509 15:08:26.361376  5393 net.cpp:380] conv1 -> conv1
I0509 15:08:26.361869  5393 net.cpp:122] Setting up conv1
I0509 15:08:26.361889  5393 net.cpp:129] Top shape: 64 20 24 24 (737280)
I0509 15:08:26.361899  5393 net.cpp:137] Memory required for data: 3552000
I0509 15:08:26.361930  5393 layer_factory.hpp:77] Creating layer pool1
I0509 15:08:26.361979  5393 net.cpp:84] Creating Layer pool1
I0509 15:08:26.361994  5393 net.cpp:406] pool1 <- conv1
I0509 15:08:26.362010  5393 net.cpp:380] pool1 -> pool1
I0509 15:08:26.362110  5393 net.cpp:122] Setting up pool1
I0509 15:08:26.362128  5393 net.cpp:129] Top shape: 64 20 12 12 (184320)
I0509 15:08:26.362139  5393 net.cpp:137] Memory required for data: 4289280
I0509 15:08:26.362150  5393 layer_factory.hpp:77] Creating layer conv2
I0509 15:08:26.362180  5393 net.cpp:84] Creating Layer conv2
I0509 15:08:26.362193  5393 net.cpp:406] conv2 <- pool1
I0509 15:08:26.362218  5393 net.cpp:380] conv2 -> conv2
I0509 15:08:26.363525  5393 net.cpp:122] Setting up conv2
I0509 15:08:26.363564  5393 net.cpp:129] Top shape: 64 50 8 8 (204800)
I0509 15:08:26.363577  5393 net.cpp:137] Memory required for data: 5108480
I0509 15:08:26.363603  5393 layer_factory.hpp:77] Creating layer pool2
I0509 15:08:26.363626  5393 net.cpp:84] Creating Layer pool2
I0509 15:08:26.363638  5393 net.cpp:406] pool2 <- conv2
I0509 15:08:26.363656  5393 net.cpp:380] pool2 -> pool2
I0509 15:08:26.363766  5393 net.cpp:122] Setting up pool2
I0509 15:08:26.363790  5393 net.cpp:129] Top shape: 64 50 4 4 (51200)
I0509 15:08:26.363801  5393 net.cpp:137] Memory required for data: 5313280
I0509 15:08:26.363812  5393 layer_factory.hpp:77] Creating layer ip1
I0509 15:08:26.363834  5393 net.cpp:84] Creating Layer ip1
I0509 15:08:26.363845  5393 net.cpp:406] ip1 <- pool2
I0509 15:08:26.363871  5393 net.cpp:380] ip1 -> ip1
I0509 15:08:26.373189  5393 net.cpp:122] Setting up ip1
I0509 15:08:26.373224  5393 net.cpp:129] Top shape: 64 500 (32000)
I0509 15:08:26.373232  5393 net.cpp:137] Memory required for data: 5441280
I0509 15:08:26.373258  5393 layer_factory.hpp:77] Creating layer relu1
I0509 15:08:26.373275  5393 net.cpp:84] Creating Layer relu1
I0509 15:08:26.373283  5393 net.cpp:406] relu1 <- ip1
I0509 15:08:26.373299  5393 net.cpp:367] relu1 -> ip1 (in-place)
I0509 15:08:26.373316  5393 net.cpp:122] Setting up relu1
I0509 15:08:26.373324  5393 net.cpp:129] Top shape: 64 500 (32000)
I0509 15:08:26.373332  5393 net.cpp:137] Memory required for data: 5569280
I0509 15:08:26.373338  5393 layer_factory.hpp:77] Creating layer ip2
I0509 15:08:26.373360  5393 net.cpp:84] Creating Layer ip2
I0509 15:08:26.373370  5393 net.cpp:406] ip2 <- ip1
I0509 15:08:26.373383  5393 net.cpp:380] ip2 -> ip2
I0509 15:08:26.374037  5393 net.cpp:122] Setting up ip2
I0509 15:08:26.374055  5393 net.cpp:129] Top shape: 64 52 (3328)
I0509 15:08:26.374063  5393 net.cpp:137] Memory required for data: 5582592
I0509 15:08:26.374076  5393 layer_factory.hpp:77] Creating layer ip2_ip2_0_split
I0509 15:08:26.374090  5393 net.cpp:84] Creating Layer ip2_ip2_0_split
I0509 15:08:26.374100  5393 net.cpp:406] ip2_ip2_0_split <- ip2
I0509 15:08:26.374117  5393 net.cpp:380] ip2_ip2_0_split -> ip2_ip2_0_split_0
I0509 15:08:26.374133  5393 net.cpp:380] ip2_ip2_0_split -> ip2_ip2_0_split_1
I0509 15:08:26.374208  5393 net.cpp:122] Setting up ip2_ip2_0_split
I0509 15:08:26.374223  5393 net.cpp:129] Top shape: 64 52 (3328)
I0509 15:08:26.374233  5393 net.cpp:129] Top shape: 64 52 (3328)
I0509 15:08:26.374239  5393 net.cpp:137] Memory required for data: 5609216
I0509 15:08:26.374248  5393 layer_factory.hpp:77] Creating layer accuracy
I0509 15:08:26.374260  5393 net.cpp:84] Creating Layer accuracy
I0509 15:08:26.374269  5393 net.cpp:406] accuracy <- ip2_ip2_0_split_0
I0509 15:08:26.374279  5393 net.cpp:406] accuracy <- label_data_1_split_0
I0509 15:08:26.374294  5393 net.cpp:380] accuracy -> accuracy
…
