…
I0509 16:54:17.410043  8531 net.cpp:294] The NetState phase (0) differed from the phase (1) specified by a rule in layer data
I0509 16:54:17.410059  8531 net.cpp:294] The NetState phase (0) differed from the phase (1) specified by a rule in layer accuracy
I0509 16:54:17.410140  8531 net.cpp:51] Initializing net from parameters: 
name: "LeNet"
state {
  phase: TRAIN
  level: 0
  stage: ""
}
layer {
  name: "data"
  type: "Data"
  top: "data"
  top: "label"
  include {
    phase: TRAIN
  }
  transform_param {
    scale: 0.00390625
  }
  data_param {
    source: "examples/final_sp/sp_train_lmdb_int3"
    batch_size: 64
    backend: LMDB
  }
}
layer {
  name: "conv1"
  type: "Convolution"
  bottom: "data"
  top: "conv1"
  param {
    lr_mult: 1
  }
  param {
    lr_mult: 2
  }
  convolution_param {
    num_output: 20
    kernel_size: 5
    stride: 1
    weight_filler {
      type: "xavier"
    }
    bias_filler {
      type: "constant"
    }
  }
}
layer {
  name: "pool1"
  type: "Pooling"
  bottom: "conv1"
  top: "pool1"
  pooling_param {
    pool: MAX
    kernel_size: 2
    stride: 2
  }
}
layer {
  name: "conv2"
  type: "Convolution"
  bottom: "pool1"
  top: "conv2"
  param {
    lr_mult: 1
  }
  param {
    lr_mult: 2
  }
  convolution_param {
    num_output: 50
    kernel_size: 5
    stride: 1
    weight_filler {
      type: "xavier"
    }
    bias_filler {
      type: "constant"
    }
  }
}
layer {
  name: "pool2"
  type: "Pooling"
  bottom: "conv2"
  top: "pool2"
  pooling_param {
    pool: MAX
    kernel_size: 2
    stride: 2
  }
}
layer {
  name: "ip1"
  type: "InnerProduct"
  bottom: "pool2"
  top: "ip1"
  param {
    lr_mult: 1
  }
  param {
    lr_mult: 2
  }
  inner_product_param {
    num_output: 500
    weight_filler {
      type: "xavier"
    }
    bias_filler {
      type: "constant"
    }
  }
}
layer {
  name: "relu1"
  type: "ReLU"
  bottom: "ip1"
  top: "ip1"
}
layer {
  name: "ip2"
  type: "InnerProduct"
  bottom: "ip1"
  top: "ip2"
  param {
    lr_mult: 1
  }
  param {
    lr_mult: 2
  }
  inner_product_param {
    num_output: 52
    weight_filler {
      type: "xavier"
    }
    bias_filler {
      type: "constant"
    }
  }
}
layer {
  name: "loss"
  type: "SoftmaxWithLoss"
  bottom: "ip2"
  bottom: "label"
  top: "loss"
}
I0509 16:54:17.410208  8531 layer_factory.hpp:77] Creating layer data
I0509 16:54:17.410308  8531 db_lmdb.cpp:35] Opened lmdb examples/final_sp/sp_train_lmdb_int3
I0509 16:54:17.410337  8531 net.cpp:84] Creating Layer data
I0509 16:54:17.410348  8531 net.cpp:380] data -> data
I0509 16:54:17.410375  8531 net.cpp:380] data -> label
I0509 16:54:17.411027  8531 data_layer.cpp:45] output data size: 64,3,28,28
I0509 16:54:17.415382  8531 net.cpp:122] Setting up data
I0509 16:54:17.415417  8531 net.cpp:129] Top shape: 64 3 28 28 (150528)
I0509 16:54:17.415429  8531 net.cpp:129] Top shape: 64 (64)
I0509 16:54:17.415434  8531 net.cpp:137] Memory required for data: 602368
I0509 16:54:17.415446  8531 layer_factory.hpp:77] Creating layer conv1
I0509 16:54:17.415480  8531 net.cpp:84] Creating Layer conv1
I0509 16:54:17.415490  8531 net.cpp:406] conv1 <- data
I0509 16:54:17.415510  8531 net.cpp:380] conv1 -> conv1
I0509 16:54:17.416935  8531 net.cpp:122] Setting up conv1
I0509 16:54:17.416954  8531 net.cpp:129] Top shape: 64 20 24 24 (737280)
I0509 16:54:17.416959  8531 net.cpp:137] Memory required for data: 3551488
I0509 16:54:17.416983  8531 layer_factory.hpp:77] Creating layer pool1
I0509 16:54:17.417001  8531 net.cpp:84] Creating Layer pool1
I0509 16:54:17.417027  8531 net.cpp:406] pool1 <- conv1
I0509 16:54:17.417038  8531 net.cpp:380] pool1 -> pool1
I0509 16:54:17.417395  8531 net.cpp:122] Setting up pool1
I0509 16:54:17.417405  8531 net.cpp:129] Top shape: 64 20 12 12 (184320)
I0509 16:54:17.417409  8531 net.cpp:137] Memory required for data: 4288768
I0509 16:54:17.417414  8531 layer_factory.hpp:77] Creating layer conv2
I0509 16:54:17.417429  8531 net.cpp:84] Creating Layer conv2
I0509 16:54:17.417439  8531 net.cpp:406] conv2 <- pool1
I0509 16:54:17.417450  8531 net.cpp:380] conv2 -> conv2
I0509 16:54:17.418272  8531 net.cpp:122] Setting up conv2
I0509 16:54:17.418284  8531 net.cpp:129] Top shape: 64 50 8 8 (204800)
I0509 16:54:17.418288  8531 net.cpp:137] Memory required for data: 5107968
I0509 16:54:17.418301  8531 layer_factory.hpp:77] Creating layer pool2
I0509 16:54:17.418313  8531 net.cpp:84] Creating Layer pool2
I0509 16:54:17.418321  8531 net.cpp:406] pool2 <- conv2
I0509 16:54:17.418330  8531 net.cpp:380] pool2 -> pool2
I0509 16:54:17.418375  8531 net.cpp:122] Setting up pool2
I0509 16:54:17.418385  8531 net.cpp:129] Top shape: 64 50 4 4 (51200)
I0509 16:54:17.418390  8531 net.cpp:137] Memory required for data: 5312768
I0509 16:54:17.418395  8531 layer_factory.hpp:77] Creating layer ip1
I0509 16:54:17.418404  8531 net.cpp:84] Creating Layer ip1
I0509 16:54:17.418411  8531 net.cpp:406] ip1 <- pool2
I0509 16:54:17.418421  8531 net.cpp:380] ip1 -> ip1
I0509 16:54:17.421430  8531 net.cpp:122] Setting up ip1
I0509 16:54:17.421450  8531 net.cpp:129] Top shape: 64 500 (32000)
I0509 16:54:17.421454  8531 net.cpp:137] Memory required for data: 5440768
I0509 16:54:17.421470  8531 layer_factory.hpp:77] Creating layer relu1
I0509 16:54:17.421489  8531 net.cpp:84] Creating Layer relu1
I0509 16:54:17.421494  8531 net.cpp:406] relu1 <- ip1
I0509 16:54:17.421502  8531 net.cpp:367] relu1 -> ip1 (in-place)
I0509 16:54:17.421514  8531 net.cpp:122] Setting up relu1
I0509 16:54:17.421520  8531 net.cpp:129] Top shape: 64 500 (32000)
I0509 16:54:17.421525  8531 net.cpp:137] Memory required for data: 5568768
I0509 16:54:17.421530  8531 layer_factory.hpp:77] Creating layer ip2
I0509 16:54:17.421540  8531 net.cpp:84] Creating Layer ip2
I0509 16:54:17.421546  8531 net.cpp:406] ip2 <- ip1
I0509 16:54:17.421555  8531 net.cpp:380] ip2 -> ip2
I0509 16:54:17.422164  8531 net.cpp:122] Setting up ip2
I0509 16:54:17.422179  8531 net.cpp:129] Top shape: 64 52 (3328)
I0509 16:54:17.422185  8531 net.cpp:137] Memory required for data: 5582080
I0509 16:54:17.422221  8531 layer_factory.hpp:77] Creating layer loss
I0509 16:54:17.422232  8531 net.cpp:84] Creating Layer loss
I0509 16:54:17.422238  8531 net.cpp:406] loss <- ip2
I0509 16:54:17.422245  8531 net.cpp:406] loss <- label
I0509 16:54:17.422255  8531 net.cpp:380] loss -> loss
I0509 16:54:17.422277  8531 layer_factory.hpp:77] Creating layer loss
…
I0509 16:54:17.422770  8531 solver.cpp:190] Creating test net (#0) specified by net file: models/sp_lenet_int3/lenet_train_val.prototxt
I0509 16:54:17.422819  8531 net.cpp:294] The NetState phase (1) differed from the phase (0) specified by a rule in layer data
I0509 16:54:17.422950  8531 net.cpp:51] Initializing net from parameters: 
name: "LeNet"
state {
  phase: TEST
}
layer {
  name: "data"
  type: "Data"
  top: "data"
  top: "label"
  include {
    phase: TEST
  }
  transform_param {
    scale: 0.00390625
  }
  data_param {
    source: "examples/final_sp/sp_val_lmdb_int3"
    batch_size: 64
    backend: LMDB
  }
}
layer {
  name: "conv1"
  type: "Convolution"
  bottom: "data"
  top: "conv1"
  param {
    lr_mult: 1
  }
  param {
    lr_mult: 2
  }
  convolution_param {
    num_output: 20
    kernel_size: 5
    stride: 1
    weight_filler {
      type: "xavier"
    }
    bias_filler {
      type: "constant"
    }
  }
}
layer {
  name: "pool1"
  type: "Pooling"
  bottom: "conv1"
  top: "pool1"
  pooling_param {
    pool: MAX
    kernel_size: 2
    stride: 2
  }
}
layer {
  name: "conv2"
  type: "Convolution"
  bottom: "pool1"
  top: "conv2"
  param {
    lr_mult: 1
  }
  param {
    lr_mult: 2
  }
  convolution_param {
    num_output: 50
    kernel_size: 5
    stride: 1
    weight_filler {
      type: "xavier"
    }
    bias_filler {
      type: "constant"
    }
  }
}
layer {
  name: "pool2"
  type: "Pooling"
  bottom: "conv2"
  top: "pool2"
  pooling_param {
    pool: MAX
    kernel_size: 2
    stride: 2
  }
}
layer {
  name: "ip1"
  type: "InnerProduct"
  bottom: "pool2"
  top: "ip1"
  param {
    lr_mult: 1
  }
  param {
    lr_mult: 2
  }
  inner_product_param {
    num_output: 500
    weight_filler {
      type: "xavier"
    }
    bias_filler {
      type: "constant"
    }
  }
}
layer {
  name: "relu1"
  type: "ReLU"
  bottom: "ip1"
  top: "ip1"
}
layer {
  name: "ip2"
  type: "InnerProduct"
  bottom: "ip1"
  top: "ip2"
  param {
    lr_mult: 1
  }
  param {
    lr_mult: 2
  }
  inner_product_param {
    num_output: 52
    weight_filler {
      type: "xavier"
    }
    bias_filler {
      type: "constant"
    }
  }
}
layer {
  name: "accuracy"
  type: "Accuracy"
  bottom: "ip2"
  bottom: "label"
  top: "accuracy"
  include {
    phase: TEST
  }
}
layer {
  name: "loss"
  type: "SoftmaxWithLoss"
  bottom: "ip2"
  bottom: "label"
  top: "loss"
}
I0509 16:54:17.423033  8531 layer_factory.hpp:77] Creating layer data
I0509 16:54:17.423141  8531 db_lmdb.cpp:35] Opened lmdb examples/final_sp/sp_val_lmdb_int3
I0509 16:54:17.423161  8531 net.cpp:84] Creating Layer data
I0509 16:54:17.423169  8531 net.cpp:380] data -> data
I0509 16:54:17.423182  8531 net.cpp:380] data -> label
I0509 16:54:17.423301  8531 data_layer.cpp:45] output data size: 64,3,28,28
I0509 16:54:17.428902  8531 net.cpp:122] Setting up data
I0509 16:54:17.428932  8531 net.cpp:129] Top shape: 64 3 28 28 (150528)
I0509 16:54:17.428939  8531 net.cpp:129] Top shape: 64 (64)
I0509 16:54:17.428946  8531 net.cpp:137] Memory required for data: 602368
I0509 16:54:17.428953  8531 layer_factory.hpp:77] Creating layer label_data_1_split
I0509 16:54:17.428972  8531 net.cpp:84] Creating Layer label_data_1_split
I0509 16:54:17.428979  8531 net.cpp:406] label_data_1_split <- label
I0509 16:54:17.428990  8531 net.cpp:380] label_data_1_split -> label_data_1_split_0
I0509 16:54:17.429002  8531 net.cpp:380] label_data_1_split -> label_data_1_split_1
I0509 16:54:17.429076  8531 net.cpp:122] Setting up label_data_1_split
I0509 16:54:17.429093  8531 net.cpp:129] Top shape: 64 (64)
I0509 16:54:17.429100  8531 net.cpp:129] Top shape: 64 (64)
I0509 16:54:17.429103  8531 net.cpp:137] Memory required for data: 602880
I0509 16:54:17.429108  8531 layer_factory.hpp:77] Creating layer conv1
I0509 16:54:17.429124  8531 net.cpp:84] Creating Layer conv1
I0509 16:54:17.429131  8531 net.cpp:406] conv1 <- data
I0509 16:54:17.429139  8531 net.cpp:380] conv1 -> conv1
I0509 16:54:17.429432  8531 net.cpp:122] Setting up conv1
I0509 16:54:17.429445  8531 net.cpp:129] Top shape: 64 20 24 24 (737280)
I0509 16:54:17.429450  8531 net.cpp:137] Memory required for data: 3552000
I0509 16:54:17.429463  8531 layer_factory.hpp:77] Creating layer pool1
I0509 16:54:17.429486  8531 net.cpp:84] Creating Layer pool1
I0509 16:54:17.429493  8531 net.cpp:406] pool1 <- conv1
I0509 16:54:17.429502  8531 net.cpp:380] pool1 -> pool1
I0509 16:54:17.429544  8531 net.cpp:122] Setting up pool1
I0509 16:54:17.429554  8531 net.cpp:129] Top shape: 64 20 12 12 (184320)
I0509 16:54:17.429559  8531 net.cpp:137] Memory required for data: 4289280
I0509 16:54:17.429564  8531 layer_factory.hpp:77] Creating layer conv2
I0509 16:54:17.429575  8531 net.cpp:84] Creating Layer conv2
I0509 16:54:17.429581  8531 net.cpp:406] conv2 <- pool1
I0509 16:54:17.429589  8531 net.cpp:380] conv2 -> conv2
I0509 16:54:17.430343  8531 net.cpp:122] Setting up conv2
I0509 16:54:17.430361  8531 net.cpp:129] Top shape: 64 50 8 8 (204800)
I0509 16:54:17.430366  8531 net.cpp:137] Memory required for data: 5108480
I0509 16:54:17.430379  8531 layer_factory.hpp:77] Creating layer pool2
I0509 16:54:17.430392  8531 net.cpp:84] Creating Layer pool2
I0509 16:54:17.430397  8531 net.cpp:406] pool2 <- conv2
I0509 16:54:17.430408  8531 net.cpp:380] pool2 -> pool2
I0509 16:54:17.430452  8531 net.cpp:122] Setting up pool2
I0509 16:54:17.430461  8531 net.cpp:129] Top shape: 64 50 4 4 (51200)
I0509 16:54:17.430467  8531 net.cpp:137] Memory required for data: 5313280
I0509 16:54:17.430471  8531 layer_factory.hpp:77] Creating layer ip1
I0509 16:54:17.430487  8531 net.cpp:84] Creating Layer ip1
I0509 16:54:17.430493  8531 net.cpp:406] ip1 <- pool2
I0509 16:54:17.430502  8531 net.cpp:380] ip1 -> ip1
I0509 16:54:17.435636  8531 net.cpp:122] Setting up ip1
I0509 16:54:17.435658  8531 net.cpp:129] Top shape: 64 500 (32000)
I0509 16:54:17.435663  8531 net.cpp:137] Memory required for data: 5441280
I0509 16:54:17.435678  8531 layer_factory.hpp:77] Creating layer relu1
I0509 16:54:17.435689  8531 net.cpp:84] Creating Layer relu1
I0509 16:54:17.435694  8531 net.cpp:406] relu1 <- ip1
I0509 16:54:17.435703  8531 net.cpp:367] relu1 -> ip1 (in-place)
I0509 16:54:17.435714  8531 net.cpp:122] Setting up relu1
I0509 16:54:17.435719  8531 net.cpp:129] Top shape: 64 500 (32000)
I0509 16:54:17.435724  8531 net.cpp:137] Memory required for data: 5569280
I0509 16:54:17.435729  8531 layer_factory.hpp:77] Creating layer ip2
I0509 16:54:17.435740  8531 net.cpp:84] Creating Layer ip2
I0509 16:54:17.435745  8531 net.cpp:406] ip2 <- ip1
I0509 16:54:17.435753  8531 net.cpp:380] ip2 -> ip2
I0509 16:54:17.436172  8531 net.cpp:122] Setting up ip2
I0509 16:54:17.436180  8531 net.cpp:129] Top shape: 64 52 (3328)
I0509 16:54:17.436185  8531 net.cpp:137] Memory required for data: 5582592
I0509 16:54:17.436193  8531 layer_factory.hpp:77] Creating layer ip2_ip2_0_split
I0509 16:54:17.436205  8531 net.cpp:84] Creating Layer ip2_ip2_0_split
I0509 16:54:17.436210  8531 net.cpp:406] ip2_ip2_0_split <- ip2
I0509 16:54:17.436218  8531 net.cpp:380] ip2_ip2_0_split -> ip2_ip2_0_split_0
I0509 16:54:17.436228  8531 net.cpp:380] ip2_ip2_0_split -> ip2_ip2_0_split_1
I0509 16:54:17.436285  8531 net.cpp:122] Setting up ip2_ip2_0_split
I0509 16:54:17.436292  8531 net.cpp:129] Top shape: 64 52 (3328)
I0509 16:54:17.436298  8531 net.cpp:129] Top shape: 64 52 (3328)
I0509 16:54:17.436302  8531 net.cpp:137] Memory required for data: 5609216
I0509 16:54:17.436307  8531 layer_factory.hpp:77] Creating layer accuracy
I0509 16:54:17.436318  8531 net.cpp:84] Creating Layer accuracy
I0509 16:54:17.436323  8531 net.cpp:406] accuracy <- ip2_ip2_0_split_0
I0509 16:54:17.436331  8531 net.cpp:406] accuracy <- label_data_1_split_0
I0509 16:54:17.436337  8531 net.cpp:380] accuracy -> accuracy
…
