…
I0518 13:29:48.888909 31949 net.cpp:294] The NetState phase (0) differed from the phase (1) specified by a rule in layer data
I0518 13:29:48.888957 31949 net.cpp:294] The NetState phase (0) differed from the phase (1) specified by a rule in layer accuracy
I0518 13:29:48.889143 31949 net.cpp:51] Initializing net from parameters: 
name: "LeNet"
state {
  phase: TRAIN
  level: 0
  stage: ""
}
layer {
  name: "data"
  type: "Data"
  top: "data"
  top: "label"
  include {
    phase: TRAIN
  }
  transform_param {
    scale: 0.00390625
  }
  data_param {
    source: "/home/lincy/workflow_structure/USERS/lincy/examples/sp_train_lmdb"
    batch_size: 64
    backend: LMDB
  }
}
layer {
  name: "conv1"
  type: "Convolution"
  bottom: "data"
  top: "conv1"
  param {
    lr_mult: 1
  }
  param {
    lr_mult: 2
  }
  convolution_param {
    num_output: 20
    kernel_size: 5
    stride: 1
    weight_filler {
      type: "xavier"
    }
    bias_filler {
      type: "constant"
    }
  }
}
layer {
  name: "pool1"
  type: "Pooling"
  bottom: "conv1"
  top: "pool1"
  pooling_param {
    pool: MAX
    kernel_size: 2
    stride: 2
  }
}
layer {
  name: "conv2"
  type: "Convolution"
  bottom: "pool1"
  top: "conv2"
  param {
    lr_mult: 1
  }
  param {
    lr_mult: 2
  }
  convolution_param {
    num_output: 50
    kernel_size: 5
    stride: 1
    weight_filler {
      type: "xavier"
    }
    bias_filler {
      type: "constant"
    }
  }
}
layer {
  name: "pool2"
  type: "Pooling"
  bottom: "conv2"
  top: "pool2"
  pooling_param {
    pool: MAX
    kernel_size: 2
    stride: 2
  }
}
layer {
  name: "ip1"
  type: "InnerProduct"
  bottom: "pool2"
  top: "ip1"
  param {
    lr_mult: 1
  }
  param {
    lr_mult: 2
  }
  inner_product_param {
    num_output: 500
    weight_filler {
      type: "xavier"
    }
    bias_filler {
      type: "constant"
    }
  }
}
layer {
  name: "relu1"
  type: "ReLU"
  bottom: "ip1"
  top: "ip1"
}
layer {
  name: "ip2"
  type: "InnerProduct"
  bottom: "ip1"
  top: "ip2"
  param {
    lr_mult: 1
  }
  param {
    lr_mult: 2
  }
  inner_product_param {
    num_output: 52
    weight_filler {
      type: "xavier"
    }
    bias_filler {
      type: "constant"
    }
  }
}
layer {
  name: "loss"
  type: "SoftmaxWithLoss"
  bottom: "ip2"
  bottom: "label"
  top: "loss"
}
I0518 13:29:48.889263 31949 layer_factory.hpp:77] Creating layer data
I0518 13:29:48.889508 31949 db_lmdb.cpp:35] Opened lmdb /home/lincy/workflow_structure/USERS/lincy/examples/sp_train_lmdb
I0518 13:29:48.890029 31949 net.cpp:84] Creating Layer data
I0518 13:29:48.890055 31949 net.cpp:380] data -> data
I0518 13:29:48.890092 31949 net.cpp:380] data -> label
I0518 13:29:48.891189 31949 data_layer.cpp:45] output data size: 64,3,28,28
I0518 13:29:48.903679 31949 net.cpp:122] Setting up data
I0518 13:29:48.903728 31949 net.cpp:129] Top shape: 64 3 28 28 (150528)
I0518 13:29:48.903741 31949 net.cpp:129] Top shape: 64 (64)
I0518 13:29:48.903748 31949 net.cpp:137] Memory required for data: 602368
I0518 13:29:48.903762 31949 layer_factory.hpp:77] Creating layer conv1
I0518 13:29:48.903859 31949 net.cpp:84] Creating Layer conv1
I0518 13:29:48.903897 31949 net.cpp:406] conv1 <- data
I0518 13:29:48.903964 31949 net.cpp:380] conv1 -> conv1
I0518 13:29:48.906656 31949 net.cpp:122] Setting up conv1
I0518 13:29:48.906689 31949 net.cpp:129] Top shape: 64 20 24 24 (737280)
I0518 13:29:48.906762 31949 net.cpp:137] Memory required for data: 3551488
I0518 13:29:48.906821 31949 layer_factory.hpp:77] Creating layer pool1
I0518 13:29:48.906841 31949 net.cpp:84] Creating Layer pool1
I0518 13:29:48.906878 31949 net.cpp:406] pool1 <- conv1
I0518 13:29:48.906916 31949 net.cpp:380] pool1 -> pool1
I0518 13:29:48.907029 31949 net.cpp:122] Setting up pool1
I0518 13:29:48.907044 31949 net.cpp:129] Top shape: 64 20 12 12 (184320)
I0518 13:29:48.907050 31949 net.cpp:137] Memory required for data: 4288768
I0518 13:29:48.907055 31949 layer_factory.hpp:77] Creating layer conv2
I0518 13:29:48.907076 31949 net.cpp:84] Creating Layer conv2
I0518 13:29:48.907109 31949 net.cpp:406] conv2 <- pool1
I0518 13:29:48.907124 31949 net.cpp:380] conv2 -> conv2
I0518 13:29:48.908565 31949 net.cpp:122] Setting up conv2
I0518 13:29:48.908589 31949 net.cpp:129] Top shape: 64 50 8 8 (204800)
I0518 13:29:48.908596 31949 net.cpp:137] Memory required for data: 5107968
I0518 13:29:48.908617 31949 layer_factory.hpp:77] Creating layer pool2
I0518 13:29:48.908670 31949 net.cpp:84] Creating Layer pool2
I0518 13:29:48.908684 31949 net.cpp:406] pool2 <- conv2
I0518 13:29:48.908696 31949 net.cpp:380] pool2 -> pool2
I0518 13:29:48.908782 31949 net.cpp:122] Setting up pool2
I0518 13:29:48.908794 31949 net.cpp:129] Top shape: 64 50 4 4 (51200)
I0518 13:29:48.908804 31949 net.cpp:137] Memory required for data: 5312768
I0518 13:29:48.908812 31949 layer_factory.hpp:77] Creating layer ip1
I0518 13:29:48.908826 31949 net.cpp:84] Creating Layer ip1
I0518 13:29:48.908860 31949 net.cpp:406] ip1 <- pool2
I0518 13:29:48.908874 31949 net.cpp:380] ip1 -> ip1
I0518 13:29:48.917070 31949 net.cpp:122] Setting up ip1
I0518 13:29:48.917096 31949 net.cpp:129] Top shape: 64 500 (32000)
I0518 13:29:48.917100 31949 net.cpp:137] Memory required for data: 5440768
I0518 13:29:48.917120 31949 layer_factory.hpp:77] Creating layer relu1
I0518 13:29:48.917131 31949 net.cpp:84] Creating Layer relu1
I0518 13:29:48.917136 31949 net.cpp:406] relu1 <- ip1
I0518 13:29:48.917143 31949 net.cpp:367] relu1 -> ip1 (in-place)
I0518 13:29:48.917157 31949 net.cpp:122] Setting up relu1
I0518 13:29:48.917165 31949 net.cpp:129] Top shape: 64 500 (32000)
I0518 13:29:48.917170 31949 net.cpp:137] Memory required for data: 5568768
I0518 13:29:48.917172 31949 layer_factory.hpp:77] Creating layer ip2
I0518 13:29:48.917181 31949 net.cpp:84] Creating Layer ip2
I0518 13:29:48.917184 31949 net.cpp:406] ip2 <- ip1
I0518 13:29:48.917189 31949 net.cpp:380] ip2 -> ip2
I0518 13:29:48.917397 31949 net.cpp:122] Setting up ip2
I0518 13:29:48.917405 31949 net.cpp:129] Top shape: 64 52 (3328)
I0518 13:29:48.917407 31949 net.cpp:137] Memory required for data: 5582080
I0518 13:29:48.917414 31949 layer_factory.hpp:77] Creating layer loss
I0518 13:29:48.917433 31949 net.cpp:84] Creating Layer loss
I0518 13:29:48.917438 31949 net.cpp:406] loss <- ip2
I0518 13:29:48.917448 31949 net.cpp:406] loss <- label
I0518 13:29:48.917459 31949 net.cpp:380] loss -> loss
I0518 13:29:48.917477 31949 layer_factory.hpp:77] Creating layer loss
…
I0518 13:29:48.917826 31949 solver.cpp:190] Creating test net (#0) specified by net file: /home/lincy/workflow_structure/USERS/lincy/lenet_train_val.prototxt
I0518 13:29:48.917851 31949 net.cpp:294] The NetState phase (1) differed from the phase (0) specified by a rule in layer data
I0518 13:29:48.917927 31949 net.cpp:51] Initializing net from parameters: 
name: "LeNet"
state {
  phase: TEST
}
layer {
  name: "data"
  type: "Data"
  top: "data"
  top: "label"
  include {
    phase: TEST
  }
  transform_param {
    scale: 0.00390625
  }
  data_param {
    source: "/home/lincy/workflow_structure/USERS/lincy/examples/sp_val_lmdb"
    batch_size: 64
    backend: LMDB
  }
}
layer {
  name: "conv1"
  type: "Convolution"
  bottom: "data"
  top: "conv1"
  param {
    lr_mult: 1
  }
  param {
    lr_mult: 2
  }
  convolution_param {
    num_output: 20
    kernel_size: 5
    stride: 1
    weight_filler {
      type: "xavier"
    }
    bias_filler {
      type: "constant"
    }
  }
}
layer {
  name: "pool1"
  type: "Pooling"
  bottom: "conv1"
  top: "pool1"
  pooling_param {
    pool: MAX
    kernel_size: 2
    stride: 2
  }
}
layer {
  name: "conv2"
  type: "Convolution"
  bottom: "pool1"
  top: "conv2"
  param {
    lr_mult: 1
  }
  param {
    lr_mult: 2
  }
  convolution_param {
    num_output: 50
    kernel_size: 5
    stride: 1
    weight_filler {
      type: "xavier"
    }
    bias_filler {
      type: "constant"
    }
  }
}
layer {
  name: "pool2"
  type: "Pooling"
  bottom: "conv2"
  top: "pool2"
  pooling_param {
    pool: MAX
    kernel_size: 2
    stride: 2
  }
}
layer {
  name: "ip1"
  type: "InnerProduct"
  bottom: "pool2"
  top: "ip1"
  param {
    lr_mult: 1
  }
  param {
    lr_mult: 2
  }
  inner_product_param {
    num_output: 500
    weight_filler {
      type: "xavier"
    }
    bias_filler {
      type: "constant"
    }
  }
}
layer {
  name: "relu1"
  type: "ReLU"
  bottom: "ip1"
  top: "ip1"
}
layer {
  name: "ip2"
  type: "InnerProduct"
  bottom: "ip1"
  top: "ip2"
  param {
    lr_mult: 1
  }
  param {
    lr_mult: 2
  }
  inner_product_param {
    num_output: 52
    weight_filler {
      type: "xavier"
    }
    bias_filler {
      type: "constant"
    }
  }
}
layer {
  name: "accuracy"
  type: "Accuracy"
  bottom: "ip2"
  bottom: "label"
  top: "accuracy"
  include {
    phase: TEST
  }
}
layer {
  name: "loss"
  type: "SoftmaxWithLoss"
  bottom: "ip2"
  bottom: "label"
  top: "loss"
}
I0518 13:29:48.918000 31949 layer_factory.hpp:77] Creating layer data
I0518 13:29:48.918059 31949 db_lmdb.cpp:35] Opened lmdb /home/lincy/workflow_structure/USERS/lincy/examples/sp_val_lmdb
I0518 13:29:48.918073 31949 net.cpp:84] Creating Layer data
I0518 13:29:48.918082 31949 net.cpp:380] data -> data
I0518 13:29:48.918094 31949 net.cpp:380] data -> label
I0518 13:29:48.918164 31949 data_layer.cpp:45] output data size: 64,3,28,28
I0518 13:29:48.922294 31949 net.cpp:122] Setting up data
I0518 13:29:48.922327 31949 net.cpp:129] Top shape: 64 3 28 28 (150528)
I0518 13:29:48.922334 31949 net.cpp:129] Top shape: 64 (64)
I0518 13:29:48.922338 31949 net.cpp:137] Memory required for data: 602368
I0518 13:29:48.922344 31949 layer_factory.hpp:77] Creating layer label_data_1_split
I0518 13:29:48.922358 31949 net.cpp:84] Creating Layer label_data_1_split
I0518 13:29:48.922363 31949 net.cpp:406] label_data_1_split <- label
I0518 13:29:48.922374 31949 net.cpp:380] label_data_1_split -> label_data_1_split_0
I0518 13:29:48.922385 31949 net.cpp:380] label_data_1_split -> label_data_1_split_1
I0518 13:29:48.922430 31949 net.cpp:122] Setting up label_data_1_split
I0518 13:29:48.922437 31949 net.cpp:129] Top shape: 64 (64)
I0518 13:29:48.922442 31949 net.cpp:129] Top shape: 64 (64)
I0518 13:29:48.922446 31949 net.cpp:137] Memory required for data: 602880
I0518 13:29:48.922449 31949 layer_factory.hpp:77] Creating layer conv1
I0518 13:29:48.922466 31949 net.cpp:84] Creating Layer conv1
I0518 13:29:48.922471 31949 net.cpp:406] conv1 <- data
I0518 13:29:48.922477 31949 net.cpp:380] conv1 -> conv1
I0518 13:29:48.922720 31949 net.cpp:122] Setting up conv1
I0518 13:29:48.922729 31949 net.cpp:129] Top shape: 64 20 24 24 (737280)
I0518 13:29:48.922734 31949 net.cpp:137] Memory required for data: 3552000
I0518 13:29:48.922744 31949 layer_factory.hpp:77] Creating layer pool1
I0518 13:29:48.922749 31949 net.cpp:84] Creating Layer pool1
I0518 13:29:48.922754 31949 net.cpp:406] pool1 <- conv1
I0518 13:29:48.922760 31949 net.cpp:380] pool1 -> pool1
I0518 13:29:48.922792 31949 net.cpp:122] Setting up pool1
I0518 13:29:48.922799 31949 net.cpp:129] Top shape: 64 20 12 12 (184320)
I0518 13:29:48.922803 31949 net.cpp:137] Memory required for data: 4289280
I0518 13:29:48.922807 31949 layer_factory.hpp:77] Creating layer conv2
I0518 13:29:48.922818 31949 net.cpp:84] Creating Layer conv2
I0518 13:29:48.922822 31949 net.cpp:406] conv2 <- pool1
I0518 13:29:48.922828 31949 net.cpp:380] conv2 -> conv2
I0518 13:29:48.923544 31949 net.cpp:122] Setting up conv2
I0518 13:29:48.923562 31949 net.cpp:129] Top shape: 64 50 8 8 (204800)
I0518 13:29:48.923565 31949 net.cpp:137] Memory required for data: 5108480
I0518 13:29:48.923574 31949 layer_factory.hpp:77] Creating layer pool2
I0518 13:29:48.923581 31949 net.cpp:84] Creating Layer pool2
I0518 13:29:48.923585 31949 net.cpp:406] pool2 <- conv2
I0518 13:29:48.923593 31949 net.cpp:380] pool2 -> pool2
I0518 13:29:48.923629 31949 net.cpp:122] Setting up pool2
I0518 13:29:48.923635 31949 net.cpp:129] Top shape: 64 50 4 4 (51200)
I0518 13:29:48.923640 31949 net.cpp:137] Memory required for data: 5313280
I0518 13:29:48.923642 31949 layer_factory.hpp:77] Creating layer ip1
I0518 13:29:48.923651 31949 net.cpp:84] Creating Layer ip1
I0518 13:29:48.923655 31949 net.cpp:406] ip1 <- pool2
I0518 13:29:48.923663 31949 net.cpp:380] ip1 -> ip1
I0518 13:29:48.927371 31949 net.cpp:122] Setting up ip1
I0518 13:29:48.927387 31949 net.cpp:129] Top shape: 64 500 (32000)
I0518 13:29:48.927392 31949 net.cpp:137] Memory required for data: 5441280
I0518 13:29:48.927405 31949 layer_factory.hpp:77] Creating layer relu1
I0518 13:29:48.927413 31949 net.cpp:84] Creating Layer relu1
I0518 13:29:48.927417 31949 net.cpp:406] relu1 <- ip1
I0518 13:29:48.927426 31949 net.cpp:367] relu1 -> ip1 (in-place)
I0518 13:29:48.927435 31949 net.cpp:122] Setting up relu1
I0518 13:29:48.927440 31949 net.cpp:129] Top shape: 64 500 (32000)
I0518 13:29:48.927443 31949 net.cpp:137] Memory required for data: 5569280
I0518 13:29:48.927446 31949 layer_factory.hpp:77] Creating layer ip2
I0518 13:29:48.927455 31949 net.cpp:84] Creating Layer ip2
I0518 13:29:48.927459 31949 net.cpp:406] ip2 <- ip1
I0518 13:29:48.927466 31949 net.cpp:380] ip2 -> ip2
I0518 13:29:48.927757 31949 net.cpp:122] Setting up ip2
I0518 13:29:48.927767 31949 net.cpp:129] Top shape: 64 52 (3328)
I0518 13:29:48.927770 31949 net.cpp:137] Memory required for data: 5582592
I0518 13:29:48.927778 31949 layer_factory.hpp:77] Creating layer ip2_ip2_0_split
I0518 13:29:48.927783 31949 net.cpp:84] Creating Layer ip2_ip2_0_split
I0518 13:29:48.927788 31949 net.cpp:406] ip2_ip2_0_split <- ip2
I0518 13:29:48.927795 31949 net.cpp:380] ip2_ip2_0_split -> ip2_ip2_0_split_0
I0518 13:29:48.927803 31949 net.cpp:380] ip2_ip2_0_split -> ip2_ip2_0_split_1
I0518 13:29:48.928192 31949 net.cpp:122] Setting up ip2_ip2_0_split
I0518 13:29:48.928202 31949 net.cpp:129] Top shape: 64 52 (3328)
I0518 13:29:48.928206 31949 net.cpp:129] Top shape: 64 52 (3328)
I0518 13:29:48.928210 31949 net.cpp:137] Memory required for data: 5609216
I0518 13:29:48.928213 31949 layer_factory.hpp:77] Creating layer accuracy
I0518 13:29:48.928220 31949 net.cpp:84] Creating Layer accuracy
I0518 13:29:48.928225 31949 net.cpp:406] accuracy <- ip2_ip2_0_split_0
I0518 13:29:48.928231 31949 net.cpp:406] accuracy <- label_data_1_split_0
I0518 13:29:48.928237 31949 net.cpp:380] accuracy -> accuracy
…
