…
I0503 01:26:32.974757  6233 net.cpp:294] The NetState phase (0) differed from the phase (1) specified by a rule in layer data
I0503 01:26:32.974767  6233 net.cpp:294] The NetState phase (0) differed from the phase (1) specified by a rule in layer accuracy
I0503 01:26:32.974830  6233 net.cpp:51] Initializing net from parameters: 
name: "LeNet"
state {
  phase: TRAIN
  level: 0
  stage: ""
}
layer {
  name: "data"
  type: "Data"
  top: "data"
  top: "label"
  include {
    phase: TRAIN
  }
  transform_param {
    scale: 0.00390625
  }
  data_param {
    source: "examples/final_sp/sp_train_lmdb"
    batch_size: 64
    backend: LMDB
  }
}
layer {
  name: "conv1"
  type: "Convolution"
  bottom: "data"
  top: "conv1"
  param {
    lr_mult: 1
  }
  param {
    lr_mult: 2
  }
  convolution_param {
    num_output: 20
    kernel_size: 5
    stride: 1
    weight_filler {
      type: "xavier"
    }
    bias_filler {
      type: "constant"
    }
  }
}
layer {
  name: "pool1"
  type: "Pooling"
  bottom: "conv1"
  top: "pool1"
  pooling_param {
    pool: MAX
    kernel_size: 2
    stride: 2
  }
}
layer {
  name: "conv2"
  type: "Convolution"
  bottom: "pool1"
  top: "conv2"
  param {
    lr_mult: 1
  }
  param {
    lr_mult: 2
  }
  convolution_param {
    num_output: 50
    kernel_size: 5
    stride: 1
    weight_filler {
      type: "xavier"
    }
    bias_filler {
      type: "constant"
    }
  }
}
layer {
  name: "pool2"
  type: "Pooling"
  bottom: "conv2"
  top: "pool2"
  pooling_param {
    pool: MAX
    kernel_size: 2
    stride: 2
  }
}
layer {
  name: "ip1"
  type: "InnerProduct"
  bottom: "pool2"
  top: "ip1"
  param {
    lr_mult: 1
  }
  param {
    lr_mult: 2
  }
  inner_product_param {
    num_output: 500
    weight_filler {
      type: "xavier"
    }
    bias_filler {
      type: "constant"
    }
  }
}
layer {
  name: "relu1"
  type: "ReLU"
  bottom: "ip1"
  top: "ip1"
}
layer {
  name: "ip2"
  type: "InnerProduct"
  bottom: "ip1"
  top: "ip2"
  param {
    lr_mult: 1
  }
  param {
    lr_mult: 2
  }
  inner_product_param {
    num_output: 52
    weight_filler {
      type: "xavier"
    }
    bias_filler {
      type: "constant"
    }
  }
}
layer {
  name: "loss"
  type: "SoftmaxWithLoss"
  bottom: "ip2"
  bottom: "label"
  top: "loss"
}
I0503 01:26:32.974875  6233 layer_factory.hpp:77] Creating layer data
I0503 01:26:32.974956  6233 db_lmdb.cpp:35] Opened lmdb examples/final_sp/sp_train_lmdb
I0503 01:26:32.974974  6233 net.cpp:84] Creating Layer data
I0503 01:26:32.974980  6233 net.cpp:380] data -> data
I0503 01:26:32.974997  6233 net.cpp:380] data -> label
I0503 01:26:32.975527  6233 data_layer.cpp:45] output data size: 64,3,28,28
I0503 01:26:32.979405  6233 net.cpp:122] Setting up data
I0503 01:26:32.979434  6233 net.cpp:129] Top shape: 64 3 28 28 (150528)
I0503 01:26:32.979440  6233 net.cpp:129] Top shape: 64 (64)
I0503 01:26:32.979444  6233 net.cpp:137] Memory required for data: 602368
I0503 01:26:32.979457  6233 layer_factory.hpp:77] Creating layer conv1
I0503 01:26:32.979488  6233 net.cpp:84] Creating Layer conv1
I0503 01:26:32.979496  6233 net.cpp:406] conv1 <- data
I0503 01:26:32.979513  6233 net.cpp:380] conv1 -> conv1
I0503 01:26:32.980525  6233 net.cpp:122] Setting up conv1
I0503 01:26:32.980540  6233 net.cpp:129] Top shape: 64 20 24 24 (737280)
I0503 01:26:32.980545  6233 net.cpp:137] Memory required for data: 3551488
I0503 01:26:32.980567  6233 layer_factory.hpp:77] Creating layer pool1
I0503 01:26:32.980597  6233 net.cpp:84] Creating Layer pool1
I0503 01:26:32.980602  6233 net.cpp:406] pool1 <- conv1
I0503 01:26:32.980610  6233 net.cpp:380] pool1 -> pool1
I0503 01:26:32.980696  6233 net.cpp:122] Setting up pool1
I0503 01:26:32.980703  6233 net.cpp:129] Top shape: 64 20 12 12 (184320)
I0503 01:26:32.980708  6233 net.cpp:137] Memory required for data: 4288768
I0503 01:26:32.980712  6233 layer_factory.hpp:77] Creating layer conv2
I0503 01:26:32.980722  6233 net.cpp:84] Creating Layer conv2
I0503 01:26:32.980727  6233 net.cpp:406] conv2 <- pool1
I0503 01:26:32.980734  6233 net.cpp:380] conv2 -> conv2
I0503 01:26:32.981853  6233 net.cpp:122] Setting up conv2
I0503 01:26:32.981865  6233 net.cpp:129] Top shape: 64 50 8 8 (204800)
I0503 01:26:32.981869  6233 net.cpp:137] Memory required for data: 5107968
I0503 01:26:32.981881  6233 layer_factory.hpp:77] Creating layer pool2
I0503 01:26:32.981890  6233 net.cpp:84] Creating Layer pool2
I0503 01:26:32.981909  6233 net.cpp:406] pool2 <- conv2
I0503 01:26:32.981917  6233 net.cpp:380] pool2 -> pool2
I0503 01:26:32.981958  6233 net.cpp:122] Setting up pool2
I0503 01:26:32.981966  6233 net.cpp:129] Top shape: 64 50 4 4 (51200)
I0503 01:26:32.981969  6233 net.cpp:137] Memory required for data: 5312768
I0503 01:26:32.981973  6233 layer_factory.hpp:77] Creating layer ip1
I0503 01:26:32.981981  6233 net.cpp:84] Creating Layer ip1
I0503 01:26:32.981986  6233 net.cpp:406] ip1 <- pool2
I0503 01:26:32.981993  6233 net.cpp:380] ip1 -> ip1
I0503 01:26:32.984519  6233 net.cpp:122] Setting up ip1
I0503 01:26:32.984534  6233 net.cpp:129] Top shape: 64 500 (32000)
I0503 01:26:32.984535  6233 net.cpp:137] Memory required for data: 5440768
I0503 01:26:32.984547  6233 layer_factory.hpp:77] Creating layer relu1
I0503 01:26:32.984557  6233 net.cpp:84] Creating Layer relu1
I0503 01:26:32.984561  6233 net.cpp:406] relu1 <- ip1
I0503 01:26:32.984567  6233 net.cpp:367] relu1 -> ip1 (in-place)
I0503 01:26:32.984575  6233 net.cpp:122] Setting up relu1
I0503 01:26:32.984580  6233 net.cpp:129] Top shape: 64 500 (32000)
I0503 01:26:32.984583  6233 net.cpp:137] Memory required for data: 5568768
I0503 01:26:32.984586  6233 layer_factory.hpp:77] Creating layer ip2
I0503 01:26:32.984594  6233 net.cpp:84] Creating Layer ip2
I0503 01:26:32.984598  6233 net.cpp:406] ip2 <- ip1
I0503 01:26:32.984604  6233 net.cpp:380] ip2 -> ip2
I0503 01:26:32.984913  6233 net.cpp:122] Setting up ip2
I0503 01:26:32.984922  6233 net.cpp:129] Top shape: 64 52 (3328)
I0503 01:26:32.984926  6233 net.cpp:137] Memory required for data: 5582080
I0503 01:26:32.984935  6233 layer_factory.hpp:77] Creating layer loss
I0503 01:26:32.984942  6233 net.cpp:84] Creating Layer loss
I0503 01:26:32.984947  6233 net.cpp:406] loss <- ip2
I0503 01:26:32.984952  6233 net.cpp:406] loss <- label
I0503 01:26:32.984959  6233 net.cpp:380] loss -> loss
I0503 01:26:32.984975  6233 layer_factory.hpp:77] Creating layer loss
…
I0503 01:26:32.985376  6233 solver.cpp:190] Creating test net (#0) specified by net file: models/sp_final_lenet/lenet_train_val.prototxt
I0503 01:26:32.985424  6233 net.cpp:294] The NetState phase (1) differed from the phase (0) specified by a rule in layer data
I0503 01:26:32.985548  6233 net.cpp:51] Initializing net from parameters: 
name: "LeNet"
state {
  phase: TEST
}
layer {
  name: "data"
  type: "Data"
  top: "data"
  top: "label"
  include {
    phase: TEST
  }
  transform_param {
    scale: 0.00390625
  }
  data_param {
    source: "examples/final_sp/sp_val_lmdb"
    batch_size: 64
    backend: LMDB
  }
}
layer {
  name: "conv1"
  type: "Convolution"
  bottom: "data"
  top: "conv1"
  param {
    lr_mult: 1
  }
  param {
    lr_mult: 2
  }
  convolution_param {
    num_output: 20
    kernel_size: 5
    stride: 1
    weight_filler {
      type: "xavier"
    }
    bias_filler {
      type: "constant"
    }
  }
}
layer {
  name: "pool1"
  type: "Pooling"
  bottom: "conv1"
  top: "pool1"
  pooling_param {
    pool: MAX
    kernel_size: 2
    stride: 2
  }
}
layer {
  name: "conv2"
  type: "Convolution"
  bottom: "pool1"
  top: "conv2"
  param {
    lr_mult: 1
  }
  param {
    lr_mult: 2
  }
  convolution_param {
    num_output: 50
    kernel_size: 5
    stride: 1
    weight_filler {
      type: "xavier"
    }
    bias_filler {
      type: "constant"
    }
  }
}
layer {
  name: "pool2"
  type: "Pooling"
  bottom: "conv2"
  top: "pool2"
  pooling_param {
    pool: MAX
    kernel_size: 2
    stride: 2
  }
}
layer {
  name: "ip1"
  type: "InnerProduct"
  bottom: "pool2"
  top: "ip1"
  param {
    lr_mult: 1
  }
  param {
    lr_mult: 2
  }
  inner_product_param {
    num_output: 500
    weight_filler {
      type: "xavier"
    }
    bias_filler {
      type: "constant"
    }
  }
}
layer {
  name: "relu1"
  type: "ReLU"
  bottom: "ip1"
  top: "ip1"
}
layer {
  name: "ip2"
  type: "InnerProduct"
  bottom: "ip1"
  top: "ip2"
  param {
    lr_mult: 1
  }
  param {
    lr_mult: 2
  }
  inner_product_param {
    num_output: 52
    weight_filler {
      type: "xavier"
    }
    bias_filler {
      type: "constant"
    }
  }
}
layer {
  name: "accuracy"
  type: "Accuracy"
  bottom: "ip2"
  bottom: "label"
  top: "accuracy"
  include {
    phase: TEST
  }
}
layer {
  name: "loss"
  type: "SoftmaxWithLoss"
  bottom: "ip2"
  bottom: "label"
  top: "loss"
}
I0503 01:26:32.985621  6233 layer_factory.hpp:77] Creating layer data
I0503 01:26:32.985682  6233 db_lmdb.cpp:35] Opened lmdb examples/final_sp/sp_val_lmdb
I0503 01:26:32.985698  6233 net.cpp:84] Creating Layer data
I0503 01:26:32.985704  6233 net.cpp:380] data -> data
I0503 01:26:32.985714  6233 net.cpp:380] data -> label
I0503 01:26:32.985960  6233 data_layer.cpp:45] output data size: 64,3,28,28
I0503 01:26:32.990952  6233 net.cpp:122] Setting up data
I0503 01:26:32.990975  6233 net.cpp:129] Top shape: 64 3 28 28 (150528)
I0503 01:26:32.990980  6233 net.cpp:129] Top shape: 64 (64)
I0503 01:26:32.990983  6233 net.cpp:137] Memory required for data: 602368
I0503 01:26:32.990989  6233 layer_factory.hpp:77] Creating layer label_data_1_split
I0503 01:26:32.991008  6233 net.cpp:84] Creating Layer label_data_1_split
I0503 01:26:32.991013  6233 net.cpp:406] label_data_1_split <- label
I0503 01:26:32.991020  6233 net.cpp:380] label_data_1_split -> label_data_1_split_0
I0503 01:26:32.991034  6233 net.cpp:380] label_data_1_split -> label_data_1_split_1
I0503 01:26:32.991089  6233 net.cpp:122] Setting up label_data_1_split
I0503 01:26:32.991096  6233 net.cpp:129] Top shape: 64 (64)
I0503 01:26:32.991099  6233 net.cpp:129] Top shape: 64 (64)
I0503 01:26:32.991102  6233 net.cpp:137] Memory required for data: 602880
I0503 01:26:32.991104  6233 layer_factory.hpp:77] Creating layer conv1
I0503 01:26:32.991117  6233 net.cpp:84] Creating Layer conv1
I0503 01:26:32.991122  6233 net.cpp:406] conv1 <- data
I0503 01:26:32.991129  6233 net.cpp:380] conv1 -> conv1
I0503 01:26:32.991346  6233 net.cpp:122] Setting up conv1
I0503 01:26:32.991353  6233 net.cpp:129] Top shape: 64 20 24 24 (737280)
I0503 01:26:32.991356  6233 net.cpp:137] Memory required for data: 3552000
I0503 01:26:32.991369  6233 layer_factory.hpp:77] Creating layer pool1
I0503 01:26:32.991390  6233 net.cpp:84] Creating Layer pool1
I0503 01:26:32.991396  6233 net.cpp:406] pool1 <- conv1
I0503 01:26:32.991403  6233 net.cpp:380] pool1 -> pool1
I0503 01:26:32.991439  6233 net.cpp:122] Setting up pool1
I0503 01:26:32.991446  6233 net.cpp:129] Top shape: 64 20 12 12 (184320)
I0503 01:26:32.991449  6233 net.cpp:137] Memory required for data: 4289280
I0503 01:26:32.991453  6233 layer_factory.hpp:77] Creating layer conv2
I0503 01:26:32.991463  6233 net.cpp:84] Creating Layer conv2
I0503 01:26:32.991467  6233 net.cpp:406] conv2 <- pool1
I0503 01:26:32.991474  6233 net.cpp:380] conv2 -> conv2
I0503 01:26:32.991750  6233 net.cpp:122] Setting up conv2
I0503 01:26:32.991756  6233 net.cpp:129] Top shape: 64 50 8 8 (204800)
I0503 01:26:32.991760  6233 net.cpp:137] Memory required for data: 5108480
I0503 01:26:32.991770  6233 layer_factory.hpp:77] Creating layer pool2
I0503 01:26:32.991776  6233 net.cpp:84] Creating Layer pool2
I0503 01:26:32.991780  6233 net.cpp:406] pool2 <- conv2
I0503 01:26:32.991786  6233 net.cpp:380] pool2 -> pool2
I0503 01:26:32.991819  6233 net.cpp:122] Setting up pool2
I0503 01:26:32.991825  6233 net.cpp:129] Top shape: 64 50 4 4 (51200)
I0503 01:26:32.991828  6233 net.cpp:137] Memory required for data: 5313280
I0503 01:26:32.991832  6233 layer_factory.hpp:77] Creating layer ip1
I0503 01:26:32.991840  6233 net.cpp:84] Creating Layer ip1
I0503 01:26:32.991844  6233 net.cpp:406] ip1 <- pool2
I0503 01:26:32.991852  6233 net.cpp:380] ip1 -> ip1
I0503 01:26:32.994104  6233 net.cpp:122] Setting up ip1
I0503 01:26:32.994122  6233 net.cpp:129] Top shape: 64 500 (32000)
I0503 01:26:32.994127  6233 net.cpp:137] Memory required for data: 5441280
I0503 01:26:32.994141  6233 layer_factory.hpp:77] Creating layer relu1
I0503 01:26:32.994150  6233 net.cpp:84] Creating Layer relu1
I0503 01:26:32.994154  6233 net.cpp:406] relu1 <- ip1
I0503 01:26:32.994161  6233 net.cpp:367] relu1 -> ip1 (in-place)
I0503 01:26:32.994170  6233 net.cpp:122] Setting up relu1
I0503 01:26:32.994176  6233 net.cpp:129] Top shape: 64 500 (32000)
I0503 01:26:32.994184  6233 net.cpp:137] Memory required for data: 5569280
I0503 01:26:32.994189  6233 layer_factory.hpp:77] Creating layer ip2
I0503 01:26:32.994199  6233 net.cpp:84] Creating Layer ip2
I0503 01:26:32.994202  6233 net.cpp:406] ip2 <- ip1
I0503 01:26:32.994210  6233 net.cpp:380] ip2 -> ip2
I0503 01:26:32.994415  6233 net.cpp:122] Setting up ip2
I0503 01:26:32.994422  6233 net.cpp:129] Top shape: 64 52 (3328)
I0503 01:26:32.994426  6233 net.cpp:137] Memory required for data: 5582592
I0503 01:26:32.994432  6233 layer_factory.hpp:77] Creating layer ip2_ip2_0_split
I0503 01:26:32.994439  6233 net.cpp:84] Creating Layer ip2_ip2_0_split
I0503 01:26:32.994444  6233 net.cpp:406] ip2_ip2_0_split <- ip2
I0503 01:26:32.994451  6233 net.cpp:380] ip2_ip2_0_split -> ip2_ip2_0_split_0
I0503 01:26:32.994460  6233 net.cpp:380] ip2_ip2_0_split -> ip2_ip2_0_split_1
I0503 01:26:32.994494  6233 net.cpp:122] Setting up ip2_ip2_0_split
I0503 01:26:32.994500  6233 net.cpp:129] Top shape: 64 52 (3328)
I0503 01:26:32.994504  6233 net.cpp:129] Top shape: 64 52 (3328)
I0503 01:26:32.994508  6233 net.cpp:137] Memory required for data: 5609216
I0503 01:26:32.994511  6233 layer_factory.hpp:77] Creating layer accuracy
I0503 01:26:32.994518  6233 net.cpp:84] Creating Layer accuracy
I0503 01:26:32.994524  6233 net.cpp:406] accuracy <- ip2_ip2_0_split_0
I0503 01:26:32.994529  6233 net.cpp:406] accuracy <- label_data_1_split_0
I0503 01:26:32.994535  6233 net.cpp:380] accuracy -> accuracy
…
