…
I0503 01:40:42.718364  6634 net.cpp:294] The NetState phase (0) differed from the phase (1) specified by a rule in layer data
I0503 01:40:42.718377  6634 net.cpp:294] The NetState phase (0) differed from the phase (1) specified by a rule in layer accuracy
I0503 01:40:42.718454  6634 net.cpp:51] Initializing net from parameters: 
name: "LeNet"
state {
  phase: TRAIN
  level: 0
  stage: ""
}
layer {
  name: "data"
  type: "Data"
  top: "data"
  top: "label"
  include {
    phase: TRAIN
  }
  transform_param {
    scale: 0.00390625
  }
  data_param {
    source: "examples/final_sp/sp_train_lmdb"
    batch_size: 64
    backend: LMDB
  }
}
layer {
  name: "conv1"
  type: "Convolution"
  bottom: "data"
  top: "conv1"
  param {
    lr_mult: 1
  }
  param {
    lr_mult: 2
  }
  convolution_param {
    num_output: 20
    kernel_size: 5
    stride: 1
    weight_filler {
      type: "xavier"
    }
    bias_filler {
      type: "constant"
    }
  }
}
layer {
  name: "pool1"
  type: "Pooling"
  bottom: "conv1"
  top: "pool1"
  pooling_param {
    pool: MAX
    kernel_size: 2
    stride: 2
  }
}
layer {
  name: "conv2"
  type: "Convolution"
  bottom: "pool1"
  top: "conv2"
  param {
    lr_mult: 1
  }
  param {
    lr_mult: 2
  }
  convolution_param {
    num_output: 50
    kernel_size: 5
    stride: 1
    weight_filler {
      type: "xavier"
    }
    bias_filler {
      type: "constant"
    }
  }
}
layer {
  name: "pool2"
  type: "Pooling"
  bottom: "conv2"
  top: "pool2"
  pooling_param {
    pool: MAX
    kernel_size: 2
    stride: 2
  }
}
layer {
  name: "ip1"
  type: "InnerProduct"
  bottom: "pool2"
  top: "ip1"
  param {
    lr_mult: 1
  }
  param {
    lr_mult: 2
  }
  inner_product_param {
    num_output: 500
    weight_filler {
      type: "xavier"
    }
    bias_filler {
      type: "constant"
    }
  }
}
layer {
  name: "relu1"
  type: "ReLU"
  bottom: "ip1"
  top: "ip1"
}
layer {
  name: "ip2"
  type: "InnerProduct"
  bottom: "ip1"
  top: "ip2"
  param {
    lr_mult: 1
  }
  param {
    lr_mult: 2
  }
  inner_product_param {
    num_output: 52
    weight_filler {
      type: "xavier"
    }
    bias_filler {
      type: "constant"
    }
  }
}
layer {
  name: "loss"
  type: "SoftmaxWithLoss"
  bottom: "ip2"
  bottom: "label"
  top: "loss"
}
I0503 01:40:42.718513  6634 layer_factory.hpp:77] Creating layer data
I0503 01:40:42.718597  6634 db_lmdb.cpp:35] Opened lmdb examples/final_sp/sp_train_lmdb
I0503 01:40:42.718619  6634 net.cpp:84] Creating Layer data
I0503 01:40:42.718631  6634 net.cpp:380] data -> data
I0503 01:40:42.718653  6634 net.cpp:380] data -> label
I0503 01:40:42.719204  6634 data_layer.cpp:45] output data size: 64,3,28,28
I0503 01:40:42.723109  6634 net.cpp:122] Setting up data
I0503 01:40:42.723135  6634 net.cpp:129] Top shape: 64 3 28 28 (150528)
I0503 01:40:42.723140  6634 net.cpp:129] Top shape: 64 (64)
I0503 01:40:42.723142  6634 net.cpp:137] Memory required for data: 602368
I0503 01:40:42.723155  6634 layer_factory.hpp:77] Creating layer conv1
I0503 01:40:42.723186  6634 net.cpp:84] Creating Layer conv1
I0503 01:40:42.723196  6634 net.cpp:406] conv1 <- data
I0503 01:40:42.723211  6634 net.cpp:380] conv1 -> conv1
I0503 01:40:42.724191  6634 net.cpp:122] Setting up conv1
I0503 01:40:42.724208  6634 net.cpp:129] Top shape: 64 20 24 24 (737280)
I0503 01:40:42.724212  6634 net.cpp:137] Memory required for data: 3551488
I0503 01:40:42.724236  6634 layer_factory.hpp:77] Creating layer pool1
I0503 01:40:42.724292  6634 net.cpp:84] Creating Layer pool1
I0503 01:40:42.724298  6634 net.cpp:406] pool1 <- conv1
I0503 01:40:42.724305  6634 net.cpp:380] pool1 -> pool1
I0503 01:40:42.724359  6634 net.cpp:122] Setting up pool1
I0503 01:40:42.724366  6634 net.cpp:129] Top shape: 64 20 12 12 (184320)
I0503 01:40:42.724370  6634 net.cpp:137] Memory required for data: 4288768
I0503 01:40:42.724375  6634 layer_factory.hpp:77] Creating layer conv2
I0503 01:40:42.724387  6634 net.cpp:84] Creating Layer conv2
I0503 01:40:42.724391  6634 net.cpp:406] conv2 <- pool1
I0503 01:40:42.724400  6634 net.cpp:380] conv2 -> conv2
I0503 01:40:42.725491  6634 net.cpp:122] Setting up conv2
I0503 01:40:42.725507  6634 net.cpp:129] Top shape: 64 50 8 8 (204800)
I0503 01:40:42.725512  6634 net.cpp:137] Memory required for data: 5107968
I0503 01:40:42.725523  6634 layer_factory.hpp:77] Creating layer pool2
I0503 01:40:42.725535  6634 net.cpp:84] Creating Layer pool2
I0503 01:40:42.725540  6634 net.cpp:406] pool2 <- conv2
I0503 01:40:42.725548  6634 net.cpp:380] pool2 -> pool2
I0503 01:40:42.725590  6634 net.cpp:122] Setting up pool2
I0503 01:40:42.725600  6634 net.cpp:129] Top shape: 64 50 4 4 (51200)
I0503 01:40:42.725605  6634 net.cpp:137] Memory required for data: 5312768
I0503 01:40:42.725610  6634 layer_factory.hpp:77] Creating layer ip1
I0503 01:40:42.725620  6634 net.cpp:84] Creating Layer ip1
I0503 01:40:42.725625  6634 net.cpp:406] ip1 <- pool2
I0503 01:40:42.725633  6634 net.cpp:380] ip1 -> ip1
I0503 01:40:42.728225  6634 net.cpp:122] Setting up ip1
I0503 01:40:42.728245  6634 net.cpp:129] Top shape: 64 500 (32000)
I0503 01:40:42.728250  6634 net.cpp:137] Memory required for data: 5440768
I0503 01:40:42.728268  6634 layer_factory.hpp:77] Creating layer relu1
I0503 01:40:42.728278  6634 net.cpp:84] Creating Layer relu1
I0503 01:40:42.728283  6634 net.cpp:406] relu1 <- ip1
I0503 01:40:42.728291  6634 net.cpp:367] relu1 -> ip1 (in-place)
I0503 01:40:42.728302  6634 net.cpp:122] Setting up relu1
I0503 01:40:42.728307  6634 net.cpp:129] Top shape: 64 500 (32000)
I0503 01:40:42.728310  6634 net.cpp:137] Memory required for data: 5568768
I0503 01:40:42.728314  6634 layer_factory.hpp:77] Creating layer ip2
I0503 01:40:42.728323  6634 net.cpp:84] Creating Layer ip2
I0503 01:40:42.728327  6634 net.cpp:406] ip2 <- ip1
I0503 01:40:42.728337  6634 net.cpp:380] ip2 -> ip2
I0503 01:40:42.728531  6634 net.cpp:122] Setting up ip2
I0503 01:40:42.728538  6634 net.cpp:129] Top shape: 64 52 (3328)
I0503 01:40:42.728543  6634 net.cpp:137] Memory required for data: 5582080
I0503 01:40:42.728549  6634 layer_factory.hpp:77] Creating layer loss
I0503 01:40:42.728559  6634 net.cpp:84] Creating Layer loss
I0503 01:40:42.728564  6634 net.cpp:406] loss <- ip2
I0503 01:40:42.728569  6634 net.cpp:406] loss <- label
I0503 01:40:42.728577  6634 net.cpp:380] loss -> loss
I0503 01:40:42.728595  6634 layer_factory.hpp:77] Creating layer loss
…
I0503 01:40:42.728921  6634 solver.cpp:190] Creating test net (#0) specified by net file: models/sp_final_lenet/lenet_train_val.prototxt
I0503 01:40:42.728962  6634 net.cpp:294] The NetState phase (1) differed from the phase (0) specified by a rule in layer data
I0503 01:40:42.729037  6634 net.cpp:51] Initializing net from parameters: 
name: "LeNet"
state {
  phase: TEST
}
layer {
  name: "data"
  type: "Data"
  top: "data"
  top: "label"
  include {
    phase: TEST
  }
  transform_param {
    scale: 0.00390625
  }
  data_param {
    source: "examples/final_sp/sp_val_lmdb"
    batch_size: 64
    backend: LMDB
  }
}
layer {
  name: "conv1"
  type: "Convolution"
  bottom: "data"
  top: "conv1"
  param {
    lr_mult: 1
  }
  param {
    lr_mult: 2
  }
  convolution_param {
    num_output: 20
    kernel_size: 5
    stride: 1
    weight_filler {
      type: "xavier"
    }
    bias_filler {
      type: "constant"
    }
  }
}
layer {
  name: "pool1"
  type: "Pooling"
  bottom: "conv1"
  top: "pool1"
  pooling_param {
    pool: MAX
    kernel_size: 2
    stride: 2
  }
}
layer {
  name: "conv2"
  type: "Convolution"
  bottom: "pool1"
  top: "conv2"
  param {
    lr_mult: 1
  }
  param {
    lr_mult: 2
  }
  convolution_param {
    num_output: 50
    kernel_size: 5
    stride: 1
    weight_filler {
      type: "xavier"
    }
    bias_filler {
      type: "constant"
    }
  }
}
layer {
  name: "pool2"
  type: "Pooling"
  bottom: "conv2"
  top: "pool2"
  pooling_param {
    pool: MAX
    kernel_size: 2
    stride: 2
  }
}
layer {
  name: "ip1"
  type: "InnerProduct"
  bottom: "pool2"
  top: "ip1"
  param {
    lr_mult: 1
  }
  param {
    lr_mult: 2
  }
  inner_product_param {
    num_output: 500
    weight_filler {
      type: "xavier"
    }
    bias_filler {
      type: "constant"
    }
  }
}
layer {
  name: "relu1"
  type: "ReLU"
  bottom: "ip1"
  top: "ip1"
}
layer {
  name: "ip2"
  type: "InnerProduct"
  bottom: "ip1"
  top: "ip2"
  param {
    lr_mult: 1
  }
  param {
    lr_mult: 2
  }
  inner_product_param {
    num_output: 52
    weight_filler {
      type: "xavier"
    }
    bias_filler {
      type: "constant"
    }
  }
}
layer {
  name: "accuracy"
  type: "Accuracy"
  bottom: "ip2"
  bottom: "label"
  top: "accuracy"
  include {
    phase: TEST
  }
}
layer {
  name: "loss"
  type: "SoftmaxWithLoss"
  bottom: "ip2"
  bottom: "label"
  top: "loss"
}
I0503 01:40:42.729117  6634 layer_factory.hpp:77] Creating layer data
I0503 01:40:42.729178  6634 db_lmdb.cpp:35] Opened lmdb examples/final_sp/sp_val_lmdb
I0503 01:40:42.729193  6634 net.cpp:84] Creating Layer data
I0503 01:40:42.729199  6634 net.cpp:380] data -> data
I0503 01:40:42.729212  6634 net.cpp:380] data -> label
I0503 01:40:42.729651  6634 data_layer.cpp:45] output data size: 64,3,28,28
I0503 01:40:42.734462  6634 net.cpp:122] Setting up data
I0503 01:40:42.734490  6634 net.cpp:129] Top shape: 64 3 28 28 (150528)
I0503 01:40:42.734496  6634 net.cpp:129] Top shape: 64 (64)
I0503 01:40:42.734499  6634 net.cpp:137] Memory required for data: 602368
I0503 01:40:42.734508  6634 layer_factory.hpp:77] Creating layer label_data_1_split
I0503 01:40:42.734520  6634 net.cpp:84] Creating Layer label_data_1_split
I0503 01:40:42.734526  6634 net.cpp:406] label_data_1_split <- label
I0503 01:40:42.734534  6634 net.cpp:380] label_data_1_split -> label_data_1_split_0
I0503 01:40:42.734549  6634 net.cpp:380] label_data_1_split -> label_data_1_split_1
I0503 01:40:42.734602  6634 net.cpp:122] Setting up label_data_1_split
I0503 01:40:42.734623  6634 net.cpp:129] Top shape: 64 (64)
I0503 01:40:42.734638  6634 net.cpp:129] Top shape: 64 (64)
I0503 01:40:42.734650  6634 net.cpp:137] Memory required for data: 602880
I0503 01:40:42.734663  6634 layer_factory.hpp:77] Creating layer conv1
I0503 01:40:42.734692  6634 net.cpp:84] Creating Layer conv1
I0503 01:40:42.734699  6634 net.cpp:406] conv1 <- data
I0503 01:40:42.734706  6634 net.cpp:380] conv1 -> conv1
I0503 01:40:42.734941  6634 net.cpp:122] Setting up conv1
I0503 01:40:42.734951  6634 net.cpp:129] Top shape: 64 20 24 24 (737280)
I0503 01:40:42.734956  6634 net.cpp:137] Memory required for data: 3552000
I0503 01:40:42.734966  6634 layer_factory.hpp:77] Creating layer pool1
I0503 01:40:42.734982  6634 net.cpp:84] Creating Layer pool1
I0503 01:40:42.734999  6634 net.cpp:406] pool1 <- conv1
I0503 01:40:42.735008  6634 net.cpp:380] pool1 -> pool1
I0503 01:40:42.735044  6634 net.cpp:122] Setting up pool1
I0503 01:40:42.735050  6634 net.cpp:129] Top shape: 64 20 12 12 (184320)
I0503 01:40:42.735055  6634 net.cpp:137] Memory required for data: 4289280
I0503 01:40:42.735059  6634 layer_factory.hpp:77] Creating layer conv2
I0503 01:40:42.735070  6634 net.cpp:84] Creating Layer conv2
I0503 01:40:42.735074  6634 net.cpp:406] conv2 <- pool1
I0503 01:40:42.735080  6634 net.cpp:380] conv2 -> conv2
I0503 01:40:42.735777  6634 net.cpp:122] Setting up conv2
I0503 01:40:42.735791  6634 net.cpp:129] Top shape: 64 50 8 8 (204800)
I0503 01:40:42.735796  6634 net.cpp:137] Memory required for data: 5108480
I0503 01:40:42.735805  6634 layer_factory.hpp:77] Creating layer pool2
I0503 01:40:42.735812  6634 net.cpp:84] Creating Layer pool2
I0503 01:40:42.735818  6634 net.cpp:406] pool2 <- conv2
I0503 01:40:42.735824  6634 net.cpp:380] pool2 -> pool2
I0503 01:40:42.735862  6634 net.cpp:122] Setting up pool2
I0503 01:40:42.735870  6634 net.cpp:129] Top shape: 64 50 4 4 (51200)
I0503 01:40:42.735873  6634 net.cpp:137] Memory required for data: 5313280
I0503 01:40:42.735877  6634 layer_factory.hpp:77] Creating layer ip1
I0503 01:40:42.735899  6634 net.cpp:84] Creating Layer ip1
I0503 01:40:42.735905  6634 net.cpp:406] ip1 <- pool2
I0503 01:40:42.735911  6634 net.cpp:380] ip1 -> ip1
I0503 01:40:42.743914  6634 net.cpp:122] Setting up ip1
I0503 01:40:42.743932  6634 net.cpp:129] Top shape: 64 500 (32000)
I0503 01:40:42.743937  6634 net.cpp:137] Memory required for data: 5441280
I0503 01:40:42.743958  6634 layer_factory.hpp:77] Creating layer relu1
I0503 01:40:42.743969  6634 net.cpp:84] Creating Layer relu1
I0503 01:40:42.743988  6634 net.cpp:406] relu1 <- ip1
I0503 01:40:42.743997  6634 net.cpp:367] relu1 -> ip1 (in-place)
I0503 01:40:42.744015  6634 net.cpp:122] Setting up relu1
I0503 01:40:42.744021  6634 net.cpp:129] Top shape: 64 500 (32000)
I0503 01:40:42.744025  6634 net.cpp:137] Memory required for data: 5569280
I0503 01:40:42.744030  6634 layer_factory.hpp:77] Creating layer ip2
I0503 01:40:42.744050  6634 net.cpp:84] Creating Layer ip2
I0503 01:40:42.744055  6634 net.cpp:406] ip2 <- ip1
I0503 01:40:42.744065  6634 net.cpp:380] ip2 -> ip2
I0503 01:40:42.744386  6634 net.cpp:122] Setting up ip2
I0503 01:40:42.744393  6634 net.cpp:129] Top shape: 64 52 (3328)
I0503 01:40:42.744396  6634 net.cpp:137] Memory required for data: 5582592
I0503 01:40:42.744415  6634 layer_factory.hpp:77] Creating layer ip2_ip2_0_split
I0503 01:40:42.744433  6634 net.cpp:84] Creating Layer ip2_ip2_0_split
I0503 01:40:42.744438  6634 net.cpp:406] ip2_ip2_0_split <- ip2
I0503 01:40:42.744444  6634 net.cpp:380] ip2_ip2_0_split -> ip2_ip2_0_split_0
I0503 01:40:42.744454  6634 net.cpp:380] ip2_ip2_0_split -> ip2_ip2_0_split_1
I0503 01:40:42.744488  6634 net.cpp:122] Setting up ip2_ip2_0_split
I0503 01:40:42.744494  6634 net.cpp:129] Top shape: 64 52 (3328)
I0503 01:40:42.744499  6634 net.cpp:129] Top shape: 64 52 (3328)
I0503 01:40:42.744513  6634 net.cpp:137] Memory required for data: 5609216
I0503 01:40:42.744518  6634 layer_factory.hpp:77] Creating layer accuracy
I0503 01:40:42.744527  6634 net.cpp:84] Creating Layer accuracy
I0503 01:40:42.744531  6634 net.cpp:406] accuracy <- ip2_ip2_0_split_0
I0503 01:40:42.744537  6634 net.cpp:406] accuracy <- label_data_1_split_0
I0503 01:40:42.744551  6634 net.cpp:380] accuracy -> accuracy
…
