…
I0503 01:05:14.144961  5787 net.cpp:294] The NetState phase (0) differed from the phase (1) specified by a rule in layer data
I0503 01:05:14.144975  5787 net.cpp:294] The NetState phase (0) differed from the phase (1) specified by a rule in layer accuracy
I0503 01:05:14.145052  5787 net.cpp:51] Initializing net from parameters: 
name: "LeNet"
state {
  phase: TRAIN
  level: 0
  stage: ""
}
layer {
  name: "data"
  type: "Data"
  top: "data"
  top: "label"
  include {
    phase: TRAIN
  }
  transform_param {
    scale: 0.00390625
  }
  data_param {
    source: "examples/final_sp/sp_train_lmdb"
    batch_size: 64
    backend: LMDB
  }
}
layer {
  name: "conv1"
  type: "Convolution"
  bottom: "data"
  top: "conv1"
  param {
    lr_mult: 1
  }
  param {
    lr_mult: 2
  }
  convolution_param {
    num_output: 20
    kernel_size: 5
    stride: 1
    weight_filler {
      type: "xavier"
    }
    bias_filler {
      type: "constant"
    }
  }
}
layer {
  name: "pool1"
  type: "Pooling"
  bottom: "conv1"
  top: "pool1"
  pooling_param {
    pool: MAX
    kernel_size: 2
    stride: 2
  }
}
layer {
  name: "conv2"
  type: "Convolution"
  bottom: "pool1"
  top: "conv2"
  param {
    lr_mult: 1
  }
  param {
    lr_mult: 2
  }
  convolution_param {
    num_output: 50
    kernel_size: 5
    stride: 1
    weight_filler {
      type: "xavier"
    }
    bias_filler {
      type: "constant"
    }
  }
}
layer {
  name: "pool2"
  type: "Pooling"
  bottom: "conv2"
  top: "pool2"
  pooling_param {
    pool: MAX
    kernel_size: 2
    stride: 2
  }
}
layer {
  name: "ip1"
  type: "InnerProduct"
  bottom: "pool2"
  top: "ip1"
  param {
    lr_mult: 1
  }
  param {
    lr_mult: 2
  }
  inner_product_param {
    num_output: 500
    weight_filler {
      type: "xavier"
    }
    bias_filler {
      type: "constant"
    }
  }
}
layer {
  name: "relu1"
  type: "ReLU"
  bottom: "ip1"
  top: "ip1"
}
layer {
  name: "ip2"
  type: "InnerProduct"
  bottom: "ip1"
  top: "ip2"
  param {
    lr_mult: 1
  }
  param {
    lr_mult: 2
  }
  inner_product_param {
    num_output: 52
    weight_filler {
      type: "xavier"
    }
    bias_filler {
      type: "constant"
    }
  }
}
layer {
  name: "loss"
  type: "SoftmaxWithLoss"
  bottom: "ip2"
  bottom: "label"
  top: "loss"
}
I0503 01:05:14.145109  5787 layer_factory.hpp:77] Creating layer data
I0503 01:05:14.145192  5787 db_lmdb.cpp:35] Opened lmdb examples/final_sp/sp_train_lmdb
I0503 01:05:14.145216  5787 net.cpp:84] Creating Layer data
I0503 01:05:14.145226  5787 net.cpp:380] data -> data
I0503 01:05:14.145246  5787 net.cpp:380] data -> label
I0503 01:05:14.145795  5787 data_layer.cpp:45] output data size: 64,3,28,28
I0503 01:05:14.149706  5787 net.cpp:122] Setting up data
I0503 01:05:14.149734  5787 net.cpp:129] Top shape: 64 3 28 28 (150528)
I0503 01:05:14.149739  5787 net.cpp:129] Top shape: 64 (64)
I0503 01:05:14.149744  5787 net.cpp:137] Memory required for data: 602368
I0503 01:05:14.149757  5787 layer_factory.hpp:77] Creating layer conv1
I0503 01:05:14.149803  5787 net.cpp:84] Creating Layer conv1
I0503 01:05:14.149821  5787 net.cpp:406] conv1 <- data
I0503 01:05:14.149839  5787 net.cpp:380] conv1 -> conv1
I0503 01:05:14.150976  5787 net.cpp:122] Setting up conv1
I0503 01:05:14.150992  5787 net.cpp:129] Top shape: 64 20 24 24 (737280)
I0503 01:05:14.150996  5787 net.cpp:137] Memory required for data: 3551488
I0503 01:05:14.151020  5787 layer_factory.hpp:77] Creating layer pool1
I0503 01:05:14.151051  5787 net.cpp:84] Creating Layer pool1
I0503 01:05:14.151059  5787 net.cpp:406] pool1 <- conv1
I0503 01:05:14.151067  5787 net.cpp:380] pool1 -> pool1
I0503 01:05:14.151120  5787 net.cpp:122] Setting up pool1
I0503 01:05:14.151129  5787 net.cpp:129] Top shape: 64 20 12 12 (184320)
I0503 01:05:14.151134  5787 net.cpp:137] Memory required for data: 4288768
I0503 01:05:14.151139  5787 layer_factory.hpp:77] Creating layer conv2
I0503 01:05:14.151151  5787 net.cpp:84] Creating Layer conv2
I0503 01:05:14.151155  5787 net.cpp:406] conv2 <- pool1
I0503 01:05:14.151165  5787 net.cpp:380] conv2 -> conv2
I0503 01:05:14.152189  5787 net.cpp:122] Setting up conv2
I0503 01:05:14.152200  5787 net.cpp:129] Top shape: 64 50 8 8 (204800)
I0503 01:05:14.152205  5787 net.cpp:137] Memory required for data: 5107968
I0503 01:05:14.152216  5787 layer_factory.hpp:77] Creating layer pool2
I0503 01:05:14.152228  5787 net.cpp:84] Creating Layer pool2
I0503 01:05:14.152233  5787 net.cpp:406] pool2 <- conv2
I0503 01:05:14.152240  5787 net.cpp:380] pool2 -> pool2
I0503 01:05:14.152278  5787 net.cpp:122] Setting up pool2
I0503 01:05:14.152287  5787 net.cpp:129] Top shape: 64 50 4 4 (51200)
I0503 01:05:14.152290  5787 net.cpp:137] Memory required for data: 5312768
I0503 01:05:14.152294  5787 layer_factory.hpp:77] Creating layer ip1
I0503 01:05:14.152304  5787 net.cpp:84] Creating Layer ip1
I0503 01:05:14.152309  5787 net.cpp:406] ip1 <- pool2
I0503 01:05:14.152318  5787 net.cpp:380] ip1 -> ip1
I0503 01:05:14.154577  5787 net.cpp:122] Setting up ip1
I0503 01:05:14.154593  5787 net.cpp:129] Top shape: 64 500 (32000)
I0503 01:05:14.154597  5787 net.cpp:137] Memory required for data: 5440768
I0503 01:05:14.154616  5787 layer_factory.hpp:77] Creating layer relu1
I0503 01:05:14.154625  5787 net.cpp:84] Creating Layer relu1
I0503 01:05:14.154630  5787 net.cpp:406] relu1 <- ip1
I0503 01:05:14.154640  5787 net.cpp:367] relu1 -> ip1 (in-place)
I0503 01:05:14.154650  5787 net.cpp:122] Setting up relu1
I0503 01:05:14.154656  5787 net.cpp:129] Top shape: 64 500 (32000)
I0503 01:05:14.154659  5787 net.cpp:137] Memory required for data: 5568768
I0503 01:05:14.154664  5787 layer_factory.hpp:77] Creating layer ip2
I0503 01:05:14.154670  5787 net.cpp:84] Creating Layer ip2
I0503 01:05:14.154675  5787 net.cpp:406] ip2 <- ip1
I0503 01:05:14.154683  5787 net.cpp:380] ip2 -> ip2
I0503 01:05:14.154888  5787 net.cpp:122] Setting up ip2
I0503 01:05:14.154896  5787 net.cpp:129] Top shape: 64 52 (3328)
I0503 01:05:14.154901  5787 net.cpp:137] Memory required for data: 5582080
I0503 01:05:14.154907  5787 layer_factory.hpp:77] Creating layer loss
I0503 01:05:14.154917  5787 net.cpp:84] Creating Layer loss
I0503 01:05:14.154928  5787 net.cpp:406] loss <- ip2
I0503 01:05:14.154933  5787 net.cpp:406] loss <- label
I0503 01:05:14.154942  5787 net.cpp:380] loss -> loss
I0503 01:05:14.154959  5787 layer_factory.hpp:77] Creating layer loss
…
I0503 01:05:14.155287  5787 solver.cpp:190] Creating test net (#0) specified by net file: models/sp_final_lenet/lenet_train_val.prototxt
I0503 01:05:14.155321  5787 net.cpp:294] The NetState phase (1) differed from the phase (0) specified by a rule in layer data
I0503 01:05:14.155395  5787 net.cpp:51] Initializing net from parameters: 
name: "LeNet"
state {
  phase: TEST
}
layer {
  name: "data"
  type: "Data"
  top: "data"
  top: "label"
  include {
    phase: TEST
  }
  transform_param {
    scale: 0.00390625
  }
  data_param {
    source: "examples/final_sp/sp_val_lmdb"
    batch_size: 64
    backend: LMDB
  }
}
layer {
  name: "conv1"
  type: "Convolution"
  bottom: "data"
  top: "conv1"
  param {
    lr_mult: 1
  }
  param {
    lr_mult: 2
  }
  convolution_param {
    num_output: 20
    kernel_size: 5
    stride: 1
    weight_filler {
      type: "xavier"
    }
    bias_filler {
      type: "constant"
    }
  }
}
layer {
  name: "pool1"
  type: "Pooling"
  bottom: "conv1"
  top: "pool1"
  pooling_param {
    pool: MAX
    kernel_size: 2
    stride: 2
  }
}
layer {
  name: "conv2"
  type: "Convolution"
  bottom: "pool1"
  top: "conv2"
  param {
    lr_mult: 1
  }
  param {
    lr_mult: 2
  }
  convolution_param {
    num_output: 50
    kernel_size: 5
    stride: 1
    weight_filler {
      type: "xavier"
    }
    bias_filler {
      type: "constant"
    }
  }
}
layer {
  name: "pool2"
  type: "Pooling"
  bottom: "conv2"
  top: "pool2"
  pooling_param {
    pool: MAX
    kernel_size: 2
    stride: 2
  }
}
layer {
  name: "ip1"
  type: "InnerProduct"
  bottom: "pool2"
  top: "ip1"
  param {
    lr_mult: 1
  }
  param {
    lr_mult: 2
  }
  inner_product_param {
    num_output: 500
    weight_filler {
      type: "xavier"
    }
    bias_filler {
      type: "constant"
    }
  }
}
layer {
  name: "relu1"
  type: "ReLU"
  bottom: "ip1"
  top: "ip1"
}
layer {
  name: "ip2"
  type: "InnerProduct"
  bottom: "ip1"
  top: "ip2"
  param {
    lr_mult: 1
  }
  param {
    lr_mult: 2
  }
  inner_product_param {
    num_output: 52
    weight_filler {
      type: "xavier"
    }
    bias_filler {
      type: "constant"
    }
  }
}
layer {
  name: "accuracy"
  type: "Accuracy"
  bottom: "ip2"
  bottom: "label"
  top: "accuracy"
  include {
    phase: TEST
  }
}
layer {
  name: "loss"
  type: "SoftmaxWithLoss"
  bottom: "ip2"
  bottom: "label"
  top: "loss"
}
I0503 01:05:14.155473  5787 layer_factory.hpp:77] Creating layer data
I0503 01:05:14.155534  5787 db_lmdb.cpp:35] Opened lmdb examples/final_sp/sp_val_lmdb
I0503 01:05:14.155550  5787 net.cpp:84] Creating Layer data
I0503 01:05:14.155556  5787 net.cpp:380] data -> data
I0503 01:05:14.155566  5787 net.cpp:380] data -> label
I0503 01:05:14.155776  5787 data_layer.cpp:45] output data size: 64,3,28,28
I0503 01:05:14.161023  5787 net.cpp:122] Setting up data
I0503 01:05:14.161049  5787 net.cpp:129] Top shape: 64 3 28 28 (150528)
I0503 01:05:14.161054  5787 net.cpp:129] Top shape: 64 (64)
I0503 01:05:14.161057  5787 net.cpp:137] Memory required for data: 602368
I0503 01:05:14.161064  5787 layer_factory.hpp:77] Creating layer label_data_1_split
I0503 01:05:14.161080  5787 net.cpp:84] Creating Layer label_data_1_split
I0503 01:05:14.161085  5787 net.cpp:406] label_data_1_split <- label
I0503 01:05:14.161093  5787 net.cpp:380] label_data_1_split -> label_data_1_split_0
I0503 01:05:14.161103  5787 net.cpp:380] label_data_1_split -> label_data_1_split_1
I0503 01:05:14.161160  5787 net.cpp:122] Setting up label_data_1_split
I0503 01:05:14.161170  5787 net.cpp:129] Top shape: 64 (64)
I0503 01:05:14.161175  5787 net.cpp:129] Top shape: 64 (64)
I0503 01:05:14.161177  5787 net.cpp:137] Memory required for data: 602880
I0503 01:05:14.161181  5787 layer_factory.hpp:77] Creating layer conv1
I0503 01:05:14.161209  5787 net.cpp:84] Creating Layer conv1
I0503 01:05:14.161216  5787 net.cpp:406] conv1 <- data
I0503 01:05:14.161227  5787 net.cpp:380] conv1 -> conv1
I0503 01:05:14.161414  5787 net.cpp:122] Setting up conv1
I0503 01:05:14.161423  5787 net.cpp:129] Top shape: 64 20 24 24 (737280)
I0503 01:05:14.161428  5787 net.cpp:137] Memory required for data: 3552000
I0503 01:05:14.161439  5787 layer_factory.hpp:77] Creating layer pool1
I0503 01:05:14.161458  5787 net.cpp:84] Creating Layer pool1
I0503 01:05:14.161463  5787 net.cpp:406] pool1 <- conv1
I0503 01:05:14.161480  5787 net.cpp:380] pool1 -> pool1
I0503 01:05:14.161515  5787 net.cpp:122] Setting up pool1
I0503 01:05:14.161522  5787 net.cpp:129] Top shape: 64 20 12 12 (184320)
I0503 01:05:14.161526  5787 net.cpp:137] Memory required for data: 4289280
I0503 01:05:14.161530  5787 layer_factory.hpp:77] Creating layer conv2
I0503 01:05:14.161541  5787 net.cpp:84] Creating Layer conv2
I0503 01:05:14.161545  5787 net.cpp:406] conv2 <- pool1
I0503 01:05:14.161554  5787 net.cpp:380] conv2 -> conv2
I0503 01:05:14.161844  5787 net.cpp:122] Setting up conv2
I0503 01:05:14.161852  5787 net.cpp:129] Top shape: 64 50 8 8 (204800)
I0503 01:05:14.161856  5787 net.cpp:137] Memory required for data: 5108480
I0503 01:05:14.161865  5787 layer_factory.hpp:77] Creating layer pool2
I0503 01:05:14.161875  5787 net.cpp:84] Creating Layer pool2
I0503 01:05:14.161880  5787 net.cpp:406] pool2 <- conv2
I0503 01:05:14.161885  5787 net.cpp:380] pool2 -> pool2
I0503 01:05:14.162245  5787 net.cpp:122] Setting up pool2
I0503 01:05:14.162252  5787 net.cpp:129] Top shape: 64 50 4 4 (51200)
I0503 01:05:14.162256  5787 net.cpp:137] Memory required for data: 5313280
I0503 01:05:14.162259  5787 layer_factory.hpp:77] Creating layer ip1
I0503 01:05:14.162268  5787 net.cpp:84] Creating Layer ip1
I0503 01:05:14.162272  5787 net.cpp:406] ip1 <- pool2
I0503 01:05:14.162281  5787 net.cpp:380] ip1 -> ip1
I0503 01:05:14.164894  5787 net.cpp:122] Setting up ip1
I0503 01:05:14.164908  5787 net.cpp:129] Top shape: 64 500 (32000)
I0503 01:05:14.164911  5787 net.cpp:137] Memory required for data: 5441280
I0503 01:05:14.164927  5787 layer_factory.hpp:77] Creating layer relu1
I0503 01:05:14.164937  5787 net.cpp:84] Creating Layer relu1
I0503 01:05:14.164944  5787 net.cpp:406] relu1 <- ip1
I0503 01:05:14.164953  5787 net.cpp:367] relu1 -> ip1 (in-place)
I0503 01:05:14.164964  5787 net.cpp:122] Setting up relu1
I0503 01:05:14.164970  5787 net.cpp:129] Top shape: 64 500 (32000)
I0503 01:05:14.164975  5787 net.cpp:137] Memory required for data: 5569280
I0503 01:05:14.164979  5787 layer_factory.hpp:77] Creating layer ip2
I0503 01:05:14.164991  5787 net.cpp:84] Creating Layer ip2
I0503 01:05:14.164997  5787 net.cpp:406] ip2 <- ip1
I0503 01:05:14.165004  5787 net.cpp:380] ip2 -> ip2
I0503 01:05:14.165225  5787 net.cpp:122] Setting up ip2
I0503 01:05:14.165235  5787 net.cpp:129] Top shape: 64 52 (3328)
I0503 01:05:14.165240  5787 net.cpp:137] Memory required for data: 5582592
I0503 01:05:14.165246  5787 layer_factory.hpp:77] Creating layer ip2_ip2_0_split
I0503 01:05:14.165254  5787 net.cpp:84] Creating Layer ip2_ip2_0_split
I0503 01:05:14.165259  5787 net.cpp:406] ip2_ip2_0_split <- ip2
I0503 01:05:14.165267  5787 net.cpp:380] ip2_ip2_0_split -> ip2_ip2_0_split_0
I0503 01:05:14.165277  5787 net.cpp:380] ip2_ip2_0_split -> ip2_ip2_0_split_1
I0503 01:05:14.165318  5787 net.cpp:122] Setting up ip2_ip2_0_split
I0503 01:05:14.165323  5787 net.cpp:129] Top shape: 64 52 (3328)
I0503 01:05:14.165328  5787 net.cpp:129] Top shape: 64 52 (3328)
I0503 01:05:14.165330  5787 net.cpp:137] Memory required for data: 5609216
I0503 01:05:14.165334  5787 layer_factory.hpp:77] Creating layer accuracy
I0503 01:05:14.165341  5787 net.cpp:84] Creating Layer accuracy
I0503 01:05:14.165345  5787 net.cpp:406] accuracy <- ip2_ip2_0_split_0
I0503 01:05:14.165350  5787 net.cpp:406] accuracy <- label_data_1_split_0
I0503 01:05:14.165359  5787 net.cpp:380] accuracy -> accuracy
…
