…
I0503 09:08:38.185575  7896 net.cpp:294] The NetState phase (0) differed from the phase (1) specified by a rule in layer data
I0503 09:08:38.185590  7896 net.cpp:294] The NetState phase (0) differed from the phase (1) specified by a rule in layer accuracy
I0503 09:08:38.185674  7896 net.cpp:51] Initializing net from parameters: 
name: "LeNet"
state {
  phase: TRAIN
  level: 0
  stage: ""
}
layer {
  name: "data"
  type: "Data"
  top: "data"
  top: "label"
  include {
    phase: TRAIN
  }
  transform_param {
    scale: 0.00390625
  }
  data_param {
    source: "examples/final_sp/sp_train_lmdb"
    batch_size: 64
    backend: LMDB
  }
}
layer {
  name: "conv1"
  type: "Convolution"
  bottom: "data"
  top: "conv1"
  param {
    lr_mult: 1
  }
  param {
    lr_mult: 2
  }
  convolution_param {
    num_output: 20
    kernel_size: 5
    stride: 1
    weight_filler {
      type: "xavier"
    }
    bias_filler {
      type: "constant"
    }
  }
}
layer {
  name: "pool1"
  type: "Pooling"
  bottom: "conv1"
  top: "pool1"
  pooling_param {
    pool: MAX
    kernel_size: 2
    stride: 2
  }
}
layer {
  name: "conv2"
  type: "Convolution"
  bottom: "pool1"
  top: "conv2"
  param {
    lr_mult: 1
  }
  param {
    lr_mult: 2
  }
  convolution_param {
    num_output: 50
    kernel_size: 5
    stride: 1
    weight_filler {
      type: "xavier"
    }
    bias_filler {
      type: "constant"
    }
  }
}
layer {
  name: "pool2"
  type: "Pooling"
  bottom: "conv2"
  top: "pool2"
  pooling_param {
    pool: MAX
    kernel_size: 2
    stride: 2
  }
}
layer {
  name: "ip1"
  type: "InnerProduct"
  bottom: "pool2"
  top: "ip1"
  param {
    lr_mult: 1
  }
  param {
    lr_mult: 2
  }
  inner_product_param {
    num_output: 500
    weight_filler {
      type: "xavier"
    }
    bias_filler {
      type: "constant"
    }
  }
}
layer {
  name: "relu1"
  type: "ReLU"
  bottom: "ip1"
  top: "ip1"
}
layer {
  name: "ip2"
  type: "InnerProduct"
  bottom: "ip1"
  top: "ip2"
  param {
    lr_mult: 1
  }
  param {
    lr_mult: 2
  }
  inner_product_param {
    num_output: 52
    weight_filler {
      type: "xavier"
    }
    bias_filler {
      type: "constant"
    }
  }
}
layer {
  name: "loss"
  type: "SoftmaxWithLoss"
  bottom: "ip2"
  bottom: "label"
  top: "loss"
}
I0503 09:08:38.185747  7896 layer_factory.hpp:77] Creating layer data
I0503 09:08:38.185849  7896 db_lmdb.cpp:35] Opened lmdb examples/final_sp/sp_train_lmdb
I0503 09:08:38.185879  7896 net.cpp:84] Creating Layer data
I0503 09:08:38.185894  7896 net.cpp:380] data -> data
I0503 09:08:38.185920  7896 net.cpp:380] data -> label
I0503 09:08:38.186579  7896 data_layer.cpp:45] output data size: 64,3,28,28
I0503 09:08:38.191018  7896 net.cpp:122] Setting up data
I0503 09:08:38.191051  7896 net.cpp:129] Top shape: 64 3 28 28 (150528)
I0503 09:08:38.191061  7896 net.cpp:129] Top shape: 64 (64)
I0503 09:08:38.191066  7896 net.cpp:137] Memory required for data: 602368
I0503 09:08:38.191077  7896 layer_factory.hpp:77] Creating layer conv1
I0503 09:08:38.191128  7896 net.cpp:84] Creating Layer conv1
I0503 09:08:38.191138  7896 net.cpp:406] conv1 <- data
I0503 09:08:38.191156  7896 net.cpp:380] conv1 -> conv1
I0503 09:08:38.192701  7896 net.cpp:122] Setting up conv1
I0503 09:08:38.192723  7896 net.cpp:129] Top shape: 64 20 24 24 (737280)
I0503 09:08:38.192731  7896 net.cpp:137] Memory required for data: 3551488
I0503 09:08:38.192760  7896 layer_factory.hpp:77] Creating layer pool1
I0503 09:08:38.192796  7896 net.cpp:84] Creating Layer pool1
I0503 09:08:38.192803  7896 net.cpp:406] pool1 <- conv1
I0503 09:08:38.192818  7896 net.cpp:380] pool1 -> pool1
I0503 09:08:38.193166  7896 net.cpp:122] Setting up pool1
I0503 09:08:38.193177  7896 net.cpp:129] Top shape: 64 20 12 12 (184320)
I0503 09:08:38.193181  7896 net.cpp:137] Memory required for data: 4288768
I0503 09:08:38.193188  7896 layer_factory.hpp:77] Creating layer conv2
I0503 09:08:38.193202  7896 net.cpp:84] Creating Layer conv2
I0503 09:08:38.193226  7896 net.cpp:406] conv2 <- pool1
I0503 09:08:38.193241  7896 net.cpp:380] conv2 -> conv2
I0503 09:08:38.194083  7896 net.cpp:122] Setting up conv2
I0503 09:08:38.194098  7896 net.cpp:129] Top shape: 64 50 8 8 (204800)
I0503 09:08:38.194104  7896 net.cpp:137] Memory required for data: 5107968
I0503 09:08:38.194118  7896 layer_factory.hpp:77] Creating layer pool2
I0503 09:08:38.194130  7896 net.cpp:84] Creating Layer pool2
I0503 09:08:38.194138  7896 net.cpp:406] pool2 <- conv2
I0503 09:08:38.194149  7896 net.cpp:380] pool2 -> pool2
I0503 09:08:38.194191  7896 net.cpp:122] Setting up pool2
I0503 09:08:38.194200  7896 net.cpp:129] Top shape: 64 50 4 4 (51200)
I0503 09:08:38.194202  7896 net.cpp:137] Memory required for data: 5312768
I0503 09:08:38.194211  7896 layer_factory.hpp:77] Creating layer ip1
I0503 09:08:38.194257  7896 net.cpp:84] Creating Layer ip1
I0503 09:08:38.194265  7896 net.cpp:406] ip1 <- pool2
I0503 09:08:38.194288  7896 net.cpp:380] ip1 -> ip1
I0503 09:08:38.198438  7896 net.cpp:122] Setting up ip1
I0503 09:08:38.198599  7896 net.cpp:129] Top shape: 64 500 (32000)
I0503 09:08:38.198611  7896 net.cpp:137] Memory required for data: 5440768
I0503 09:08:38.198635  7896 layer_factory.hpp:77] Creating layer relu1
I0503 09:08:38.198652  7896 net.cpp:84] Creating Layer relu1
I0503 09:08:38.198657  7896 net.cpp:406] relu1 <- ip1
I0503 09:08:38.198667  7896 net.cpp:367] relu1 -> ip1 (in-place)
I0503 09:08:38.198679  7896 net.cpp:122] Setting up relu1
I0503 09:08:38.198686  7896 net.cpp:129] Top shape: 64 500 (32000)
I0503 09:08:38.198691  7896 net.cpp:137] Memory required for data: 5568768
I0503 09:08:38.198695  7896 layer_factory.hpp:77] Creating layer ip2
I0503 09:08:38.198709  7896 net.cpp:84] Creating Layer ip2
I0503 09:08:38.198715  7896 net.cpp:406] ip2 <- ip1
I0503 09:08:38.198724  7896 net.cpp:380] ip2 -> ip2
I0503 09:08:38.199064  7896 net.cpp:122] Setting up ip2
I0503 09:08:38.199075  7896 net.cpp:129] Top shape: 64 52 (3328)
I0503 09:08:38.199080  7896 net.cpp:137] Memory required for data: 5582080
I0503 09:08:38.199090  7896 layer_factory.hpp:77] Creating layer loss
I0503 09:08:38.199105  7896 net.cpp:84] Creating Layer loss
I0503 09:08:38.199110  7896 net.cpp:406] loss <- ip2
I0503 09:08:38.199117  7896 net.cpp:406] loss <- label
I0503 09:08:38.199127  7896 net.cpp:380] loss -> loss
I0503 09:08:38.199147  7896 layer_factory.hpp:77] Creating layer loss
…
I0503 09:08:38.199534  7896 solver.cpp:190] Creating test net (#0) specified by net file: models/sp_final_lenet/lenet_train_val.prototxt
I0503 09:08:38.199579  7896 net.cpp:294] The NetState phase (1) differed from the phase (0) specified by a rule in layer data
I0503 09:08:38.199669  7896 net.cpp:51] Initializing net from parameters: 
name: "LeNet"
state {
  phase: TEST
}
layer {
  name: "data"
  type: "Data"
  top: "data"
  top: "label"
  include {
    phase: TEST
  }
  transform_param {
    scale: 0.00390625
  }
  data_param {
    source: "examples/final_sp/sp_val_lmdb"
    batch_size: 64
    backend: LMDB
  }
}
layer {
  name: "conv1"
  type: "Convolution"
  bottom: "data"
  top: "conv1"
  param {
    lr_mult: 1
  }
  param {
    lr_mult: 2
  }
  convolution_param {
    num_output: 20
    kernel_size: 5
    stride: 1
    weight_filler {
      type: "xavier"
    }
    bias_filler {
      type: "constant"
    }
  }
}
layer {
  name: "pool1"
  type: "Pooling"
  bottom: "conv1"
  top: "pool1"
  pooling_param {
    pool: MAX
    kernel_size: 2
    stride: 2
  }
}
layer {
  name: "conv2"
  type: "Convolution"
  bottom: "pool1"
  top: "conv2"
  param {
    lr_mult: 1
  }
  param {
    lr_mult: 2
  }
  convolution_param {
    num_output: 50
    kernel_size: 5
    stride: 1
    weight_filler {
      type: "xavier"
    }
    bias_filler {
      type: "constant"
    }
  }
}
layer {
  name: "pool2"
  type: "Pooling"
  bottom: "conv2"
  top: "pool2"
  pooling_param {
    pool: MAX
    kernel_size: 2
    stride: 2
  }
}
layer {
  name: "ip1"
  type: "InnerProduct"
  bottom: "pool2"
  top: "ip1"
  param {
    lr_mult: 1
  }
  param {
    lr_mult: 2
  }
  inner_product_param {
    num_output: 500
    weight_filler {
      type: "xavier"
    }
    bias_filler {
      type: "constant"
    }
  }
}
layer {
  name: "relu1"
  type: "ReLU"
  bottom: "ip1"
  top: "ip1"
}
layer {
  name: "ip2"
  type: "InnerProduct"
  bottom: "ip1"
  top: "ip2"
  param {
    lr_mult: 1
  }
  param {
    lr_mult: 2
  }
  inner_product_param {
    num_output: 52
    weight_filler {
      type: "xavier"
    }
    bias_filler {
      type: "constant"
    }
  }
}
layer {
  name: "accuracy"
  type: "Accuracy"
  bottom: "ip2"
  bottom: "label"
  top: "accuracy"
  include {
    phase: TEST
  }
}
layer {
  name: "loss"
  type: "SoftmaxWithLoss"
  bottom: "ip2"
  bottom: "label"
  top: "loss"
}
I0503 09:08:38.199765  7896 layer_factory.hpp:77] Creating layer data
I0503 09:08:38.199898  7896 db_lmdb.cpp:35] Opened lmdb examples/final_sp/sp_val_lmdb
I0503 09:08:38.199919  7896 net.cpp:84] Creating Layer data
I0503 09:08:38.199928  7896 net.cpp:380] data -> data
I0503 09:08:38.199944  7896 net.cpp:380] data -> label
I0503 09:08:38.200078  7896 data_layer.cpp:45] output data size: 64,3,28,28
I0503 09:08:38.204972  7896 net.cpp:122] Setting up data
I0503 09:08:38.205009  7896 net.cpp:129] Top shape: 64 3 28 28 (150528)
I0503 09:08:38.205016  7896 net.cpp:129] Top shape: 64 (64)
I0503 09:08:38.205021  7896 net.cpp:137] Memory required for data: 602368
I0503 09:08:38.205030  7896 layer_factory.hpp:77] Creating layer label_data_1_split
I0503 09:08:38.205054  7896 net.cpp:84] Creating Layer label_data_1_split
I0503 09:08:38.205078  7896 net.cpp:406] label_data_1_split <- label
I0503 09:08:38.205092  7896 net.cpp:380] label_data_1_split -> label_data_1_split_0
I0503 09:08:38.205121  7896 net.cpp:380] label_data_1_split -> label_data_1_split_1
I0503 09:08:38.205183  7896 net.cpp:122] Setting up label_data_1_split
I0503 09:08:38.205193  7896 net.cpp:129] Top shape: 64 (64)
I0503 09:08:38.205198  7896 net.cpp:129] Top shape: 64 (64)
I0503 09:08:38.205200  7896 net.cpp:137] Memory required for data: 602880
I0503 09:08:38.205205  7896 layer_factory.hpp:77] Creating layer conv1
I0503 09:08:38.205222  7896 net.cpp:84] Creating Layer conv1
I0503 09:08:38.205229  7896 net.cpp:406] conv1 <- data
I0503 09:08:38.205237  7896 net.cpp:380] conv1 -> conv1
I0503 09:08:38.205472  7896 net.cpp:122] Setting up conv1
I0503 09:08:38.205480  7896 net.cpp:129] Top shape: 64 20 24 24 (737280)
I0503 09:08:38.205483  7896 net.cpp:137] Memory required for data: 3552000
I0503 09:08:38.205494  7896 layer_factory.hpp:77] Creating layer pool1
I0503 09:08:38.205515  7896 net.cpp:84] Creating Layer pool1
I0503 09:08:38.205519  7896 net.cpp:406] pool1 <- conv1
I0503 09:08:38.205526  7896 net.cpp:380] pool1 -> pool1
I0503 09:08:38.205561  7896 net.cpp:122] Setting up pool1
I0503 09:08:38.205566  7896 net.cpp:129] Top shape: 64 20 12 12 (184320)
I0503 09:08:38.205569  7896 net.cpp:137] Memory required for data: 4289280
I0503 09:08:38.205574  7896 layer_factory.hpp:77] Creating layer conv2
I0503 09:08:38.205585  7896 net.cpp:84] Creating Layer conv2
I0503 09:08:38.205587  7896 net.cpp:406] conv2 <- pool1
I0503 09:08:38.205593  7896 net.cpp:380] conv2 -> conv2
I0503 09:08:38.205935  7896 net.cpp:122] Setting up conv2
I0503 09:08:38.205941  7896 net.cpp:129] Top shape: 64 50 8 8 (204800)
I0503 09:08:38.205945  7896 net.cpp:137] Memory required for data: 5108480
I0503 09:08:38.205952  7896 layer_factory.hpp:77] Creating layer pool2
I0503 09:08:38.205961  7896 net.cpp:84] Creating Layer pool2
I0503 09:08:38.205965  7896 net.cpp:406] pool2 <- conv2
I0503 09:08:38.205971  7896 net.cpp:380] pool2 -> pool2
I0503 09:08:38.206003  7896 net.cpp:122] Setting up pool2
I0503 09:08:38.206008  7896 net.cpp:129] Top shape: 64 50 4 4 (51200)
I0503 09:08:38.206012  7896 net.cpp:137] Memory required for data: 5313280
I0503 09:08:38.206014  7896 layer_factory.hpp:77] Creating layer ip1
I0503 09:08:38.206022  7896 net.cpp:84] Creating Layer ip1
I0503 09:08:38.206027  7896 net.cpp:406] ip1 <- pool2
I0503 09:08:38.206032  7896 net.cpp:380] ip1 -> ip1
I0503 09:08:38.212445  7896 net.cpp:122] Setting up ip1
I0503 09:08:38.212469  7896 net.cpp:129] Top shape: 64 500 (32000)
I0503 09:08:38.212476  7896 net.cpp:137] Memory required for data: 5441280
I0503 09:08:38.212493  7896 layer_factory.hpp:77] Creating layer relu1
I0503 09:08:38.212504  7896 net.cpp:84] Creating Layer relu1
I0503 09:08:38.212510  7896 net.cpp:406] relu1 <- ip1
I0503 09:08:38.212519  7896 net.cpp:367] relu1 -> ip1 (in-place)
I0503 09:08:38.212529  7896 net.cpp:122] Setting up relu1
I0503 09:08:38.212535  7896 net.cpp:129] Top shape: 64 500 (32000)
I0503 09:08:38.212540  7896 net.cpp:137] Memory required for data: 5569280
I0503 09:08:38.212545  7896 layer_factory.hpp:77] Creating layer ip2
I0503 09:08:38.212560  7896 net.cpp:84] Creating Layer ip2
I0503 09:08:38.212565  7896 net.cpp:406] ip2 <- ip1
I0503 09:08:38.212574  7896 net.cpp:380] ip2 -> ip2
I0503 09:08:38.213133  7896 net.cpp:122] Setting up ip2
I0503 09:08:38.213146  7896 net.cpp:129] Top shape: 64 52 (3328)
I0503 09:08:38.213151  7896 net.cpp:137] Memory required for data: 5582592
I0503 09:08:38.213161  7896 layer_factory.hpp:77] Creating layer ip2_ip2_0_split
I0503 09:08:38.213171  7896 net.cpp:84] Creating Layer ip2_ip2_0_split
I0503 09:08:38.213177  7896 net.cpp:406] ip2_ip2_0_split <- ip2
I0503 09:08:38.213186  7896 net.cpp:380] ip2_ip2_0_split -> ip2_ip2_0_split_0
I0503 09:08:38.213201  7896 net.cpp:380] ip2_ip2_0_split -> ip2_ip2_0_split_1
I0503 09:08:38.213250  7896 net.cpp:122] Setting up ip2_ip2_0_split
I0503 09:08:38.213260  7896 net.cpp:129] Top shape: 64 52 (3328)
I0503 09:08:38.213268  7896 net.cpp:129] Top shape: 64 52 (3328)
I0503 09:08:38.213273  7896 net.cpp:137] Memory required for data: 5609216
I0503 09:08:38.213277  7896 layer_factory.hpp:77] Creating layer accuracy
I0503 09:08:38.213289  7896 net.cpp:84] Creating Layer accuracy
I0503 09:08:38.213299  7896 net.cpp:406] accuracy <- ip2_ip2_0_split_0
I0503 09:08:38.213306  7896 net.cpp:406] accuracy <- label_data_1_split_0
I0503 09:08:38.213316  7896 net.cpp:380] accuracy -> accuracy
…
