…
I0503 01:34:01.110436  6585 net.cpp:294] The NetState phase (0) differed from the phase (1) specified by a rule in layer data
I0503 01:34:01.110446  6585 net.cpp:294] The NetState phase (0) differed from the phase (1) specified by a rule in layer accuracy
I0503 01:34:01.110508  6585 net.cpp:51] Initializing net from parameters: 
name: "LeNet"
state {
  phase: TRAIN
  level: 0
  stage: ""
}
layer {
  name: "data"
  type: "Data"
  top: "data"
  top: "label"
  include {
    phase: TRAIN
  }
  transform_param {
    scale: 0.00390625
  }
  data_param {
    source: "examples/final_sp/sp_train_lmdb"
    batch_size: 64
    backend: LMDB
  }
}
layer {
  name: "conv1"
  type: "Convolution"
  bottom: "data"
  top: "conv1"
  param {
    lr_mult: 1
  }
  param {
    lr_mult: 2
  }
  convolution_param {
    num_output: 20
    kernel_size: 5
    stride: 1
    weight_filler {
      type: "xavier"
    }
    bias_filler {
      type: "constant"
    }
  }
}
layer {
  name: "pool1"
  type: "Pooling"
  bottom: "conv1"
  top: "pool1"
  pooling_param {
    pool: MAX
    kernel_size: 2
    stride: 2
  }
}
layer {
  name: "conv2"
  type: "Convolution"
  bottom: "pool1"
  top: "conv2"
  param {
    lr_mult: 1
  }
  param {
    lr_mult: 2
  }
  convolution_param {
    num_output: 50
    kernel_size: 5
    stride: 1
    weight_filler {
      type: "xavier"
    }
    bias_filler {
      type: "constant"
    }
  }
}
layer {
  name: "pool2"
  type: "Pooling"
  bottom: "conv2"
  top: "pool2"
  pooling_param {
    pool: MAX
    kernel_size: 2
    stride: 2
  }
}
layer {
  name: "ip1"
  type: "InnerProduct"
  bottom: "pool2"
  top: "ip1"
  param {
    lr_mult: 1
  }
  param {
    lr_mult: 2
  }
  inner_product_param {
    num_output: 500
    weight_filler {
      type: "xavier"
    }
    bias_filler {
      type: "constant"
    }
  }
}
layer {
  name: "relu1"
  type: "ReLU"
  bottom: "ip1"
  top: "ip1"
}
layer {
  name: "ip2"
  type: "InnerProduct"
  bottom: "ip1"
  top: "ip2"
  param {
    lr_mult: 1
  }
  param {
    lr_mult: 2
  }
  inner_product_param {
    num_output: 52
    weight_filler {
      type: "xavier"
    }
    bias_filler {
      type: "constant"
    }
  }
}
layer {
  name: "loss"
  type: "SoftmaxWithLoss"
  bottom: "ip2"
  bottom: "label"
  top: "loss"
}
I0503 01:34:01.110550  6585 layer_factory.hpp:77] Creating layer data
I0503 01:34:01.110646  6585 db_lmdb.cpp:35] Opened lmdb examples/final_sp/sp_train_lmdb
I0503 01:34:01.110671  6585 net.cpp:84] Creating Layer data
I0503 01:34:01.110682  6585 net.cpp:380] data -> data
I0503 01:34:01.110698  6585 net.cpp:380] data -> label
I0503 01:34:01.111212  6585 data_layer.cpp:45] output data size: 64,3,28,28
I0503 01:34:01.115157  6585 net.cpp:122] Setting up data
I0503 01:34:01.115183  6585 net.cpp:129] Top shape: 64 3 28 28 (150528)
I0503 01:34:01.115187  6585 net.cpp:129] Top shape: 64 (64)
I0503 01:34:01.115190  6585 net.cpp:137] Memory required for data: 602368
I0503 01:34:01.115201  6585 layer_factory.hpp:77] Creating layer conv1
I0503 01:34:01.115233  6585 net.cpp:84] Creating Layer conv1
I0503 01:34:01.115250  6585 net.cpp:406] conv1 <- data
I0503 01:34:01.115269  6585 net.cpp:380] conv1 -> conv1
I0503 01:34:01.116360  6585 net.cpp:122] Setting up conv1
I0503 01:34:01.116374  6585 net.cpp:129] Top shape: 64 20 24 24 (737280)
I0503 01:34:01.116379  6585 net.cpp:137] Memory required for data: 3551488
I0503 01:34:01.116400  6585 layer_factory.hpp:77] Creating layer pool1
I0503 01:34:01.116428  6585 net.cpp:84] Creating Layer pool1
I0503 01:34:01.116434  6585 net.cpp:406] pool1 <- conv1
I0503 01:34:01.116446  6585 net.cpp:380] pool1 -> pool1
I0503 01:34:01.116506  6585 net.cpp:122] Setting up pool1
I0503 01:34:01.116518  6585 net.cpp:129] Top shape: 64 20 12 12 (184320)
I0503 01:34:01.116520  6585 net.cpp:137] Memory required for data: 4288768
I0503 01:34:01.116523  6585 layer_factory.hpp:77] Creating layer conv2
I0503 01:34:01.116535  6585 net.cpp:84] Creating Layer conv2
I0503 01:34:01.116540  6585 net.cpp:406] conv2 <- pool1
I0503 01:34:01.116549  6585 net.cpp:380] conv2 -> conv2
I0503 01:34:01.117506  6585 net.cpp:122] Setting up conv2
I0503 01:34:01.117516  6585 net.cpp:129] Top shape: 64 50 8 8 (204800)
I0503 01:34:01.117522  6585 net.cpp:137] Memory required for data: 5107968
I0503 01:34:01.117532  6585 layer_factory.hpp:77] Creating layer pool2
I0503 01:34:01.117542  6585 net.cpp:84] Creating Layer pool2
I0503 01:34:01.117547  6585 net.cpp:406] pool2 <- conv2
I0503 01:34:01.117554  6585 net.cpp:380] pool2 -> pool2
I0503 01:34:01.117588  6585 net.cpp:122] Setting up pool2
I0503 01:34:01.117595  6585 net.cpp:129] Top shape: 64 50 4 4 (51200)
I0503 01:34:01.117599  6585 net.cpp:137] Memory required for data: 5312768
I0503 01:34:01.117604  6585 layer_factory.hpp:77] Creating layer ip1
I0503 01:34:01.117612  6585 net.cpp:84] Creating Layer ip1
I0503 01:34:01.117617  6585 net.cpp:406] ip1 <- pool2
I0503 01:34:01.117624  6585 net.cpp:380] ip1 -> ip1
I0503 01:34:01.120151  6585 net.cpp:122] Setting up ip1
I0503 01:34:01.120164  6585 net.cpp:129] Top shape: 64 500 (32000)
I0503 01:34:01.120167  6585 net.cpp:137] Memory required for data: 5440768
I0503 01:34:01.120180  6585 layer_factory.hpp:77] Creating layer relu1
I0503 01:34:01.120188  6585 net.cpp:84] Creating Layer relu1
I0503 01:34:01.120193  6585 net.cpp:406] relu1 <- ip1
I0503 01:34:01.120199  6585 net.cpp:367] relu1 -> ip1 (in-place)
I0503 01:34:01.120208  6585 net.cpp:122] Setting up relu1
I0503 01:34:01.120213  6585 net.cpp:129] Top shape: 64 500 (32000)
I0503 01:34:01.120216  6585 net.cpp:137] Memory required for data: 5568768
I0503 01:34:01.120220  6585 layer_factory.hpp:77] Creating layer ip2
I0503 01:34:01.120229  6585 net.cpp:84] Creating Layer ip2
I0503 01:34:01.120232  6585 net.cpp:406] ip2 <- ip1
I0503 01:34:01.120239  6585 net.cpp:380] ip2 -> ip2
I0503 01:34:01.120422  6585 net.cpp:122] Setting up ip2
I0503 01:34:01.120429  6585 net.cpp:129] Top shape: 64 52 (3328)
I0503 01:34:01.120431  6585 net.cpp:137] Memory required for data: 5582080
I0503 01:34:01.120440  6585 layer_factory.hpp:77] Creating layer loss
I0503 01:34:01.120448  6585 net.cpp:84] Creating Layer loss
I0503 01:34:01.120452  6585 net.cpp:406] loss <- ip2
I0503 01:34:01.120456  6585 net.cpp:406] loss <- label
I0503 01:34:01.120465  6585 net.cpp:380] loss -> loss
I0503 01:34:01.120478  6585 layer_factory.hpp:77] Creating layer loss
…
I0503 01:34:01.120831  6585 solver.cpp:190] Creating test net (#0) specified by net file: models/sp_final_lenet/lenet_train_val.prototxt
I0503 01:34:01.120895  6585 net.cpp:294] The NetState phase (1) differed from the phase (0) specified by a rule in layer data
I0503 01:34:01.121002  6585 net.cpp:51] Initializing net from parameters: 
name: "LeNet"
state {
  phase: TEST
}
layer {
  name: "data"
  type: "Data"
  top: "data"
  top: "label"
  include {
    phase: TEST
  }
  transform_param {
    scale: 0.00390625
  }
  data_param {
    source: "examples/final_sp/sp_val_lmdb"
    batch_size: 64
    backend: LMDB
  }
}
layer {
  name: "conv1"
  type: "Convolution"
  bottom: "data"
  top: "conv1"
  param {
    lr_mult: 1
  }
  param {
    lr_mult: 2
  }
  convolution_param {
    num_output: 20
    kernel_size: 5
    stride: 1
    weight_filler {
      type: "xavier"
    }
    bias_filler {
      type: "constant"
    }
  }
}
layer {
  name: "pool1"
  type: "Pooling"
  bottom: "conv1"
  top: "pool1"
  pooling_param {
    pool: MAX
    kernel_size: 2
    stride: 2
  }
}
layer {
  name: "conv2"
  type: "Convolution"
  bottom: "pool1"
  top: "conv2"
  param {
    lr_mult: 1
  }
  param {
    lr_mult: 2
  }
  convolution_param {
    num_output: 50
    kernel_size: 5
    stride: 1
    weight_filler {
      type: "xavier"
    }
    bias_filler {
      type: "constant"
    }
  }
}
layer {
  name: "pool2"
  type: "Pooling"
  bottom: "conv2"
  top: "pool2"
  pooling_param {
    pool: MAX
    kernel_size: 2
    stride: 2
  }
}
layer {
  name: "ip1"
  type: "InnerProduct"
  bottom: "pool2"
  top: "ip1"
  param {
    lr_mult: 1
  }
  param {
    lr_mult: 2
  }
  inner_product_param {
    num_output: 500
    weight_filler {
      type: "xavier"
    }
    bias_filler {
      type: "constant"
    }
  }
}
layer {
  name: "relu1"
  type: "ReLU"
  bottom: "ip1"
  top: "ip1"
}
layer {
  name: "ip2"
  type: "InnerProduct"
  bottom: "ip1"
  top: "ip2"
  param {
    lr_mult: 1
  }
  param {
    lr_mult: 2
  }
  inner_product_param {
    num_output: 52
    weight_filler {
      type: "xavier"
    }
    bias_filler {
      type: "constant"
    }
  }
}
layer {
  name: "accuracy"
  type: "Accuracy"
  bottom: "ip2"
  bottom: "label"
  top: "accuracy"
  include {
    phase: TEST
  }
}
layer {
  name: "loss"
  type: "SoftmaxWithLoss"
  bottom: "ip2"
  bottom: "label"
  top: "loss"
}
I0503 01:34:01.121155  6585 layer_factory.hpp:77] Creating layer data
I0503 01:34:01.121215  6585 db_lmdb.cpp:35] Opened lmdb examples/final_sp/sp_val_lmdb
I0503 01:34:01.121229  6585 net.cpp:84] Creating Layer data
I0503 01:34:01.121237  6585 net.cpp:380] data -> data
I0503 01:34:01.121246  6585 net.cpp:380] data -> label
I0503 01:34:01.121440  6585 data_layer.cpp:45] output data size: 64,3,28,28
I0503 01:34:01.126204  6585 net.cpp:122] Setting up data
I0503 01:34:01.126230  6585 net.cpp:129] Top shape: 64 3 28 28 (150528)
I0503 01:34:01.126236  6585 net.cpp:129] Top shape: 64 (64)
I0503 01:34:01.126240  6585 net.cpp:137] Memory required for data: 602368
I0503 01:34:01.126248  6585 layer_factory.hpp:77] Creating layer label_data_1_split
I0503 01:34:01.126263  6585 net.cpp:84] Creating Layer label_data_1_split
I0503 01:34:01.126269  6585 net.cpp:406] label_data_1_split <- label
I0503 01:34:01.126279  6585 net.cpp:380] label_data_1_split -> label_data_1_split_0
I0503 01:34:01.126292  6585 net.cpp:380] label_data_1_split -> label_data_1_split_1
I0503 01:34:01.126346  6585 net.cpp:122] Setting up label_data_1_split
I0503 01:34:01.126353  6585 net.cpp:129] Top shape: 64 (64)
I0503 01:34:01.126358  6585 net.cpp:129] Top shape: 64 (64)
I0503 01:34:01.126363  6585 net.cpp:137] Memory required for data: 602880
I0503 01:34:01.126368  6585 layer_factory.hpp:77] Creating layer conv1
I0503 01:34:01.126384  6585 net.cpp:84] Creating Layer conv1
I0503 01:34:01.126404  6585 net.cpp:406] conv1 <- data
I0503 01:34:01.126421  6585 net.cpp:380] conv1 -> conv1
I0503 01:34:01.126606  6585 net.cpp:122] Setting up conv1
I0503 01:34:01.126616  6585 net.cpp:129] Top shape: 64 20 24 24 (737280)
I0503 01:34:01.126619  6585 net.cpp:137] Memory required for data: 3552000
I0503 01:34:01.126632  6585 layer_factory.hpp:77] Creating layer pool1
I0503 01:34:01.126649  6585 net.cpp:84] Creating Layer pool1
I0503 01:34:01.126669  6585 net.cpp:406] pool1 <- conv1
I0503 01:34:01.126682  6585 net.cpp:380] pool1 -> pool1
I0503 01:34:01.126718  6585 net.cpp:122] Setting up pool1
I0503 01:34:01.126726  6585 net.cpp:129] Top shape: 64 20 12 12 (184320)
I0503 01:34:01.126734  6585 net.cpp:137] Memory required for data: 4289280
I0503 01:34:01.126741  6585 layer_factory.hpp:77] Creating layer conv2
I0503 01:34:01.126758  6585 net.cpp:84] Creating Layer conv2
I0503 01:34:01.126763  6585 net.cpp:406] conv2 <- pool1
I0503 01:34:01.126776  6585 net.cpp:380] conv2 -> conv2
I0503 01:34:01.127068  6585 net.cpp:122] Setting up conv2
I0503 01:34:01.127076  6585 net.cpp:129] Top shape: 64 50 8 8 (204800)
I0503 01:34:01.127084  6585 net.cpp:137] Memory required for data: 5108480
I0503 01:34:01.127099  6585 layer_factory.hpp:77] Creating layer pool2
I0503 01:34:01.127110  6585 net.cpp:84] Creating Layer pool2
I0503 01:34:01.127115  6585 net.cpp:406] pool2 <- conv2
I0503 01:34:01.127127  6585 net.cpp:380] pool2 -> pool2
I0503 01:34:01.127470  6585 net.cpp:122] Setting up pool2
I0503 01:34:01.127478  6585 net.cpp:129] Top shape: 64 50 4 4 (51200)
I0503 01:34:01.127487  6585 net.cpp:137] Memory required for data: 5313280
I0503 01:34:01.127493  6585 layer_factory.hpp:77] Creating layer ip1
I0503 01:34:01.127506  6585 net.cpp:84] Creating Layer ip1
I0503 01:34:01.127511  6585 net.cpp:406] ip1 <- pool2
I0503 01:34:01.127517  6585 net.cpp:380] ip1 -> ip1
I0503 01:34:01.130553  6585 net.cpp:122] Setting up ip1
I0503 01:34:01.130570  6585 net.cpp:129] Top shape: 64 500 (32000)
I0503 01:34:01.130574  6585 net.cpp:137] Memory required for data: 5441280
I0503 01:34:01.130590  6585 layer_factory.hpp:77] Creating layer relu1
I0503 01:34:01.130609  6585 net.cpp:84] Creating Layer relu1
I0503 01:34:01.130627  6585 net.cpp:406] relu1 <- ip1
I0503 01:34:01.130647  6585 net.cpp:367] relu1 -> ip1 (in-place)
I0503 01:34:01.130666  6585 net.cpp:122] Setting up relu1
I0503 01:34:01.130681  6585 net.cpp:129] Top shape: 64 500 (32000)
I0503 01:34:01.130695  6585 net.cpp:137] Memory required for data: 5569280
I0503 01:34:01.130709  6585 layer_factory.hpp:77] Creating layer ip2
I0503 01:34:01.130730  6585 net.cpp:84] Creating Layer ip2
I0503 01:34:01.130738  6585 net.cpp:406] ip2 <- ip1
I0503 01:34:01.130745  6585 net.cpp:380] ip2 -> ip2
I0503 01:34:01.130961  6585 net.cpp:122] Setting up ip2
I0503 01:34:01.130969  6585 net.cpp:129] Top shape: 64 52 (3328)
I0503 01:34:01.130972  6585 net.cpp:137] Memory required for data: 5582592
I0503 01:34:01.130980  6585 layer_factory.hpp:77] Creating layer ip2_ip2_0_split
I0503 01:34:01.131000  6585 net.cpp:84] Creating Layer ip2_ip2_0_split
I0503 01:34:01.131007  6585 net.cpp:406] ip2_ip2_0_split <- ip2
I0503 01:34:01.131016  6585 net.cpp:380] ip2_ip2_0_split -> ip2_ip2_0_split_0
I0503 01:34:01.131032  6585 net.cpp:380] ip2_ip2_0_split -> ip2_ip2_0_split_1
I0503 01:34:01.131078  6585 net.cpp:122] Setting up ip2_ip2_0_split
I0503 01:34:01.131085  6585 net.cpp:129] Top shape: 64 52 (3328)
I0503 01:34:01.131090  6585 net.cpp:129] Top shape: 64 52 (3328)
I0503 01:34:01.131094  6585 net.cpp:137] Memory required for data: 5609216
I0503 01:34:01.131098  6585 layer_factory.hpp:77] Creating layer accuracy
I0503 01:34:01.131108  6585 net.cpp:84] Creating Layer accuracy
I0503 01:34:01.131121  6585 net.cpp:406] accuracy <- ip2_ip2_0_split_0
I0503 01:34:01.131136  6585 net.cpp:406] accuracy <- label_data_1_split_0
I0503 01:34:01.131152  6585 net.cpp:380] accuracy -> accuracy
…
