…
I0503 00:58:31.893532  5733 net.cpp:294] The NetState phase (0) differed from the phase (1) specified by a rule in layer data
I0503 00:58:31.893545  5733 net.cpp:294] The NetState phase (0) differed from the phase (1) specified by a rule in layer accuracy
I0503 00:58:31.893625  5733 net.cpp:51] Initializing net from parameters: 
name: "LeNet"
state {
  phase: TRAIN
  level: 0
  stage: ""
}
layer {
  name: "data"
  type: "Data"
  top: "data"
  top: "label"
  include {
    phase: TRAIN
  }
  transform_param {
    scale: 0.00390625
  }
  data_param {
    source: "examples/final_sp/sp_train_lmdb"
    batch_size: 64
    backend: LMDB
  }
}
layer {
  name: "conv1"
  type: "Convolution"
  bottom: "data"
  top: "conv1"
  param {
    lr_mult: 1
  }
  param {
    lr_mult: 2
  }
  convolution_param {
    num_output: 20
    kernel_size: 5
    stride: 1
    weight_filler {
      type: "xavier"
    }
    bias_filler {
      type: "constant"
    }
  }
}
layer {
  name: "pool1"
  type: "Pooling"
  bottom: "conv1"
  top: "pool1"
  pooling_param {
    pool: MAX
    kernel_size: 2
    stride: 2
  }
}
layer {
  name: "conv2"
  type: "Convolution"
  bottom: "pool1"
  top: "conv2"
  param {
    lr_mult: 1
  }
  param {
    lr_mult: 2
  }
  convolution_param {
    num_output: 50
    kernel_size: 5
    stride: 1
    weight_filler {
      type: "xavier"
    }
    bias_filler {
      type: "constant"
    }
  }
}
layer {
  name: "pool2"
  type: "Pooling"
  bottom: "conv2"
  top: "pool2"
  pooling_param {
    pool: MAX
    kernel_size: 2
    stride: 2
  }
}
layer {
  name: "ip1"
  type: "InnerProduct"
  bottom: "pool2"
  top: "ip1"
  param {
    lr_mult: 1
  }
  param {
    lr_mult: 2
  }
  inner_product_param {
    num_output: 500
    weight_filler {
      type: "xavier"
    }
    bias_filler {
      type: "constant"
    }
  }
}
layer {
  name: "relu1"
  type: "ReLU"
  bottom: "ip1"
  top: "ip1"
}
layer {
  name: "ip2"
  type: "InnerProduct"
  bottom: "ip1"
  top: "ip2"
  param {
    lr_mult: 1
  }
  param {
    lr_mult: 2
  }
  inner_product_param {
    num_output: 52
    weight_filler {
      type: "xavier"
    }
    bias_filler {
      type: "constant"
    }
  }
}
layer {
  name: "loss"
  type: "SoftmaxWithLoss"
  bottom: "ip2"
  bottom: "label"
  top: "loss"
}
I0503 00:58:31.893684  5733 layer_factory.hpp:77] Creating layer data
I0503 00:58:31.893769  5733 db_lmdb.cpp:35] Opened lmdb examples/final_sp/sp_train_lmdb
I0503 00:58:31.893791  5733 net.cpp:84] Creating Layer data
I0503 00:58:31.893802  5733 net.cpp:380] data -> data
I0503 00:58:31.893823  5733 net.cpp:380] data -> label
I0503 00:58:31.894348  5733 data_layer.cpp:45] output data size: 64,3,28,28
I0503 00:58:31.898265  5733 net.cpp:122] Setting up data
I0503 00:58:31.898293  5733 net.cpp:129] Top shape: 64 3 28 28 (150528)
I0503 00:58:31.898298  5733 net.cpp:129] Top shape: 64 (64)
I0503 00:58:31.898303  5733 net.cpp:137] Memory required for data: 602368
I0503 00:58:31.898314  5733 layer_factory.hpp:77] Creating layer conv1
I0503 00:58:31.898345  5733 net.cpp:84] Creating Layer conv1
I0503 00:58:31.898353  5733 net.cpp:406] conv1 <- data
I0503 00:58:31.898371  5733 net.cpp:380] conv1 -> conv1
I0503 00:58:31.899513  5733 net.cpp:122] Setting up conv1
I0503 00:58:31.899529  5733 net.cpp:129] Top shape: 64 20 24 24 (737280)
I0503 00:58:31.899533  5733 net.cpp:137] Memory required for data: 3551488
I0503 00:58:31.899554  5733 layer_factory.hpp:77] Creating layer pool1
I0503 00:58:31.899583  5733 net.cpp:84] Creating Layer pool1
I0503 00:58:31.899590  5733 net.cpp:406] pool1 <- conv1
I0503 00:58:31.899598  5733 net.cpp:380] pool1 -> pool1
I0503 00:58:31.899662  5733 net.cpp:122] Setting up pool1
I0503 00:58:31.899668  5733 net.cpp:129] Top shape: 64 20 12 12 (184320)
I0503 00:58:31.899688  5733 net.cpp:137] Memory required for data: 4288768
I0503 00:58:31.899694  5733 layer_factory.hpp:77] Creating layer conv2
I0503 00:58:31.899714  5733 net.cpp:84] Creating Layer conv2
I0503 00:58:31.899718  5733 net.cpp:406] conv2 <- pool1
I0503 00:58:31.899726  5733 net.cpp:380] conv2 -> conv2
I0503 00:58:31.900775  5733 net.cpp:122] Setting up conv2
I0503 00:58:31.900787  5733 net.cpp:129] Top shape: 64 50 8 8 (204800)
I0503 00:58:31.900791  5733 net.cpp:137] Memory required for data: 5107968
I0503 00:58:31.900802  5733 layer_factory.hpp:77] Creating layer pool2
I0503 00:58:31.900811  5733 net.cpp:84] Creating Layer pool2
I0503 00:58:31.900816  5733 net.cpp:406] pool2 <- conv2
I0503 00:58:31.900825  5733 net.cpp:380] pool2 -> pool2
I0503 00:58:31.900856  5733 net.cpp:122] Setting up pool2
I0503 00:58:31.900861  5733 net.cpp:129] Top shape: 64 50 4 4 (51200)
I0503 00:58:31.900866  5733 net.cpp:137] Memory required for data: 5312768
I0503 00:58:31.900871  5733 layer_factory.hpp:77] Creating layer ip1
I0503 00:58:31.900880  5733 net.cpp:84] Creating Layer ip1
I0503 00:58:31.900885  5733 net.cpp:406] ip1 <- pool2
I0503 00:58:31.900893  5733 net.cpp:380] ip1 -> ip1
I0503 00:58:31.903125  5733 net.cpp:122] Setting up ip1
I0503 00:58:31.903141  5733 net.cpp:129] Top shape: 64 500 (32000)
I0503 00:58:31.903143  5733 net.cpp:137] Memory required for data: 5440768
I0503 00:58:31.903162  5733 layer_factory.hpp:77] Creating layer relu1
I0503 00:58:31.903179  5733 net.cpp:84] Creating Layer relu1
I0503 00:58:31.903190  5733 net.cpp:406] relu1 <- ip1
I0503 00:58:31.903208  5733 net.cpp:367] relu1 -> ip1 (in-place)
I0503 00:58:31.903218  5733 net.cpp:122] Setting up relu1
I0503 00:58:31.903223  5733 net.cpp:129] Top shape: 64 500 (32000)
I0503 00:58:31.903226  5733 net.cpp:137] Memory required for data: 5568768
I0503 00:58:31.903230  5733 layer_factory.hpp:77] Creating layer ip2
I0503 00:58:31.903239  5733 net.cpp:84] Creating Layer ip2
I0503 00:58:31.903244  5733 net.cpp:406] ip2 <- ip1
I0503 00:58:31.903251  5733 net.cpp:380] ip2 -> ip2
I0503 00:58:31.903445  5733 net.cpp:122] Setting up ip2
I0503 00:58:31.903450  5733 net.cpp:129] Top shape: 64 52 (3328)
I0503 00:58:31.903455  5733 net.cpp:137] Memory required for data: 5582080
I0503 00:58:31.903462  5733 layer_factory.hpp:77] Creating layer loss
I0503 00:58:31.903472  5733 net.cpp:84] Creating Layer loss
I0503 00:58:31.903477  5733 net.cpp:406] loss <- ip2
I0503 00:58:31.903482  5733 net.cpp:406] loss <- label
I0503 00:58:31.903491  5733 net.cpp:380] loss -> loss
I0503 00:58:31.903506  5733 layer_factory.hpp:77] Creating layer loss
…
I0503 00:58:31.903808  5733 solver.cpp:190] Creating test net (#0) specified by net file: models/sp_final_lenet/lenet_train_val.prototxt
I0503 00:58:31.903846  5733 net.cpp:294] The NetState phase (1) differed from the phase (0) specified by a rule in layer data
I0503 00:58:31.903919  5733 net.cpp:51] Initializing net from parameters: 
name: "LeNet"
state {
  phase: TEST
}
layer {
  name: "data"
  type: "Data"
  top: "data"
  top: "label"
  include {
    phase: TEST
  }
  transform_param {
    scale: 0.00390625
  }
  data_param {
    source: "examples/final_sp/sp_val_lmdb"
    batch_size: 64
    backend: LMDB
  }
}
layer {
  name: "conv1"
  type: "Convolution"
  bottom: "data"
  top: "conv1"
  param {
    lr_mult: 1
  }
  param {
    lr_mult: 2
  }
  convolution_param {
    num_output: 20
    kernel_size: 5
    stride: 1
    weight_filler {
      type: "xavier"
    }
    bias_filler {
      type: "constant"
    }
  }
}
layer {
  name: "pool1"
  type: "Pooling"
  bottom: "conv1"
  top: "pool1"
  pooling_param {
    pool: MAX
    kernel_size: 2
    stride: 2
  }
}
layer {
  name: "conv2"
  type: "Convolution"
  bottom: "pool1"
  top: "conv2"
  param {
    lr_mult: 1
  }
  param {
    lr_mult: 2
  }
  convolution_param {
    num_output: 50
    kernel_size: 5
    stride: 1
    weight_filler {
      type: "xavier"
    }
    bias_filler {
      type: "constant"
    }
  }
}
layer {
  name: "pool2"
  type: "Pooling"
  bottom: "conv2"
  top: "pool2"
  pooling_param {
    pool: MAX
    kernel_size: 2
    stride: 2
  }
}
layer {
  name: "ip1"
  type: "InnerProduct"
  bottom: "pool2"
  top: "ip1"
  param {
    lr_mult: 1
  }
  param {
    lr_mult: 2
  }
  inner_product_param {
    num_output: 500
    weight_filler {
      type: "xavier"
    }
    bias_filler {
      type: "constant"
    }
  }
}
layer {
  name: "relu1"
  type: "ReLU"
  bottom: "ip1"
  top: "ip1"
}
layer {
  name: "ip2"
  type: "InnerProduct"
  bottom: "ip1"
  top: "ip2"
  param {
    lr_mult: 1
  }
  param {
    lr_mult: 2
  }
  inner_product_param {
    num_output: 52
    weight_filler {
      type: "xavier"
    }
    bias_filler {
      type: "constant"
    }
  }
}
layer {
  name: "accuracy"
  type: "Accuracy"
  bottom: "ip2"
  bottom: "label"
  top: "accuracy"
  include {
    phase: TEST
  }
}
layer {
  name: "loss"
  type: "SoftmaxWithLoss"
  bottom: "ip2"
  bottom: "label"
  top: "loss"
}
I0503 00:58:31.903988  5733 layer_factory.hpp:77] Creating layer data
I0503 00:58:31.904045  5733 db_lmdb.cpp:35] Opened lmdb examples/final_sp/sp_val_lmdb
I0503 00:58:31.904086  5733 net.cpp:84] Creating Layer data
I0503 00:58:31.904093  5733 net.cpp:380] data -> data
I0503 00:58:31.904105  5733 net.cpp:380] data -> label
I0503 00:58:31.904265  5733 data_layer.cpp:45] output data size: 64,3,28,28
I0503 00:58:31.910116  5733 net.cpp:122] Setting up data
I0503 00:58:31.910145  5733 net.cpp:129] Top shape: 64 3 28 28 (150528)
I0503 00:58:31.910151  5733 net.cpp:129] Top shape: 64 (64)
I0503 00:58:31.910154  5733 net.cpp:137] Memory required for data: 602368
I0503 00:58:31.910161  5733 layer_factory.hpp:77] Creating layer label_data_1_split
I0503 00:58:31.910202  5733 net.cpp:84] Creating Layer label_data_1_split
I0503 00:58:31.910207  5733 net.cpp:406] label_data_1_split <- label
I0503 00:58:31.910218  5733 net.cpp:380] label_data_1_split -> label_data_1_split_0
I0503 00:58:31.910230  5733 net.cpp:380] label_data_1_split -> label_data_1_split_1
I0503 00:58:31.910284  5733 net.cpp:122] Setting up label_data_1_split
I0503 00:58:31.910290  5733 net.cpp:129] Top shape: 64 (64)
I0503 00:58:31.910295  5733 net.cpp:129] Top shape: 64 (64)
I0503 00:58:31.910298  5733 net.cpp:137] Memory required for data: 602880
I0503 00:58:31.910302  5733 layer_factory.hpp:77] Creating layer conv1
I0503 00:58:31.910315  5733 net.cpp:84] Creating Layer conv1
I0503 00:58:31.910320  5733 net.cpp:406] conv1 <- data
I0503 00:58:31.910329  5733 net.cpp:380] conv1 -> conv1
I0503 00:58:31.910507  5733 net.cpp:122] Setting up conv1
I0503 00:58:31.910516  5733 net.cpp:129] Top shape: 64 20 24 24 (737280)
I0503 00:58:31.910519  5733 net.cpp:137] Memory required for data: 3552000
I0503 00:58:31.910531  5733 layer_factory.hpp:77] Creating layer pool1
I0503 00:58:31.910547  5733 net.cpp:84] Creating Layer pool1
I0503 00:58:31.910554  5733 net.cpp:406] pool1 <- conv1
I0503 00:58:31.910560  5733 net.cpp:380] pool1 -> pool1
I0503 00:58:31.910589  5733 net.cpp:122] Setting up pool1
I0503 00:58:31.910593  5733 net.cpp:129] Top shape: 64 20 12 12 (184320)
I0503 00:58:31.910596  5733 net.cpp:137] Memory required for data: 4289280
I0503 00:58:31.910598  5733 layer_factory.hpp:77] Creating layer conv2
I0503 00:58:31.910606  5733 net.cpp:84] Creating Layer conv2
I0503 00:58:31.910609  5733 net.cpp:406] conv2 <- pool1
I0503 00:58:31.910614  5733 net.cpp:380] conv2 -> conv2
I0503 00:58:31.910933  5733 net.cpp:122] Setting up conv2
I0503 00:58:31.910943  5733 net.cpp:129] Top shape: 64 50 8 8 (204800)
I0503 00:58:31.910946  5733 net.cpp:137] Memory required for data: 5108480
I0503 00:58:31.910956  5733 layer_factory.hpp:77] Creating layer pool2
I0503 00:58:31.910964  5733 net.cpp:84] Creating Layer pool2
I0503 00:58:31.910967  5733 net.cpp:406] pool2 <- conv2
I0503 00:58:31.910975  5733 net.cpp:380] pool2 -> pool2
I0503 00:58:31.911332  5733 net.cpp:122] Setting up pool2
I0503 00:58:31.911341  5733 net.cpp:129] Top shape: 64 50 4 4 (51200)
I0503 00:58:31.911346  5733 net.cpp:137] Memory required for data: 5313280
I0503 00:58:31.911350  5733 layer_factory.hpp:77] Creating layer ip1
I0503 00:58:31.911360  5733 net.cpp:84] Creating Layer ip1
I0503 00:58:31.911363  5733 net.cpp:406] ip1 <- pool2
I0503 00:58:31.911368  5733 net.cpp:380] ip1 -> ip1
I0503 00:58:31.913967  5733 net.cpp:122] Setting up ip1
I0503 00:58:31.913986  5733 net.cpp:129] Top shape: 64 500 (32000)
I0503 00:58:31.913991  5733 net.cpp:137] Memory required for data: 5441280
I0503 00:58:31.914006  5733 layer_factory.hpp:77] Creating layer relu1
I0503 00:58:31.914016  5733 net.cpp:84] Creating Layer relu1
I0503 00:58:31.914022  5733 net.cpp:406] relu1 <- ip1
I0503 00:58:31.914031  5733 net.cpp:367] relu1 -> ip1 (in-place)
I0503 00:58:31.914038  5733 net.cpp:122] Setting up relu1
I0503 00:58:31.914041  5733 net.cpp:129] Top shape: 64 500 (32000)
I0503 00:58:31.914044  5733 net.cpp:137] Memory required for data: 5569280
I0503 00:58:31.914047  5733 layer_factory.hpp:77] Creating layer ip2
I0503 00:58:31.914054  5733 net.cpp:84] Creating Layer ip2
I0503 00:58:31.914057  5733 net.cpp:406] ip2 <- ip1
I0503 00:58:31.914062  5733 net.cpp:380] ip2 -> ip2
I0503 00:58:31.914254  5733 net.cpp:122] Setting up ip2
I0503 00:58:31.914259  5733 net.cpp:129] Top shape: 64 52 (3328)
I0503 00:58:31.914263  5733 net.cpp:137] Memory required for data: 5582592
I0503 00:58:31.914266  5733 layer_factory.hpp:77] Creating layer ip2_ip2_0_split
I0503 00:58:31.914271  5733 net.cpp:84] Creating Layer ip2_ip2_0_split
I0503 00:58:31.914274  5733 net.cpp:406] ip2_ip2_0_split <- ip2
I0503 00:58:31.914280  5733 net.cpp:380] ip2_ip2_0_split -> ip2_ip2_0_split_0
I0503 00:58:31.914285  5733 net.cpp:380] ip2_ip2_0_split -> ip2_ip2_0_split_1
I0503 00:58:31.914310  5733 net.cpp:122] Setting up ip2_ip2_0_split
I0503 00:58:31.914314  5733 net.cpp:129] Top shape: 64 52 (3328)
I0503 00:58:31.914317  5733 net.cpp:129] Top shape: 64 52 (3328)
I0503 00:58:31.914319  5733 net.cpp:137] Memory required for data: 5609216
I0503 00:58:31.914321  5733 layer_factory.hpp:77] Creating layer accuracy
I0503 00:58:31.914327  5733 net.cpp:84] Creating Layer accuracy
I0503 00:58:31.914330  5733 net.cpp:406] accuracy <- ip2_ip2_0_split_0
I0503 00:58:31.914333  5733 net.cpp:406] accuracy <- label_data_1_split_0
I0503 00:58:31.914338  5733 net.cpp:380] accuracy -> accuracy
…
