…
I0509 16:17:54.719664  7966 net.cpp:294] The NetState phase (0) differed from the phase (1) specified by a rule in layer data
I0509 16:17:54.719678  7966 net.cpp:294] The NetState phase (0) differed from the phase (1) specified by a rule in layer accuracy
I0509 16:17:54.719748  7966 net.cpp:51] Initializing net from parameters: 
name: "LeNet"
state {
  phase: TRAIN
  level: 0
  stage: ""
}
layer {
  name: "data"
  type: "Data"
  top: "data"
  top: "label"
  include {
    phase: TRAIN
  }
  transform_param {
    scale: 0.00390625
  }
  data_param {
    source: "examples/final_sp/sp_train_lmdb_int2"
    batch_size: 64
    backend: LMDB
  }
}
layer {
  name: "conv1"
  type: "Convolution"
  bottom: "data"
  top: "conv1"
  param {
    lr_mult: 1
  }
  param {
    lr_mult: 2
  }
  convolution_param {
    num_output: 20
    kernel_size: 5
    stride: 1
    weight_filler {
      type: "xavier"
    }
    bias_filler {
      type: "constant"
    }
  }
}
layer {
  name: "pool1"
  type: "Pooling"
  bottom: "conv1"
  top: "pool1"
  pooling_param {
    pool: MAX
    kernel_size: 2
    stride: 2
  }
}
layer {
  name: "conv2"
  type: "Convolution"
  bottom: "pool1"
  top: "conv2"
  param {
    lr_mult: 1
  }
  param {
    lr_mult: 2
  }
  convolution_param {
    num_output: 50
    kernel_size: 5
    stride: 1
    weight_filler {
      type: "xavier"
    }
    bias_filler {
      type: "constant"
    }
  }
}
layer {
  name: "pool2"
  type: "Pooling"
  bottom: "conv2"
  top: "pool2"
  pooling_param {
    pool: MAX
    kernel_size: 2
    stride: 2
  }
}
layer {
  name: "ip1"
  type: "InnerProduct"
  bottom: "pool2"
  top: "ip1"
  param {
    lr_mult: 1
  }
  param {
    lr_mult: 2
  }
  inner_product_param {
    num_output: 500
    weight_filler {
      type: "xavier"
    }
    bias_filler {
      type: "constant"
    }
  }
}
layer {
  name: "relu1"
  type: "ReLU"
  bottom: "ip1"
  top: "ip1"
}
layer {
  name: "ip2"
  type: "InnerProduct"
  bottom: "ip1"
  top: "ip2"
  param {
    lr_mult: 1
  }
  param {
    lr_mult: 2
  }
  inner_product_param {
    num_output: 52
    weight_filler {
      type: "xavier"
    }
    bias_filler {
      type: "constant"
    }
  }
}
layer {
  name: "loss"
  type: "SoftmaxWithLoss"
  bottom: "ip2"
  bottom: "label"
  top: "loss"
}
I0509 16:17:54.719805  7966 layer_factory.hpp:77] Creating layer data
I0509 16:17:54.719914  7966 db_lmdb.cpp:35] Opened lmdb examples/final_sp/sp_train_lmdb_int2
I0509 16:17:54.719943  7966 net.cpp:84] Creating Layer data
I0509 16:17:54.719954  7966 net.cpp:380] data -> data
I0509 16:17:54.719980  7966 net.cpp:380] data -> label
I0509 16:17:54.720618  7966 data_layer.cpp:45] output data size: 64,3,28,28
I0509 16:17:54.725898  7966 net.cpp:122] Setting up data
I0509 16:17:54.725929  7966 net.cpp:129] Top shape: 64 3 28 28 (150528)
I0509 16:17:54.725935  7966 net.cpp:129] Top shape: 64 (64)
I0509 16:17:54.725939  7966 net.cpp:137] Memory required for data: 602368
I0509 16:17:54.725950  7966 layer_factory.hpp:77] Creating layer conv1
I0509 16:17:54.725975  7966 net.cpp:84] Creating Layer conv1
I0509 16:17:54.725981  7966 net.cpp:406] conv1 <- data
I0509 16:17:54.725996  7966 net.cpp:380] conv1 -> conv1
I0509 16:17:54.727430  7966 net.cpp:122] Setting up conv1
I0509 16:17:54.727527  7966 net.cpp:129] Top shape: 64 20 24 24 (737280)
I0509 16:17:54.727542  7966 net.cpp:137] Memory required for data: 3551488
I0509 16:17:54.727573  7966 layer_factory.hpp:77] Creating layer pool1
I0509 16:17:54.727591  7966 net.cpp:84] Creating Layer pool1
I0509 16:17:54.727614  7966 net.cpp:406] pool1 <- conv1
I0509 16:17:54.727622  7966 net.cpp:380] pool1 -> pool1
I0509 16:17:54.732858  7966 net.cpp:122] Setting up pool1
I0509 16:17:54.732916  7966 net.cpp:129] Top shape: 64 20 12 12 (184320)
I0509 16:17:54.732929  7966 net.cpp:137] Memory required for data: 4288768
I0509 16:17:54.732937  7966 layer_factory.hpp:77] Creating layer conv2
I0509 16:17:54.732954  7966 net.cpp:84] Creating Layer conv2
I0509 16:17:54.732960  7966 net.cpp:406] conv2 <- pool1
I0509 16:17:54.732969  7966 net.cpp:380] conv2 -> conv2
I0509 16:17:54.734145  7966 net.cpp:122] Setting up conv2
I0509 16:17:54.734172  7966 net.cpp:129] Top shape: 64 50 8 8 (204800)
I0509 16:17:54.734176  7966 net.cpp:137] Memory required for data: 5107968
I0509 16:17:54.734192  7966 layer_factory.hpp:77] Creating layer pool2
I0509 16:17:54.734205  7966 net.cpp:84] Creating Layer pool2
I0509 16:17:54.734225  7966 net.cpp:406] pool2 <- conv2
I0509 16:17:54.734239  7966 net.cpp:380] pool2 -> pool2
I0509 16:17:54.734678  7966 net.cpp:122] Setting up pool2
I0509 16:17:54.734689  7966 net.cpp:129] Top shape: 64 50 4 4 (51200)
I0509 16:17:54.734694  7966 net.cpp:137] Memory required for data: 5312768
I0509 16:17:54.734699  7966 layer_factory.hpp:77] Creating layer ip1
I0509 16:17:54.734706  7966 net.cpp:84] Creating Layer ip1
I0509 16:17:54.734733  7966 net.cpp:406] ip1 <- pool2
I0509 16:17:54.734753  7966 net.cpp:380] ip1 -> ip1
I0509 16:17:54.738664  7966 net.cpp:122] Setting up ip1
I0509 16:17:54.738694  7966 net.cpp:129] Top shape: 64 500 (32000)
I0509 16:17:54.738698  7966 net.cpp:137] Memory required for data: 5440768
I0509 16:17:54.738716  7966 layer_factory.hpp:77] Creating layer relu1
I0509 16:17:54.738725  7966 net.cpp:84] Creating Layer relu1
I0509 16:17:54.738755  7966 net.cpp:406] relu1 <- ip1
I0509 16:17:54.738780  7966 net.cpp:367] relu1 -> ip1 (in-place)
I0509 16:17:54.738803  7966 net.cpp:122] Setting up relu1
I0509 16:17:54.738811  7966 net.cpp:129] Top shape: 64 500 (32000)
I0509 16:17:54.738814  7966 net.cpp:137] Memory required for data: 5568768
I0509 16:17:54.738818  7966 layer_factory.hpp:77] Creating layer ip2
I0509 16:17:54.738826  7966 net.cpp:84] Creating Layer ip2
I0509 16:17:54.738844  7966 net.cpp:406] ip2 <- ip1
I0509 16:17:54.738863  7966 net.cpp:380] ip2 -> ip2
I0509 16:17:54.739157  7966 net.cpp:122] Setting up ip2
I0509 16:17:54.739166  7966 net.cpp:129] Top shape: 64 52 (3328)
I0509 16:17:54.739169  7966 net.cpp:137] Memory required for data: 5582080
I0509 16:17:54.739176  7966 layer_factory.hpp:77] Creating layer loss
I0509 16:17:54.739186  7966 net.cpp:84] Creating Layer loss
I0509 16:17:54.739190  7966 net.cpp:406] loss <- ip2
I0509 16:17:54.739195  7966 net.cpp:406] loss <- label
I0509 16:17:54.739203  7966 net.cpp:380] loss -> loss
I0509 16:17:54.739218  7966 layer_factory.hpp:77] Creating layer loss
…
I0509 16:17:54.739559  7966 solver.cpp:190] Creating test net (#0) specified by net file: models/sp_lenet_int2/lenet_train_val.prototxt
I0509 16:17:54.739596  7966 net.cpp:294] The NetState phase (1) differed from the phase (0) specified by a rule in layer data
I0509 16:17:54.739670  7966 net.cpp:51] Initializing net from parameters: 
name: "LeNet"
state {
  phase: TEST
}
layer {
  name: "data"
  type: "Data"
  top: "data"
  top: "label"
  include {
    phase: TEST
  }
  transform_param {
    scale: 0.00390625
  }
  data_param {
    source: "examples/final_sp/sp_val_lmdb_int2"
    batch_size: 64
    backend: LMDB
  }
}
layer {
  name: "conv1"
  type: "Convolution"
  bottom: "data"
  top: "conv1"
  param {
    lr_mult: 1
  }
  param {
    lr_mult: 2
  }
  convolution_param {
    num_output: 20
    kernel_size: 5
    stride: 1
    weight_filler {
      type: "xavier"
    }
    bias_filler {
      type: "constant"
    }
  }
}
layer {
  name: "pool1"
  type: "Pooling"
  bottom: "conv1"
  top: "pool1"
  pooling_param {
    pool: MAX
    kernel_size: 2
    stride: 2
  }
}
layer {
  name: "conv2"
  type: "Convolution"
  bottom: "pool1"
  top: "conv2"
  param {
    lr_mult: 1
  }
  param {
    lr_mult: 2
  }
  convolution_param {
    num_output: 50
    kernel_size: 5
    stride: 1
    weight_filler {
      type: "xavier"
    }
    bias_filler {
      type: "constant"
    }
  }
}
layer {
  name: "pool2"
  type: "Pooling"
  bottom: "conv2"
  top: "pool2"
  pooling_param {
    pool: MAX
    kernel_size: 2
    stride: 2
  }
}
layer {
  name: "ip1"
  type: "InnerProduct"
  bottom: "pool2"
  top: "ip1"
  param {
    lr_mult: 1
  }
  param {
    lr_mult: 2
  }
  inner_product_param {
    num_output: 500
    weight_filler {
      type: "xavier"
    }
    bias_filler {
      type: "constant"
    }
  }
}
layer {
  name: "relu1"
  type: "ReLU"
  bottom: "ip1"
  top: "ip1"
}
layer {
  name: "ip2"
  type: "InnerProduct"
  bottom: "ip1"
  top: "ip2"
  param {
    lr_mult: 1
  }
  param {
    lr_mult: 2
  }
  inner_product_param {
    num_output: 52
    weight_filler {
      type: "xavier"
    }
    bias_filler {
      type: "constant"
    }
  }
}
layer {
  name: "accuracy"
  type: "Accuracy"
  bottom: "ip2"
  bottom: "label"
  top: "accuracy"
  include {
    phase: TEST
  }
}
layer {
  name: "loss"
  type: "SoftmaxWithLoss"
  bottom: "ip2"
  bottom: "label"
  top: "loss"
}
I0509 16:17:54.739742  7966 layer_factory.hpp:77] Creating layer data
I0509 16:17:54.739804  7966 db_lmdb.cpp:35] Opened lmdb examples/final_sp/sp_val_lmdb_int2
I0509 16:17:54.739820  7966 net.cpp:84] Creating Layer data
I0509 16:17:54.739826  7966 net.cpp:380] data -> data
I0509 16:17:54.739836  7966 net.cpp:380] data -> label
I0509 16:17:54.739931  7966 data_layer.cpp:45] output data size: 64,3,28,28
I0509 16:17:54.749722  7966 net.cpp:122] Setting up data
I0509 16:17:54.749752  7966 net.cpp:129] Top shape: 64 3 28 28 (150528)
I0509 16:17:54.749758  7966 net.cpp:129] Top shape: 64 (64)
I0509 16:17:54.749761  7966 net.cpp:137] Memory required for data: 602368
I0509 16:17:54.749770  7966 layer_factory.hpp:77] Creating layer label_data_1_split
I0509 16:17:54.749784  7966 net.cpp:84] Creating Layer label_data_1_split
I0509 16:17:54.749790  7966 net.cpp:406] label_data_1_split <- label
I0509 16:17:54.749799  7966 net.cpp:380] label_data_1_split -> label_data_1_split_0
I0509 16:17:54.749811  7966 net.cpp:380] label_data_1_split -> label_data_1_split_1
I0509 16:17:54.749868  7966 net.cpp:122] Setting up label_data_1_split
I0509 16:17:54.749882  7966 net.cpp:129] Top shape: 64 (64)
I0509 16:17:54.749889  7966 net.cpp:129] Top shape: 64 (64)
I0509 16:17:54.749893  7966 net.cpp:137] Memory required for data: 602880
I0509 16:17:54.749897  7966 layer_factory.hpp:77] Creating layer conv1
I0509 16:17:54.749912  7966 net.cpp:84] Creating Layer conv1
I0509 16:17:54.749917  7966 net.cpp:406] conv1 <- data
I0509 16:17:54.749924  7966 net.cpp:380] conv1 -> conv1
I0509 16:17:54.750099  7966 net.cpp:122] Setting up conv1
I0509 16:17:54.750108  7966 net.cpp:129] Top shape: 64 20 24 24 (737280)
I0509 16:17:54.750111  7966 net.cpp:137] Memory required for data: 3552000
I0509 16:17:54.750124  7966 layer_factory.hpp:77] Creating layer pool1
I0509 16:17:54.750141  7966 net.cpp:84] Creating Layer pool1
I0509 16:17:54.750146  7966 net.cpp:406] pool1 <- conv1
I0509 16:17:54.750154  7966 net.cpp:380] pool1 -> pool1
I0509 16:17:54.750186  7966 net.cpp:122] Setting up pool1
I0509 16:17:54.750193  7966 net.cpp:129] Top shape: 64 20 12 12 (184320)
I0509 16:17:54.750198  7966 net.cpp:137] Memory required for data: 4289280
I0509 16:17:54.750202  7966 layer_factory.hpp:77] Creating layer conv2
I0509 16:17:54.750212  7966 net.cpp:84] Creating Layer conv2
I0509 16:17:54.750217  7966 net.cpp:406] conv2 <- pool1
I0509 16:17:54.750223  7966 net.cpp:380] conv2 -> conv2
I0509 16:17:54.750555  7966 net.cpp:122] Setting up conv2
I0509 16:17:54.754604  7966 net.cpp:129] Top shape: 64 50 8 8 (204800)
I0509 16:17:54.754617  7966 net.cpp:137] Memory required for data: 5108480
I0509 16:17:54.754634  7966 layer_factory.hpp:77] Creating layer pool2
I0509 16:17:54.754645  7966 net.cpp:84] Creating Layer pool2
I0509 16:17:54.754650  7966 net.cpp:406] pool2 <- conv2
I0509 16:17:54.754658  7966 net.cpp:380] pool2 -> pool2
I0509 16:17:54.754752  7966 net.cpp:122] Setting up pool2
I0509 16:17:54.754765  7966 net.cpp:129] Top shape: 64 50 4 4 (51200)
I0509 16:17:54.754768  7966 net.cpp:137] Memory required for data: 5313280
I0509 16:17:54.754771  7966 layer_factory.hpp:77] Creating layer ip1
I0509 16:17:54.754781  7966 net.cpp:84] Creating Layer ip1
I0509 16:17:54.754786  7966 net.cpp:406] ip1 <- pool2
I0509 16:17:54.754791  7966 net.cpp:380] ip1 -> ip1
I0509 16:17:54.757371  7966 net.cpp:122] Setting up ip1
I0509 16:17:54.757390  7966 net.cpp:129] Top shape: 64 500 (32000)
I0509 16:17:54.757395  7966 net.cpp:137] Memory required for data: 5441280
I0509 16:17:54.757407  7966 layer_factory.hpp:77] Creating layer relu1
I0509 16:17:54.757417  7966 net.cpp:84] Creating Layer relu1
I0509 16:17:54.757421  7966 net.cpp:406] relu1 <- ip1
I0509 16:17:54.757428  7966 net.cpp:367] relu1 -> ip1 (in-place)
I0509 16:17:54.757441  7966 net.cpp:122] Setting up relu1
I0509 16:17:54.757447  7966 net.cpp:129] Top shape: 64 500 (32000)
I0509 16:17:54.757450  7966 net.cpp:137] Memory required for data: 5569280
I0509 16:17:54.757477  7966 layer_factory.hpp:77] Creating layer ip2
I0509 16:17:54.757490  7966 net.cpp:84] Creating Layer ip2
I0509 16:17:54.757510  7966 net.cpp:406] ip2 <- ip1
I0509 16:17:54.757529  7966 net.cpp:380] ip2 -> ip2
I0509 16:17:54.757796  7966 net.cpp:122] Setting up ip2
I0509 16:17:54.757804  7966 net.cpp:129] Top shape: 64 52 (3328)
I0509 16:17:54.757807  7966 net.cpp:137] Memory required for data: 5582592
I0509 16:17:54.757814  7966 layer_factory.hpp:77] Creating layer ip2_ip2_0_split
I0509 16:17:54.757822  7966 net.cpp:84] Creating Layer ip2_ip2_0_split
I0509 16:17:54.757827  7966 net.cpp:406] ip2_ip2_0_split <- ip2
I0509 16:17:54.757831  7966 net.cpp:380] ip2_ip2_0_split -> ip2_ip2_0_split_0
I0509 16:17:54.757839  7966 net.cpp:380] ip2_ip2_0_split -> ip2_ip2_0_split_1
I0509 16:17:54.757865  7966 net.cpp:122] Setting up ip2_ip2_0_split
I0509 16:17:54.757870  7966 net.cpp:129] Top shape: 64 52 (3328)
I0509 16:17:54.757875  7966 net.cpp:129] Top shape: 64 52 (3328)
I0509 16:17:54.757879  7966 net.cpp:137] Memory required for data: 5609216
I0509 16:17:54.757881  7966 layer_factory.hpp:77] Creating layer accuracy
I0509 16:17:54.757889  7966 net.cpp:84] Creating Layer accuracy
I0509 16:17:54.757894  7966 net.cpp:406] accuracy <- ip2_ip2_0_split_0
I0509 16:17:54.757897  7966 net.cpp:406] accuracy <- label_data_1_split_0
I0509 16:17:54.757903  7966 net.cpp:380] accuracy -> accuracy
…
