…
I0509 15:28:25.412855  7251 net.cpp:294] The NetState phase (0) differed from the phase (1) specified by a rule in layer data
I0509 15:28:25.412866  7251 net.cpp:294] The NetState phase (0) differed from the phase (1) specified by a rule in layer accuracy
I0509 15:28:25.412933  7251 net.cpp:51] Initializing net from parameters: 
name: "LeNet"
state {
  phase: TRAIN
  level: 0
  stage: ""
}
layer {
  name: "data"
  type: "Data"
  top: "data"
  top: "label"
  include {
    phase: TRAIN
  }
  transform_param {
    scale: 0.00390625
  }
  data_param {
    source: "examples/final_sp/sp_train_lmdb_int2"
    batch_size: 64
    backend: LMDB
  }
}
layer {
  name: "conv1"
  type: "Convolution"
  bottom: "data"
  top: "conv1"
  param {
    lr_mult: 1
  }
  param {
    lr_mult: 2
  }
  convolution_param {
    num_output: 20
    kernel_size: 5
    stride: 1
    weight_filler {
      type: "xavier"
    }
    bias_filler {
      type: "constant"
    }
  }
}
layer {
  name: "pool1"
  type: "Pooling"
  bottom: "conv1"
  top: "pool1"
  pooling_param {
    pool: MAX
    kernel_size: 2
    stride: 2
  }
}
layer {
  name: "conv2"
  type: "Convolution"
  bottom: "pool1"
  top: "conv2"
  param {
    lr_mult: 1
  }
  param {
    lr_mult: 2
  }
  convolution_param {
    num_output: 50
    kernel_size: 5
    stride: 1
    weight_filler {
      type: "xavier"
    }
    bias_filler {
      type: "constant"
    }
  }
}
layer {
  name: "pool2"
  type: "Pooling"
  bottom: "conv2"
  top: "pool2"
  pooling_param {
    pool: MAX
    kernel_size: 2
    stride: 2
  }
}
layer {
  name: "ip1"
  type: "InnerProduct"
  bottom: "pool2"
  top: "ip1"
  param {
    lr_mult: 1
  }
  param {
    lr_mult: 2
  }
  inner_product_param {
    num_output: 500
    weight_filler {
      type: "xavier"
    }
    bias_filler {
      type: "constant"
    }
  }
}
layer {
  name: "relu1"
  type: "ReLU"
  bottom: "ip1"
  top: "ip1"
}
layer {
  name: "ip2"
  type: "InnerProduct"
  bottom: "ip1"
  top: "ip2"
  param {
    lr_mult: 1
  }
  param {
    lr_mult: 2
  }
  inner_product_param {
    num_output: 52
    weight_filler {
      type: "xavier"
    }
    bias_filler {
      type: "constant"
    }
  }
}
layer {
  name: "loss"
  type: "SoftmaxWithLoss"
  bottom: "ip2"
  bottom: "label"
  top: "loss"
}
I0509 15:28:25.412976  7251 layer_factory.hpp:77] Creating layer data
I0509 15:28:25.497452  7251 db_lmdb.cpp:35] Opened lmdb examples/final_sp/sp_train_lmdb_int2
I0509 15:28:25.508003  7251 net.cpp:84] Creating Layer data
I0509 15:28:25.508143  7251 net.cpp:380] data -> data
I0509 15:28:25.508333  7251 net.cpp:380] data -> label
I0509 15:28:25.510838  7251 data_layer.cpp:45] output data size: 64,3,28,28
I0509 15:28:25.523149  7251 net.cpp:122] Setting up data
I0509 15:28:25.523233  7251 net.cpp:129] Top shape: 64 3 28 28 (150528)
I0509 15:28:25.523264  7251 net.cpp:129] Top shape: 64 (64)
I0509 15:28:25.523283  7251 net.cpp:137] Memory required for data: 602368
I0509 15:28:25.523315  7251 layer_factory.hpp:77] Creating layer conv1
I0509 15:28:25.523399  7251 net.cpp:84] Creating Layer conv1
I0509 15:28:25.523428  7251 net.cpp:406] conv1 <- data
I0509 15:28:25.523478  7251 net.cpp:380] conv1 -> conv1
I0509 15:28:25.528194  7251 net.cpp:122] Setting up conv1
I0509 15:28:25.528261  7251 net.cpp:129] Top shape: 64 20 24 24 (737280)
I0509 15:28:25.528281  7251 net.cpp:137] Memory required for data: 3551488
I0509 15:28:25.528393  7251 layer_factory.hpp:77] Creating layer pool1
I0509 15:28:25.528456  7251 net.cpp:84] Creating Layer pool1
I0509 15:28:25.528524  7251 net.cpp:406] pool1 <- conv1
I0509 15:28:25.528570  7251 net.cpp:380] pool1 -> pool1
I0509 15:28:25.529229  7251 net.cpp:122] Setting up pool1
I0509 15:28:25.529381  7251 net.cpp:129] Top shape: 64 20 12 12 (184320)
I0509 15:28:25.529423  7251 net.cpp:137] Memory required for data: 4288768
I0509 15:28:25.529449  7251 layer_factory.hpp:77] Creating layer conv2
I0509 15:28:25.529511  7251 net.cpp:84] Creating Layer conv2
I0509 15:28:25.529534  7251 net.cpp:406] conv2 <- pool1
I0509 15:28:25.529578  7251 net.cpp:380] conv2 -> conv2
I0509 15:28:25.536381  7251 net.cpp:122] Setting up conv2
I0509 15:28:25.536459  7251 net.cpp:129] Top shape: 64 50 8 8 (204800)
I0509 15:28:25.536481  7251 net.cpp:137] Memory required for data: 5107968
I0509 15:28:25.536532  7251 layer_factory.hpp:77] Creating layer pool2
I0509 15:28:25.536573  7251 net.cpp:84] Creating Layer pool2
I0509 15:28:25.536610  7251 net.cpp:406] pool2 <- conv2
I0509 15:28:25.536644  7251 net.cpp:380] pool2 -> pool2
I0509 15:28:25.536797  7251 net.cpp:122] Setting up pool2
I0509 15:28:25.536828  7251 net.cpp:129] Top shape: 64 50 4 4 (51200)
I0509 15:28:25.536847  7251 net.cpp:137] Memory required for data: 5312768
I0509 15:28:25.536864  7251 layer_factory.hpp:77] Creating layer ip1
I0509 15:28:25.536909  7251 net.cpp:84] Creating Layer ip1
I0509 15:28:25.536932  7251 net.cpp:406] ip1 <- pool2
I0509 15:28:25.536970  7251 net.cpp:380] ip1 -> ip1
I0509 15:28:25.544124  7251 net.cpp:122] Setting up ip1
I0509 15:28:25.544154  7251 net.cpp:129] Top shape: 64 500 (32000)
I0509 15:28:25.544165  7251 net.cpp:137] Memory required for data: 5440768
I0509 15:28:25.544193  7251 layer_factory.hpp:77] Creating layer relu1
I0509 15:28:25.544219  7251 net.cpp:84] Creating Layer relu1
I0509 15:28:25.544234  7251 net.cpp:406] relu1 <- ip1
I0509 15:28:25.544251  7251 net.cpp:367] relu1 -> ip1 (in-place)
I0509 15:28:25.544275  7251 net.cpp:122] Setting up relu1
I0509 15:28:25.544289  7251 net.cpp:129] Top shape: 64 500 (32000)
I0509 15:28:25.544298  7251 net.cpp:137] Memory required for data: 5568768
I0509 15:28:25.544308  7251 layer_factory.hpp:77] Creating layer ip2
I0509 15:28:25.544330  7251 net.cpp:84] Creating Layer ip2
I0509 15:28:25.544342  7251 net.cpp:406] ip2 <- ip1
I0509 15:28:25.544358  7251 net.cpp:380] ip2 -> ip2
I0509 15:28:25.544816  7251 net.cpp:122] Setting up ip2
I0509 15:28:25.544834  7251 net.cpp:129] Top shape: 64 52 (3328)
I0509 15:28:25.544843  7251 net.cpp:137] Memory required for data: 5582080
I0509 15:28:25.544860  7251 layer_factory.hpp:77] Creating layer loss
I0509 15:28:25.544886  7251 net.cpp:84] Creating Layer loss
I0509 15:28:25.544898  7251 net.cpp:406] loss <- ip2
I0509 15:28:25.544910  7251 net.cpp:406] loss <- label
I0509 15:28:25.544931  7251 net.cpp:380] loss -> loss
I0509 15:28:25.544988  7251 layer_factory.hpp:77] Creating layer loss
…
I0509 15:28:25.545779  7251 solver.cpp:190] Creating test net (#0) specified by net file: models/sp_lenet_int2/lenet_train_val.prototxt
I0509 15:28:25.545881  7251 net.cpp:294] The NetState phase (1) differed from the phase (0) specified by a rule in layer data
I0509 15:28:25.546069  7251 net.cpp:51] Initializing net from parameters: 
name: "LeNet"
state {
  phase: TEST
}
layer {
  name: "data"
  type: "Data"
  top: "data"
  top: "label"
  include {
    phase: TEST
  }
  transform_param {
    scale: 0.00390625
  }
  data_param {
    source: "examples/final_sp/sp_val_lmdb_int2"
    batch_size: 64
    backend: LMDB
  }
}
layer {
  name: "conv1"
  type: "Convolution"
  bottom: "data"
  top: "conv1"
  param {
    lr_mult: 1
  }
  param {
    lr_mult: 2
  }
  convolution_param {
    num_output: 20
    kernel_size: 5
    stride: 1
    weight_filler {
      type: "xavier"
    }
    bias_filler {
      type: "constant"
    }
  }
}
layer {
  name: "pool1"
  type: "Pooling"
  bottom: "conv1"
  top: "pool1"
  pooling_param {
    pool: MAX
    kernel_size: 2
    stride: 2
  }
}
layer {
  name: "conv2"
  type: "Convolution"
  bottom: "pool1"
  top: "conv2"
  param {
    lr_mult: 1
  }
  param {
    lr_mult: 2
  }
  convolution_param {
    num_output: 50
    kernel_size: 5
    stride: 1
    weight_filler {
      type: "xavier"
    }
    bias_filler {
      type: "constant"
    }
  }
}
layer {
  name: "pool2"
  type: "Pooling"
  bottom: "conv2"
  top: "pool2"
  pooling_param {
    pool: MAX
    kernel_size: 2
    stride: 2
  }
}
layer {
  name: "ip1"
  type: "InnerProduct"
  bottom: "pool2"
  top: "ip1"
  param {
    lr_mult: 1
  }
  param {
    lr_mult: 2
  }
  inner_product_param {
    num_output: 500
    weight_filler {
      type: "xavier"
    }
    bias_filler {
      type: "constant"
    }
  }
}
layer {
  name: "relu1"
  type: "ReLU"
  bottom: "ip1"
  top: "ip1"
}
layer {
  name: "ip2"
  type: "InnerProduct"
  bottom: "ip1"
  top: "ip2"
  param {
    lr_mult: 1
  }
  param {
    lr_mult: 2
  }
  inner_product_param {
    num_output: 52
    weight_filler {
      type: "xavier"
    }
    bias_filler {
      type: "constant"
    }
  }
}
layer {
  name: "accuracy"
  type: "Accuracy"
  bottom: "ip2"
  bottom: "label"
  top: "accuracy"
  include {
    phase: TEST
  }
}
layer {
  name: "loss"
  type: "SoftmaxWithLoss"
  bottom: "ip2"
  bottom: "label"
  top: "loss"
}
I0509 15:28:25.546252  7251 layer_factory.hpp:77] Creating layer data
I0509 15:28:25.563205  7251 db_lmdb.cpp:35] Opened lmdb examples/final_sp/sp_val_lmdb_int2
I0509 15:28:25.603849  7251 net.cpp:84] Creating Layer data
I0509 15:28:25.603888  7251 net.cpp:380] data -> data
I0509 15:28:25.603905  7251 net.cpp:380] data -> label
I0509 15:28:25.604086  7251 data_layer.cpp:45] output data size: 64,3,28,28
I0509 15:28:25.609244  7251 net.cpp:122] Setting up data
I0509 15:28:25.609274  7251 net.cpp:129] Top shape: 64 3 28 28 (150528)
I0509 15:28:25.609282  7251 net.cpp:129] Top shape: 64 (64)
I0509 15:28:25.609287  7251 net.cpp:137] Memory required for data: 602368
I0509 15:28:25.609297  7251 layer_factory.hpp:77] Creating layer label_data_1_split
I0509 15:28:25.609318  7251 net.cpp:84] Creating Layer label_data_1_split
I0509 15:28:25.609324  7251 net.cpp:406] label_data_1_split <- label
I0509 15:28:25.609341  7251 net.cpp:380] label_data_1_split -> label_data_1_split_0
I0509 15:28:25.609359  7251 net.cpp:380] label_data_1_split -> label_data_1_split_1
I0509 15:28:25.609431  7251 net.cpp:122] Setting up label_data_1_split
I0509 15:28:25.609443  7251 net.cpp:129] Top shape: 64 (64)
I0509 15:28:25.609448  7251 net.cpp:129] Top shape: 64 (64)
I0509 15:28:25.609453  7251 net.cpp:137] Memory required for data: 602880
I0509 15:28:25.609460  7251 layer_factory.hpp:77] Creating layer conv1
I0509 15:28:25.609483  7251 net.cpp:84] Creating Layer conv1
I0509 15:28:25.609491  7251 net.cpp:406] conv1 <- data
I0509 15:28:25.609504  7251 net.cpp:380] conv1 -> conv1
I0509 15:28:25.609794  7251 net.cpp:122] Setting up conv1
I0509 15:28:25.609807  7251 net.cpp:129] Top shape: 64 20 24 24 (737280)
I0509 15:28:25.609812  7251 net.cpp:137] Memory required for data: 3552000
I0509 15:28:25.609828  7251 layer_factory.hpp:77] Creating layer pool1
I0509 15:28:25.609863  7251 net.cpp:84] Creating Layer pool1
I0509 15:28:25.609875  7251 net.cpp:406] pool1 <- conv1
I0509 15:28:25.609889  7251 net.cpp:380] pool1 -> pool1
I0509 15:28:25.609951  7251 net.cpp:122] Setting up pool1
I0509 15:28:25.609963  7251 net.cpp:129] Top shape: 64 20 12 12 (184320)
I0509 15:28:25.609968  7251 net.cpp:137] Memory required for data: 4289280
I0509 15:28:25.609972  7251 layer_factory.hpp:77] Creating layer conv2
I0509 15:28:25.609993  7251 net.cpp:84] Creating Layer conv2
I0509 15:28:25.610000  7251 net.cpp:406] conv2 <- pool1
I0509 15:28:25.610013  7251 net.cpp:380] conv2 -> conv2
I0509 15:28:25.610466  7251 net.cpp:122] Setting up conv2
I0509 15:28:25.610478  7251 net.cpp:129] Top shape: 64 50 8 8 (204800)
I0509 15:28:25.610482  7251 net.cpp:137] Memory required for data: 5108480
I0509 15:28:25.610496  7251 layer_factory.hpp:77] Creating layer pool2
I0509 15:28:25.610509  7251 net.cpp:84] Creating Layer pool2
I0509 15:28:25.610517  7251 net.cpp:406] pool2 <- conv2
I0509 15:28:25.610528  7251 net.cpp:380] pool2 -> pool2
I0509 15:28:25.610594  7251 net.cpp:122] Setting up pool2
I0509 15:28:25.610610  7251 net.cpp:129] Top shape: 64 50 4 4 (51200)
I0509 15:28:25.610617  7251 net.cpp:137] Memory required for data: 5313280
I0509 15:28:25.610625  7251 layer_factory.hpp:77] Creating layer ip1
I0509 15:28:25.610640  7251 net.cpp:84] Creating Layer ip1
I0509 15:28:25.610646  7251 net.cpp:406] ip1 <- pool2
I0509 15:28:25.610657  7251 net.cpp:380] ip1 -> ip1
I0509 15:28:25.617940  7251 net.cpp:122] Setting up ip1
I0509 15:28:25.617969  7251 net.cpp:129] Top shape: 64 500 (32000)
I0509 15:28:25.617974  7251 net.cpp:137] Memory required for data: 5441280
I0509 15:28:25.617995  7251 layer_factory.hpp:77] Creating layer relu1
I0509 15:28:25.618010  7251 net.cpp:84] Creating Layer relu1
I0509 15:28:25.618017  7251 net.cpp:406] relu1 <- ip1
I0509 15:28:25.618028  7251 net.cpp:367] relu1 -> ip1 (in-place)
I0509 15:28:25.618041  7251 net.cpp:122] Setting up relu1
I0509 15:28:25.618050  7251 net.cpp:129] Top shape: 64 500 (32000)
I0509 15:28:25.618055  7251 net.cpp:137] Memory required for data: 5569280
I0509 15:28:25.618063  7251 layer_factory.hpp:77] Creating layer ip2
I0509 15:28:25.618083  7251 net.cpp:84] Creating Layer ip2
I0509 15:28:25.618091  7251 net.cpp:406] ip2 <- ip1
I0509 15:28:25.618103  7251 net.cpp:380] ip2 -> ip2
I0509 15:28:25.618444  7251 net.cpp:122] Setting up ip2
I0509 15:28:25.618463  7251 net.cpp:129] Top shape: 64 52 (3328)
I0509 15:28:25.618466  7251 net.cpp:137] Memory required for data: 5582592
I0509 15:28:25.618476  7251 layer_factory.hpp:77] Creating layer ip2_ip2_0_split
I0509 15:28:25.618487  7251 net.cpp:84] Creating Layer ip2_ip2_0_split
I0509 15:28:25.618500  7251 net.cpp:406] ip2_ip2_0_split <- ip2
I0509 15:28:25.618513  7251 net.cpp:380] ip2_ip2_0_split -> ip2_ip2_0_split_0
I0509 15:28:25.618530  7251 net.cpp:380] ip2_ip2_0_split -> ip2_ip2_0_split_1
I0509 15:28:25.618600  7251 net.cpp:122] Setting up ip2_ip2_0_split
I0509 15:28:25.618613  7251 net.cpp:129] Top shape: 64 52 (3328)
I0509 15:28:25.618618  7251 net.cpp:129] Top shape: 64 52 (3328)
I0509 15:28:25.618625  7251 net.cpp:137] Memory required for data: 5609216
I0509 15:28:25.618633  7251 layer_factory.hpp:77] Creating layer accuracy
I0509 15:28:25.618646  7251 net.cpp:84] Creating Layer accuracy
I0509 15:28:25.618654  7251 net.cpp:406] accuracy <- ip2_ip2_0_split_0
I0509 15:28:25.618662  7251 net.cpp:406] accuracy <- label_data_1_split_0
I0509 15:28:25.618675  7251 net.cpp:380] accuracy -> accuracy
…
