…
I0502 19:31:52.020881  4043 net.cpp:294] The NetState phase (0) differed from the phase (1) specified by a rule in layer data
I0502 19:31:52.020892  4043 net.cpp:294] The NetState phase (0) differed from the phase (1) specified by a rule in layer accuracy
I0502 19:31:52.020958  4043 net.cpp:51] Initializing net from parameters: 
name: "LeNet"
state {
  phase: TRAIN
  level: 0
  stage: ""
}
layer {
  name: "data"
  type: "Data"
  top: "data"
  top: "label"
  include {
    phase: TRAIN
  }
  transform_param {
    scale: 0.00390625
  }
  data_param {
    source: "examples/final_sp/sp_train_lmdb"
    batch_size: 64
    backend: LMDB
  }
}
layer {
  name: "conv1"
  type: "Convolution"
  bottom: "data"
  top: "conv1"
  param {
    lr_mult: 1
  }
  param {
    lr_mult: 2
  }
  convolution_param {
    num_output: 20
    kernel_size: 5
    stride: 1
    weight_filler {
      type: "xavier"
    }
    bias_filler {
      type: "constant"
    }
  }
}
layer {
  name: "pool1"
  type: "Pooling"
  bottom: "conv1"
  top: "pool1"
  pooling_param {
    pool: MAX
    kernel_size: 2
    stride: 2
  }
}
layer {
  name: "conv2"
  type: "Convolution"
  bottom: "pool1"
  top: "conv2"
  param {
    lr_mult: 1
  }
  param {
    lr_mult: 2
  }
  convolution_param {
    num_output: 50
    kernel_size: 5
    stride: 1
    weight_filler {
      type: "xavier"
    }
    bias_filler {
      type: "constant"
    }
  }
}
layer {
  name: "pool2"
  type: "Pooling"
  bottom: "conv2"
  top: "pool2"
  pooling_param {
    pool: MAX
    kernel_size: 2
    stride: 2
  }
}
layer {
  name: "ip1"
  type: "InnerProduct"
  bottom: "pool2"
  top: "ip1"
  param {
    lr_mult: 1
  }
  param {
    lr_mult: 2
  }
  inner_product_param {
    num_output: 500
    weight_filler {
      type: "xavier"
    }
    bias_filler {
      type: "constant"
    }
  }
}
layer {
  name: "relu1"
  type: "ReLU"
  bottom: "ip1"
  top: "ip1"
}
layer {
  name: "ip2"
  type: "InnerProduct"
  bottom: "ip1"
  top: "ip2"
  param {
    lr_mult: 1
  }
  param {
    lr_mult: 2
  }
  inner_product_param {
    num_output: 52
    weight_filler {
      type: "xavier"
    }
    bias_filler {
      type: "constant"
    }
  }
}
layer {
  name: "loss"
  type: "SoftmaxWithLoss"
  bottom: "ip2"
  bottom: "label"
  top: "loss"
}
I0502 19:31:52.021000  4043 layer_factory.hpp:77] Creating layer data
I0502 19:31:52.021085  4043 db_lmdb.cpp:35] Opened lmdb examples/final_sp/sp_train_lmdb
I0502 19:31:52.021104  4043 net.cpp:84] Creating Layer data
I0502 19:31:52.021111  4043 net.cpp:380] data -> data
I0502 19:31:52.021128  4043 net.cpp:380] data -> label
I0502 19:31:52.021666  4043 data_layer.cpp:45] output data size: 64,3,28,28
I0502 19:31:52.025543  4043 net.cpp:122] Setting up data
I0502 19:31:52.025568  4043 net.cpp:129] Top shape: 64 3 28 28 (150528)
I0502 19:31:52.025574  4043 net.cpp:129] Top shape: 64 (64)
I0502 19:31:52.025576  4043 net.cpp:137] Memory required for data: 602368
I0502 19:31:52.025585  4043 layer_factory.hpp:77] Creating layer conv1
I0502 19:31:52.025619  4043 net.cpp:84] Creating Layer conv1
I0502 19:31:52.025629  4043 net.cpp:406] conv1 <- data
I0502 19:31:52.025645  4043 net.cpp:380] conv1 -> conv1
I0502 19:31:52.026607  4043 net.cpp:122] Setting up conv1
I0502 19:31:52.026619  4043 net.cpp:129] Top shape: 64 20 24 24 (737280)
I0502 19:31:52.026623  4043 net.cpp:137] Memory required for data: 3551488
I0502 19:31:52.026638  4043 layer_factory.hpp:77] Creating layer pool1
I0502 19:31:52.026675  4043 net.cpp:84] Creating Layer pool1
I0502 19:31:52.026680  4043 net.cpp:406] pool1 <- conv1
I0502 19:31:52.026690  4043 net.cpp:380] pool1 -> pool1
I0502 19:31:52.026742  4043 net.cpp:122] Setting up pool1
I0502 19:31:52.026751  4043 net.cpp:129] Top shape: 64 20 12 12 (184320)
I0502 19:31:52.026753  4043 net.cpp:137] Memory required for data: 4288768
I0502 19:31:52.026757  4043 layer_factory.hpp:77] Creating layer conv2
I0502 19:31:52.026768  4043 net.cpp:84] Creating Layer conv2
I0502 19:31:52.026774  4043 net.cpp:406] conv2 <- pool1
I0502 19:31:52.026787  4043 net.cpp:380] conv2 -> conv2
I0502 19:31:52.027868  4043 net.cpp:122] Setting up conv2
I0502 19:31:52.027879  4043 net.cpp:129] Top shape: 64 50 8 8 (204800)
I0502 19:31:52.027885  4043 net.cpp:137] Memory required for data: 5107968
I0502 19:31:52.027899  4043 layer_factory.hpp:77] Creating layer pool2
I0502 19:31:52.027909  4043 net.cpp:84] Creating Layer pool2
I0502 19:31:52.027914  4043 net.cpp:406] pool2 <- conv2
I0502 19:31:52.027920  4043 net.cpp:380] pool2 -> pool2
I0502 19:31:52.027956  4043 net.cpp:122] Setting up pool2
I0502 19:31:52.027963  4043 net.cpp:129] Top shape: 64 50 4 4 (51200)
I0502 19:31:52.027971  4043 net.cpp:137] Memory required for data: 5312768
I0502 19:31:52.027974  4043 layer_factory.hpp:77] Creating layer ip1
I0502 19:31:52.027984  4043 net.cpp:84] Creating Layer ip1
I0502 19:31:52.027989  4043 net.cpp:406] ip1 <- pool2
I0502 19:31:52.027997  4043 net.cpp:380] ip1 -> ip1
I0502 19:31:52.030555  4043 net.cpp:122] Setting up ip1
I0502 19:31:52.030570  4043 net.cpp:129] Top shape: 64 500 (32000)
I0502 19:31:52.030572  4043 net.cpp:137] Memory required for data: 5440768
I0502 19:31:52.030584  4043 layer_factory.hpp:77] Creating layer relu1
I0502 19:31:52.030596  4043 net.cpp:84] Creating Layer relu1
I0502 19:31:52.030602  4043 net.cpp:406] relu1 <- ip1
I0502 19:31:52.030608  4043 net.cpp:367] relu1 -> ip1 (in-place)
I0502 19:31:52.030620  4043 net.cpp:122] Setting up relu1
I0502 19:31:52.030627  4043 net.cpp:129] Top shape: 64 500 (32000)
I0502 19:31:52.030632  4043 net.cpp:137] Memory required for data: 5568768
I0502 19:31:52.030637  4043 layer_factory.hpp:77] Creating layer ip2
I0502 19:31:52.030644  4043 net.cpp:84] Creating Layer ip2
I0502 19:31:52.030650  4043 net.cpp:406] ip2 <- ip1
I0502 19:31:52.030658  4043 net.cpp:380] ip2 -> ip2
I0502 19:31:52.030863  4043 net.cpp:122] Setting up ip2
I0502 19:31:52.030870  4043 net.cpp:129] Top shape: 64 52 (3328)
I0502 19:31:52.030876  4043 net.cpp:137] Memory required for data: 5582080
I0502 19:31:52.030884  4043 layer_factory.hpp:77] Creating layer loss
I0502 19:31:52.030894  4043 net.cpp:84] Creating Layer loss
I0502 19:31:52.030900  4043 net.cpp:406] loss <- ip2
I0502 19:31:52.030906  4043 net.cpp:406] loss <- label
I0502 19:31:52.030917  4043 net.cpp:380] loss -> loss
I0502 19:31:52.030935  4043 layer_factory.hpp:77] Creating layer loss
…
I0502 19:31:52.031280  4043 solver.cpp:190] Creating test net (#0) specified by net file: models/sp_final_lenet/lenet_train_val.prototxt
I0502 19:31:52.031319  4043 net.cpp:294] The NetState phase (1) differed from the phase (0) specified by a rule in layer data
I0502 19:31:52.031394  4043 net.cpp:51] Initializing net from parameters: 
name: "LeNet"
state {
  phase: TEST
}
layer {
  name: "data"
  type: "Data"
  top: "data"
  top: "label"
  include {
    phase: TEST
  }
  transform_param {
    scale: 0.00390625
  }
  data_param {
    source: "examples/final_sp/sp_val_lmdb"
    batch_size: 64
    backend: LMDB
  }
}
layer {
  name: "conv1"
  type: "Convolution"
  bottom: "data"
  top: "conv1"
  param {
    lr_mult: 1
  }
  param {
    lr_mult: 2
  }
  convolution_param {
    num_output: 20
    kernel_size: 5
    stride: 1
    weight_filler {
      type: "xavier"
    }
    bias_filler {
      type: "constant"
    }
  }
}
layer {
  name: "pool1"
  type: "Pooling"
  bottom: "conv1"
  top: "pool1"
  pooling_param {
    pool: MAX
    kernel_size: 2
    stride: 2
  }
}
layer {
  name: "conv2"
  type: "Convolution"
  bottom: "pool1"
  top: "conv2"
  param {
    lr_mult: 1
  }
  param {
    lr_mult: 2
  }
  convolution_param {
    num_output: 50
    kernel_size: 5
    stride: 1
    weight_filler {
      type: "xavier"
    }
    bias_filler {
      type: "constant"
    }
  }
}
layer {
  name: "pool2"
  type: "Pooling"
  bottom: "conv2"
  top: "pool2"
  pooling_param {
    pool: MAX
    kernel_size: 2
    stride: 2
  }
}
layer {
  name: "ip1"
  type: "InnerProduct"
  bottom: "pool2"
  top: "ip1"
  param {
    lr_mult: 1
  }
  param {
    lr_mult: 2
  }
  inner_product_param {
    num_output: 500
    weight_filler {
      type: "xavier"
    }
    bias_filler {
      type: "constant"
    }
  }
}
layer {
  name: "relu1"
  type: "ReLU"
  bottom: "ip1"
  top: "ip1"
}
layer {
  name: "ip2"
  type: "InnerProduct"
  bottom: "ip1"
  top: "ip2"
  param {
    lr_mult: 1
  }
  param {
    lr_mult: 2
  }
  inner_product_param {
    num_output: 52
    weight_filler {
      type: "xavier"
    }
    bias_filler {
      type: "constant"
    }
  }
}
layer {
  name: "accuracy"
  type: "Accuracy"
  bottom: "ip2"
  bottom: "label"
  top: "accuracy"
  include {
    phase: TEST
  }
}
layer {
  name: "loss"
  type: "SoftmaxWithLoss"
  bottom: "ip2"
  bottom: "label"
  top: "loss"
}
I0502 19:31:52.031473  4043 layer_factory.hpp:77] Creating layer data
I0502 19:31:52.031538  4043 db_lmdb.cpp:35] Opened lmdb examples/final_sp/sp_val_lmdb
I0502 19:31:52.031551  4043 net.cpp:84] Creating Layer data
I0502 19:31:52.031558  4043 net.cpp:380] data -> data
I0502 19:31:52.031569  4043 net.cpp:380] data -> label
I0502 19:31:52.031661  4043 data_layer.cpp:45] output data size: 64,3,28,28
I0502 19:31:52.036798  4043 net.cpp:122] Setting up data
I0502 19:31:52.036823  4043 net.cpp:129] Top shape: 64 3 28 28 (150528)
I0502 19:31:52.036828  4043 net.cpp:129] Top shape: 64 (64)
I0502 19:31:52.036833  4043 net.cpp:137] Memory required for data: 602368
I0502 19:31:52.036839  4043 layer_factory.hpp:77] Creating layer label_data_1_split
I0502 19:31:52.036854  4043 net.cpp:84] Creating Layer label_data_1_split
I0502 19:31:52.036859  4043 net.cpp:406] label_data_1_split <- label
I0502 19:31:52.036870  4043 net.cpp:380] label_data_1_split -> label_data_1_split_0
I0502 19:31:52.036882  4043 net.cpp:380] label_data_1_split -> label_data_1_split_1
I0502 19:31:52.036942  4043 net.cpp:122] Setting up label_data_1_split
I0502 19:31:52.036950  4043 net.cpp:129] Top shape: 64 (64)
I0502 19:31:52.036955  4043 net.cpp:129] Top shape: 64 (64)
I0502 19:31:52.036959  4043 net.cpp:137] Memory required for data: 602880
I0502 19:31:52.036964  4043 layer_factory.hpp:77] Creating layer conv1
I0502 19:31:52.036979  4043 net.cpp:84] Creating Layer conv1
I0502 19:31:52.036986  4043 net.cpp:406] conv1 <- data
I0502 19:31:52.036993  4043 net.cpp:380] conv1 -> conv1
I0502 19:31:52.037168  4043 net.cpp:122] Setting up conv1
I0502 19:31:52.037173  4043 net.cpp:129] Top shape: 64 20 24 24 (737280)
I0502 19:31:52.037176  4043 net.cpp:137] Memory required for data: 3552000
I0502 19:31:52.037184  4043 layer_factory.hpp:77] Creating layer pool1
I0502 19:31:52.037205  4043 net.cpp:84] Creating Layer pool1
I0502 19:31:52.037209  4043 net.cpp:406] pool1 <- conv1
I0502 19:31:52.037214  4043 net.cpp:380] pool1 -> pool1
I0502 19:31:52.037241  4043 net.cpp:122] Setting up pool1
I0502 19:31:52.037246  4043 net.cpp:129] Top shape: 64 20 12 12 (184320)
I0502 19:31:52.037248  4043 net.cpp:137] Memory required for data: 4289280
I0502 19:31:52.037251  4043 layer_factory.hpp:77] Creating layer conv2
I0502 19:31:52.037259  4043 net.cpp:84] Creating Layer conv2
I0502 19:31:52.037262  4043 net.cpp:406] conv2 <- pool1
I0502 19:31:52.037267  4043 net.cpp:380] conv2 -> conv2
I0502 19:31:52.042011  4043 net.cpp:122] Setting up conv2
I0502 19:31:52.042026  4043 net.cpp:129] Top shape: 64 50 8 8 (204800)
I0502 19:31:52.042032  4043 net.cpp:137] Memory required for data: 5108480
I0502 19:31:52.042042  4043 layer_factory.hpp:77] Creating layer pool2
I0502 19:31:52.042049  4043 net.cpp:84] Creating Layer pool2
I0502 19:31:52.042053  4043 net.cpp:406] pool2 <- conv2
I0502 19:31:52.042059  4043 net.cpp:380] pool2 -> pool2
I0502 19:31:52.042098  4043 net.cpp:122] Setting up pool2
I0502 19:31:52.042107  4043 net.cpp:129] Top shape: 64 50 4 4 (51200)
I0502 19:31:52.042111  4043 net.cpp:137] Memory required for data: 5313280
I0502 19:31:52.042114  4043 layer_factory.hpp:77] Creating layer ip1
I0502 19:31:52.042124  4043 net.cpp:84] Creating Layer ip1
I0502 19:31:52.042136  4043 net.cpp:406] ip1 <- pool2
I0502 19:31:52.042142  4043 net.cpp:380] ip1 -> ip1
I0502 19:31:52.044677  4043 net.cpp:122] Setting up ip1
I0502 19:31:52.044690  4043 net.cpp:129] Top shape: 64 500 (32000)
I0502 19:31:52.044693  4043 net.cpp:137] Memory required for data: 5441280
I0502 19:31:52.044703  4043 layer_factory.hpp:77] Creating layer relu1
I0502 19:31:52.044708  4043 net.cpp:84] Creating Layer relu1
I0502 19:31:52.044710  4043 net.cpp:406] relu1 <- ip1
I0502 19:31:52.044715  4043 net.cpp:367] relu1 -> ip1 (in-place)
I0502 19:31:52.044721  4043 net.cpp:122] Setting up relu1
I0502 19:31:52.044724  4043 net.cpp:129] Top shape: 64 500 (32000)
I0502 19:31:52.044728  4043 net.cpp:137] Memory required for data: 5569280
I0502 19:31:52.044730  4043 layer_factory.hpp:77] Creating layer ip2
I0502 19:31:52.044741  4043 net.cpp:84] Creating Layer ip2
I0502 19:31:52.044746  4043 net.cpp:406] ip2 <- ip1
I0502 19:31:52.044752  4043 net.cpp:380] ip2 -> ip2
I0502 19:31:52.044945  4043 net.cpp:122] Setting up ip2
I0502 19:31:52.044950  4043 net.cpp:129] Top shape: 64 52 (3328)
I0502 19:31:52.044952  4043 net.cpp:137] Memory required for data: 5582592
I0502 19:31:52.044957  4043 layer_factory.hpp:77] Creating layer ip2_ip2_0_split
I0502 19:31:52.044962  4043 net.cpp:84] Creating Layer ip2_ip2_0_split
I0502 19:31:52.044965  4043 net.cpp:406] ip2_ip2_0_split <- ip2
I0502 19:31:52.044968  4043 net.cpp:380] ip2_ip2_0_split -> ip2_ip2_0_split_0
I0502 19:31:52.044975  4043 net.cpp:380] ip2_ip2_0_split -> ip2_ip2_0_split_1
I0502 19:31:52.045001  4043 net.cpp:122] Setting up ip2_ip2_0_split
I0502 19:31:52.045006  4043 net.cpp:129] Top shape: 64 52 (3328)
I0502 19:31:52.045009  4043 net.cpp:129] Top shape: 64 52 (3328)
I0502 19:31:52.045012  4043 net.cpp:137] Memory required for data: 5609216
I0502 19:31:52.045017  4043 layer_factory.hpp:77] Creating layer accuracy
I0502 19:31:52.045024  4043 net.cpp:84] Creating Layer accuracy
I0502 19:31:52.045029  4043 net.cpp:406] accuracy <- ip2_ip2_0_split_0
I0502 19:31:52.045033  4043 net.cpp:406] accuracy <- label_data_1_split_0
I0502 19:31:52.045039  4043 net.cpp:380] accuracy -> accuracy
…
