…
I0502 19:12:06.428954  3917 net.cpp:294] The NetState phase (0) differed from the phase (1) specified by a rule in layer data
I0502 19:12:06.428964  3917 net.cpp:294] The NetState phase (0) differed from the phase (1) specified by a rule in layer accuracy
I0502 19:12:06.429028  3917 net.cpp:51] Initializing net from parameters: 
name: "LeNet"
state {
  phase: TRAIN
  level: 0
  stage: ""
}
layer {
  name: "data"
  type: "Data"
  top: "data"
  top: "label"
  include {
    phase: TRAIN
  }
  transform_param {
    scale: 0.00390625
  }
  data_param {
    source: "examples/final_sp/sp_train_lmdb"
    batch_size: 64
    backend: LMDB
  }
}
layer {
  name: "conv1"
  type: "Convolution"
  bottom: "data"
  top: "conv1"
  param {
    lr_mult: 1
  }
  param {
    lr_mult: 2
  }
  convolution_param {
    num_output: 20
    kernel_size: 5
    stride: 1
    weight_filler {
      type: "xavier"
    }
    bias_filler {
      type: "constant"
    }
  }
}
layer {
  name: "pool1"
  type: "Pooling"
  bottom: "conv1"
  top: "pool1"
  pooling_param {
    pool: MAX
    kernel_size: 2
    stride: 2
  }
}
layer {
  name: "conv2"
  type: "Convolution"
  bottom: "pool1"
  top: "conv2"
  param {
    lr_mult: 1
  }
  param {
    lr_mult: 2
  }
  convolution_param {
    num_output: 50
    kernel_size: 5
    stride: 1
    weight_filler {
      type: "xavier"
    }
    bias_filler {
      type: "constant"
    }
  }
}
layer {
  name: "pool2"
  type: "Pooling"
  bottom: "conv2"
  top: "pool2"
  pooling_param {
    pool: MAX
    kernel_size: 2
    stride: 2
  }
}
layer {
  name: "ip1"
  type: "InnerProduct"
  bottom: "pool2"
  top: "ip1"
  param {
    lr_mult: 1
  }
  param {
    lr_mult: 2
  }
  inner_product_param {
    num_output: 500
    weight_filler {
      type: "xavier"
    }
    bias_filler {
      type: "constant"
    }
  }
}
layer {
  name: "relu1"
  type: "ReLU"
  bottom: "ip1"
  top: "ip1"
}
layer {
  name: "ip2"
  type: "InnerProduct"
  bottom: "ip1"
  top: "ip2"
  param {
    lr_mult: 1
  }
  param {
    lr_mult: 2
  }
  inner_product_param {
    num_output: 52
    weight_filler {
      type: "xavier"
    }
    bias_filler {
      type: "constant"
    }
  }
}
layer {
  name: "loss"
  type: "SoftmaxWithLoss"
  bottom: "ip2"
  bottom: "label"
  top: "loss"
}
I0502 19:12:06.429067  3917 layer_factory.hpp:77] Creating layer data
I0502 19:12:06.429158  3917 db_lmdb.cpp:35] Opened lmdb examples/final_sp/sp_train_lmdb
I0502 19:12:06.429177  3917 net.cpp:84] Creating Layer data
I0502 19:12:06.429184  3917 net.cpp:380] data -> data
I0502 19:12:06.429201  3917 net.cpp:380] data -> label
I0502 19:12:06.429719  3917 data_layer.cpp:45] output data size: 64,3,28,28
I0502 19:12:06.433589  3917 net.cpp:122] Setting up data
I0502 19:12:06.433617  3917 net.cpp:129] Top shape: 64 3 28 28 (150528)
I0502 19:12:06.433624  3917 net.cpp:129] Top shape: 64 (64)
I0502 19:12:06.433629  3917 net.cpp:137] Memory required for data: 602368
I0502 19:12:06.433640  3917 layer_factory.hpp:77] Creating layer conv1
I0502 19:12:06.433668  3917 net.cpp:84] Creating Layer conv1
I0502 19:12:06.433676  3917 net.cpp:406] conv1 <- data
I0502 19:12:06.433692  3917 net.cpp:380] conv1 -> conv1
I0502 19:12:06.434636  3917 net.cpp:122] Setting up conv1
I0502 19:12:06.434650  3917 net.cpp:129] Top shape: 64 20 24 24 (737280)
I0502 19:12:06.434655  3917 net.cpp:137] Memory required for data: 3551488
I0502 19:12:06.434676  3917 layer_factory.hpp:77] Creating layer pool1
I0502 19:12:06.434702  3917 net.cpp:84] Creating Layer pool1
I0502 19:12:06.434707  3917 net.cpp:406] pool1 <- conv1
I0502 19:12:06.434715  3917 net.cpp:380] pool1 -> pool1
I0502 19:12:06.434777  3917 net.cpp:122] Setting up pool1
I0502 19:12:06.434787  3917 net.cpp:129] Top shape: 64 20 12 12 (184320)
I0502 19:12:06.434792  3917 net.cpp:137] Memory required for data: 4288768
I0502 19:12:06.434795  3917 layer_factory.hpp:77] Creating layer conv2
I0502 19:12:06.434830  3917 net.cpp:84] Creating Layer conv2
I0502 19:12:06.434834  3917 net.cpp:406] conv2 <- pool1
I0502 19:12:06.434842  3917 net.cpp:380] conv2 -> conv2
I0502 19:12:06.435827  3917 net.cpp:122] Setting up conv2
I0502 19:12:06.435838  3917 net.cpp:129] Top shape: 64 50 8 8 (204800)
I0502 19:12:06.435842  3917 net.cpp:137] Memory required for data: 5107968
I0502 19:12:06.435853  3917 layer_factory.hpp:77] Creating layer pool2
I0502 19:12:06.435863  3917 net.cpp:84] Creating Layer pool2
I0502 19:12:06.435868  3917 net.cpp:406] pool2 <- conv2
I0502 19:12:06.435875  3917 net.cpp:380] pool2 -> pool2
I0502 19:12:06.435905  3917 net.cpp:122] Setting up pool2
I0502 19:12:06.435912  3917 net.cpp:129] Top shape: 64 50 4 4 (51200)
I0502 19:12:06.435916  3917 net.cpp:137] Memory required for data: 5312768
I0502 19:12:06.435920  3917 layer_factory.hpp:77] Creating layer ip1
I0502 19:12:06.435928  3917 net.cpp:84] Creating Layer ip1
I0502 19:12:06.435933  3917 net.cpp:406] ip1 <- pool2
I0502 19:12:06.435940  3917 net.cpp:380] ip1 -> ip1
I0502 19:12:06.438515  3917 net.cpp:122] Setting up ip1
I0502 19:12:06.438529  3917 net.cpp:129] Top shape: 64 500 (32000)
I0502 19:12:06.438531  3917 net.cpp:137] Memory required for data: 5440768
I0502 19:12:06.438544  3917 layer_factory.hpp:77] Creating layer relu1
I0502 19:12:06.438555  3917 net.cpp:84] Creating Layer relu1
I0502 19:12:06.438560  3917 net.cpp:406] relu1 <- ip1
I0502 19:12:06.438567  3917 net.cpp:367] relu1 -> ip1 (in-place)
I0502 19:12:06.438588  3917 net.cpp:122] Setting up relu1
I0502 19:12:06.438594  3917 net.cpp:129] Top shape: 64 500 (32000)
I0502 19:12:06.438598  3917 net.cpp:137] Memory required for data: 5568768
I0502 19:12:06.438602  3917 layer_factory.hpp:77] Creating layer ip2
I0502 19:12:06.438612  3917 net.cpp:84] Creating Layer ip2
I0502 19:12:06.438616  3917 net.cpp:406] ip2 <- ip1
I0502 19:12:06.438621  3917 net.cpp:380] ip2 -> ip2
I0502 19:12:06.438817  3917 net.cpp:122] Setting up ip2
I0502 19:12:06.438824  3917 net.cpp:129] Top shape: 64 52 (3328)
I0502 19:12:06.438827  3917 net.cpp:137] Memory required for data: 5582080
I0502 19:12:06.438834  3917 layer_factory.hpp:77] Creating layer loss
I0502 19:12:06.438843  3917 net.cpp:84] Creating Layer loss
I0502 19:12:06.438848  3917 net.cpp:406] loss <- ip2
I0502 19:12:06.438853  3917 net.cpp:406] loss <- label
I0502 19:12:06.438859  3917 net.cpp:380] loss -> loss
I0502 19:12:06.438874  3917 layer_factory.hpp:77] Creating layer loss
…
I0502 19:12:06.439280  3917 solver.cpp:190] Creating test net (#0) specified by net file: models/sp_final_lenet/lenet_train_val.prototxt
I0502 19:12:06.439323  3917 net.cpp:294] The NetState phase (1) differed from the phase (0) specified by a rule in layer data
I0502 19:12:06.439429  3917 net.cpp:51] Initializing net from parameters: 
name: "LeNet"
state {
  phase: TEST
}
layer {
  name: "data"
  type: "Data"
  top: "data"
  top: "label"
  include {
    phase: TEST
  }
  transform_param {
    scale: 0.00390625
  }
  data_param {
    source: "examples/final_sp/sp_val_lmdb"
    batch_size: 64
    backend: LMDB
  }
}
layer {
  name: "conv1"
  type: "Convolution"
  bottom: "data"
  top: "conv1"
  param {
    lr_mult: 1
  }
  param {
    lr_mult: 2
  }
  convolution_param {
    num_output: 20
    kernel_size: 5
    stride: 1
    weight_filler {
      type: "xavier"
    }
    bias_filler {
      type: "constant"
    }
  }
}
layer {
  name: "pool1"
  type: "Pooling"
  bottom: "conv1"
  top: "pool1"
  pooling_param {
    pool: MAX
    kernel_size: 2
    stride: 2
  }
}
layer {
  name: "conv2"
  type: "Convolution"
  bottom: "pool1"
  top: "conv2"
  param {
    lr_mult: 1
  }
  param {
    lr_mult: 2
  }
  convolution_param {
    num_output: 50
    kernel_size: 5
    stride: 1
    weight_filler {
      type: "xavier"
    }
    bias_filler {
      type: "constant"
    }
  }
}
layer {
  name: "pool2"
  type: "Pooling"
  bottom: "conv2"
  top: "pool2"
  pooling_param {
    pool: MAX
    kernel_size: 2
    stride: 2
  }
}
layer {
  name: "ip1"
  type: "InnerProduct"
  bottom: "pool2"
  top: "ip1"
  param {
    lr_mult: 1
  }
  param {
    lr_mult: 2
  }
  inner_product_param {
    num_output: 500
    weight_filler {
      type: "xavier"
    }
    bias_filler {
      type: "constant"
    }
  }
}
layer {
  name: "relu1"
  type: "ReLU"
  bottom: "ip1"
  top: "ip1"
}
layer {
  name: "ip2"
  type: "InnerProduct"
  bottom: "ip1"
  top: "ip2"
  param {
    lr_mult: 1
  }
  param {
    lr_mult: 2
  }
  inner_product_param {
    num_output: 52
    weight_filler {
      type: "xavier"
    }
    bias_filler {
      type: "constant"
    }
  }
}
layer {
  name: "accuracy"
  type: "Accuracy"
  bottom: "ip2"
  bottom: "label"
  top: "accuracy"
  include {
    phase: TEST
  }
}
layer {
  name: "loss"
  type: "SoftmaxWithLoss"
  bottom: "ip2"
  bottom: "label"
  top: "loss"
}
I0502 19:12:06.439502  3917 layer_factory.hpp:77] Creating layer data
I0502 19:12:06.439558  3917 db_lmdb.cpp:35] Opened lmdb examples/final_sp/sp_val_lmdb
I0502 19:12:06.439570  3917 net.cpp:84] Creating Layer data
I0502 19:12:06.439577  3917 net.cpp:380] data -> data
I0502 19:12:06.439585  3917 net.cpp:380] data -> label
I0502 19:12:06.439959  3917 data_layer.cpp:45] output data size: 64,3,28,28
I0502 19:12:06.445801  3917 net.cpp:122] Setting up data
I0502 19:12:06.445830  3917 net.cpp:129] Top shape: 64 3 28 28 (150528)
I0502 19:12:06.445837  3917 net.cpp:129] Top shape: 64 (64)
I0502 19:12:06.445840  3917 net.cpp:137] Memory required for data: 602368
I0502 19:12:06.445847  3917 layer_factory.hpp:77] Creating layer label_data_1_split
I0502 19:12:06.445860  3917 net.cpp:84] Creating Layer label_data_1_split
I0502 19:12:06.445883  3917 net.cpp:406] label_data_1_split <- label
I0502 19:12:06.445904  3917 net.cpp:380] label_data_1_split -> label_data_1_split_0
I0502 19:12:06.445919  3917 net.cpp:380] label_data_1_split -> label_data_1_split_1
I0502 19:12:06.445974  3917 net.cpp:122] Setting up label_data_1_split
I0502 19:12:06.445982  3917 net.cpp:129] Top shape: 64 (64)
I0502 19:12:06.445987  3917 net.cpp:129] Top shape: 64 (64)
I0502 19:12:06.445991  3917 net.cpp:137] Memory required for data: 602880
I0502 19:12:06.445996  3917 layer_factory.hpp:77] Creating layer conv1
I0502 19:12:06.446022  3917 net.cpp:84] Creating Layer conv1
I0502 19:12:06.446027  3917 net.cpp:406] conv1 <- data
I0502 19:12:06.446035  3917 net.cpp:380] conv1 -> conv1
I0502 19:12:06.446233  3917 net.cpp:122] Setting up conv1
I0502 19:12:06.446241  3917 net.cpp:129] Top shape: 64 20 24 24 (737280)
I0502 19:12:06.446244  3917 net.cpp:137] Memory required for data: 3552000
I0502 19:12:06.446255  3917 layer_factory.hpp:77] Creating layer pool1
I0502 19:12:06.446288  3917 net.cpp:84] Creating Layer pool1
I0502 19:12:06.446295  3917 net.cpp:406] pool1 <- conv1
I0502 19:12:06.446302  3917 net.cpp:380] pool1 -> pool1
I0502 19:12:06.446337  3917 net.cpp:122] Setting up pool1
I0502 19:12:06.446343  3917 net.cpp:129] Top shape: 64 20 12 12 (184320)
I0502 19:12:06.446346  3917 net.cpp:137] Memory required for data: 4289280
I0502 19:12:06.446350  3917 layer_factory.hpp:77] Creating layer conv2
I0502 19:12:06.446360  3917 net.cpp:84] Creating Layer conv2
I0502 19:12:06.446365  3917 net.cpp:406] conv2 <- pool1
I0502 19:12:06.446372  3917 net.cpp:380] conv2 -> conv2
I0502 19:12:06.447002  3917 net.cpp:122] Setting up conv2
I0502 19:12:06.447010  3917 net.cpp:129] Top shape: 64 50 8 8 (204800)
I0502 19:12:06.447013  3917 net.cpp:137] Memory required for data: 5108480
I0502 19:12:06.447023  3917 layer_factory.hpp:77] Creating layer pool2
I0502 19:12:06.447031  3917 net.cpp:84] Creating Layer pool2
I0502 19:12:06.447037  3917 net.cpp:406] pool2 <- conv2
I0502 19:12:06.447044  3917 net.cpp:380] pool2 -> pool2
I0502 19:12:06.447087  3917 net.cpp:122] Setting up pool2
I0502 19:12:06.447094  3917 net.cpp:129] Top shape: 64 50 4 4 (51200)
I0502 19:12:06.447098  3917 net.cpp:137] Memory required for data: 5313280
I0502 19:12:06.447101  3917 layer_factory.hpp:77] Creating layer ip1
I0502 19:12:06.447108  3917 net.cpp:84] Creating Layer ip1
I0502 19:12:06.447113  3917 net.cpp:406] ip1 <- pool2
I0502 19:12:06.447120  3917 net.cpp:380] ip1 -> ip1
I0502 19:12:06.449695  3917 net.cpp:122] Setting up ip1
I0502 19:12:06.449712  3917 net.cpp:129] Top shape: 64 500 (32000)
I0502 19:12:06.449713  3917 net.cpp:137] Memory required for data: 5441280
I0502 19:12:06.449728  3917 layer_factory.hpp:77] Creating layer relu1
I0502 19:12:06.449738  3917 net.cpp:84] Creating Layer relu1
I0502 19:12:06.449743  3917 net.cpp:406] relu1 <- ip1
I0502 19:12:06.449751  3917 net.cpp:367] relu1 -> ip1 (in-place)
I0502 19:12:06.449760  3917 net.cpp:122] Setting up relu1
I0502 19:12:06.449765  3917 net.cpp:129] Top shape: 64 500 (32000)
I0502 19:12:06.449770  3917 net.cpp:137] Memory required for data: 5569280
I0502 19:12:06.449774  3917 layer_factory.hpp:77] Creating layer ip2
I0502 19:12:06.449784  3917 net.cpp:84] Creating Layer ip2
I0502 19:12:06.449790  3917 net.cpp:406] ip2 <- ip1
I0502 19:12:06.449796  3917 net.cpp:380] ip2 -> ip2
I0502 19:12:06.450016  3917 net.cpp:122] Setting up ip2
I0502 19:12:06.450022  3917 net.cpp:129] Top shape: 64 52 (3328)
I0502 19:12:06.450026  3917 net.cpp:137] Memory required for data: 5582592
I0502 19:12:06.450032  3917 layer_factory.hpp:77] Creating layer ip2_ip2_0_split
I0502 19:12:06.450039  3917 net.cpp:84] Creating Layer ip2_ip2_0_split
I0502 19:12:06.450044  3917 net.cpp:406] ip2_ip2_0_split <- ip2
I0502 19:12:06.450052  3917 net.cpp:380] ip2_ip2_0_split -> ip2_ip2_0_split_0
I0502 19:12:06.450059  3917 net.cpp:380] ip2_ip2_0_split -> ip2_ip2_0_split_1
I0502 19:12:06.450091  3917 net.cpp:122] Setting up ip2_ip2_0_split
I0502 19:12:06.450098  3917 net.cpp:129] Top shape: 64 52 (3328)
I0502 19:12:06.450100  3917 net.cpp:129] Top shape: 64 52 (3328)
I0502 19:12:06.450105  3917 net.cpp:137] Memory required for data: 5609216
I0502 19:12:06.450109  3917 layer_factory.hpp:77] Creating layer accuracy
I0502 19:12:06.450117  3917 net.cpp:84] Creating Layer accuracy
I0502 19:12:06.450122  3917 net.cpp:406] accuracy <- ip2_ip2_0_split_0
I0502 19:12:06.450129  3917 net.cpp:406] accuracy <- label_data_1_split_0
I0502 19:12:06.450136  3917 net.cpp:380] accuracy -> accuracy
…
