…
I0502 19:40:29.445461  4155 net.cpp:294] The NetState phase (0) differed from the phase (1) specified by a rule in layer data
I0502 19:40:29.445472  4155 net.cpp:294] The NetState phase (0) differed from the phase (1) specified by a rule in layer accuracy
I0502 19:40:29.445544  4155 net.cpp:51] Initializing net from parameters: 
name: "LeNet"
state {
  phase: TRAIN
  level: 0
  stage: ""
}
layer {
  name: "data"
  type: "Data"
  top: "data"
  top: "label"
  include {
    phase: TRAIN
  }
  transform_param {
    scale: 0.00390625
  }
  data_param {
    source: "examples/final_sp/sp_train_lmdb"
    batch_size: 64
    backend: LMDB
  }
}
layer {
  name: "conv1"
  type: "Convolution"
  bottom: "data"
  top: "conv1"
  param {
    lr_mult: 1
  }
  param {
    lr_mult: 2
  }
  convolution_param {
    num_output: 20
    kernel_size: 5
    stride: 1
    weight_filler {
      type: "xavier"
    }
    bias_filler {
      type: "constant"
    }
  }
}
layer {
  name: "pool1"
  type: "Pooling"
  bottom: "conv1"
  top: "pool1"
  pooling_param {
    pool: MAX
    kernel_size: 2
    stride: 2
  }
}
layer {
  name: "conv2"
  type: "Convolution"
  bottom: "pool1"
  top: "conv2"
  param {
    lr_mult: 1
  }
  param {
    lr_mult: 2
  }
  convolution_param {
    num_output: 50
    kernel_size: 5
    stride: 1
    weight_filler {
      type: "xavier"
    }
    bias_filler {
      type: "constant"
    }
  }
}
layer {
  name: "pool2"
  type: "Pooling"
  bottom: "conv2"
  top: "pool2"
  pooling_param {
    pool: MAX
    kernel_size: 2
    stride: 2
  }
}
layer {
  name: "ip1"
  type: "InnerProduct"
  bottom: "pool2"
  top: "ip1"
  param {
    lr_mult: 1
  }
  param {
    lr_mult: 2
  }
  inner_product_param {
    num_output: 500
    weight_filler {
      type: "xavier"
    }
    bias_filler {
      type: "constant"
    }
  }
}
layer {
  name: "relu1"
  type: "ReLU"
  bottom: "ip1"
  top: "ip1"
}
layer {
  name: "ip2"
  type: "InnerProduct"
  bottom: "ip1"
  top: "ip2"
  param {
    lr_mult: 1
  }
  param {
    lr_mult: 2
  }
  inner_product_param {
    num_output: 52
    weight_filler {
      type: "xavier"
    }
    bias_filler {
      type: "constant"
    }
  }
}
layer {
  name: "loss"
  type: "SoftmaxWithLoss"
  bottom: "ip2"
  bottom: "label"
  top: "loss"
}
I0502 19:40:29.445587  4155 layer_factory.hpp:77] Creating layer data
I0502 19:40:29.445682  4155 db_lmdb.cpp:35] Opened lmdb examples/final_sp/sp_train_lmdb
I0502 19:40:29.445701  4155 net.cpp:84] Creating Layer data
I0502 19:40:29.445708  4155 net.cpp:380] data -> data
I0502 19:40:29.445724  4155 net.cpp:380] data -> label
I0502 19:40:29.446228  4155 data_layer.cpp:45] output data size: 64,3,28,28
I0502 19:40:29.450139  4155 net.cpp:122] Setting up data
I0502 19:40:29.450162  4155 net.cpp:129] Top shape: 64 3 28 28 (150528)
I0502 19:40:29.450167  4155 net.cpp:129] Top shape: 64 (64)
I0502 19:40:29.450170  4155 net.cpp:137] Memory required for data: 602368
I0502 19:40:29.450179  4155 layer_factory.hpp:77] Creating layer conv1
I0502 19:40:29.450207  4155 net.cpp:84] Creating Layer conv1
I0502 19:40:29.450214  4155 net.cpp:406] conv1 <- data
I0502 19:40:29.450232  4155 net.cpp:380] conv1 -> conv1
I0502 19:40:29.451195  4155 net.cpp:122] Setting up conv1
I0502 19:40:29.451207  4155 net.cpp:129] Top shape: 64 20 24 24 (737280)
I0502 19:40:29.451210  4155 net.cpp:137] Memory required for data: 3551488
I0502 19:40:29.451225  4155 layer_factory.hpp:77] Creating layer pool1
I0502 19:40:29.451263  4155 net.cpp:84] Creating Layer pool1
I0502 19:40:29.451268  4155 net.cpp:406] pool1 <- conv1
I0502 19:40:29.451277  4155 net.cpp:380] pool1 -> pool1
I0502 19:40:29.451325  4155 net.cpp:122] Setting up pool1
I0502 19:40:29.451333  4155 net.cpp:129] Top shape: 64 20 12 12 (184320)
I0502 19:40:29.451335  4155 net.cpp:137] Memory required for data: 4288768
I0502 19:40:29.451339  4155 layer_factory.hpp:77] Creating layer conv2
I0502 19:40:29.451350  4155 net.cpp:84] Creating Layer conv2
I0502 19:40:29.451355  4155 net.cpp:406] conv2 <- pool1
I0502 19:40:29.451364  4155 net.cpp:380] conv2 -> conv2
I0502 19:40:29.452523  4155 net.cpp:122] Setting up conv2
I0502 19:40:29.452533  4155 net.cpp:129] Top shape: 64 50 8 8 (204800)
I0502 19:40:29.452536  4155 net.cpp:137] Memory required for data: 5107968
I0502 19:40:29.452548  4155 layer_factory.hpp:77] Creating layer pool2
I0502 19:40:29.452558  4155 net.cpp:84] Creating Layer pool2
I0502 19:40:29.452567  4155 net.cpp:406] pool2 <- conv2
I0502 19:40:29.452574  4155 net.cpp:380] pool2 -> pool2
I0502 19:40:29.452610  4155 net.cpp:122] Setting up pool2
I0502 19:40:29.452615  4155 net.cpp:129] Top shape: 64 50 4 4 (51200)
I0502 19:40:29.452618  4155 net.cpp:137] Memory required for data: 5312768
I0502 19:40:29.452622  4155 layer_factory.hpp:77] Creating layer ip1
I0502 19:40:29.452630  4155 net.cpp:84] Creating Layer ip1
I0502 19:40:29.452636  4155 net.cpp:406] ip1 <- pool2
I0502 19:40:29.452642  4155 net.cpp:380] ip1 -> ip1
I0502 19:40:29.455148  4155 net.cpp:122] Setting up ip1
I0502 19:40:29.455163  4155 net.cpp:129] Top shape: 64 500 (32000)
I0502 19:40:29.455166  4155 net.cpp:137] Memory required for data: 5440768
I0502 19:40:29.455178  4155 layer_factory.hpp:77] Creating layer relu1
I0502 19:40:29.455188  4155 net.cpp:84] Creating Layer relu1
I0502 19:40:29.455193  4155 net.cpp:406] relu1 <- ip1
I0502 19:40:29.455201  4155 net.cpp:367] relu1 -> ip1 (in-place)
I0502 19:40:29.455210  4155 net.cpp:122] Setting up relu1
I0502 19:40:29.455215  4155 net.cpp:129] Top shape: 64 500 (32000)
I0502 19:40:29.455217  4155 net.cpp:137] Memory required for data: 5568768
I0502 19:40:29.455220  4155 layer_factory.hpp:77] Creating layer ip2
I0502 19:40:29.455226  4155 net.cpp:84] Creating Layer ip2
I0502 19:40:29.455231  4155 net.cpp:406] ip2 <- ip1
I0502 19:40:29.455238  4155 net.cpp:380] ip2 -> ip2
I0502 19:40:29.455425  4155 net.cpp:122] Setting up ip2
I0502 19:40:29.455430  4155 net.cpp:129] Top shape: 64 52 (3328)
I0502 19:40:29.455433  4155 net.cpp:137] Memory required for data: 5582080
I0502 19:40:29.455440  4155 layer_factory.hpp:77] Creating layer loss
I0502 19:40:29.455449  4155 net.cpp:84] Creating Layer loss
I0502 19:40:29.455453  4155 net.cpp:406] loss <- ip2
I0502 19:40:29.455458  4155 net.cpp:406] loss <- label
I0502 19:40:29.455466  4155 net.cpp:380] loss -> loss
I0502 19:40:29.455482  4155 layer_factory.hpp:77] Creating layer loss
…
I0502 19:40:29.455829  4155 solver.cpp:190] Creating test net (#0) specified by net file: models/sp_final_lenet/lenet_train_val.prototxt
I0502 19:40:29.455879  4155 net.cpp:294] The NetState phase (1) differed from the phase (0) specified by a rule in layer data
I0502 19:40:29.456001  4155 net.cpp:51] Initializing net from parameters: 
name: "LeNet"
state {
  phase: TEST
}
layer {
  name: "data"
  type: "Data"
  top: "data"
  top: "label"
  include {
    phase: TEST
  }
  transform_param {
    scale: 0.00390625
  }
  data_param {
    source: "examples/final_sp/sp_val_lmdb"
    batch_size: 64
    backend: LMDB
  }
}
layer {
  name: "conv1"
  type: "Convolution"
  bottom: "data"
  top: "conv1"
  param {
    lr_mult: 1
  }
  param {
    lr_mult: 2
  }
  convolution_param {
    num_output: 20
    kernel_size: 5
    stride: 1
    weight_filler {
      type: "xavier"
    }
    bias_filler {
      type: "constant"
    }
  }
}
layer {
  name: "pool1"
  type: "Pooling"
  bottom: "conv1"
  top: "pool1"
  pooling_param {
    pool: MAX
    kernel_size: 2
    stride: 2
  }
}
layer {
  name: "conv2"
  type: "Convolution"
  bottom: "pool1"
  top: "conv2"
  param {
    lr_mult: 1
  }
  param {
    lr_mult: 2
  }
  convolution_param {
    num_output: 50
    kernel_size: 5
    stride: 1
    weight_filler {
      type: "xavier"
    }
    bias_filler {
      type: "constant"
    }
  }
}
layer {
  name: "pool2"
  type: "Pooling"
  bottom: "conv2"
  top: "pool2"
  pooling_param {
    pool: MAX
    kernel_size: 2
    stride: 2
  }
}
layer {
  name: "ip1"
  type: "InnerProduct"
  bottom: "pool2"
  top: "ip1"
  param {
    lr_mult: 1
  }
  param {
    lr_mult: 2
  }
  inner_product_param {
    num_output: 500
    weight_filler {
      type: "xavier"
    }
    bias_filler {
      type: "constant"
    }
  }
}
layer {
  name: "relu1"
  type: "ReLU"
  bottom: "ip1"
  top: "ip1"
}
layer {
  name: "ip2"
  type: "InnerProduct"
  bottom: "ip1"
  top: "ip2"
  param {
    lr_mult: 1
  }
  param {
    lr_mult: 2
  }
  inner_product_param {
    num_output: 52
    weight_filler {
      type: "xavier"
    }
    bias_filler {
      type: "constant"
    }
  }
}
layer {
  name: "accuracy"
  type: "Accuracy"
  bottom: "ip2"
  bottom: "label"
  top: "accuracy"
  include {
    phase: TEST
  }
}
layer {
  name: "loss"
  type: "SoftmaxWithLoss"
  bottom: "ip2"
  bottom: "label"
  top: "loss"
}
I0502 19:40:29.456086  4155 layer_factory.hpp:77] Creating layer data
I0502 19:40:29.456146  4155 db_lmdb.cpp:35] Opened lmdb examples/final_sp/sp_val_lmdb
I0502 19:40:29.456161  4155 net.cpp:84] Creating Layer data
I0502 19:40:29.456166  4155 net.cpp:380] data -> data
I0502 19:40:29.456176  4155 net.cpp:380] data -> label
I0502 19:40:29.456555  4155 data_layer.cpp:45] output data size: 64,3,28,28
I0502 19:40:29.461815  4155 net.cpp:122] Setting up data
I0502 19:40:29.461838  4155 net.cpp:129] Top shape: 64 3 28 28 (150528)
I0502 19:40:29.461843  4155 net.cpp:129] Top shape: 64 (64)
I0502 19:40:29.461845  4155 net.cpp:137] Memory required for data: 602368
I0502 19:40:29.461853  4155 layer_factory.hpp:77] Creating layer label_data_1_split
I0502 19:40:29.461869  4155 net.cpp:84] Creating Layer label_data_1_split
I0502 19:40:29.461874  4155 net.cpp:406] label_data_1_split <- label
I0502 19:40:29.461882  4155 net.cpp:380] label_data_1_split -> label_data_1_split_0
I0502 19:40:29.461897  4155 net.cpp:380] label_data_1_split -> label_data_1_split_1
I0502 19:40:29.461957  4155 net.cpp:122] Setting up label_data_1_split
I0502 19:40:29.461966  4155 net.cpp:129] Top shape: 64 (64)
I0502 19:40:29.461971  4155 net.cpp:129] Top shape: 64 (64)
I0502 19:40:29.461973  4155 net.cpp:137] Memory required for data: 602880
I0502 19:40:29.461977  4155 layer_factory.hpp:77] Creating layer conv1
I0502 19:40:29.461992  4155 net.cpp:84] Creating Layer conv1
I0502 19:40:29.462015  4155 net.cpp:406] conv1 <- data
I0502 19:40:29.462026  4155 net.cpp:380] conv1 -> conv1
I0502 19:40:29.462218  4155 net.cpp:122] Setting up conv1
I0502 19:40:29.462225  4155 net.cpp:129] Top shape: 64 20 24 24 (737280)
I0502 19:40:29.462229  4155 net.cpp:137] Memory required for data: 3552000
I0502 19:40:29.462240  4155 layer_factory.hpp:77] Creating layer pool1
I0502 19:40:29.462261  4155 net.cpp:84] Creating Layer pool1
I0502 19:40:29.462266  4155 net.cpp:406] pool1 <- conv1
I0502 19:40:29.462273  4155 net.cpp:380] pool1 -> pool1
I0502 19:40:29.462309  4155 net.cpp:122] Setting up pool1
I0502 19:40:29.462316  4155 net.cpp:129] Top shape: 64 20 12 12 (184320)
I0502 19:40:29.462318  4155 net.cpp:137] Memory required for data: 4289280
I0502 19:40:29.462321  4155 layer_factory.hpp:77] Creating layer conv2
I0502 19:40:29.462332  4155 net.cpp:84] Creating Layer conv2
I0502 19:40:29.462337  4155 net.cpp:406] conv2 <- pool1
I0502 19:40:29.462347  4155 net.cpp:380] conv2 -> conv2
I0502 19:40:29.462641  4155 net.cpp:122] Setting up conv2
I0502 19:40:29.462648  4155 net.cpp:129] Top shape: 64 50 8 8 (204800)
I0502 19:40:29.462651  4155 net.cpp:137] Memory required for data: 5108480
I0502 19:40:29.462657  4155 layer_factory.hpp:77] Creating layer pool2
I0502 19:40:29.462664  4155 net.cpp:84] Creating Layer pool2
I0502 19:40:29.462668  4155 net.cpp:406] pool2 <- conv2
I0502 19:40:29.462674  4155 net.cpp:380] pool2 -> pool2
I0502 19:40:29.463076  4155 net.cpp:122] Setting up pool2
I0502 19:40:29.463083  4155 net.cpp:129] Top shape: 64 50 4 4 (51200)
I0502 19:40:29.463085  4155 net.cpp:137] Memory required for data: 5313280
I0502 19:40:29.463090  4155 layer_factory.hpp:77] Creating layer ip1
I0502 19:40:29.463100  4155 net.cpp:84] Creating Layer ip1
I0502 19:40:29.463104  4155 net.cpp:406] ip1 <- pool2
I0502 19:40:29.463111  4155 net.cpp:380] ip1 -> ip1
I0502 19:40:29.465703  4155 net.cpp:122] Setting up ip1
I0502 19:40:29.465718  4155 net.cpp:129] Top shape: 64 500 (32000)
I0502 19:40:29.465720  4155 net.cpp:137] Memory required for data: 5441280
I0502 19:40:29.465735  4155 layer_factory.hpp:77] Creating layer relu1
I0502 19:40:29.465745  4155 net.cpp:84] Creating Layer relu1
I0502 19:40:29.465749  4155 net.cpp:406] relu1 <- ip1
I0502 19:40:29.465756  4155 net.cpp:367] relu1 -> ip1 (in-place)
I0502 19:40:29.465765  4155 net.cpp:122] Setting up relu1
I0502 19:40:29.465770  4155 net.cpp:129] Top shape: 64 500 (32000)
I0502 19:40:29.465773  4155 net.cpp:137] Memory required for data: 5569280
I0502 19:40:29.465776  4155 layer_factory.hpp:77] Creating layer ip2
I0502 19:40:29.465788  4155 net.cpp:84] Creating Layer ip2
I0502 19:40:29.465795  4155 net.cpp:406] ip2 <- ip1
I0502 19:40:29.465803  4155 net.cpp:380] ip2 -> ip2
I0502 19:40:29.466008  4155 net.cpp:122] Setting up ip2
I0502 19:40:29.466015  4155 net.cpp:129] Top shape: 64 52 (3328)
I0502 19:40:29.466018  4155 net.cpp:137] Memory required for data: 5582592
I0502 19:40:29.466029  4155 layer_factory.hpp:77] Creating layer ip2_ip2_0_split
I0502 19:40:29.466037  4155 net.cpp:84] Creating Layer ip2_ip2_0_split
I0502 19:40:29.466040  4155 net.cpp:406] ip2_ip2_0_split <- ip2
I0502 19:40:29.466048  4155 net.cpp:380] ip2_ip2_0_split -> ip2_ip2_0_split_0
I0502 19:40:29.466055  4155 net.cpp:380] ip2_ip2_0_split -> ip2_ip2_0_split_1
I0502 19:40:29.466090  4155 net.cpp:122] Setting up ip2_ip2_0_split
I0502 19:40:29.466095  4155 net.cpp:129] Top shape: 64 52 (3328)
I0502 19:40:29.466100  4155 net.cpp:129] Top shape: 64 52 (3328)
I0502 19:40:29.466104  4155 net.cpp:137] Memory required for data: 5609216
I0502 19:40:29.466107  4155 layer_factory.hpp:77] Creating layer accuracy
I0502 19:40:29.466116  4155 net.cpp:84] Creating Layer accuracy
I0502 19:40:29.466121  4155 net.cpp:406] accuracy <- ip2_ip2_0_split_0
I0502 19:40:29.466127  4155 net.cpp:406] accuracy <- label_data_1_split_0
I0502 19:40:29.466133  4155 net.cpp:380] accuracy -> accuracy
…
