…
I0502 19:04:22.940232  3863 net.cpp:294] The NetState phase (0) differed from the phase (1) specified by a rule in layer data
I0502 19:04:22.940246  3863 net.cpp:294] The NetState phase (0) differed from the phase (1) specified by a rule in layer accuracy
I0502 19:04:22.940323  3863 net.cpp:51] Initializing net from parameters: 
name: "LeNet"
state {
  phase: TRAIN
  level: 0
  stage: ""
}
layer {
  name: "data"
  type: "Data"
  top: "data"
  top: "label"
  include {
    phase: TRAIN
  }
  transform_param {
    scale: 0.00390625
  }
  data_param {
    source: "examples/final_sp/sp_train_lmdb"
    batch_size: 64
    backend: LMDB
  }
}
layer {
  name: "conv1"
  type: "Convolution"
  bottom: "data"
  top: "conv1"
  param {
    lr_mult: 1
  }
  param {
    lr_mult: 2
  }
  convolution_param {
    num_output: 20
    kernel_size: 5
    stride: 1
    weight_filler {
      type: "xavier"
    }
    bias_filler {
      type: "constant"
    }
  }
}
layer {
  name: "pool1"
  type: "Pooling"
  bottom: "conv1"
  top: "pool1"
  pooling_param {
    pool: MAX
    kernel_size: 2
    stride: 2
  }
}
layer {
  name: "conv2"
  type: "Convolution"
  bottom: "pool1"
  top: "conv2"
  param {
    lr_mult: 1
  }
  param {
    lr_mult: 2
  }
  convolution_param {
    num_output: 50
    kernel_size: 5
    stride: 1
    weight_filler {
      type: "xavier"
    }
    bias_filler {
      type: "constant"
    }
  }
}
layer {
  name: "pool2"
  type: "Pooling"
  bottom: "conv2"
  top: "pool2"
  pooling_param {
    pool: MAX
    kernel_size: 2
    stride: 2
  }
}
layer {
  name: "ip1"
  type: "InnerProduct"
  bottom: "pool2"
  top: "ip1"
  param {
    lr_mult: 1
  }
  param {
    lr_mult: 2
  }
  inner_product_param {
    num_output: 500
    weight_filler {
      type: "xavier"
    }
    bias_filler {
      type: "constant"
    }
  }
}
layer {
  name: "relu1"
  type: "ReLU"
  bottom: "ip1"
  top: "ip1"
}
layer {
  name: "ip2"
  type: "InnerProduct"
  bottom: "ip1"
  top: "ip2"
  param {
    lr_mult: 1
  }
  param {
    lr_mult: 2
  }
  inner_product_param {
    num_output: 52
    weight_filler {
      type: "xavier"
    }
    bias_filler {
      type: "constant"
    }
  }
}
layer {
  name: "loss"
  type: "SoftmaxWithLoss"
  bottom: "ip2"
  bottom: "label"
  top: "loss"
}
I0502 19:04:22.940381  3863 layer_factory.hpp:77] Creating layer data
I0502 19:04:22.940491  3863 db_lmdb.cpp:35] Opened lmdb examples/final_sp/sp_train_lmdb
I0502 19:04:22.940513  3863 net.cpp:84] Creating Layer data
I0502 19:04:22.940523  3863 net.cpp:380] data -> data
I0502 19:04:22.940546  3863 net.cpp:380] data -> label
I0502 19:04:22.941061  3863 data_layer.cpp:45] output data size: 64,3,28,28
I0502 19:04:22.944963  3863 net.cpp:122] Setting up data
I0502 19:04:22.944993  3863 net.cpp:129] Top shape: 64 3 28 28 (150528)
I0502 19:04:22.944999  3863 net.cpp:129] Top shape: 64 (64)
I0502 19:04:22.945003  3863 net.cpp:137] Memory required for data: 602368
I0502 19:04:22.945015  3863 layer_factory.hpp:77] Creating layer conv1
I0502 19:04:22.945046  3863 net.cpp:84] Creating Layer conv1
I0502 19:04:22.945057  3863 net.cpp:406] conv1 <- data
I0502 19:04:22.945075  3863 net.cpp:380] conv1 -> conv1
I0502 19:04:22.946034  3863 net.cpp:122] Setting up conv1
I0502 19:04:22.946048  3863 net.cpp:129] Top shape: 64 20 24 24 (737280)
I0502 19:04:22.946053  3863 net.cpp:137] Memory required for data: 3551488
I0502 19:04:22.946075  3863 layer_factory.hpp:77] Creating layer pool1
I0502 19:04:22.946106  3863 net.cpp:84] Creating Layer pool1
I0502 19:04:22.946111  3863 net.cpp:406] pool1 <- conv1
I0502 19:04:22.946120  3863 net.cpp:380] pool1 -> pool1
I0502 19:04:22.946177  3863 net.cpp:122] Setting up pool1
I0502 19:04:22.946187  3863 net.cpp:129] Top shape: 64 20 12 12 (184320)
I0502 19:04:22.946192  3863 net.cpp:137] Memory required for data: 4288768
I0502 19:04:22.946195  3863 layer_factory.hpp:77] Creating layer conv2
I0502 19:04:22.946208  3863 net.cpp:84] Creating Layer conv2
I0502 19:04:22.946213  3863 net.cpp:406] conv2 <- pool1
I0502 19:04:22.946219  3863 net.cpp:380] conv2 -> conv2
I0502 19:04:22.947401  3863 net.cpp:122] Setting up conv2
I0502 19:04:22.947438  3863 net.cpp:129] Top shape: 64 50 8 8 (204800)
I0502 19:04:22.947443  3863 net.cpp:137] Memory required for data: 5107968
I0502 19:04:22.947454  3863 layer_factory.hpp:77] Creating layer pool2
I0502 19:04:22.947463  3863 net.cpp:84] Creating Layer pool2
I0502 19:04:22.947474  3863 net.cpp:406] pool2 <- conv2
I0502 19:04:22.947484  3863 net.cpp:380] pool2 -> pool2
I0502 19:04:22.947518  3863 net.cpp:122] Setting up pool2
I0502 19:04:22.947525  3863 net.cpp:129] Top shape: 64 50 4 4 (51200)
I0502 19:04:22.947531  3863 net.cpp:137] Memory required for data: 5312768
I0502 19:04:22.947536  3863 layer_factory.hpp:77] Creating layer ip1
I0502 19:04:22.947546  3863 net.cpp:84] Creating Layer ip1
I0502 19:04:22.947552  3863 net.cpp:406] ip1 <- pool2
I0502 19:04:22.947561  3863 net.cpp:380] ip1 -> ip1
I0502 19:04:22.950186  3863 net.cpp:122] Setting up ip1
I0502 19:04:22.950206  3863 net.cpp:129] Top shape: 64 500 (32000)
I0502 19:04:22.950211  3863 net.cpp:137] Memory required for data: 5440768
I0502 19:04:22.950229  3863 layer_factory.hpp:77] Creating layer relu1
I0502 19:04:22.950240  3863 net.cpp:84] Creating Layer relu1
I0502 19:04:22.950247  3863 net.cpp:406] relu1 <- ip1
I0502 19:04:22.950254  3863 net.cpp:367] relu1 -> ip1 (in-place)
I0502 19:04:22.950265  3863 net.cpp:122] Setting up relu1
I0502 19:04:22.950275  3863 net.cpp:129] Top shape: 64 500 (32000)
I0502 19:04:22.950280  3863 net.cpp:137] Memory required for data: 5568768
I0502 19:04:22.950284  3863 layer_factory.hpp:77] Creating layer ip2
I0502 19:04:22.950294  3863 net.cpp:84] Creating Layer ip2
I0502 19:04:22.950299  3863 net.cpp:406] ip2 <- ip1
I0502 19:04:22.950306  3863 net.cpp:380] ip2 -> ip2
I0502 19:04:22.950501  3863 net.cpp:122] Setting up ip2
I0502 19:04:22.950508  3863 net.cpp:129] Top shape: 64 52 (3328)
I0502 19:04:22.950512  3863 net.cpp:137] Memory required for data: 5582080
I0502 19:04:22.950520  3863 layer_factory.hpp:77] Creating layer loss
I0502 19:04:22.950531  3863 net.cpp:84] Creating Layer loss
I0502 19:04:22.950536  3863 net.cpp:406] loss <- ip2
I0502 19:04:22.950543  3863 net.cpp:406] loss <- label
I0502 19:04:22.950552  3863 net.cpp:380] loss -> loss
I0502 19:04:22.950572  3863 layer_factory.hpp:77] Creating layer loss
…
I0502 19:04:22.950893  3863 solver.cpp:190] Creating test net (#0) specified by net file: models/sp_final_lenet/lenet_train_val.prototxt
I0502 19:04:22.950961  3863 net.cpp:294] The NetState phase (1) differed from the phase (0) specified by a rule in layer data
I0502 19:04:22.951037  3863 net.cpp:51] Initializing net from parameters: 
name: "LeNet"
state {
  phase: TEST
}
layer {
  name: "data"
  type: "Data"
  top: "data"
  top: "label"
  include {
    phase: TEST
  }
  transform_param {
    scale: 0.00390625
  }
  data_param {
    source: "examples/final_sp/sp_val_lmdb"
    batch_size: 64
    backend: LMDB
  }
}
layer {
  name: "conv1"
  type: "Convolution"
  bottom: "data"
  top: "conv1"
  param {
    lr_mult: 1
  }
  param {
    lr_mult: 2
  }
  convolution_param {
    num_output: 20
    kernel_size: 5
    stride: 1
    weight_filler {
      type: "xavier"
    }
    bias_filler {
      type: "constant"
    }
  }
}
layer {
  name: "pool1"
  type: "Pooling"
  bottom: "conv1"
  top: "pool1"
  pooling_param {
    pool: MAX
    kernel_size: 2
    stride: 2
  }
}
layer {
  name: "conv2"
  type: "Convolution"
  bottom: "pool1"
  top: "conv2"
  param {
    lr_mult: 1
  }
  param {
    lr_mult: 2
  }
  convolution_param {
    num_output: 50
    kernel_size: 5
    stride: 1
    weight_filler {
      type: "xavier"
    }
    bias_filler {
      type: "constant"
    }
  }
}
layer {
  name: "pool2"
  type: "Pooling"
  bottom: "conv2"
  top: "pool2"
  pooling_param {
    pool: MAX
    kernel_size: 2
    stride: 2
  }
}
layer {
  name: "ip1"
  type: "InnerProduct"
  bottom: "pool2"
  top: "ip1"
  param {
    lr_mult: 1
  }
  param {
    lr_mult: 2
  }
  inner_product_param {
    num_output: 500
    weight_filler {
      type: "xavier"
    }
    bias_filler {
      type: "constant"
    }
  }
}
layer {
  name: "relu1"
  type: "ReLU"
  bottom: "ip1"
  top: "ip1"
}
layer {
  name: "ip2"
  type: "InnerProduct"
  bottom: "ip1"
  top: "ip2"
  param {
    lr_mult: 1
  }
  param {
    lr_mult: 2
  }
  inner_product_param {
    num_output: 52
    weight_filler {
      type: "xavier"
    }
    bias_filler {
      type: "constant"
    }
  }
}
layer {
  name: "accuracy"
  type: "Accuracy"
  bottom: "ip2"
  bottom: "label"
  top: "accuracy"
  include {
    phase: TEST
  }
}
layer {
  name: "loss"
  type: "SoftmaxWithLoss"
  bottom: "ip2"
  bottom: "label"
  top: "loss"
}
I0502 19:04:22.951117  3863 layer_factory.hpp:77] Creating layer data
I0502 19:04:22.951180  3863 db_lmdb.cpp:35] Opened lmdb examples/final_sp/sp_val_lmdb
I0502 19:04:22.951195  3863 net.cpp:84] Creating Layer data
I0502 19:04:22.951201  3863 net.cpp:380] data -> data
I0502 19:04:22.951211  3863 net.cpp:380] data -> label
I0502 19:04:22.951601  3863 data_layer.cpp:45] output data size: 64,3,28,28
I0502 19:04:22.961824  3863 net.cpp:122] Setting up data
I0502 19:04:22.961848  3863 net.cpp:129] Top shape: 64 3 28 28 (150528)
I0502 19:04:22.961854  3863 net.cpp:129] Top shape: 64 (64)
I0502 19:04:22.961858  3863 net.cpp:137] Memory required for data: 602368
I0502 19:04:22.961865  3863 layer_factory.hpp:77] Creating layer label_data_1_split
I0502 19:04:22.961879  3863 net.cpp:84] Creating Layer label_data_1_split
I0502 19:04:22.961886  3863 net.cpp:406] label_data_1_split <- label
I0502 19:04:22.961897  3863 net.cpp:380] label_data_1_split -> label_data_1_split_0
I0502 19:04:22.961910  3863 net.cpp:380] label_data_1_split -> label_data_1_split_1
I0502 19:04:22.961982  3863 net.cpp:122] Setting up label_data_1_split
I0502 19:04:22.961992  3863 net.cpp:129] Top shape: 64 (64)
I0502 19:04:22.961997  3863 net.cpp:129] Top shape: 64 (64)
I0502 19:04:22.962002  3863 net.cpp:137] Memory required for data: 602880
I0502 19:04:22.962005  3863 layer_factory.hpp:77] Creating layer conv1
I0502 19:04:22.962021  3863 net.cpp:84] Creating Layer conv1
I0502 19:04:22.962026  3863 net.cpp:406] conv1 <- data
I0502 19:04:22.962034  3863 net.cpp:380] conv1 -> conv1
I0502 19:04:22.962218  3863 net.cpp:122] Setting up conv1
I0502 19:04:22.962225  3863 net.cpp:129] Top shape: 64 20 24 24 (737280)
I0502 19:04:22.962229  3863 net.cpp:137] Memory required for data: 3552000
I0502 19:04:22.962241  3863 layer_factory.hpp:77] Creating layer pool1
I0502 19:04:22.962260  3863 net.cpp:84] Creating Layer pool1
I0502 19:04:22.962265  3863 net.cpp:406] pool1 <- conv1
I0502 19:04:22.962272  3863 net.cpp:380] pool1 -> pool1
I0502 19:04:22.962306  3863 net.cpp:122] Setting up pool1
I0502 19:04:22.962314  3863 net.cpp:129] Top shape: 64 20 12 12 (184320)
I0502 19:04:22.962319  3863 net.cpp:137] Memory required for data: 4289280
I0502 19:04:22.962323  3863 layer_factory.hpp:77] Creating layer conv2
I0502 19:04:22.962335  3863 net.cpp:84] Creating Layer conv2
I0502 19:04:22.962339  3863 net.cpp:406] conv2 <- pool1
I0502 19:04:22.962348  3863 net.cpp:380] conv2 -> conv2
I0502 19:04:22.962677  3863 net.cpp:122] Setting up conv2
I0502 19:04:22.962685  3863 net.cpp:129] Top shape: 64 50 8 8 (204800)
I0502 19:04:22.962690  3863 net.cpp:137] Memory required for data: 5108480
I0502 19:04:22.962699  3863 layer_factory.hpp:77] Creating layer pool2
I0502 19:04:22.962707  3863 net.cpp:84] Creating Layer pool2
I0502 19:04:22.962710  3863 net.cpp:406] pool2 <- conv2
I0502 19:04:22.962718  3863 net.cpp:380] pool2 -> pool2
I0502 19:04:22.963083  3863 net.cpp:122] Setting up pool2
I0502 19:04:22.963091  3863 net.cpp:129] Top shape: 64 50 4 4 (51200)
I0502 19:04:22.963095  3863 net.cpp:137] Memory required for data: 5313280
I0502 19:04:22.963099  3863 layer_factory.hpp:77] Creating layer ip1
I0502 19:04:22.963109  3863 net.cpp:84] Creating Layer ip1
I0502 19:04:22.963114  3863 net.cpp:406] ip1 <- pool2
I0502 19:04:22.963122  3863 net.cpp:380] ip1 -> ip1
I0502 19:04:22.965755  3863 net.cpp:122] Setting up ip1
I0502 19:04:22.965777  3863 net.cpp:129] Top shape: 64 500 (32000)
I0502 19:04:22.965781  3863 net.cpp:137] Memory required for data: 5441280
I0502 19:04:22.965800  3863 layer_factory.hpp:77] Creating layer relu1
I0502 19:04:22.965809  3863 net.cpp:84] Creating Layer relu1
I0502 19:04:22.965814  3863 net.cpp:406] relu1 <- ip1
I0502 19:04:22.965849  3863 net.cpp:367] relu1 -> ip1 (in-place)
I0502 19:04:22.965860  3863 net.cpp:122] Setting up relu1
I0502 19:04:22.965867  3863 net.cpp:129] Top shape: 64 500 (32000)
I0502 19:04:22.965872  3863 net.cpp:137] Memory required for data: 5569280
I0502 19:04:22.965875  3863 layer_factory.hpp:77] Creating layer ip2
I0502 19:04:22.965888  3863 net.cpp:84] Creating Layer ip2
I0502 19:04:22.965893  3863 net.cpp:406] ip2 <- ip1
I0502 19:04:22.965900  3863 net.cpp:380] ip2 -> ip2
I0502 19:04:22.966100  3863 net.cpp:122] Setting up ip2
I0502 19:04:22.966109  3863 net.cpp:129] Top shape: 64 52 (3328)
I0502 19:04:22.966111  3863 net.cpp:137] Memory required for data: 5582592
I0502 19:04:22.966120  3863 layer_factory.hpp:77] Creating layer ip2_ip2_0_split
I0502 19:04:22.966130  3863 net.cpp:84] Creating Layer ip2_ip2_0_split
I0502 19:04:22.966135  3863 net.cpp:406] ip2_ip2_0_split <- ip2
I0502 19:04:22.966142  3863 net.cpp:380] ip2_ip2_0_split -> ip2_ip2_0_split_0
I0502 19:04:22.966151  3863 net.cpp:380] ip2_ip2_0_split -> ip2_ip2_0_split_1
I0502 19:04:22.966182  3863 net.cpp:122] Setting up ip2_ip2_0_split
I0502 19:04:22.966189  3863 net.cpp:129] Top shape: 64 52 (3328)
I0502 19:04:22.966193  3863 net.cpp:129] Top shape: 64 52 (3328)
I0502 19:04:22.966197  3863 net.cpp:137] Memory required for data: 5609216
I0502 19:04:22.966202  3863 layer_factory.hpp:77] Creating layer accuracy
I0502 19:04:22.966212  3863 net.cpp:84] Creating Layer accuracy
I0502 19:04:22.966217  3863 net.cpp:406] accuracy <- ip2_ip2_0_split_0
I0502 19:04:22.966223  3863 net.cpp:406] accuracy <- label_data_1_split_0
I0502 19:04:22.966230  3863 net.cpp:380] accuracy -> accuracy
…
