…
I0502 18:55:46.105713  3805 net.cpp:294] The NetState phase (0) differed from the phase (1) specified by a rule in layer data
I0502 18:55:46.105725  3805 net.cpp:294] The NetState phase (0) differed from the phase (1) specified by a rule in layer accuracy
I0502 18:55:46.105799  3805 net.cpp:51] Initializing net from parameters: 
name: "LeNet"
state {
  phase: TRAIN
  level: 0
  stage: ""
}
layer {
  name: "data"
  type: "Data"
  top: "data"
  top: "label"
  include {
    phase: TRAIN
  }
  transform_param {
    scale: 0.00390625
  }
  data_param {
    source: "examples/final_sp/sp_train_lmdb"
    batch_size: 64
    backend: LMDB
  }
}
layer {
  name: "conv1"
  type: "Convolution"
  bottom: "data"
  top: "conv1"
  param {
    lr_mult: 1
  }
  param {
    lr_mult: 2
  }
  convolution_param {
    num_output: 20
    kernel_size: 5
    stride: 1
    weight_filler {
      type: "xavier"
    }
    bias_filler {
      type: "constant"
    }
  }
}
layer {
  name: "pool1"
  type: "Pooling"
  bottom: "conv1"
  top: "pool1"
  pooling_param {
    pool: MAX
    kernel_size: 2
    stride: 2
  }
}
layer {
  name: "conv2"
  type: "Convolution"
  bottom: "pool1"
  top: "conv2"
  param {
    lr_mult: 1
  }
  param {
    lr_mult: 2
  }
  convolution_param {
    num_output: 50
    kernel_size: 5
    stride: 1
    weight_filler {
      type: "xavier"
    }
    bias_filler {
      type: "constant"
    }
  }
}
layer {
  name: "pool2"
  type: "Pooling"
  bottom: "conv2"
  top: "pool2"
  pooling_param {
    pool: MAX
    kernel_size: 2
    stride: 2
  }
}
layer {
  name: "ip1"
  type: "InnerProduct"
  bottom: "pool2"
  top: "ip1"
  param {
    lr_mult: 1
  }
  param {
    lr_mult: 2
  }
  inner_product_param {
    num_output: 500
    weight_filler {
      type: "xavier"
    }
    bias_filler {
      type: "constant"
    }
  }
}
layer {
  name: "relu1"
  type: "ReLU"
  bottom: "ip1"
  top: "ip1"
}
layer {
  name: "ip2"
  type: "InnerProduct"
  bottom: "ip1"
  top: "ip2"
  param {
    lr_mult: 1
  }
  param {
    lr_mult: 2
  }
  inner_product_param {
    num_output: 52
    weight_filler {
      type: "xavier"
    }
    bias_filler {
      type: "constant"
    }
  }
}
layer {
  name: "loss"
  type: "SoftmaxWithLoss"
  bottom: "ip2"
  bottom: "label"
  top: "loss"
}
I0502 18:55:46.105845  3805 layer_factory.hpp:77] Creating layer data
I0502 18:55:46.105938  3805 db_lmdb.cpp:35] Opened lmdb examples/final_sp/sp_train_lmdb
I0502 18:55:46.105958  3805 net.cpp:84] Creating Layer data
I0502 18:55:46.105965  3805 net.cpp:380] data -> data
I0502 18:55:46.105984  3805 net.cpp:380] data -> label
I0502 18:55:46.106514  3805 data_layer.cpp:45] output data size: 64,3,28,28
I0502 18:55:46.110394  3805 net.cpp:122] Setting up data
I0502 18:55:46.110419  3805 net.cpp:129] Top shape: 64 3 28 28 (150528)
I0502 18:55:46.110424  3805 net.cpp:129] Top shape: 64 (64)
I0502 18:55:46.110426  3805 net.cpp:137] Memory required for data: 602368
I0502 18:55:46.110437  3805 layer_factory.hpp:77] Creating layer conv1
I0502 18:55:46.110468  3805 net.cpp:84] Creating Layer conv1
I0502 18:55:46.110476  3805 net.cpp:406] conv1 <- data
I0502 18:55:46.110493  3805 net.cpp:380] conv1 -> conv1
I0502 18:55:46.111444  3805 net.cpp:122] Setting up conv1
I0502 18:55:46.111459  3805 net.cpp:129] Top shape: 64 20 24 24 (737280)
I0502 18:55:46.111461  3805 net.cpp:137] Memory required for data: 3551488
I0502 18:55:46.111485  3805 layer_factory.hpp:77] Creating layer pool1
I0502 18:55:46.111513  3805 net.cpp:84] Creating Layer pool1
I0502 18:55:46.111519  3805 net.cpp:406] pool1 <- conv1
I0502 18:55:46.111528  3805 net.cpp:380] pool1 -> pool1
I0502 18:55:46.111579  3805 net.cpp:122] Setting up pool1
I0502 18:55:46.111587  3805 net.cpp:129] Top shape: 64 20 12 12 (184320)
I0502 18:55:46.111589  3805 net.cpp:137] Memory required for data: 4288768
I0502 18:55:46.111593  3805 layer_factory.hpp:77] Creating layer conv2
I0502 18:55:46.111608  3805 net.cpp:84] Creating Layer conv2
I0502 18:55:46.111613  3805 net.cpp:406] conv2 <- pool1
I0502 18:55:46.111621  3805 net.cpp:380] conv2 -> conv2
I0502 18:55:46.112653  3805 net.cpp:122] Setting up conv2
I0502 18:55:46.112664  3805 net.cpp:129] Top shape: 64 50 8 8 (204800)
I0502 18:55:46.112668  3805 net.cpp:137] Memory required for data: 5107968
I0502 18:55:46.112677  3805 layer_factory.hpp:77] Creating layer pool2
I0502 18:55:46.112687  3805 net.cpp:84] Creating Layer pool2
I0502 18:55:46.112694  3805 net.cpp:406] pool2 <- conv2
I0502 18:55:46.112704  3805 net.cpp:380] pool2 -> pool2
I0502 18:55:46.112743  3805 net.cpp:122] Setting up pool2
I0502 18:55:46.112753  3805 net.cpp:129] Top shape: 64 50 4 4 (51200)
I0502 18:55:46.112758  3805 net.cpp:137] Memory required for data: 5312768
I0502 18:55:46.112762  3805 layer_factory.hpp:77] Creating layer ip1
I0502 18:55:46.112772  3805 net.cpp:84] Creating Layer ip1
I0502 18:55:46.112782  3805 net.cpp:406] ip1 <- pool2
I0502 18:55:46.112792  3805 net.cpp:380] ip1 -> ip1
I0502 18:55:46.115329  3805 net.cpp:122] Setting up ip1
I0502 18:55:46.115346  3805 net.cpp:129] Top shape: 64 500 (32000)
I0502 18:55:46.115351  3805 net.cpp:137] Memory required for data: 5440768
I0502 18:55:46.115365  3805 layer_factory.hpp:77] Creating layer relu1
I0502 18:55:46.115375  3805 net.cpp:84] Creating Layer relu1
I0502 18:55:46.115381  3805 net.cpp:406] relu1 <- ip1
I0502 18:55:46.115387  3805 net.cpp:367] relu1 -> ip1 (in-place)
I0502 18:55:46.115397  3805 net.cpp:122] Setting up relu1
I0502 18:55:46.115403  3805 net.cpp:129] Top shape: 64 500 (32000)
I0502 18:55:46.115407  3805 net.cpp:137] Memory required for data: 5568768
I0502 18:55:46.115414  3805 layer_factory.hpp:77] Creating layer ip2
I0502 18:55:46.115423  3805 net.cpp:84] Creating Layer ip2
I0502 18:55:46.115427  3805 net.cpp:406] ip2 <- ip1
I0502 18:55:46.115435  3805 net.cpp:380] ip2 -> ip2
I0502 18:55:46.115622  3805 net.cpp:122] Setting up ip2
I0502 18:55:46.115629  3805 net.cpp:129] Top shape: 64 52 (3328)
I0502 18:55:46.115633  3805 net.cpp:137] Memory required for data: 5582080
I0502 18:55:46.115640  3805 layer_factory.hpp:77] Creating layer loss
I0502 18:55:46.115649  3805 net.cpp:84] Creating Layer loss
I0502 18:55:46.115654  3805 net.cpp:406] loss <- ip2
I0502 18:55:46.115659  3805 net.cpp:406] loss <- label
I0502 18:55:46.115670  3805 net.cpp:380] loss -> loss
I0502 18:55:46.115685  3805 layer_factory.hpp:77] Creating layer loss
…
I0502 18:55:46.116042  3805 solver.cpp:190] Creating test net (#0) specified by net file: models/sp_final_lenet/lenet_train_val.prototxt
I0502 18:55:46.116083  3805 net.cpp:294] The NetState phase (1) differed from the phase (0) specified by a rule in layer data
I0502 18:55:46.116188  3805 net.cpp:51] Initializing net from parameters: 
name: "LeNet"
state {
  phase: TEST
}
layer {
  name: "data"
  type: "Data"
  top: "data"
  top: "label"
  include {
    phase: TEST
  }
  transform_param {
    scale: 0.00390625
  }
  data_param {
    source: "examples/final_sp/sp_val_lmdb"
    batch_size: 64
    backend: LMDB
  }
}
layer {
  name: "conv1"
  type: "Convolution"
  bottom: "data"
  top: "conv1"
  param {
    lr_mult: 1
  }
  param {
    lr_mult: 2
  }
  convolution_param {
    num_output: 20
    kernel_size: 5
    stride: 1
    weight_filler {
      type: "xavier"
    }
    bias_filler {
      type: "constant"
    }
  }
}
layer {
  name: "pool1"
  type: "Pooling"
  bottom: "conv1"
  top: "pool1"
  pooling_param {
    pool: MAX
    kernel_size: 2
    stride: 2
  }
}
layer {
  name: "conv2"
  type: "Convolution"
  bottom: "pool1"
  top: "conv2"
  param {
    lr_mult: 1
  }
  param {
    lr_mult: 2
  }
  convolution_param {
    num_output: 50
    kernel_size: 5
    stride: 1
    weight_filler {
      type: "xavier"
    }
    bias_filler {
      type: "constant"
    }
  }
}
layer {
  name: "pool2"
  type: "Pooling"
  bottom: "conv2"
  top: "pool2"
  pooling_param {
    pool: MAX
    kernel_size: 2
    stride: 2
  }
}
layer {
  name: "ip1"
  type: "InnerProduct"
  bottom: "pool2"
  top: "ip1"
  param {
    lr_mult: 1
  }
  param {
    lr_mult: 2
  }
  inner_product_param {
    num_output: 500
    weight_filler {
      type: "xavier"
    }
    bias_filler {
      type: "constant"
    }
  }
}
layer {
  name: "relu1"
  type: "ReLU"
  bottom: "ip1"
  top: "ip1"
}
layer {
  name: "ip2"
  type: "InnerProduct"
  bottom: "ip1"
  top: "ip2"
  param {
    lr_mult: 1
  }
  param {
    lr_mult: 2
  }
  inner_product_param {
    num_output: 52
    weight_filler {
      type: "xavier"
    }
    bias_filler {
      type: "constant"
    }
  }
}
layer {
  name: "accuracy"
  type: "Accuracy"
  bottom: "ip2"
  bottom: "label"
  top: "accuracy"
  include {
    phase: TEST
  }
}
layer {
  name: "loss"
  type: "SoftmaxWithLoss"
  bottom: "ip2"
  bottom: "label"
  top: "loss"
}
I0502 18:55:46.116269  3805 layer_factory.hpp:77] Creating layer data
I0502 18:55:46.116329  3805 db_lmdb.cpp:35] Opened lmdb examples/final_sp/sp_val_lmdb
I0502 18:55:46.116343  3805 net.cpp:84] Creating Layer data
I0502 18:55:46.116353  3805 net.cpp:380] data -> data
I0502 18:55:46.116363  3805 net.cpp:380] data -> label
I0502 18:55:46.116611  3805 data_layer.cpp:45] output data size: 64,3,28,28
I0502 18:55:46.121603  3805 net.cpp:122] Setting up data
I0502 18:55:46.121628  3805 net.cpp:129] Top shape: 64 3 28 28 (150528)
I0502 18:55:46.121632  3805 net.cpp:129] Top shape: 64 (64)
I0502 18:55:46.121635  3805 net.cpp:137] Memory required for data: 602368
I0502 18:55:46.121644  3805 layer_factory.hpp:77] Creating layer label_data_1_split
I0502 18:55:46.121657  3805 net.cpp:84] Creating Layer label_data_1_split
I0502 18:55:46.121662  3805 net.cpp:406] label_data_1_split <- label
I0502 18:55:46.121691  3805 net.cpp:380] label_data_1_split -> label_data_1_split_0
I0502 18:55:46.121706  3805 net.cpp:380] label_data_1_split -> label_data_1_split_1
I0502 18:55:46.121757  3805 net.cpp:122] Setting up label_data_1_split
I0502 18:55:46.121764  3805 net.cpp:129] Top shape: 64 (64)
I0502 18:55:46.121768  3805 net.cpp:129] Top shape: 64 (64)
I0502 18:55:46.121773  3805 net.cpp:137] Memory required for data: 602880
I0502 18:55:46.121778  3805 layer_factory.hpp:77] Creating layer conv1
I0502 18:55:46.121793  3805 net.cpp:84] Creating Layer conv1
I0502 18:55:46.121798  3805 net.cpp:406] conv1 <- data
I0502 18:55:46.121807  3805 net.cpp:380] conv1 -> conv1
I0502 18:55:46.121987  3805 net.cpp:122] Setting up conv1
I0502 18:55:46.121995  3805 net.cpp:129] Top shape: 64 20 24 24 (737280)
I0502 18:55:46.121999  3805 net.cpp:137] Memory required for data: 3552000
I0502 18:55:46.122010  3805 layer_factory.hpp:77] Creating layer pool1
I0502 18:55:46.122027  3805 net.cpp:84] Creating Layer pool1
I0502 18:55:46.122033  3805 net.cpp:406] pool1 <- conv1
I0502 18:55:46.122040  3805 net.cpp:380] pool1 -> pool1
I0502 18:55:46.122076  3805 net.cpp:122] Setting up pool1
I0502 18:55:46.122083  3805 net.cpp:129] Top shape: 64 20 12 12 (184320)
I0502 18:55:46.122087  3805 net.cpp:137] Memory required for data: 4289280
I0502 18:55:46.122090  3805 layer_factory.hpp:77] Creating layer conv2
I0502 18:55:46.122105  3805 net.cpp:84] Creating Layer conv2
I0502 18:55:46.122112  3805 net.cpp:406] conv2 <- pool1
I0502 18:55:46.122120  3805 net.cpp:380] conv2 -> conv2
I0502 18:55:46.122743  3805 net.cpp:122] Setting up conv2
I0502 18:55:46.122752  3805 net.cpp:129] Top shape: 64 50 8 8 (204800)
I0502 18:55:46.122756  3805 net.cpp:137] Memory required for data: 5108480
I0502 18:55:46.122764  3805 layer_factory.hpp:77] Creating layer pool2
I0502 18:55:46.122773  3805 net.cpp:84] Creating Layer pool2
I0502 18:55:46.122779  3805 net.cpp:406] pool2 <- conv2
I0502 18:55:46.122787  3805 net.cpp:380] pool2 -> pool2
I0502 18:55:46.122824  3805 net.cpp:122] Setting up pool2
I0502 18:55:46.122830  3805 net.cpp:129] Top shape: 64 50 4 4 (51200)
I0502 18:55:46.122834  3805 net.cpp:137] Memory required for data: 5313280
I0502 18:55:46.122853  3805 layer_factory.hpp:77] Creating layer ip1
I0502 18:55:46.122866  3805 net.cpp:84] Creating Layer ip1
I0502 18:55:46.122872  3805 net.cpp:406] ip1 <- pool2
I0502 18:55:46.122880  3805 net.cpp:380] ip1 -> ip1
I0502 18:55:46.125129  3805 net.cpp:122] Setting up ip1
I0502 18:55:46.125145  3805 net.cpp:129] Top shape: 64 500 (32000)
I0502 18:55:46.125147  3805 net.cpp:137] Memory required for data: 5441280
I0502 18:55:46.125162  3805 layer_factory.hpp:77] Creating layer relu1
I0502 18:55:46.125172  3805 net.cpp:84] Creating Layer relu1
I0502 18:55:46.125177  3805 net.cpp:406] relu1 <- ip1
I0502 18:55:46.125185  3805 net.cpp:367] relu1 -> ip1 (in-place)
I0502 18:55:46.125195  3805 net.cpp:122] Setting up relu1
I0502 18:55:46.125200  3805 net.cpp:129] Top shape: 64 500 (32000)
I0502 18:55:46.125205  3805 net.cpp:137] Memory required for data: 5569280
I0502 18:55:46.125211  3805 layer_factory.hpp:77] Creating layer ip2
I0502 18:55:46.125221  3805 net.cpp:84] Creating Layer ip2
I0502 18:55:46.125224  3805 net.cpp:406] ip2 <- ip1
I0502 18:55:46.125233  3805 net.cpp:380] ip2 -> ip2
I0502 18:55:46.125447  3805 net.cpp:122] Setting up ip2
I0502 18:55:46.125455  3805 net.cpp:129] Top shape: 64 52 (3328)
I0502 18:55:46.125458  3805 net.cpp:137] Memory required for data: 5582592
I0502 18:55:46.125465  3805 layer_factory.hpp:77] Creating layer ip2_ip2_0_split
I0502 18:55:46.125488  3805 net.cpp:84] Creating Layer ip2_ip2_0_split
I0502 18:55:46.125494  3805 net.cpp:406] ip2_ip2_0_split <- ip2
I0502 18:55:46.125500  3805 net.cpp:380] ip2_ip2_0_split -> ip2_ip2_0_split_0
I0502 18:55:46.125510  3805 net.cpp:380] ip2_ip2_0_split -> ip2_ip2_0_split_1
I0502 18:55:46.125546  3805 net.cpp:122] Setting up ip2_ip2_0_split
I0502 18:55:46.125552  3805 net.cpp:129] Top shape: 64 52 (3328)
I0502 18:55:46.125556  3805 net.cpp:129] Top shape: 64 52 (3328)
I0502 18:55:46.125560  3805 net.cpp:137] Memory required for data: 5609216
I0502 18:55:46.125566  3805 layer_factory.hpp:77] Creating layer accuracy
I0502 18:55:46.125572  3805 net.cpp:84] Creating Layer accuracy
I0502 18:55:46.125577  3805 net.cpp:406] accuracy <- ip2_ip2_0_split_0
I0502 18:55:46.125583  3805 net.cpp:406] accuracy <- label_data_1_split_0
I0502 18:55:46.125592  3805 net.cpp:380] accuracy -> accuracy
…
