…
I0502 19:21:19.222601  3973 net.cpp:294] The NetState phase (0) differed from the phase (1) specified by a rule in layer data
I0502 19:21:19.222615  3973 net.cpp:294] The NetState phase (0) differed from the phase (1) specified by a rule in layer accuracy
I0502 19:21:19.222690  3973 net.cpp:51] Initializing net from parameters: 
name: "LeNet"
state {
  phase: TRAIN
  level: 0
  stage: ""
}
layer {
  name: "data"
  type: "Data"
  top: "data"
  top: "label"
  include {
    phase: TRAIN
  }
  transform_param {
    scale: 0.00390625
  }
  data_param {
    source: "examples/final_sp/sp_train_lmdb"
    batch_size: 64
    backend: LMDB
  }
}
layer {
  name: "conv1"
  type: "Convolution"
  bottom: "data"
  top: "conv1"
  param {
    lr_mult: 1
  }
  param {
    lr_mult: 2
  }
  convolution_param {
    num_output: 20
    kernel_size: 5
    stride: 1
    weight_filler {
      type: "xavier"
    }
    bias_filler {
      type: "constant"
    }
  }
}
layer {
  name: "pool1"
  type: "Pooling"
  bottom: "conv1"
  top: "pool1"
  pooling_param {
    pool: MAX
    kernel_size: 2
    stride: 2
  }
}
layer {
  name: "conv2"
  type: "Convolution"
  bottom: "pool1"
  top: "conv2"
  param {
    lr_mult: 1
  }
  param {
    lr_mult: 2
  }
  convolution_param {
    num_output: 50
    kernel_size: 5
    stride: 1
    weight_filler {
      type: "xavier"
    }
    bias_filler {
      type: "constant"
    }
  }
}
layer {
  name: "pool2"
  type: "Pooling"
  bottom: "conv2"
  top: "pool2"
  pooling_param {
    pool: MAX
    kernel_size: 2
    stride: 2
  }
}
layer {
  name: "ip1"
  type: "InnerProduct"
  bottom: "pool2"
  top: "ip1"
  param {
    lr_mult: 1
  }
  param {
    lr_mult: 2
  }
  inner_product_param {
    num_output: 500
    weight_filler {
      type: "xavier"
    }
    bias_filler {
      type: "constant"
    }
  }
}
layer {
  name: "relu1"
  type: "ReLU"
  bottom: "ip1"
  top: "ip1"
}
layer {
  name: "ip2"
  type: "InnerProduct"
  bottom: "ip1"
  top: "ip2"
  param {
    lr_mult: 1
  }
  param {
    lr_mult: 2
  }
  inner_product_param {
    num_output: 52
    weight_filler {
      type: "xavier"
    }
    bias_filler {
      type: "constant"
    }
  }
}
layer {
  name: "loss"
  type: "SoftmaxWithLoss"
  bottom: "ip2"
  bottom: "label"
  top: "loss"
}
I0502 19:21:19.222750  3973 layer_factory.hpp:77] Creating layer data
I0502 19:21:19.222832  3973 db_lmdb.cpp:35] Opened lmdb examples/final_sp/sp_train_lmdb
I0502 19:21:19.222854  3973 net.cpp:84] Creating Layer data
I0502 19:21:19.222865  3973 net.cpp:380] data -> data
I0502 19:21:19.222885  3973 net.cpp:380] data -> label
I0502 19:21:19.223420  3973 data_layer.cpp:45] output data size: 64,3,28,28
I0502 19:21:19.227327  3973 net.cpp:122] Setting up data
I0502 19:21:19.227354  3973 net.cpp:129] Top shape: 64 3 28 28 (150528)
I0502 19:21:19.227360  3973 net.cpp:129] Top shape: 64 (64)
I0502 19:21:19.227363  3973 net.cpp:137] Memory required for data: 602368
I0502 19:21:19.227404  3973 layer_factory.hpp:77] Creating layer conv1
I0502 19:21:19.227434  3973 net.cpp:84] Creating Layer conv1
I0502 19:21:19.227443  3973 net.cpp:406] conv1 <- data
I0502 19:21:19.227459  3973 net.cpp:380] conv1 -> conv1
I0502 19:21:19.228440  3973 net.cpp:122] Setting up conv1
I0502 19:21:19.228456  3973 net.cpp:129] Top shape: 64 20 24 24 (737280)
I0502 19:21:19.228459  3973 net.cpp:137] Memory required for data: 3551488
I0502 19:21:19.228482  3973 layer_factory.hpp:77] Creating layer pool1
I0502 19:21:19.228509  3973 net.cpp:84] Creating Layer pool1
I0502 19:21:19.228515  3973 net.cpp:406] pool1 <- conv1
I0502 19:21:19.228528  3973 net.cpp:380] pool1 -> pool1
I0502 19:21:19.228572  3973 net.cpp:122] Setting up pool1
I0502 19:21:19.228580  3973 net.cpp:129] Top shape: 64 20 12 12 (184320)
I0502 19:21:19.228583  3973 net.cpp:137] Memory required for data: 4288768
I0502 19:21:19.228587  3973 layer_factory.hpp:77] Creating layer conv2
I0502 19:21:19.228597  3973 net.cpp:84] Creating Layer conv2
I0502 19:21:19.228602  3973 net.cpp:406] conv2 <- pool1
I0502 19:21:19.228611  3973 net.cpp:380] conv2 -> conv2
I0502 19:21:19.229670  3973 net.cpp:122] Setting up conv2
I0502 19:21:19.229686  3973 net.cpp:129] Top shape: 64 50 8 8 (204800)
I0502 19:21:19.229689  3973 net.cpp:137] Memory required for data: 5107968
I0502 19:21:19.229703  3973 layer_factory.hpp:77] Creating layer pool2
I0502 19:21:19.229710  3973 net.cpp:84] Creating Layer pool2
I0502 19:21:19.229713  3973 net.cpp:406] pool2 <- conv2
I0502 19:21:19.229719  3973 net.cpp:380] pool2 -> pool2
I0502 19:21:19.229745  3973 net.cpp:122] Setting up pool2
I0502 19:21:19.229750  3973 net.cpp:129] Top shape: 64 50 4 4 (51200)
I0502 19:21:19.229753  3973 net.cpp:137] Memory required for data: 5312768
I0502 19:21:19.229755  3973 layer_factory.hpp:77] Creating layer ip1
I0502 19:21:19.229763  3973 net.cpp:84] Creating Layer ip1
I0502 19:21:19.229766  3973 net.cpp:406] ip1 <- pool2
I0502 19:21:19.229771  3973 net.cpp:380] ip1 -> ip1
I0502 19:21:19.233362  3973 net.cpp:122] Setting up ip1
I0502 19:21:19.233378  3973 net.cpp:129] Top shape: 64 500 (32000)
I0502 19:21:19.233382  3973 net.cpp:137] Memory required for data: 5440768
I0502 19:21:19.233395  3973 layer_factory.hpp:77] Creating layer relu1
I0502 19:21:19.233404  3973 net.cpp:84] Creating Layer relu1
I0502 19:21:19.233409  3973 net.cpp:406] relu1 <- ip1
I0502 19:21:19.233417  3973 net.cpp:367] relu1 -> ip1 (in-place)
I0502 19:21:19.233440  3973 net.cpp:122] Setting up relu1
I0502 19:21:19.233446  3973 net.cpp:129] Top shape: 64 500 (32000)
I0502 19:21:19.233450  3973 net.cpp:137] Memory required for data: 5568768
I0502 19:21:19.233453  3973 layer_factory.hpp:77] Creating layer ip2
I0502 19:21:19.233464  3973 net.cpp:84] Creating Layer ip2
I0502 19:21:19.233467  3973 net.cpp:406] ip2 <- ip1
I0502 19:21:19.233474  3973 net.cpp:380] ip2 -> ip2
I0502 19:21:19.233786  3973 net.cpp:122] Setting up ip2
I0502 19:21:19.233794  3973 net.cpp:129] Top shape: 64 52 (3328)
I0502 19:21:19.233798  3973 net.cpp:137] Memory required for data: 5582080
I0502 19:21:19.233804  3973 layer_factory.hpp:77] Creating layer loss
I0502 19:21:19.233814  3973 net.cpp:84] Creating Layer loss
I0502 19:21:19.233819  3973 net.cpp:406] loss <- ip2
I0502 19:21:19.233824  3973 net.cpp:406] loss <- label
I0502 19:21:19.233829  3973 net.cpp:380] loss -> loss
I0502 19:21:19.233845  3973 layer_factory.hpp:77] Creating layer loss
…
I0502 19:21:19.234581  3973 solver.cpp:190] Creating test net (#0) specified by net file: models/sp_final_lenet/lenet_train_val.prototxt
I0502 19:21:19.234617  3973 net.cpp:294] The NetState phase (1) differed from the phase (0) specified by a rule in layer data
I0502 19:21:19.234716  3973 net.cpp:51] Initializing net from parameters: 
name: "LeNet"
state {
  phase: TEST
}
layer {
  name: "data"
  type: "Data"
  top: "data"
  top: "label"
  include {
    phase: TEST
  }
  transform_param {
    scale: 0.00390625
  }
  data_param {
    source: "examples/final_sp/sp_val_lmdb"
    batch_size: 64
    backend: LMDB
  }
}
layer {
  name: "conv1"
  type: "Convolution"
  bottom: "data"
  top: "conv1"
  param {
    lr_mult: 1
  }
  param {
    lr_mult: 2
  }
  convolution_param {
    num_output: 20
    kernel_size: 5
    stride: 1
    weight_filler {
      type: "xavier"
    }
    bias_filler {
      type: "constant"
    }
  }
}
layer {
  name: "pool1"
  type: "Pooling"
  bottom: "conv1"
  top: "pool1"
  pooling_param {
    pool: MAX
    kernel_size: 2
    stride: 2
  }
}
layer {
  name: "conv2"
  type: "Convolution"
  bottom: "pool1"
  top: "conv2"
  param {
    lr_mult: 1
  }
  param {
    lr_mult: 2
  }
  convolution_param {
    num_output: 50
    kernel_size: 5
    stride: 1
    weight_filler {
      type: "xavier"
    }
    bias_filler {
      type: "constant"
    }
  }
}
layer {
  name: "pool2"
  type: "Pooling"
  bottom: "conv2"
  top: "pool2"
  pooling_param {
    pool: MAX
    kernel_size: 2
    stride: 2
  }
}
layer {
  name: "ip1"
  type: "InnerProduct"
  bottom: "pool2"
  top: "ip1"
  param {
    lr_mult: 1
  }
  param {
    lr_mult: 2
  }
  inner_product_param {
    num_output: 500
    weight_filler {
      type: "xavier"
    }
    bias_filler {
      type: "constant"
    }
  }
}
layer {
  name: "relu1"
  type: "ReLU"
  bottom: "ip1"
  top: "ip1"
}
layer {
  name: "ip2"
  type: "InnerProduct"
  bottom: "ip1"
  top: "ip2"
  param {
    lr_mult: 1
  }
  param {
    lr_mult: 2
  }
  inner_product_param {
    num_output: 52
    weight_filler {
      type: "xavier"
    }
    bias_filler {
      type: "constant"
    }
  }
}
layer {
  name: "accuracy"
  type: "Accuracy"
  bottom: "ip2"
  bottom: "label"
  top: "accuracy"
  include {
    phase: TEST
  }
}
layer {
  name: "loss"
  type: "SoftmaxWithLoss"
  bottom: "ip2"
  bottom: "label"
  top: "loss"
}
I0502 19:21:19.234799  3973 layer_factory.hpp:77] Creating layer data
I0502 19:21:19.234874  3973 db_lmdb.cpp:35] Opened lmdb examples/final_sp/sp_val_lmdb
I0502 19:21:19.234889  3973 net.cpp:84] Creating Layer data
I0502 19:21:19.234894  3973 net.cpp:380] data -> data
I0502 19:21:19.234903  3973 net.cpp:380] data -> label
I0502 19:21:19.235327  3973 data_layer.cpp:45] output data size: 64,3,28,28
I0502 19:21:19.239708  3973 net.cpp:122] Setting up data
I0502 19:21:19.239737  3973 net.cpp:129] Top shape: 64 3 28 28 (150528)
I0502 19:21:19.239742  3973 net.cpp:129] Top shape: 64 (64)
I0502 19:21:19.239745  3973 net.cpp:137] Memory required for data: 602368
I0502 19:21:19.239753  3973 layer_factory.hpp:77] Creating layer label_data_1_split
I0502 19:21:19.239768  3973 net.cpp:84] Creating Layer label_data_1_split
I0502 19:21:19.239773  3973 net.cpp:406] label_data_1_split <- label
I0502 19:21:19.239784  3973 net.cpp:380] label_data_1_split -> label_data_1_split_0
I0502 19:21:19.239799  3973 net.cpp:380] label_data_1_split -> label_data_1_split_1
I0502 19:21:19.239841  3973 net.cpp:122] Setting up label_data_1_split
I0502 19:21:19.239850  3973 net.cpp:129] Top shape: 64 (64)
I0502 19:21:19.239854  3973 net.cpp:129] Top shape: 64 (64)
I0502 19:21:19.239858  3973 net.cpp:137] Memory required for data: 602880
I0502 19:21:19.239862  3973 layer_factory.hpp:77] Creating layer conv1
I0502 19:21:19.239876  3973 net.cpp:84] Creating Layer conv1
I0502 19:21:19.239881  3973 net.cpp:406] conv1 <- data
I0502 19:21:19.239888  3973 net.cpp:380] conv1 -> conv1
I0502 19:21:19.240068  3973 net.cpp:122] Setting up conv1
I0502 19:21:19.240077  3973 net.cpp:129] Top shape: 64 20 24 24 (737280)
I0502 19:21:19.240080  3973 net.cpp:137] Memory required for data: 3552000
I0502 19:21:19.240092  3973 layer_factory.hpp:77] Creating layer pool1
I0502 19:21:19.240111  3973 net.cpp:84] Creating Layer pool1
I0502 19:21:19.240116  3973 net.cpp:406] pool1 <- conv1
I0502 19:21:19.240123  3973 net.cpp:380] pool1 -> pool1
I0502 19:21:19.240155  3973 net.cpp:122] Setting up pool1
I0502 19:21:19.240162  3973 net.cpp:129] Top shape: 64 20 12 12 (184320)
I0502 19:21:19.240166  3973 net.cpp:137] Memory required for data: 4289280
I0502 19:21:19.240170  3973 layer_factory.hpp:77] Creating layer conv2
I0502 19:21:19.240183  3973 net.cpp:84] Creating Layer conv2
I0502 19:21:19.240187  3973 net.cpp:406] conv2 <- pool1
I0502 19:21:19.240195  3973 net.cpp:380] conv2 -> conv2
I0502 19:21:19.240469  3973 net.cpp:122] Setting up conv2
I0502 19:21:19.240478  3973 net.cpp:129] Top shape: 64 50 8 8 (204800)
I0502 19:21:19.240481  3973 net.cpp:137] Memory required for data: 5108480
I0502 19:21:19.240491  3973 layer_factory.hpp:77] Creating layer pool2
I0502 19:21:19.240497  3973 net.cpp:84] Creating Layer pool2
I0502 19:21:19.240502  3973 net.cpp:406] pool2 <- conv2
I0502 19:21:19.240510  3973 net.cpp:380] pool2 -> pool2
I0502 19:21:19.240905  3973 net.cpp:122] Setting up pool2
I0502 19:21:19.240912  3973 net.cpp:129] Top shape: 64 50 4 4 (51200)
I0502 19:21:19.240916  3973 net.cpp:137] Memory required for data: 5313280
I0502 19:21:19.240921  3973 layer_factory.hpp:77] Creating layer ip1
I0502 19:21:19.240932  3973 net.cpp:84] Creating Layer ip1
I0502 19:21:19.240937  3973 net.cpp:406] ip1 <- pool2
I0502 19:21:19.240944  3973 net.cpp:380] ip1 -> ip1
I0502 19:21:19.243583  3973 net.cpp:122] Setting up ip1
I0502 19:21:19.243605  3973 net.cpp:129] Top shape: 64 500 (32000)
I0502 19:21:19.243610  3973 net.cpp:137] Memory required for data: 5441280
I0502 19:21:19.243628  3973 layer_factory.hpp:77] Creating layer relu1
I0502 19:21:19.243641  3973 net.cpp:84] Creating Layer relu1
I0502 19:21:19.243647  3973 net.cpp:406] relu1 <- ip1
I0502 19:21:19.243656  3973 net.cpp:367] relu1 -> ip1 (in-place)
I0502 19:21:19.243665  3973 net.cpp:122] Setting up relu1
I0502 19:21:19.243671  3973 net.cpp:129] Top shape: 64 500 (32000)
I0502 19:21:19.243674  3973 net.cpp:137] Memory required for data: 5569280
I0502 19:21:19.243679  3973 layer_factory.hpp:77] Creating layer ip2
I0502 19:21:19.243690  3973 net.cpp:84] Creating Layer ip2
I0502 19:21:19.243695  3973 net.cpp:406] ip2 <- ip1
I0502 19:21:19.243703  3973 net.cpp:380] ip2 -> ip2
I0502 19:21:19.243904  3973 net.cpp:122] Setting up ip2
I0502 19:21:19.243911  3973 net.cpp:129] Top shape: 64 52 (3328)
I0502 19:21:19.243916  3973 net.cpp:137] Memory required for data: 5582592
I0502 19:21:19.243922  3973 layer_factory.hpp:77] Creating layer ip2_ip2_0_split
I0502 19:21:19.243932  3973 net.cpp:84] Creating Layer ip2_ip2_0_split
I0502 19:21:19.243935  3973 net.cpp:406] ip2_ip2_0_split <- ip2
I0502 19:21:19.243945  3973 net.cpp:380] ip2_ip2_0_split -> ip2_ip2_0_split_0
I0502 19:21:19.243954  3973 net.cpp:380] ip2_ip2_0_split -> ip2_ip2_0_split_1
I0502 19:21:19.243994  3973 net.cpp:122] Setting up ip2_ip2_0_split
I0502 19:21:19.244000  3973 net.cpp:129] Top shape: 64 52 (3328)
I0502 19:21:19.244005  3973 net.cpp:129] Top shape: 64 52 (3328)
I0502 19:21:19.244009  3973 net.cpp:137] Memory required for data: 5609216
I0502 19:21:19.244012  3973 layer_factory.hpp:77] Creating layer accuracy
I0502 19:21:19.244021  3973 net.cpp:84] Creating Layer accuracy
I0502 19:21:19.244026  3973 net.cpp:406] accuracy <- ip2_ip2_0_split_0
I0502 19:21:19.244032  3973 net.cpp:406] accuracy <- label_data_1_split_0
I0502 19:21:19.244041  3973 net.cpp:380] accuracy -> accuracy
…
