…
I0502 12:13:25.612296  3350 net.cpp:294] The NetState phase (0) differed from the phase (1) specified by a rule in layer data
I0502 12:13:25.612305  3350 net.cpp:294] The NetState phase (0) differed from the phase (1) specified by a rule in layer accuracy
I0502 12:13:25.612370  3350 net.cpp:51] Initializing net from parameters: 
name: "LeNet"
state {
  phase: TRAIN
  level: 0
  stage: ""
}
layer {
  name: "data"
  type: "Data"
  top: "data"
  top: "label"
  include {
    phase: TRAIN
  }
  transform_param {
    scale: 0.00390625
  }
  data_param {
    source: "examples/final_sp/sp_train_lmdb"
    batch_size: 64
    backend: LMDB
  }
}
layer {
  name: "conv1"
  type: "Convolution"
  bottom: "data"
  top: "conv1"
  param {
    lr_mult: 1
  }
  param {
    lr_mult: 2
  }
  convolution_param {
    num_output: 20
    kernel_size: 5
    stride: 1
    weight_filler {
      type: "xavier"
    }
    bias_filler {
      type: "constant"
    }
  }
}
layer {
  name: "pool1"
  type: "Pooling"
  bottom: "conv1"
  top: "pool1"
  pooling_param {
    pool: MAX
    kernel_size: 2
    stride: 2
  }
}
layer {
  name: "conv2"
  type: "Convolution"
  bottom: "pool1"
  top: "conv2"
  param {
    lr_mult: 1
  }
  param {
    lr_mult: 2
  }
  convolution_param {
    num_output: 50
    kernel_size: 5
    stride: 1
    weight_filler {
      type: "xavier"
    }
    bias_filler {
      type: "constant"
    }
  }
}
layer {
  name: "pool2"
  type: "Pooling"
  bottom: "conv2"
  top: "pool2"
  pooling_param {
    pool: MAX
    kernel_size: 2
    stride: 2
  }
}
layer {
  name: "ip1"
  type: "InnerProduct"
  bottom: "pool2"
  top: "ip1"
  param {
    lr_mult: 1
  }
  param {
    lr_mult: 2
  }
  inner_product_param {
    num_output: 500
    weight_filler {
      type: "xavier"
    }
    bias_filler {
      type: "constant"
    }
  }
}
layer {
  name: "relu1"
  type: "ReLU"
  bottom: "ip1"
  top: "ip1"
}
layer {
  name: "ip2"
  type: "InnerProduct"
  bottom: "ip1"
  top: "ip2"
  param {
    lr_mult: 1
  }
  param {
    lr_mult: 2
  }
  inner_product_param {
    num_output: 52
    weight_filler {
      type: "xavier"
    }
    bias_filler {
      type: "constant"
    }
  }
}
layer {
  name: "loss"
  type: "SoftmaxWithLoss"
  bottom: "ip2"
  bottom: "label"
  top: "loss"
}
I0502 12:13:25.612409  3350 layer_factory.hpp:77] Creating layer data
I0502 12:13:25.612505  3350 db_lmdb.cpp:35] Opened lmdb examples/final_sp/sp_train_lmdb
I0502 12:13:25.612524  3350 net.cpp:84] Creating Layer data
I0502 12:13:25.612530  3350 net.cpp:380] data -> data
I0502 12:13:25.612547  3350 net.cpp:380] data -> label
I0502 12:13:25.613052  3350 data_layer.cpp:45] output data size: 64,3,28,28
I0502 12:13:25.616931  3350 net.cpp:122] Setting up data
I0502 12:13:25.616961  3350 net.cpp:129] Top shape: 64 3 28 28 (150528)
I0502 12:13:25.616966  3350 net.cpp:129] Top shape: 64 (64)
I0502 12:13:25.616969  3350 net.cpp:137] Memory required for data: 602368
I0502 12:13:25.616983  3350 layer_factory.hpp:77] Creating layer conv1
I0502 12:13:25.617013  3350 net.cpp:84] Creating Layer conv1
I0502 12:13:25.617022  3350 net.cpp:406] conv1 <- data
I0502 12:13:25.617038  3350 net.cpp:380] conv1 -> conv1
I0502 12:13:25.617986  3350 net.cpp:122] Setting up conv1
I0502 12:13:25.618003  3350 net.cpp:129] Top shape: 64 20 24 24 (737280)
I0502 12:13:25.618008  3350 net.cpp:137] Memory required for data: 3551488
I0502 12:13:25.618029  3350 layer_factory.hpp:77] Creating layer pool1
I0502 12:13:25.618063  3350 net.cpp:84] Creating Layer pool1
I0502 12:13:25.618068  3350 net.cpp:406] pool1 <- conv1
I0502 12:13:25.618075  3350 net.cpp:380] pool1 -> pool1
I0502 12:13:25.618127  3350 net.cpp:122] Setting up pool1
I0502 12:13:25.618135  3350 net.cpp:129] Top shape: 64 20 12 12 (184320)
I0502 12:13:25.618139  3350 net.cpp:137] Memory required for data: 4288768
I0502 12:13:25.618144  3350 layer_factory.hpp:77] Creating layer conv2
I0502 12:13:25.618155  3350 net.cpp:84] Creating Layer conv2
I0502 12:13:25.618160  3350 net.cpp:406] conv2 <- pool1
I0502 12:13:25.618167  3350 net.cpp:380] conv2 -> conv2
I0502 12:13:25.619344  3350 net.cpp:122] Setting up conv2
I0502 12:13:25.619385  3350 net.cpp:129] Top shape: 64 50 8 8 (204800)
I0502 12:13:25.619390  3350 net.cpp:137] Memory required for data: 5107968
I0502 12:13:25.619405  3350 layer_factory.hpp:77] Creating layer pool2
I0502 12:13:25.619421  3350 net.cpp:84] Creating Layer pool2
I0502 12:13:25.619426  3350 net.cpp:406] pool2 <- conv2
I0502 12:13:25.619434  3350 net.cpp:380] pool2 -> pool2
I0502 12:13:25.619467  3350 net.cpp:122] Setting up pool2
I0502 12:13:25.619473  3350 net.cpp:129] Top shape: 64 50 4 4 (51200)
I0502 12:13:25.619477  3350 net.cpp:137] Memory required for data: 5312768
I0502 12:13:25.619483  3350 layer_factory.hpp:77] Creating layer ip1
I0502 12:13:25.619491  3350 net.cpp:84] Creating Layer ip1
I0502 12:13:25.619498  3350 net.cpp:406] ip1 <- pool2
I0502 12:13:25.619504  3350 net.cpp:380] ip1 -> ip1
I0502 12:13:25.622073  3350 net.cpp:122] Setting up ip1
I0502 12:13:25.622089  3350 net.cpp:129] Top shape: 64 500 (32000)
I0502 12:13:25.622093  3350 net.cpp:137] Memory required for data: 5440768
I0502 12:13:25.622107  3350 layer_factory.hpp:77] Creating layer relu1
I0502 12:13:25.622115  3350 net.cpp:84] Creating Layer relu1
I0502 12:13:25.622126  3350 net.cpp:406] relu1 <- ip1
I0502 12:13:25.622133  3350 net.cpp:367] relu1 -> ip1 (in-place)
I0502 12:13:25.622144  3350 net.cpp:122] Setting up relu1
I0502 12:13:25.622150  3350 net.cpp:129] Top shape: 64 500 (32000)
I0502 12:13:25.622154  3350 net.cpp:137] Memory required for data: 5568768
I0502 12:13:25.622159  3350 layer_factory.hpp:77] Creating layer ip2
I0502 12:13:25.622166  3350 net.cpp:84] Creating Layer ip2
I0502 12:13:25.622170  3350 net.cpp:406] ip2 <- ip1
I0502 12:13:25.622177  3350 net.cpp:380] ip2 -> ip2
I0502 12:13:25.622364  3350 net.cpp:122] Setting up ip2
I0502 12:13:25.622371  3350 net.cpp:129] Top shape: 64 52 (3328)
I0502 12:13:25.622375  3350 net.cpp:137] Memory required for data: 5582080
I0502 12:13:25.622382  3350 layer_factory.hpp:77] Creating layer loss
I0502 12:13:25.622391  3350 net.cpp:84] Creating Layer loss
I0502 12:13:25.622396  3350 net.cpp:406] loss <- ip2
I0502 12:13:25.622402  3350 net.cpp:406] loss <- label
I0502 12:13:25.622413  3350 net.cpp:380] loss -> loss
I0502 12:13:25.622429  3350 layer_factory.hpp:77] Creating layer loss
…
I0502 12:13:25.622776  3350 solver.cpp:190] Creating test net (#0) specified by net file: models/sp_final_lenet/lenet_train_val.prototxt
I0502 12:13:25.622815  3350 net.cpp:294] The NetState phase (1) differed from the phase (0) specified by a rule in layer data
I0502 12:13:25.622922  3350 net.cpp:51] Initializing net from parameters: 
name: "LeNet"
state {
  phase: TEST
}
layer {
  name: "data"
  type: "Data"
  top: "data"
  top: "label"
  include {
    phase: TEST
  }
  transform_param {
    scale: 0.00390625
  }
  data_param {
    source: "examples/final_sp/sp_val_lmdb"
    batch_size: 64
    backend: LMDB
  }
}
layer {
  name: "conv1"
  type: "Convolution"
  bottom: "data"
  top: "conv1"
  param {
    lr_mult: 1
  }
  param {
    lr_mult: 2
  }
  convolution_param {
    num_output: 20
    kernel_size: 5
    stride: 1
    weight_filler {
      type: "xavier"
    }
    bias_filler {
      type: "constant"
    }
  }
}
layer {
  name: "pool1"
  type: "Pooling"
  bottom: "conv1"
  top: "pool1"
  pooling_param {
    pool: MAX
    kernel_size: 2
    stride: 2
  }
}
layer {
  name: "conv2"
  type: "Convolution"
  bottom: "pool1"
  top: "conv2"
  param {
    lr_mult: 1
  }
  param {
    lr_mult: 2
  }
  convolution_param {
    num_output: 50
    kernel_size: 5
    stride: 1
    weight_filler {
      type: "xavier"
    }
    bias_filler {
      type: "constant"
    }
  }
}
layer {
  name: "pool2"
  type: "Pooling"
  bottom: "conv2"
  top: "pool2"
  pooling_param {
    pool: MAX
    kernel_size: 2
    stride: 2
  }
}
layer {
  name: "ip1"
  type: "InnerProduct"
  bottom: "pool2"
  top: "ip1"
  param {
    lr_mult: 1
  }
  param {
    lr_mult: 2
  }
  inner_product_param {
    num_output: 500
    weight_filler {
      type: "xavier"
    }
    bias_filler {
      type: "constant"
    }
  }
}
layer {
  name: "relu1"
  type: "ReLU"
  bottom: "ip1"
  top: "ip1"
}
layer {
  name: "ip2"
  type: "InnerProduct"
  bottom: "ip1"
  top: "ip2"
  param {
    lr_mult: 1
  }
  param {
    lr_mult: 2
  }
  inner_product_param {
    num_output: 52
    weight_filler {
      type: "xavier"
    }
    bias_filler {
      type: "constant"
    }
  }
}
layer {
  name: "accuracy"
  type: "Accuracy"
  bottom: "ip2"
  bottom: "label"
  top: "accuracy"
  include {
    phase: TEST
  }
}
layer {
  name: "loss"
  type: "SoftmaxWithLoss"
  bottom: "ip2"
  bottom: "label"
  top: "loss"
}
I0502 12:13:25.622990  3350 layer_factory.hpp:77] Creating layer data
I0502 12:13:25.623052  3350 db_lmdb.cpp:35] Opened lmdb examples/final_sp/sp_val_lmdb
I0502 12:13:25.623066  3350 net.cpp:84] Creating Layer data
I0502 12:13:25.623075  3350 net.cpp:380] data -> data
I0502 12:13:25.623095  3350 net.cpp:380] data -> label
I0502 12:13:25.623164  3350 data_layer.cpp:45] output data size: 64,3,28,28
I0502 12:13:25.628495  3350 net.cpp:122] Setting up data
I0502 12:13:25.628520  3350 net.cpp:129] Top shape: 64 3 28 28 (150528)
I0502 12:13:25.628525  3350 net.cpp:129] Top shape: 64 (64)
I0502 12:13:25.628528  3350 net.cpp:137] Memory required for data: 602368
I0502 12:13:25.628536  3350 layer_factory.hpp:77] Creating layer label_data_1_split
I0502 12:13:25.628551  3350 net.cpp:84] Creating Layer label_data_1_split
I0502 12:13:25.628557  3350 net.cpp:406] label_data_1_split <- label
I0502 12:13:25.628566  3350 net.cpp:380] label_data_1_split -> label_data_1_split_0
I0502 12:13:25.628579  3350 net.cpp:380] label_data_1_split -> label_data_1_split_1
I0502 12:13:25.628655  3350 net.cpp:122] Setting up label_data_1_split
I0502 12:13:25.628670  3350 net.cpp:129] Top shape: 64 (64)
I0502 12:13:25.628677  3350 net.cpp:129] Top shape: 64 (64)
I0502 12:13:25.628680  3350 net.cpp:137] Memory required for data: 602880
I0502 12:13:25.628686  3350 layer_factory.hpp:77] Creating layer conv1
I0502 12:13:25.628700  3350 net.cpp:84] Creating Layer conv1
I0502 12:13:25.628705  3350 net.cpp:406] conv1 <- data
I0502 12:13:25.628710  3350 net.cpp:380] conv1 -> conv1
I0502 12:13:25.628916  3350 net.cpp:122] Setting up conv1
I0502 12:13:25.628924  3350 net.cpp:129] Top shape: 64 20 24 24 (737280)
I0502 12:13:25.628928  3350 net.cpp:137] Memory required for data: 3552000
I0502 12:13:25.628938  3350 layer_factory.hpp:77] Creating layer pool1
I0502 12:13:25.628960  3350 net.cpp:84] Creating Layer pool1
I0502 12:13:25.628965  3350 net.cpp:406] pool1 <- conv1
I0502 12:13:25.628970  3350 net.cpp:380] pool1 -> pool1
I0502 12:13:25.629004  3350 net.cpp:122] Setting up pool1
I0502 12:13:25.629010  3350 net.cpp:129] Top shape: 64 20 12 12 (184320)
I0502 12:13:25.629016  3350 net.cpp:137] Memory required for data: 4289280
I0502 12:13:25.629020  3350 layer_factory.hpp:77] Creating layer conv2
I0502 12:13:25.629029  3350 net.cpp:84] Creating Layer conv2
I0502 12:13:25.629034  3350 net.cpp:406] conv2 <- pool1
I0502 12:13:25.629039  3350 net.cpp:380] conv2 -> conv2
I0502 12:13:25.629783  3350 net.cpp:122] Setting up conv2
I0502 12:13:25.629796  3350 net.cpp:129] Top shape: 64 50 8 8 (204800)
I0502 12:13:25.629801  3350 net.cpp:137] Memory required for data: 5108480
I0502 12:13:25.629811  3350 layer_factory.hpp:77] Creating layer pool2
I0502 12:13:25.629817  3350 net.cpp:84] Creating Layer pool2
I0502 12:13:25.629820  3350 net.cpp:406] pool2 <- conv2
I0502 12:13:25.629827  3350 net.cpp:380] pool2 -> pool2
I0502 12:13:25.629860  3350 net.cpp:122] Setting up pool2
I0502 12:13:25.629869  3350 net.cpp:129] Top shape: 64 50 4 4 (51200)
I0502 12:13:25.629873  3350 net.cpp:137] Memory required for data: 5313280
I0502 12:13:25.629878  3350 layer_factory.hpp:77] Creating layer ip1
I0502 12:13:25.629886  3350 net.cpp:84] Creating Layer ip1
I0502 12:13:25.629890  3350 net.cpp:406] ip1 <- pool2
I0502 12:13:25.629904  3350 net.cpp:380] ip1 -> ip1
I0502 12:13:25.633599  3350 net.cpp:122] Setting up ip1
I0502 12:13:25.633617  3350 net.cpp:129] Top shape: 64 500 (32000)
I0502 12:13:25.633621  3350 net.cpp:137] Memory required for data: 5441280
I0502 12:13:25.633635  3350 layer_factory.hpp:77] Creating layer relu1
I0502 12:13:25.633643  3350 net.cpp:84] Creating Layer relu1
I0502 12:13:25.633651  3350 net.cpp:406] relu1 <- ip1
I0502 12:13:25.633658  3350 net.cpp:367] relu1 -> ip1 (in-place)
I0502 12:13:25.633666  3350 net.cpp:122] Setting up relu1
I0502 12:13:25.633671  3350 net.cpp:129] Top shape: 64 500 (32000)
I0502 12:13:25.633673  3350 net.cpp:137] Memory required for data: 5569280
I0502 12:13:25.633677  3350 layer_factory.hpp:77] Creating layer ip2
I0502 12:13:25.633687  3350 net.cpp:84] Creating Layer ip2
I0502 12:13:25.633689  3350 net.cpp:406] ip2 <- ip1
I0502 12:13:25.633695  3350 net.cpp:380] ip2 -> ip2
I0502 12:13:25.633983  3350 net.cpp:122] Setting up ip2
I0502 12:13:25.633991  3350 net.cpp:129] Top shape: 64 52 (3328)
I0502 12:13:25.633994  3350 net.cpp:137] Memory required for data: 5582592
I0502 12:13:25.634001  3350 layer_factory.hpp:77] Creating layer ip2_ip2_0_split
I0502 12:13:25.634008  3350 net.cpp:84] Creating Layer ip2_ip2_0_split
I0502 12:13:25.634011  3350 net.cpp:406] ip2_ip2_0_split <- ip2
I0502 12:13:25.634017  3350 net.cpp:380] ip2_ip2_0_split -> ip2_ip2_0_split_0
I0502 12:13:25.634025  3350 net.cpp:380] ip2_ip2_0_split -> ip2_ip2_0_split_1
I0502 12:13:25.634398  3350 net.cpp:122] Setting up ip2_ip2_0_split
I0502 12:13:25.634407  3350 net.cpp:129] Top shape: 64 52 (3328)
I0502 12:13:25.634410  3350 net.cpp:129] Top shape: 64 52 (3328)
I0502 12:13:25.634414  3350 net.cpp:137] Memory required for data: 5609216
I0502 12:13:25.634418  3350 layer_factory.hpp:77] Creating layer accuracy
I0502 12:13:25.634425  3350 net.cpp:84] Creating Layer accuracy
I0502 12:13:25.634430  3350 net.cpp:406] accuracy <- ip2_ip2_0_split_0
I0502 12:13:25.634435  3350 net.cpp:406] accuracy <- label_data_1_split_0
I0502 12:13:25.634441  3350 net.cpp:380] accuracy -> accuracy
…
