…
I0502 11:47:04.481132  2498 net.cpp:294] The NetState phase (0) differed from the phase (1) specified by a rule in layer data
I0502 11:47:04.481142  2498 net.cpp:294] The NetState phase (0) differed from the phase (1) specified by a rule in layer accuracy
I0502 11:47:04.481207  2498 net.cpp:51] Initializing net from parameters: 
name: "LeNet"
state {
  phase: TRAIN
  level: 0
  stage: ""
}
layer {
  name: "data"
  type: "Data"
  top: "data"
  top: "label"
  include {
    phase: TRAIN
  }
  transform_param {
    scale: 0.00390625
  }
  data_param {
    source: "examples/final_sp/sp_train_lmdb"
    batch_size: 64
    backend: LMDB
  }
}
layer {
  name: "conv1"
  type: "Convolution"
  bottom: "data"
  top: "conv1"
  param {
    lr_mult: 1
  }
  param {
    lr_mult: 2
  }
  convolution_param {
    num_output: 20
    kernel_size: 5
    stride: 1
    weight_filler {
      type: "xavier"
    }
    bias_filler {
      type: "constant"
    }
  }
}
layer {
  name: "pool1"
  type: "Pooling"
  bottom: "conv1"
  top: "pool1"
  pooling_param {
    pool: MAX
    kernel_size: 2
    stride: 2
  }
}
layer {
  name: "conv2"
  type: "Convolution"
  bottom: "pool1"
  top: "conv2"
  param {
    lr_mult: 1
  }
  param {
    lr_mult: 2
  }
  convolution_param {
    num_output: 50
    kernel_size: 5
    stride: 1
    weight_filler {
      type: "xavier"
    }
    bias_filler {
      type: "constant"
    }
  }
}
layer {
  name: "pool2"
  type: "Pooling"
  bottom: "conv2"
  top: "pool2"
  pooling_param {
    pool: MAX
    kernel_size: 2
    stride: 2
  }
}
layer {
  name: "ip1"
  type: "InnerProduct"
  bottom: "pool2"
  top: "ip1"
  param {
    lr_mult: 1
  }
  param {
    lr_mult: 2
  }
  inner_product_param {
    num_output: 500
    weight_filler {
      type: "xavier"
    }
    bias_filler {
      type: "constant"
    }
  }
}
layer {
  name: "relu1"
  type: "ReLU"
  bottom: "ip1"
  top: "ip1"
}
layer {
  name: "ip2"
  type: "InnerProduct"
  bottom: "ip1"
  top: "ip2"
  param {
    lr_mult: 1
  }
  param {
    lr_mult: 2
  }
  inner_product_param {
    num_output: 52
    weight_filler {
      type: "xavier"
    }
    bias_filler {
      type: "constant"
    }
  }
}
layer {
  name: "loss"
  type: "SoftmaxWithLoss"
  bottom: "ip2"
  bottom: "label"
  top: "loss"
}
I0502 11:47:04.481251  2498 layer_factory.hpp:77] Creating layer data
I0502 11:47:04.481339  2498 db_lmdb.cpp:35] Opened lmdb examples/final_sp/sp_train_lmdb
I0502 11:47:04.481359  2498 net.cpp:84] Creating Layer data
I0502 11:47:04.481365  2498 net.cpp:380] data -> data
I0502 11:47:04.481382  2498 net.cpp:380] data -> label
I0502 11:47:04.481914  2498 data_layer.cpp:45] output data size: 64,3,28,28
I0502 11:47:04.485795  2498 net.cpp:122] Setting up data
I0502 11:47:04.485821  2498 net.cpp:129] Top shape: 64 3 28 28 (150528)
I0502 11:47:04.485826  2498 net.cpp:129] Top shape: 64 (64)
I0502 11:47:04.485828  2498 net.cpp:137] Memory required for data: 602368
I0502 11:47:04.485841  2498 layer_factory.hpp:77] Creating layer conv1
I0502 11:47:04.485900  2498 net.cpp:84] Creating Layer conv1
I0502 11:47:04.485910  2498 net.cpp:406] conv1 <- data
I0502 11:47:04.485929  2498 net.cpp:380] conv1 -> conv1
I0502 11:47:04.486862  2498 net.cpp:122] Setting up conv1
I0502 11:47:04.486874  2498 net.cpp:129] Top shape: 64 20 24 24 (737280)
I0502 11:47:04.486877  2498 net.cpp:137] Memory required for data: 3551488
I0502 11:47:04.486891  2498 layer_factory.hpp:77] Creating layer pool1
I0502 11:47:04.486928  2498 net.cpp:84] Creating Layer pool1
I0502 11:47:04.486934  2498 net.cpp:406] pool1 <- conv1
I0502 11:47:04.486941  2498 net.cpp:380] pool1 -> pool1
I0502 11:47:04.486994  2498 net.cpp:122] Setting up pool1
I0502 11:47:04.487000  2498 net.cpp:129] Top shape: 64 20 12 12 (184320)
I0502 11:47:04.487004  2498 net.cpp:137] Memory required for data: 4288768
I0502 11:47:04.487007  2498 layer_factory.hpp:77] Creating layer conv2
I0502 11:47:04.487025  2498 net.cpp:84] Creating Layer conv2
I0502 11:47:04.487031  2498 net.cpp:406] conv2 <- pool1
I0502 11:47:04.487040  2498 net.cpp:380] conv2 -> conv2
I0502 11:47:04.488329  2498 net.cpp:122] Setting up conv2
I0502 11:47:04.488343  2498 net.cpp:129] Top shape: 64 50 8 8 (204800)
I0502 11:47:04.488346  2498 net.cpp:137] Memory required for data: 5107968
I0502 11:47:04.488356  2498 layer_factory.hpp:77] Creating layer pool2
I0502 11:47:04.488368  2498 net.cpp:84] Creating Layer pool2
I0502 11:47:04.488373  2498 net.cpp:406] pool2 <- conv2
I0502 11:47:04.488379  2498 net.cpp:380] pool2 -> pool2
I0502 11:47:04.488415  2498 net.cpp:122] Setting up pool2
I0502 11:47:04.488425  2498 net.cpp:129] Top shape: 64 50 4 4 (51200)
I0502 11:47:04.488427  2498 net.cpp:137] Memory required for data: 5312768
I0502 11:47:04.488431  2498 layer_factory.hpp:77] Creating layer ip1
I0502 11:47:04.488440  2498 net.cpp:84] Creating Layer ip1
I0502 11:47:04.488452  2498 net.cpp:406] ip1 <- pool2
I0502 11:47:04.488462  2498 net.cpp:380] ip1 -> ip1
I0502 11:47:04.491144  2498 net.cpp:122] Setting up ip1
I0502 11:47:04.491164  2498 net.cpp:129] Top shape: 64 500 (32000)
I0502 11:47:04.491168  2498 net.cpp:137] Memory required for data: 5440768
I0502 11:47:04.491183  2498 layer_factory.hpp:77] Creating layer relu1
I0502 11:47:04.491190  2498 net.cpp:84] Creating Layer relu1
I0502 11:47:04.491197  2498 net.cpp:406] relu1 <- ip1
I0502 11:47:04.491206  2498 net.cpp:367] relu1 -> ip1 (in-place)
I0502 11:47:04.491217  2498 net.cpp:122] Setting up relu1
I0502 11:47:04.491225  2498 net.cpp:129] Top shape: 64 500 (32000)
I0502 11:47:04.491228  2498 net.cpp:137] Memory required for data: 5568768
I0502 11:47:04.491232  2498 layer_factory.hpp:77] Creating layer ip2
I0502 11:47:04.491240  2498 net.cpp:84] Creating Layer ip2
I0502 11:47:04.491245  2498 net.cpp:406] ip2 <- ip1
I0502 11:47:04.491250  2498 net.cpp:380] ip2 -> ip2
I0502 11:47:04.491451  2498 net.cpp:122] Setting up ip2
I0502 11:47:04.491458  2498 net.cpp:129] Top shape: 64 52 (3328)
I0502 11:47:04.491461  2498 net.cpp:137] Memory required for data: 5582080
I0502 11:47:04.491467  2498 layer_factory.hpp:77] Creating layer loss
I0502 11:47:04.491477  2498 net.cpp:84] Creating Layer loss
I0502 11:47:04.491493  2498 net.cpp:406] loss <- ip2
I0502 11:47:04.491497  2498 net.cpp:406] loss <- label
I0502 11:47:04.491508  2498 net.cpp:380] loss -> loss
I0502 11:47:04.491524  2498 layer_factory.hpp:77] Creating layer loss
…
I0502 11:47:04.491922  2498 solver.cpp:190] Creating test net (#0) specified by net file: models/sp_final_lenet/lenet_train_val.prototxt
I0502 11:47:04.491964  2498 net.cpp:294] The NetState phase (1) differed from the phase (0) specified by a rule in layer data
I0502 11:47:04.492097  2498 net.cpp:51] Initializing net from parameters: 
name: "LeNet"
state {
  phase: TEST
}
layer {
  name: "data"
  type: "Data"
  top: "data"
  top: "label"
  include {
    phase: TEST
  }
  transform_param {
    scale: 0.00390625
  }
  data_param {
    source: "examples/final_sp/sp_val_lmdb"
    batch_size: 64
    backend: LMDB
  }
}
layer {
  name: "conv1"
  type: "Convolution"
  bottom: "data"
  top: "conv1"
  param {
    lr_mult: 1
  }
  param {
    lr_mult: 2
  }
  convolution_param {
    num_output: 20
    kernel_size: 5
    stride: 1
    weight_filler {
      type: "xavier"
    }
    bias_filler {
      type: "constant"
    }
  }
}
layer {
  name: "pool1"
  type: "Pooling"
  bottom: "conv1"
  top: "pool1"
  pooling_param {
    pool: MAX
    kernel_size: 2
    stride: 2
  }
}
layer {
  name: "conv2"
  type: "Convolution"
  bottom: "pool1"
  top: "conv2"
  param {
    lr_mult: 1
  }
  param {
    lr_mult: 2
  }
  convolution_param {
    num_output: 50
    kernel_size: 5
    stride: 1
    weight_filler {
      type: "xavier"
    }
    bias_filler {
      type: "constant"
    }
  }
}
layer {
  name: "pool2"
  type: "Pooling"
  bottom: "conv2"
  top: "pool2"
  pooling_param {
    pool: MAX
    kernel_size: 2
    stride: 2
  }
}
layer {
  name: "ip1"
  type: "InnerProduct"
  bottom: "pool2"
  top: "ip1"
  param {
    lr_mult: 1
  }
  param {
    lr_mult: 2
  }
  inner_product_param {
    num_output: 500
    weight_filler {
      type: "xavier"
    }
    bias_filler {
      type: "constant"
    }
  }
}
layer {
  name: "relu1"
  type: "ReLU"
  bottom: "ip1"
  top: "ip1"
}
layer {
  name: "ip2"
  type: "InnerProduct"
  bottom: "ip1"
  top: "ip2"
  param {
    lr_mult: 1
  }
  param {
    lr_mult: 2
  }
  inner_product_param {
    num_output: 52
    weight_filler {
      type: "xavier"
    }
    bias_filler {
      type: "constant"
    }
  }
}
layer {
  name: "accuracy"
  type: "Accuracy"
  bottom: "ip2"
  bottom: "label"
  top: "accuracy"
  include {
    phase: TEST
  }
}
layer {
  name: "loss"
  type: "SoftmaxWithLoss"
  bottom: "ip2"
  bottom: "label"
  top: "loss"
}
I0502 11:47:04.492177  2498 layer_factory.hpp:77] Creating layer data
I0502 11:47:04.492239  2498 db_lmdb.cpp:35] Opened lmdb examples/final_sp/sp_val_lmdb
I0502 11:47:04.492254  2498 net.cpp:84] Creating Layer data
I0502 11:47:04.492261  2498 net.cpp:380] data -> data
I0502 11:47:04.492270  2498 net.cpp:380] data -> label
I0502 11:47:04.492456  2498 data_layer.cpp:45] output data size: 64,3,28,28
I0502 11:47:04.497241  2498 net.cpp:122] Setting up data
I0502 11:47:04.497292  2498 net.cpp:129] Top shape: 64 3 28 28 (150528)
I0502 11:47:04.497298  2498 net.cpp:129] Top shape: 64 (64)
I0502 11:47:04.497301  2498 net.cpp:137] Memory required for data: 602368
I0502 11:47:04.497309  2498 layer_factory.hpp:77] Creating layer label_data_1_split
I0502 11:47:04.497324  2498 net.cpp:84] Creating Layer label_data_1_split
I0502 11:47:04.497330  2498 net.cpp:406] label_data_1_split <- label
I0502 11:47:04.497340  2498 net.cpp:380] label_data_1_split -> label_data_1_split_0
I0502 11:47:04.497356  2498 net.cpp:380] label_data_1_split -> label_data_1_split_1
I0502 11:47:04.497416  2498 net.cpp:122] Setting up label_data_1_split
I0502 11:47:04.497422  2498 net.cpp:129] Top shape: 64 (64)
I0502 11:47:04.497427  2498 net.cpp:129] Top shape: 64 (64)
I0502 11:47:04.497433  2498 net.cpp:137] Memory required for data: 602880
I0502 11:47:04.497437  2498 layer_factory.hpp:77] Creating layer conv1
I0502 11:47:04.497452  2498 net.cpp:84] Creating Layer conv1
I0502 11:47:04.497457  2498 net.cpp:406] conv1 <- data
I0502 11:47:04.497467  2498 net.cpp:380] conv1 -> conv1
I0502 11:47:04.497648  2498 net.cpp:122] Setting up conv1
I0502 11:47:04.497656  2498 net.cpp:129] Top shape: 64 20 24 24 (737280)
I0502 11:47:04.497660  2498 net.cpp:137] Memory required for data: 3552000
I0502 11:47:04.497673  2498 layer_factory.hpp:77] Creating layer pool1
I0502 11:47:04.497691  2498 net.cpp:84] Creating Layer pool1
I0502 11:47:04.497696  2498 net.cpp:406] pool1 <- conv1
I0502 11:47:04.497705  2498 net.cpp:380] pool1 -> pool1
I0502 11:47:04.497740  2498 net.cpp:122] Setting up pool1
I0502 11:47:04.497746  2498 net.cpp:129] Top shape: 64 20 12 12 (184320)
I0502 11:47:04.497750  2498 net.cpp:137] Memory required for data: 4289280
I0502 11:47:04.497754  2498 layer_factory.hpp:77] Creating layer conv2
I0502 11:47:04.497769  2498 net.cpp:84] Creating Layer conv2
I0502 11:47:04.497778  2498 net.cpp:406] conv2 <- pool1
I0502 11:47:04.497794  2498 net.cpp:380] conv2 -> conv2
I0502 11:47:04.498101  2498 net.cpp:122] Setting up conv2
I0502 11:47:04.498117  2498 net.cpp:129] Top shape: 64 50 8 8 (204800)
I0502 11:47:04.498122  2498 net.cpp:137] Memory required for data: 5108480
I0502 11:47:04.498133  2498 layer_factory.hpp:77] Creating layer pool2
I0502 11:47:04.498142  2498 net.cpp:84] Creating Layer pool2
I0502 11:47:04.498147  2498 net.cpp:406] pool2 <- conv2
I0502 11:47:04.498155  2498 net.cpp:380] pool2 -> pool2
I0502 11:47:04.498545  2498 net.cpp:122] Setting up pool2
I0502 11:47:04.498554  2498 net.cpp:129] Top shape: 64 50 4 4 (51200)
I0502 11:47:04.498558  2498 net.cpp:137] Memory required for data: 5313280
I0502 11:47:04.498564  2498 layer_factory.hpp:77] Creating layer ip1
I0502 11:47:04.498574  2498 net.cpp:84] Creating Layer ip1
I0502 11:47:04.498579  2498 net.cpp:406] ip1 <- pool2
I0502 11:47:04.498589  2498 net.cpp:380] ip1 -> ip1
I0502 11:47:04.505856  2498 net.cpp:122] Setting up ip1
I0502 11:47:04.505875  2498 net.cpp:129] Top shape: 64 500 (32000)
I0502 11:47:04.505882  2498 net.cpp:137] Memory required for data: 5441280
I0502 11:47:04.505898  2498 layer_factory.hpp:77] Creating layer relu1
I0502 11:47:04.505915  2498 net.cpp:84] Creating Layer relu1
I0502 11:47:04.505921  2498 net.cpp:406] relu1 <- ip1
I0502 11:47:04.505929  2498 net.cpp:367] relu1 -> ip1 (in-place)
I0502 11:47:04.505940  2498 net.cpp:122] Setting up relu1
I0502 11:47:04.505946  2498 net.cpp:129] Top shape: 64 500 (32000)
I0502 11:47:04.505950  2498 net.cpp:137] Memory required for data: 5569280
I0502 11:47:04.505955  2498 layer_factory.hpp:77] Creating layer ip2
I0502 11:47:04.505969  2498 net.cpp:84] Creating Layer ip2
I0502 11:47:04.505975  2498 net.cpp:406] ip2 <- ip1
I0502 11:47:04.505982  2498 net.cpp:380] ip2 -> ip2
I0502 11:47:04.506229  2498 net.cpp:122] Setting up ip2
I0502 11:47:04.506237  2498 net.cpp:129] Top shape: 64 52 (3328)
I0502 11:47:04.506242  2498 net.cpp:137] Memory required for data: 5582592
I0502 11:47:04.506249  2498 layer_factory.hpp:77] Creating layer ip2_ip2_0_split
I0502 11:47:04.506259  2498 net.cpp:84] Creating Layer ip2_ip2_0_split
I0502 11:47:04.506263  2498 net.cpp:406] ip2_ip2_0_split <- ip2
I0502 11:47:04.506273  2498 net.cpp:380] ip2_ip2_0_split -> ip2_ip2_0_split_0
I0502 11:47:04.506283  2498 net.cpp:380] ip2_ip2_0_split -> ip2_ip2_0_split_1
I0502 11:47:04.506327  2498 net.cpp:122] Setting up ip2_ip2_0_split
I0502 11:47:04.506337  2498 net.cpp:129] Top shape: 64 52 (3328)
I0502 11:47:04.506343  2498 net.cpp:129] Top shape: 64 52 (3328)
I0502 11:47:04.506347  2498 net.cpp:137] Memory required for data: 5609216
I0502 11:47:04.506351  2498 layer_factory.hpp:77] Creating layer accuracy
I0502 11:47:04.506359  2498 net.cpp:84] Creating Layer accuracy
I0502 11:47:04.506364  2498 net.cpp:406] accuracy <- ip2_ip2_0_split_0
I0502 11:47:04.506371  2498 net.cpp:406] accuracy <- label_data_1_split_0
I0502 11:47:04.506379  2498 net.cpp:380] accuracy -> accuracy
…
