…
I0502 11:32:39.218904  2267 net.cpp:294] The NetState phase (0) differed from the phase (1) specified by a rule in layer data
I0502 11:32:39.218946  2267 net.cpp:294] The NetState phase (0) differed from the phase (1) specified by a rule in layer accuracy
I0502 11:32:39.219192  2267 net.cpp:51] Initializing net from parameters: 
name: "LeNet"
state {
  phase: TRAIN
  level: 0
  stage: ""
}
layer {
  name: "data"
  type: "Data"
  top: "data"
  top: "label"
  include {
    phase: TRAIN
  }
  transform_param {
    scale: 0.00390625
  }
  data_param {
    source: "examples/final_sp/sp_train_lmdb"
    batch_size: 64
    backend: LMDB
  }
}
layer {
  name: "conv1"
  type: "Convolution"
  bottom: "data"
  top: "conv1"
  param {
    lr_mult: 1
  }
  param {
    lr_mult: 2
  }
  convolution_param {
    num_output: 20
    kernel_size: 5
    stride: 1
    weight_filler {
      type: "xavier"
    }
    bias_filler {
      type: "constant"
    }
  }
}
layer {
  name: "pool1"
  type: "Pooling"
  bottom: "conv1"
  top: "pool1"
  pooling_param {
    pool: MAX
    kernel_size: 2
    stride: 2
  }
}
layer {
  name: "conv2"
  type: "Convolution"
  bottom: "pool1"
  top: "conv2"
  param {
    lr_mult: 1
  }
  param {
    lr_mult: 2
  }
  convolution_param {
    num_output: 50
    kernel_size: 5
    stride: 1
    weight_filler {
      type: "xavier"
    }
    bias_filler {
      type: "constant"
    }
  }
}
layer {
  name: "pool2"
  type: "Pooling"
  bottom: "conv2"
  top: "pool2"
  pooling_param {
    pool: MAX
    kernel_size: 2
    stride: 2
  }
}
layer {
  name: "ip1"
  type: "InnerProduct"
  bottom: "pool2"
  top: "ip1"
  param {
    lr_mult: 1
  }
  param {
    lr_mult: 2
  }
  inner_product_param {
    num_output: 500
    weight_filler {
      type: "xavier"
    }
    bias_filler {
      type: "constant"
    }
  }
}
layer {
  name: "relu1"
  type: "ReLU"
  bottom: "ip1"
  top: "ip1"
}
layer {
  name: "ip2"
  type: "InnerProduct"
  bottom: "ip1"
  top: "ip2"
  param {
    lr_mult: 1
  }
  param {
    lr_mult: 2
  }
  inner_product_param {
    num_output: 52
    weight_filler {
      type: "xavier"
    }
    bias_filler {
      type: "constant"
    }
  }
}
layer {
  name: "loss"
  type: "SoftmaxWithLoss"
  bottom: "ip2"
  bottom: "label"
  top: "loss"
}
I0502 11:32:39.219347  2267 layer_factory.hpp:77] Creating layer data
I0502 11:32:39.319424  2267 db_lmdb.cpp:35] Opened lmdb examples/final_sp/sp_train_lmdb
I0502 11:32:39.326566  2267 net.cpp:84] Creating Layer data
I0502 11:32:39.326666  2267 net.cpp:380] data -> data
I0502 11:32:39.326812  2267 net.cpp:380] data -> label
I0502 11:32:39.328934  2267 data_layer.cpp:45] output data size: 64,3,28,28
I0502 11:32:39.341112  2267 net.cpp:122] Setting up data
I0502 11:32:39.341197  2267 net.cpp:129] Top shape: 64 3 28 28 (150528)
I0502 11:32:39.341228  2267 net.cpp:129] Top shape: 64 (64)
I0502 11:32:39.341244  2267 net.cpp:137] Memory required for data: 602368
I0502 11:32:39.341279  2267 layer_factory.hpp:77] Creating layer conv1
I0502 11:32:39.341375  2267 net.cpp:84] Creating Layer conv1
I0502 11:32:39.341408  2267 net.cpp:406] conv1 <- data
I0502 11:32:39.341470  2267 net.cpp:380] conv1 -> conv1
I0502 11:32:39.345260  2267 net.cpp:122] Setting up conv1
I0502 11:32:39.345336  2267 net.cpp:129] Top shape: 64 20 24 24 (737280)
I0502 11:32:39.345350  2267 net.cpp:137] Memory required for data: 3551488
I0502 11:32:39.345439  2267 layer_factory.hpp:77] Creating layer pool1
I0502 11:32:39.345549  2267 net.cpp:84] Creating Layer pool1
I0502 11:32:39.345644  2267 net.cpp:406] pool1 <- conv1
I0502 11:32:39.345690  2267 net.cpp:380] pool1 -> pool1
I0502 11:32:39.346027  2267 net.cpp:122] Setting up pool1
I0502 11:32:39.346077  2267 net.cpp:129] Top shape: 64 20 12 12 (184320)
I0502 11:32:39.346096  2267 net.cpp:137] Memory required for data: 4288768
I0502 11:32:39.346114  2267 layer_factory.hpp:77] Creating layer conv2
I0502 11:32:39.346164  2267 net.cpp:84] Creating Layer conv2
I0502 11:32:39.346189  2267 net.cpp:406] conv2 <- pool1
I0502 11:32:39.346230  2267 net.cpp:380] conv2 -> conv2
I0502 11:32:39.349989  2267 net.cpp:122] Setting up conv2
I0502 11:32:39.350061  2267 net.cpp:129] Top shape: 64 50 8 8 (204800)
I0502 11:32:39.350082  2267 net.cpp:137] Memory required for data: 5107968
I0502 11:32:39.350131  2267 layer_factory.hpp:77] Creating layer pool2
I0502 11:32:39.350178  2267 net.cpp:84] Creating Layer pool2
I0502 11:32:39.350204  2267 net.cpp:406] pool2 <- conv2
I0502 11:32:39.350236  2267 net.cpp:380] pool2 -> pool2
I0502 11:32:39.350412  2267 net.cpp:122] Setting up pool2
I0502 11:32:39.350447  2267 net.cpp:129] Top shape: 64 50 4 4 (51200)
I0502 11:32:39.350458  2267 net.cpp:137] Memory required for data: 5312768
I0502 11:32:39.350471  2267 layer_factory.hpp:77] Creating layer ip1
I0502 11:32:39.350492  2267 net.cpp:84] Creating Layer ip1
I0502 11:32:39.350504  2267 net.cpp:406] ip1 <- pool2
I0502 11:32:39.350529  2267 net.cpp:380] ip1 -> ip1
I0502 11:32:39.360525  2267 net.cpp:122] Setting up ip1
I0502 11:32:39.360566  2267 net.cpp:129] Top shape: 64 500 (32000)
I0502 11:32:39.360577  2267 net.cpp:137] Memory required for data: 5440768
I0502 11:32:39.360611  2267 layer_factory.hpp:77] Creating layer relu1
I0502 11:32:39.360635  2267 net.cpp:84] Creating Layer relu1
I0502 11:32:39.360680  2267 net.cpp:406] relu1 <- ip1
I0502 11:32:39.360708  2267 net.cpp:367] relu1 -> ip1 (in-place)
I0502 11:32:39.360747  2267 net.cpp:122] Setting up relu1
I0502 11:32:39.360769  2267 net.cpp:129] Top shape: 64 500 (32000)
I0502 11:32:39.360780  2267 net.cpp:137] Memory required for data: 5568768
I0502 11:32:39.360790  2267 layer_factory.hpp:77] Creating layer ip2
I0502 11:32:39.360810  2267 net.cpp:84] Creating Layer ip2
I0502 11:32:39.360821  2267 net.cpp:406] ip2 <- ip1
I0502 11:32:39.360857  2267 net.cpp:380] ip2 -> ip2
I0502 11:32:39.361382  2267 net.cpp:122] Setting up ip2
I0502 11:32:39.361407  2267 net.cpp:129] Top shape: 64 52 (3328)
I0502 11:32:39.361414  2267 net.cpp:137] Memory required for data: 5582080
I0502 11:32:39.361433  2267 layer_factory.hpp:77] Creating layer loss
I0502 11:32:39.361459  2267 net.cpp:84] Creating Layer loss
I0502 11:32:39.361470  2267 net.cpp:406] loss <- ip2
I0502 11:32:39.361485  2267 net.cpp:406] loss <- label
I0502 11:32:39.361511  2267 net.cpp:380] loss -> loss
I0502 11:32:39.361548  2267 layer_factory.hpp:77] Creating layer loss
…
I0502 11:32:39.362352  2267 solver.cpp:190] Creating test net (#0) specified by net file: models/sp_final_lenet/lenet_train_val.prototxt
I0502 11:32:39.362437  2267 net.cpp:294] The NetState phase (1) differed from the phase (0) specified by a rule in layer data
I0502 11:32:39.362634  2267 net.cpp:51] Initializing net from parameters: 
name: "LeNet"
state {
  phase: TEST
}
layer {
  name: "data"
  type: "Data"
  top: "data"
  top: "label"
  include {
    phase: TEST
  }
  transform_param {
    scale: 0.00390625
  }
  data_param {
    source: "examples/final_sp/sp_val_lmdb"
    batch_size: 64
    backend: LMDB
  }
}
layer {
  name: "conv1"
  type: "Convolution"
  bottom: "data"
  top: "conv1"
  param {
    lr_mult: 1
  }
  param {
    lr_mult: 2
  }
  convolution_param {
    num_output: 20
    kernel_size: 5
    stride: 1
    weight_filler {
      type: "xavier"
    }
    bias_filler {
      type: "constant"
    }
  }
}
layer {
  name: "pool1"
  type: "Pooling"
  bottom: "conv1"
  top: "pool1"
  pooling_param {
    pool: MAX
    kernel_size: 2
    stride: 2
  }
}
layer {
  name: "conv2"
  type: "Convolution"
  bottom: "pool1"
  top: "conv2"
  param {
    lr_mult: 1
  }
  param {
    lr_mult: 2
  }
  convolution_param {
    num_output: 50
    kernel_size: 5
    stride: 1
    weight_filler {
      type: "xavier"
    }
    bias_filler {
      type: "constant"
    }
  }
}
layer {
  name: "pool2"
  type: "Pooling"
  bottom: "conv2"
  top: "pool2"
  pooling_param {
    pool: MAX
    kernel_size: 2
    stride: 2
  }
}
layer {
  name: "ip1"
  type: "InnerProduct"
  bottom: "pool2"
  top: "ip1"
  param {
    lr_mult: 1
  }
  param {
    lr_mult: 2
  }
  inner_product_param {
    num_output: 500
    weight_filler {
      type: "xavier"
    }
    bias_filler {
      type: "constant"
    }
  }
}
layer {
  name: "relu1"
  type: "ReLU"
  bottom: "ip1"
  top: "ip1"
}
layer {
  name: "ip2"
  type: "InnerProduct"
  bottom: "ip1"
  top: "ip2"
  param {
    lr_mult: 1
  }
  param {
    lr_mult: 2
  }
  inner_product_param {
    num_output: 52
    weight_filler {
      type: "xavier"
    }
    bias_filler {
      type: "constant"
    }
  }
}
layer {
  name: "accuracy"
  type: "Accuracy"
  bottom: "ip2"
  bottom: "label"
  top: "accuracy"
  include {
    phase: TEST
  }
}
layer {
  name: "loss"
  type: "SoftmaxWithLoss"
  bottom: "ip2"
  bottom: "label"
  top: "loss"
}
I0502 11:32:39.362824  2267 layer_factory.hpp:77] Creating layer data
I0502 11:32:39.447517  2267 db_lmdb.cpp:35] Opened lmdb examples/final_sp/sp_val_lmdb
I0502 11:32:39.458178  2267 net.cpp:84] Creating Layer data
I0502 11:32:39.458297  2267 net.cpp:380] data -> data
I0502 11:32:39.458392  2267 net.cpp:380] data -> label
I0502 11:32:39.459038  2267 data_layer.cpp:45] output data size: 64,3,28,28
I0502 11:32:39.476203  2267 net.cpp:122] Setting up data
I0502 11:32:39.476404  2267 net.cpp:129] Top shape: 64 3 28 28 (150528)
I0502 11:32:39.476505  2267 net.cpp:129] Top shape: 64 (64)
I0502 11:32:39.476583  2267 net.cpp:137] Memory required for data: 602368
I0502 11:32:39.476661  2267 layer_factory.hpp:77] Creating layer label_data_1_split
I0502 11:32:39.476773  2267 net.cpp:84] Creating Layer label_data_1_split
I0502 11:32:39.476882  2267 net.cpp:406] label_data_1_split <- label
I0502 11:32:39.476987  2267 net.cpp:380] label_data_1_split -> label_data_1_split_0
I0502 11:32:39.477100  2267 net.cpp:380] label_data_1_split -> label_data_1_split_1
I0502 11:32:39.477314  2267 net.cpp:122] Setting up label_data_1_split
I0502 11:32:39.477351  2267 net.cpp:129] Top shape: 64 (64)
I0502 11:32:39.477375  2267 net.cpp:129] Top shape: 64 (64)
I0502 11:32:39.477428  2267 net.cpp:137] Memory required for data: 602880
I0502 11:32:39.477449  2267 layer_factory.hpp:77] Creating layer conv1
I0502 11:32:39.477514  2267 net.cpp:84] Creating Layer conv1
I0502 11:32:39.477536  2267 net.cpp:406] conv1 <- data
I0502 11:32:39.477579  2267 net.cpp:380] conv1 -> conv1
I0502 11:32:39.479305  2267 net.cpp:122] Setting up conv1
I0502 11:32:39.479368  2267 net.cpp:129] Top shape: 64 20 24 24 (737280)
I0502 11:32:39.479387  2267 net.cpp:137] Memory required for data: 3552000
I0502 11:32:39.479437  2267 layer_factory.hpp:77] Creating layer pool1
I0502 11:32:39.479540  2267 net.cpp:84] Creating Layer pool1
I0502 11:32:39.479565  2267 net.cpp:406] pool1 <- conv1
I0502 11:32:39.479595  2267 net.cpp:380] pool1 -> pool1
I0502 11:32:39.479787  2267 net.cpp:122] Setting up pool1
I0502 11:32:39.479826  2267 net.cpp:129] Top shape: 64 20 12 12 (184320)
I0502 11:32:39.479840  2267 net.cpp:137] Memory required for data: 4289280
I0502 11:32:39.479851  2267 layer_factory.hpp:77] Creating layer conv2
I0502 11:32:39.479902  2267 net.cpp:84] Creating Layer conv2
I0502 11:32:39.479928  2267 net.cpp:406] conv2 <- pool1
I0502 11:32:39.479969  2267 net.cpp:380] conv2 -> conv2
I0502 11:32:39.481544  2267 net.cpp:122] Setting up conv2
I0502 11:32:39.481590  2267 net.cpp:129] Top shape: 64 50 8 8 (204800)
I0502 11:32:39.481602  2267 net.cpp:137] Memory required for data: 5108480
I0502 11:32:39.481642  2267 layer_factory.hpp:77] Creating layer pool2
I0502 11:32:39.481683  2267 net.cpp:84] Creating Layer pool2
I0502 11:32:39.481703  2267 net.cpp:406] pool2 <- conv2
I0502 11:32:39.481731  2267 net.cpp:380] pool2 -> pool2
I0502 11:32:39.481902  2267 net.cpp:122] Setting up pool2
I0502 11:32:39.481933  2267 net.cpp:129] Top shape: 64 50 4 4 (51200)
I0502 11:32:39.481951  2267 net.cpp:137] Memory required for data: 5313280
I0502 11:32:39.481967  2267 layer_factory.hpp:77] Creating layer ip1
I0502 11:32:39.481998  2267 net.cpp:84] Creating Layer ip1
I0502 11:32:39.482015  2267 net.cpp:406] ip1 <- pool2
I0502 11:32:39.482053  2267 net.cpp:380] ip1 -> ip1
I0502 11:32:39.490309  2267 net.cpp:122] Setting up ip1
I0502 11:32:39.490350  2267 net.cpp:129] Top shape: 64 500 (32000)
I0502 11:32:39.490360  2267 net.cpp:137] Memory required for data: 5441280
I0502 11:32:39.490387  2267 layer_factory.hpp:77] Creating layer relu1
I0502 11:32:39.490417  2267 net.cpp:84] Creating Layer relu1
I0502 11:32:39.490434  2267 net.cpp:406] relu1 <- ip1
I0502 11:32:39.490459  2267 net.cpp:367] relu1 -> ip1 (in-place)
I0502 11:32:39.490484  2267 net.cpp:122] Setting up relu1
I0502 11:32:39.490501  2267 net.cpp:129] Top shape: 64 500 (32000)
I0502 11:32:39.490509  2267 net.cpp:137] Memory required for data: 5569280
I0502 11:32:39.490521  2267 layer_factory.hpp:77] Creating layer ip2
I0502 11:32:39.490556  2267 net.cpp:84] Creating Layer ip2
I0502 11:32:39.490568  2267 net.cpp:406] ip2 <- ip1
I0502 11:32:39.490587  2267 net.cpp:380] ip2 -> ip2
I0502 11:32:39.491242  2267 net.cpp:122] Setting up ip2
I0502 11:32:39.491262  2267 net.cpp:129] Top shape: 64 52 (3328)
I0502 11:32:39.491271  2267 net.cpp:137] Memory required for data: 5582592
I0502 11:32:39.491286  2267 layer_factory.hpp:77] Creating layer ip2_ip2_0_split
I0502 11:32:39.491302  2267 net.cpp:84] Creating Layer ip2_ip2_0_split
I0502 11:32:39.491314  2267 net.cpp:406] ip2_ip2_0_split <- ip2
I0502 11:32:39.491336  2267 net.cpp:380] ip2_ip2_0_split -> ip2_ip2_0_split_0
I0502 11:32:39.491365  2267 net.cpp:380] ip2_ip2_0_split -> ip2_ip2_0_split_1
I0502 11:32:39.491462  2267 net.cpp:122] Setting up ip2_ip2_0_split
I0502 11:32:39.491480  2267 net.cpp:129] Top shape: 64 52 (3328)
I0502 11:32:39.491490  2267 net.cpp:129] Top shape: 64 52 (3328)
I0502 11:32:39.491498  2267 net.cpp:137] Memory required for data: 5609216
I0502 11:32:39.491506  2267 layer_factory.hpp:77] Creating layer accuracy
I0502 11:32:39.491523  2267 net.cpp:84] Creating Layer accuracy
I0502 11:32:39.491540  2267 net.cpp:406] accuracy <- ip2_ip2_0_split_0
I0502 11:32:39.491555  2267 net.cpp:406] accuracy <- label_data_1_split_0
I0502 11:32:39.491575  2267 net.cpp:380] accuracy -> accuracy
…
