…
I0502 12:06:42.797178  2662 net.cpp:294] The NetState phase (0) differed from the phase (1) specified by a rule in layer data
I0502 12:06:42.797194  2662 net.cpp:294] The NetState phase (0) differed from the phase (1) specified by a rule in layer accuracy
I0502 12:06:42.797271  2662 net.cpp:51] Initializing net from parameters: 
name: "LeNet"
state {
  phase: TRAIN
  level: 0
  stage: ""
}
layer {
  name: "data"
  type: "Data"
  top: "data"
  top: "label"
  include {
    phase: TRAIN
  }
  transform_param {
    scale: 0.00390625
  }
  data_param {
    source: "examples/final_sp/sp_train_lmdb"
    batch_size: 64
    backend: LMDB
  }
}
layer {
  name: "conv1"
  type: "Convolution"
  bottom: "data"
  top: "conv1"
  param {
    lr_mult: 1
  }
  param {
    lr_mult: 2
  }
  convolution_param {
    num_output: 20
    kernel_size: 5
    stride: 1
    weight_filler {
      type: "xavier"
    }
    bias_filler {
      type: "constant"
    }
  }
}
layer {
  name: "pool1"
  type: "Pooling"
  bottom: "conv1"
  top: "pool1"
  pooling_param {
    pool: MAX
    kernel_size: 2
    stride: 2
  }
}
layer {
  name: "conv2"
  type: "Convolution"
  bottom: "pool1"
  top: "conv2"
  param {
    lr_mult: 1
  }
  param {
    lr_mult: 2
  }
  convolution_param {
    num_output: 50
    kernel_size: 5
    stride: 1
    weight_filler {
      type: "xavier"
    }
    bias_filler {
      type: "constant"
    }
  }
}
layer {
  name: "pool2"
  type: "Pooling"
  bottom: "conv2"
  top: "pool2"
  pooling_param {
    pool: MAX
    kernel_size: 2
    stride: 2
  }
}
layer {
  name: "ip1"
  type: "InnerProduct"
  bottom: "pool2"
  top: "ip1"
  param {
    lr_mult: 1
  }
  param {
    lr_mult: 2
  }
  inner_product_param {
    num_output: 500
    weight_filler {
      type: "xavier"
    }
    bias_filler {
      type: "constant"
    }
  }
}
layer {
  name: "relu1"
  type: "ReLU"
  bottom: "ip1"
  top: "ip1"
}
layer {
  name: "ip2"
  type: "InnerProduct"
  bottom: "ip1"
  top: "ip2"
  param {
    lr_mult: 1
  }
  param {
    lr_mult: 2
  }
  inner_product_param {
    num_output: 52
    weight_filler {
      type: "xavier"
    }
    bias_filler {
      type: "constant"
    }
  }
}
layer {
  name: "loss"
  type: "SoftmaxWithLoss"
  bottom: "ip2"
  bottom: "label"
  top: "loss"
}
I0502 12:06:42.797327  2662 layer_factory.hpp:77] Creating layer data
I0502 12:06:42.797408  2662 db_lmdb.cpp:35] Opened lmdb examples/final_sp/sp_train_lmdb
I0502 12:06:42.797430  2662 net.cpp:84] Creating Layer data
I0502 12:06:42.797441  2662 net.cpp:380] data -> data
I0502 12:06:42.797461  2662 net.cpp:380] data -> label
I0502 12:06:42.797971  2662 data_layer.cpp:45] output data size: 64,3,28,28
I0502 12:06:42.801879  2662 net.cpp:122] Setting up data
I0502 12:06:42.801908  2662 net.cpp:129] Top shape: 64 3 28 28 (150528)
I0502 12:06:42.801915  2662 net.cpp:129] Top shape: 64 (64)
I0502 12:06:42.801919  2662 net.cpp:137] Memory required for data: 602368
I0502 12:06:42.801930  2662 layer_factory.hpp:77] Creating layer conv1
I0502 12:06:42.801959  2662 net.cpp:84] Creating Layer conv1
I0502 12:06:42.801966  2662 net.cpp:406] conv1 <- data
I0502 12:06:42.801983  2662 net.cpp:380] conv1 -> conv1
I0502 12:06:42.803298  2662 net.cpp:122] Setting up conv1
I0502 12:06:42.803315  2662 net.cpp:129] Top shape: 64 20 24 24 (737280)
I0502 12:06:42.803319  2662 net.cpp:137] Memory required for data: 3551488
I0502 12:06:42.803344  2662 layer_factory.hpp:77] Creating layer pool1
I0502 12:06:42.803375  2662 net.cpp:84] Creating Layer pool1
I0502 12:06:42.803380  2662 net.cpp:406] pool1 <- conv1
I0502 12:06:42.803388  2662 net.cpp:380] pool1 -> pool1
I0502 12:06:42.803782  2662 net.cpp:122] Setting up pool1
I0502 12:06:42.803791  2662 net.cpp:129] Top shape: 64 20 12 12 (184320)
I0502 12:06:42.803792  2662 net.cpp:137] Memory required for data: 4288768
I0502 12:06:42.803797  2662 layer_factory.hpp:77] Creating layer conv2
I0502 12:06:42.803808  2662 net.cpp:84] Creating Layer conv2
I0502 12:06:42.803814  2662 net.cpp:406] conv2 <- pool1
I0502 12:06:42.803822  2662 net.cpp:380] conv2 -> conv2
I0502 12:06:42.804498  2662 net.cpp:122] Setting up conv2
I0502 12:06:42.804508  2662 net.cpp:129] Top shape: 64 50 8 8 (204800)
I0502 12:06:42.804512  2662 net.cpp:137] Memory required for data: 5107968
I0502 12:06:42.804519  2662 layer_factory.hpp:77] Creating layer pool2
I0502 12:06:42.804529  2662 net.cpp:84] Creating Layer pool2
I0502 12:06:42.804534  2662 net.cpp:406] pool2 <- conv2
I0502 12:06:42.804540  2662 net.cpp:380] pool2 -> pool2
I0502 12:06:42.804572  2662 net.cpp:122] Setting up pool2
I0502 12:06:42.804579  2662 net.cpp:129] Top shape: 64 50 4 4 (51200)
I0502 12:06:42.804584  2662 net.cpp:137] Memory required for data: 5312768
I0502 12:06:42.804587  2662 layer_factory.hpp:77] Creating layer ip1
I0502 12:06:42.804596  2662 net.cpp:84] Creating Layer ip1
I0502 12:06:42.804602  2662 net.cpp:406] ip1 <- pool2
I0502 12:06:42.804608  2662 net.cpp:380] ip1 -> ip1
I0502 12:06:42.806819  2662 net.cpp:122] Setting up ip1
I0502 12:06:42.806836  2662 net.cpp:129] Top shape: 64 500 (32000)
I0502 12:06:42.806840  2662 net.cpp:137] Memory required for data: 5440768
I0502 12:06:42.806854  2662 layer_factory.hpp:77] Creating layer relu1
I0502 12:06:42.806864  2662 net.cpp:84] Creating Layer relu1
I0502 12:06:42.806869  2662 net.cpp:406] relu1 <- ip1
I0502 12:06:42.806876  2662 net.cpp:367] relu1 -> ip1 (in-place)
I0502 12:06:42.806886  2662 net.cpp:122] Setting up relu1
I0502 12:06:42.806892  2662 net.cpp:129] Top shape: 64 500 (32000)
I0502 12:06:42.806895  2662 net.cpp:137] Memory required for data: 5568768
I0502 12:06:42.806901  2662 layer_factory.hpp:77] Creating layer ip2
I0502 12:06:42.806910  2662 net.cpp:84] Creating Layer ip2
I0502 12:06:42.806915  2662 net.cpp:406] ip2 <- ip1
I0502 12:06:42.806923  2662 net.cpp:380] ip2 -> ip2
I0502 12:06:42.807119  2662 net.cpp:122] Setting up ip2
I0502 12:06:42.807126  2662 net.cpp:129] Top shape: 64 52 (3328)
I0502 12:06:42.807130  2662 net.cpp:137] Memory required for data: 5582080
I0502 12:06:42.807137  2662 layer_factory.hpp:77] Creating layer loss
I0502 12:06:42.807148  2662 net.cpp:84] Creating Layer loss
I0502 12:06:42.807153  2662 net.cpp:406] loss <- ip2
I0502 12:06:42.807159  2662 net.cpp:406] loss <- label
I0502 12:06:42.807168  2662 net.cpp:380] loss -> loss
I0502 12:06:42.807184  2662 layer_factory.hpp:77] Creating layer loss
…
I0502 12:06:42.807484  2662 solver.cpp:190] Creating test net (#0) specified by net file: models/sp_final_lenet/lenet_train_val.prototxt
I0502 12:06:42.807520  2662 net.cpp:294] The NetState phase (1) differed from the phase (0) specified by a rule in layer data
I0502 12:06:42.807591  2662 net.cpp:51] Initializing net from parameters: 
name: "LeNet"
state {
  phase: TEST
}
layer {
  name: "data"
  type: "Data"
  top: "data"
  top: "label"
  include {
    phase: TEST
  }
  transform_param {
    scale: 0.00390625
  }
  data_param {
    source: "examples/final_sp/sp_val_lmdb"
    batch_size: 64
    backend: LMDB
  }
}
layer {
  name: "conv1"
  type: "Convolution"
  bottom: "data"
  top: "conv1"
  param {
    lr_mult: 1
  }
  param {
    lr_mult: 2
  }
  convolution_param {
    num_output: 20
    kernel_size: 5
    stride: 1
    weight_filler {
      type: "xavier"
    }
    bias_filler {
      type: "constant"
    }
  }
}
layer {
  name: "pool1"
  type: "Pooling"
  bottom: "conv1"
  top: "pool1"
  pooling_param {
    pool: MAX
    kernel_size: 2
    stride: 2
  }
}
layer {
  name: "conv2"
  type: "Convolution"
  bottom: "pool1"
  top: "conv2"
  param {
    lr_mult: 1
  }
  param {
    lr_mult: 2
  }
  convolution_param {
    num_output: 50
    kernel_size: 5
    stride: 1
    weight_filler {
      type: "xavier"
    }
    bias_filler {
      type: "constant"
    }
  }
}
layer {
  name: "pool2"
  type: "Pooling"
  bottom: "conv2"
  top: "pool2"
  pooling_param {
    pool: MAX
    kernel_size: 2
    stride: 2
  }
}
layer {
  name: "ip1"
  type: "InnerProduct"
  bottom: "pool2"
  top: "ip1"
  param {
    lr_mult: 1
  }
  param {
    lr_mult: 2
  }
  inner_product_param {
    num_output: 500
    weight_filler {
      type: "xavier"
    }
    bias_filler {
      type: "constant"
    }
  }
}
layer {
  name: "relu1"
  type: "ReLU"
  bottom: "ip1"
  top: "ip1"
}
layer {
  name: "ip2"
  type: "InnerProduct"
  bottom: "ip1"
  top: "ip2"
  param {
    lr_mult: 1
  }
  param {
    lr_mult: 2
  }
  inner_product_param {
    num_output: 52
    weight_filler {
      type: "xavier"
    }
    bias_filler {
      type: "constant"
    }
  }
}
layer {
  name: "accuracy"
  type: "Accuracy"
  bottom: "ip2"
  bottom: "label"
  top: "accuracy"
  include {
    phase: TEST
  }
}
layer {
  name: "loss"
  type: "SoftmaxWithLoss"
  bottom: "ip2"
  bottom: "label"
  top: "loss"
}
I0502 12:06:42.807693  2662 layer_factory.hpp:77] Creating layer data
I0502 12:06:42.807760  2662 db_lmdb.cpp:35] Opened lmdb examples/final_sp/sp_val_lmdb
I0502 12:06:42.807773  2662 net.cpp:84] Creating Layer data
I0502 12:06:42.807780  2662 net.cpp:380] data -> data
I0502 12:06:42.807791  2662 net.cpp:380] data -> label
I0502 12:06:42.807996  2662 data_layer.cpp:45] output data size: 64,3,28,28
I0502 12:06:42.813071  2662 net.cpp:122] Setting up data
I0502 12:06:42.813097  2662 net.cpp:129] Top shape: 64 3 28 28 (150528)
I0502 12:06:42.813103  2662 net.cpp:129] Top shape: 64 (64)
I0502 12:06:42.813107  2662 net.cpp:137] Memory required for data: 602368
I0502 12:06:42.813113  2662 layer_factory.hpp:77] Creating layer label_data_1_split
I0502 12:06:42.813127  2662 net.cpp:84] Creating Layer label_data_1_split
I0502 12:06:42.813133  2662 net.cpp:406] label_data_1_split <- label
I0502 12:06:42.813141  2662 net.cpp:380] label_data_1_split -> label_data_1_split_0
I0502 12:06:42.813156  2662 net.cpp:380] label_data_1_split -> label_data_1_split_1
I0502 12:06:42.813211  2662 net.cpp:122] Setting up label_data_1_split
I0502 12:06:42.813218  2662 net.cpp:129] Top shape: 64 (64)
I0502 12:06:42.813223  2662 net.cpp:129] Top shape: 64 (64)
I0502 12:06:42.813227  2662 net.cpp:137] Memory required for data: 602880
I0502 12:06:42.813231  2662 layer_factory.hpp:77] Creating layer conv1
I0502 12:06:42.813247  2662 net.cpp:84] Creating Layer conv1
I0502 12:06:42.813252  2662 net.cpp:406] conv1 <- data
I0502 12:06:42.813259  2662 net.cpp:380] conv1 -> conv1
I0502 12:06:42.813454  2662 net.cpp:122] Setting up conv1
I0502 12:06:42.813463  2662 net.cpp:129] Top shape: 64 20 24 24 (737280)
I0502 12:06:42.813467  2662 net.cpp:137] Memory required for data: 3552000
I0502 12:06:42.813480  2662 layer_factory.hpp:77] Creating layer pool1
I0502 12:06:42.813496  2662 net.cpp:84] Creating Layer pool1
I0502 12:06:42.813501  2662 net.cpp:406] pool1 <- conv1
I0502 12:06:42.813508  2662 net.cpp:380] pool1 -> pool1
I0502 12:06:42.813544  2662 net.cpp:122] Setting up pool1
I0502 12:06:42.813551  2662 net.cpp:129] Top shape: 64 20 12 12 (184320)
I0502 12:06:42.813555  2662 net.cpp:137] Memory required for data: 4289280
I0502 12:06:42.813560  2662 layer_factory.hpp:77] Creating layer conv2
I0502 12:06:42.813572  2662 net.cpp:84] Creating Layer conv2
I0502 12:06:42.813576  2662 net.cpp:406] conv2 <- pool1
I0502 12:06:42.813583  2662 net.cpp:380] conv2 -> conv2
I0502 12:06:42.813869  2662 net.cpp:122] Setting up conv2
I0502 12:06:42.813879  2662 net.cpp:129] Top shape: 64 50 8 8 (204800)
I0502 12:06:42.813884  2662 net.cpp:137] Memory required for data: 5108480
I0502 12:06:42.813892  2662 layer_factory.hpp:77] Creating layer pool2
I0502 12:06:42.813899  2662 net.cpp:84] Creating Layer pool2
I0502 12:06:42.813904  2662 net.cpp:406] pool2 <- conv2
I0502 12:06:42.813910  2662 net.cpp:380] pool2 -> pool2
I0502 12:06:42.813944  2662 net.cpp:122] Setting up pool2
I0502 12:06:42.813951  2662 net.cpp:129] Top shape: 64 50 4 4 (51200)
I0502 12:06:42.813954  2662 net.cpp:137] Memory required for data: 5313280
I0502 12:06:42.813958  2662 layer_factory.hpp:77] Creating layer ip1
I0502 12:06:42.813967  2662 net.cpp:84] Creating Layer ip1
I0502 12:06:42.813972  2662 net.cpp:406] ip1 <- pool2
I0502 12:06:42.813978  2662 net.cpp:380] ip1 -> ip1
I0502 12:06:42.816220  2662 net.cpp:122] Setting up ip1
I0502 12:06:42.816236  2662 net.cpp:129] Top shape: 64 500 (32000)
I0502 12:06:42.816241  2662 net.cpp:137] Memory required for data: 5441280
I0502 12:06:42.816259  2662 layer_factory.hpp:77] Creating layer relu1
I0502 12:06:42.816268  2662 net.cpp:84] Creating Layer relu1
I0502 12:06:42.816273  2662 net.cpp:406] relu1 <- ip1
I0502 12:06:42.816283  2662 net.cpp:367] relu1 -> ip1 (in-place)
I0502 12:06:42.816293  2662 net.cpp:122] Setting up relu1
I0502 12:06:42.816298  2662 net.cpp:129] Top shape: 64 500 (32000)
I0502 12:06:42.816305  2662 net.cpp:137] Memory required for data: 5569280
I0502 12:06:42.816309  2662 layer_factory.hpp:77] Creating layer ip2
I0502 12:06:42.816319  2662 net.cpp:84] Creating Layer ip2
I0502 12:06:42.816323  2662 net.cpp:406] ip2 <- ip1
I0502 12:06:42.816331  2662 net.cpp:380] ip2 -> ip2
I0502 12:06:42.816542  2662 net.cpp:122] Setting up ip2
I0502 12:06:42.816550  2662 net.cpp:129] Top shape: 64 52 (3328)
I0502 12:06:42.816555  2662 net.cpp:137] Memory required for data: 5582592
I0502 12:06:42.816562  2662 layer_factory.hpp:77] Creating layer ip2_ip2_0_split
I0502 12:06:42.816571  2662 net.cpp:84] Creating Layer ip2_ip2_0_split
I0502 12:06:42.816576  2662 net.cpp:406] ip2_ip2_0_split <- ip2
I0502 12:06:42.816582  2662 net.cpp:380] ip2_ip2_0_split -> ip2_ip2_0_split_0
I0502 12:06:42.816596  2662 net.cpp:380] ip2_ip2_0_split -> ip2_ip2_0_split_1
I0502 12:06:42.816632  2662 net.cpp:122] Setting up ip2_ip2_0_split
I0502 12:06:42.816639  2662 net.cpp:129] Top shape: 64 52 (3328)
I0502 12:06:42.816644  2662 net.cpp:129] Top shape: 64 52 (3328)
I0502 12:06:42.816648  2662 net.cpp:137] Memory required for data: 5609216
I0502 12:06:42.816658  2662 layer_factory.hpp:77] Creating layer accuracy
I0502 12:06:42.816668  2662 net.cpp:84] Creating Layer accuracy
I0502 12:06:42.816673  2662 net.cpp:406] accuracy <- ip2_ip2_0_split_0
I0502 12:06:42.816679  2662 net.cpp:406] accuracy <- label_data_1_split_0
I0502 12:06:42.816685  2662 net.cpp:380] accuracy -> accuracy
…
