…
I0502 12:19:57.556613  3509 net.cpp:294] The NetState phase (0) differed from the phase (1) specified by a rule in layer data
I0502 12:19:57.556625  3509 net.cpp:294] The NetState phase (0) differed from the phase (1) specified by a rule in layer accuracy
I0502 12:19:57.556699  3509 net.cpp:51] Initializing net from parameters: 
name: "LeNet"
state {
  phase: TRAIN
  level: 0
  stage: ""
}
layer {
  name: "data"
  type: "Data"
  top: "data"
  top: "label"
  include {
    phase: TRAIN
  }
  transform_param {
    scale: 0.00390625
  }
  data_param {
    source: "examples/final_sp/sp_train_lmdb"
    batch_size: 64
    backend: LMDB
  }
}
layer {
  name: "conv1"
  type: "Convolution"
  bottom: "data"
  top: "conv1"
  param {
    lr_mult: 1
  }
  param {
    lr_mult: 2
  }
  convolution_param {
    num_output: 20
    kernel_size: 5
    stride: 1
    weight_filler {
      type: "xavier"
    }
    bias_filler {
      type: "constant"
    }
  }
}
layer {
  name: "pool1"
  type: "Pooling"
  bottom: "conv1"
  top: "pool1"
  pooling_param {
    pool: MAX
    kernel_size: 2
    stride: 2
  }
}
layer {
  name: "conv2"
  type: "Convolution"
  bottom: "pool1"
  top: "conv2"
  param {
    lr_mult: 1
  }
  param {
    lr_mult: 2
  }
  convolution_param {
    num_output: 50
    kernel_size: 5
    stride: 1
    weight_filler {
      type: "xavier"
    }
    bias_filler {
      type: "constant"
    }
  }
}
layer {
  name: "pool2"
  type: "Pooling"
  bottom: "conv2"
  top: "pool2"
  pooling_param {
    pool: MAX
    kernel_size: 2
    stride: 2
  }
}
layer {
  name: "ip1"
  type: "InnerProduct"
  bottom: "pool2"
  top: "ip1"
  param {
    lr_mult: 1
  }
  param {
    lr_mult: 2
  }
  inner_product_param {
    num_output: 500
    weight_filler {
      type: "xavier"
    }
    bias_filler {
      type: "constant"
    }
  }
}
layer {
  name: "relu1"
  type: "ReLU"
  bottom: "ip1"
  top: "ip1"
}
layer {
  name: "ip2"
  type: "InnerProduct"
  bottom: "ip1"
  top: "ip2"
  param {
    lr_mult: 1
  }
  param {
    lr_mult: 2
  }
  inner_product_param {
    num_output: 52
    weight_filler {
      type: "xavier"
    }
    bias_filler {
      type: "constant"
    }
  }
}
layer {
  name: "loss"
  type: "SoftmaxWithLoss"
  bottom: "ip2"
  bottom: "label"
  top: "loss"
}
I0502 12:19:57.556742  3509 layer_factory.hpp:77] Creating layer data
I0502 12:19:57.556869  3509 db_lmdb.cpp:35] Opened lmdb examples/final_sp/sp_train_lmdb
I0502 12:19:57.556890  3509 net.cpp:84] Creating Layer data
I0502 12:19:57.556897  3509 net.cpp:380] data -> data
I0502 12:19:57.556917  3509 net.cpp:380] data -> label
I0502 12:19:57.557420  3509 data_layer.cpp:45] output data size: 64,3,28,28
I0502 12:19:57.561285  3509 net.cpp:122] Setting up data
I0502 12:19:57.561317  3509 net.cpp:129] Top shape: 64 3 28 28 (150528)
I0502 12:19:57.561323  3509 net.cpp:129] Top shape: 64 (64)
I0502 12:19:57.561327  3509 net.cpp:137] Memory required for data: 602368
I0502 12:19:57.561338  3509 layer_factory.hpp:77] Creating layer conv1
I0502 12:19:57.561370  3509 net.cpp:84] Creating Layer conv1
I0502 12:19:57.561378  3509 net.cpp:406] conv1 <- data
I0502 12:19:57.561393  3509 net.cpp:380] conv1 -> conv1
I0502 12:19:57.562873  3509 net.cpp:122] Setting up conv1
I0502 12:19:57.562887  3509 net.cpp:129] Top shape: 64 20 24 24 (737280)
I0502 12:19:57.562891  3509 net.cpp:137] Memory required for data: 3551488
I0502 12:19:57.562919  3509 layer_factory.hpp:77] Creating layer pool1
I0502 12:19:57.562949  3509 net.cpp:84] Creating Layer pool1
I0502 12:19:57.562954  3509 net.cpp:406] pool1 <- conv1
I0502 12:19:57.562961  3509 net.cpp:380] pool1 -> pool1
I0502 12:19:57.563042  3509 net.cpp:122] Setting up pool1
I0502 12:19:57.563050  3509 net.cpp:129] Top shape: 64 20 12 12 (184320)
I0502 12:19:57.563053  3509 net.cpp:137] Memory required for data: 4288768
I0502 12:19:57.563057  3509 layer_factory.hpp:77] Creating layer conv2
I0502 12:19:57.563069  3509 net.cpp:84] Creating Layer conv2
I0502 12:19:57.563074  3509 net.cpp:406] conv2 <- pool1
I0502 12:19:57.563082  3509 net.cpp:380] conv2 -> conv2
I0502 12:19:57.563724  3509 net.cpp:122] Setting up conv2
I0502 12:19:57.563735  3509 net.cpp:129] Top shape: 64 50 8 8 (204800)
I0502 12:19:57.563738  3509 net.cpp:137] Memory required for data: 5107968
I0502 12:19:57.563748  3509 layer_factory.hpp:77] Creating layer pool2
I0502 12:19:57.563760  3509 net.cpp:84] Creating Layer pool2
I0502 12:19:57.563765  3509 net.cpp:406] pool2 <- conv2
I0502 12:19:57.563771  3509 net.cpp:380] pool2 -> pool2
I0502 12:19:57.563802  3509 net.cpp:122] Setting up pool2
I0502 12:19:57.563808  3509 net.cpp:129] Top shape: 64 50 4 4 (51200)
I0502 12:19:57.563812  3509 net.cpp:137] Memory required for data: 5312768
I0502 12:19:57.563815  3509 layer_factory.hpp:77] Creating layer ip1
I0502 12:19:57.563823  3509 net.cpp:84] Creating Layer ip1
I0502 12:19:57.563828  3509 net.cpp:406] ip1 <- pool2
I0502 12:19:57.563835  3509 net.cpp:380] ip1 -> ip1
I0502 12:19:57.566057  3509 net.cpp:122] Setting up ip1
I0502 12:19:57.566073  3509 net.cpp:129] Top shape: 64 500 (32000)
I0502 12:19:57.566076  3509 net.cpp:137] Memory required for data: 5440768
I0502 12:19:57.566092  3509 layer_factory.hpp:77] Creating layer relu1
I0502 12:19:57.566099  3509 net.cpp:84] Creating Layer relu1
I0502 12:19:57.566104  3509 net.cpp:406] relu1 <- ip1
I0502 12:19:57.566112  3509 net.cpp:367] relu1 -> ip1 (in-place)
I0502 12:19:57.566123  3509 net.cpp:122] Setting up relu1
I0502 12:19:57.566133  3509 net.cpp:129] Top shape: 64 500 (32000)
I0502 12:19:57.566136  3509 net.cpp:137] Memory required for data: 5568768
I0502 12:19:57.566140  3509 layer_factory.hpp:77] Creating layer ip2
I0502 12:19:57.566150  3509 net.cpp:84] Creating Layer ip2
I0502 12:19:57.566155  3509 net.cpp:406] ip2 <- ip1
I0502 12:19:57.566165  3509 net.cpp:380] ip2 -> ip2
I0502 12:19:57.566359  3509 net.cpp:122] Setting up ip2
I0502 12:19:57.566365  3509 net.cpp:129] Top shape: 64 52 (3328)
I0502 12:19:57.566367  3509 net.cpp:137] Memory required for data: 5582080
I0502 12:19:57.566372  3509 layer_factory.hpp:77] Creating layer loss
I0502 12:19:57.566383  3509 net.cpp:84] Creating Layer loss
I0502 12:19:57.566387  3509 net.cpp:406] loss <- ip2
I0502 12:19:57.566393  3509 net.cpp:406] loss <- label
I0502 12:19:57.566401  3509 net.cpp:380] loss -> loss
I0502 12:19:57.566418  3509 layer_factory.hpp:77] Creating layer loss
…
I0502 12:19:57.566774  3509 solver.cpp:190] Creating test net (#0) specified by net file: models/sp_final_lenet/lenet_train_val.prototxt
I0502 12:19:57.566812  3509 net.cpp:294] The NetState phase (1) differed from the phase (0) specified by a rule in layer data
I0502 12:19:57.566881  3509 net.cpp:51] Initializing net from parameters: 
name: "LeNet"
state {
  phase: TEST
}
layer {
  name: "data"
  type: "Data"
  top: "data"
  top: "label"
  include {
    phase: TEST
  }
  transform_param {
    scale: 0.00390625
  }
  data_param {
    source: "examples/final_sp/sp_val_lmdb"
    batch_size: 64
    backend: LMDB
  }
}
layer {
  name: "conv1"
  type: "Convolution"
  bottom: "data"
  top: "conv1"
  param {
    lr_mult: 1
  }
  param {
    lr_mult: 2
  }
  convolution_param {
    num_output: 20
    kernel_size: 5
    stride: 1
    weight_filler {
      type: "xavier"
    }
    bias_filler {
      type: "constant"
    }
  }
}
layer {
  name: "pool1"
  type: "Pooling"
  bottom: "conv1"
  top: "pool1"
  pooling_param {
    pool: MAX
    kernel_size: 2
    stride: 2
  }
}
layer {
  name: "conv2"
  type: "Convolution"
  bottom: "pool1"
  top: "conv2"
  param {
    lr_mult: 1
  }
  param {
    lr_mult: 2
  }
  convolution_param {
    num_output: 50
    kernel_size: 5
    stride: 1
    weight_filler {
      type: "xavier"
    }
    bias_filler {
      type: "constant"
    }
  }
}
layer {
  name: "pool2"
  type: "Pooling"
  bottom: "conv2"
  top: "pool2"
  pooling_param {
    pool: MAX
    kernel_size: 2
    stride: 2
  }
}
layer {
  name: "ip1"
  type: "InnerProduct"
  bottom: "pool2"
  top: "ip1"
  param {
    lr_mult: 1
  }
  param {
    lr_mult: 2
  }
  inner_product_param {
    num_output: 500
    weight_filler {
      type: "xavier"
    }
    bias_filler {
      type: "constant"
    }
  }
}
layer {
  name: "relu1"
  type: "ReLU"
  bottom: "ip1"
  top: "ip1"
}
layer {
  name: "ip2"
  type: "InnerProduct"
  bottom: "ip1"
  top: "ip2"
  param {
    lr_mult: 1
  }
  param {
    lr_mult: 2
  }
  inner_product_param {
    num_output: 52
    weight_filler {
      type: "xavier"
    }
    bias_filler {
      type: "constant"
    }
  }
}
layer {
  name: "accuracy"
  type: "Accuracy"
  bottom: "ip2"
  bottom: "label"
  top: "accuracy"
  include {
    phase: TEST
  }
}
layer {
  name: "loss"
  type: "SoftmaxWithLoss"
  bottom: "ip2"
  bottom: "label"
  top: "loss"
}
I0502 12:19:57.566956  3509 layer_factory.hpp:77] Creating layer data
I0502 12:19:57.567009  3509 db_lmdb.cpp:35] Opened lmdb examples/final_sp/sp_val_lmdb
I0502 12:19:57.567023  3509 net.cpp:84] Creating Layer data
I0502 12:19:57.567032  3509 net.cpp:380] data -> data
I0502 12:19:57.567042  3509 net.cpp:380] data -> label
I0502 12:19:57.567229  3509 data_layer.cpp:45] output data size: 64,3,28,28
I0502 12:19:57.572173  3509 net.cpp:122] Setting up data
I0502 12:19:57.572202  3509 net.cpp:129] Top shape: 64 3 28 28 (150528)
I0502 12:19:57.572208  3509 net.cpp:129] Top shape: 64 (64)
I0502 12:19:57.572212  3509 net.cpp:137] Memory required for data: 602368
I0502 12:19:57.572219  3509 layer_factory.hpp:77] Creating layer label_data_1_split
I0502 12:19:57.572233  3509 net.cpp:84] Creating Layer label_data_1_split
I0502 12:19:57.572238  3509 net.cpp:406] label_data_1_split <- label
I0502 12:19:57.572247  3509 net.cpp:380] label_data_1_split -> label_data_1_split_0
I0502 12:19:57.572273  3509 net.cpp:380] label_data_1_split -> label_data_1_split_1
I0502 12:19:57.572317  3509 net.cpp:122] Setting up label_data_1_split
I0502 12:19:57.572324  3509 net.cpp:129] Top shape: 64 (64)
I0502 12:19:57.572329  3509 net.cpp:129] Top shape: 64 (64)
I0502 12:19:57.572332  3509 net.cpp:137] Memory required for data: 602880
I0502 12:19:57.572336  3509 layer_factory.hpp:77] Creating layer conv1
I0502 12:19:57.572350  3509 net.cpp:84] Creating Layer conv1
I0502 12:19:57.572355  3509 net.cpp:406] conv1 <- data
I0502 12:19:57.572363  3509 net.cpp:380] conv1 -> conv1
I0502 12:19:57.572587  3509 net.cpp:122] Setting up conv1
I0502 12:19:57.572597  3509 net.cpp:129] Top shape: 64 20 24 24 (737280)
I0502 12:19:57.572600  3509 net.cpp:137] Memory required for data: 3552000
I0502 12:19:57.572631  3509 layer_factory.hpp:77] Creating layer pool1
I0502 12:19:57.572651  3509 net.cpp:84] Creating Layer pool1
I0502 12:19:57.572656  3509 net.cpp:406] pool1 <- conv1
I0502 12:19:57.572662  3509 net.cpp:380] pool1 -> pool1
I0502 12:19:57.572696  3509 net.cpp:122] Setting up pool1
I0502 12:19:57.572702  3509 net.cpp:129] Top shape: 64 20 12 12 (184320)
I0502 12:19:57.572705  3509 net.cpp:137] Memory required for data: 4289280
I0502 12:19:57.572710  3509 layer_factory.hpp:77] Creating layer conv2
I0502 12:19:57.572721  3509 net.cpp:84] Creating Layer conv2
I0502 12:19:57.572726  3509 net.cpp:406] conv2 <- pool1
I0502 12:19:57.572733  3509 net.cpp:380] conv2 -> conv2
I0502 12:19:57.573350  3509 net.cpp:122] Setting up conv2
I0502 12:19:57.573359  3509 net.cpp:129] Top shape: 64 50 8 8 (204800)
I0502 12:19:57.573362  3509 net.cpp:137] Memory required for data: 5108480
I0502 12:19:57.573374  3509 layer_factory.hpp:77] Creating layer pool2
I0502 12:19:57.573381  3509 net.cpp:84] Creating Layer pool2
I0502 12:19:57.573385  3509 net.cpp:406] pool2 <- conv2
I0502 12:19:57.573391  3509 net.cpp:380] pool2 -> pool2
I0502 12:19:57.573428  3509 net.cpp:122] Setting up pool2
I0502 12:19:57.573434  3509 net.cpp:129] Top shape: 64 50 4 4 (51200)
I0502 12:19:57.573437  3509 net.cpp:137] Memory required for data: 5313280
I0502 12:19:57.573443  3509 layer_factory.hpp:77] Creating layer ip1
I0502 12:19:57.573452  3509 net.cpp:84] Creating Layer ip1
I0502 12:19:57.573459  3509 net.cpp:406] ip1 <- pool2
I0502 12:19:57.573467  3509 net.cpp:380] ip1 -> ip1
I0502 12:19:57.576025  3509 net.cpp:122] Setting up ip1
I0502 12:19:57.576040  3509 net.cpp:129] Top shape: 64 500 (32000)
I0502 12:19:57.576042  3509 net.cpp:137] Memory required for data: 5441280
I0502 12:19:57.576056  3509 layer_factory.hpp:77] Creating layer relu1
I0502 12:19:57.576064  3509 net.cpp:84] Creating Layer relu1
I0502 12:19:57.576071  3509 net.cpp:406] relu1 <- ip1
I0502 12:19:57.576079  3509 net.cpp:367] relu1 -> ip1 (in-place)
I0502 12:19:57.576114  3509 net.cpp:122] Setting up relu1
I0502 12:19:57.576124  3509 net.cpp:129] Top shape: 64 500 (32000)
I0502 12:19:57.576130  3509 net.cpp:137] Memory required for data: 5569280
I0502 12:19:57.576138  3509 layer_factory.hpp:77] Creating layer ip2
I0502 12:19:57.576151  3509 net.cpp:84] Creating Layer ip2
I0502 12:19:57.576169  3509 net.cpp:406] ip2 <- ip1
I0502 12:19:57.576179  3509 net.cpp:380] ip2 -> ip2
I0502 12:19:57.576382  3509 net.cpp:122] Setting up ip2
I0502 12:19:57.576391  3509 net.cpp:129] Top shape: 64 52 (3328)
I0502 12:19:57.576396  3509 net.cpp:137] Memory required for data: 5582592
I0502 12:19:57.576403  3509 layer_factory.hpp:77] Creating layer ip2_ip2_0_split
I0502 12:19:57.576416  3509 net.cpp:84] Creating Layer ip2_ip2_0_split
I0502 12:19:57.576421  3509 net.cpp:406] ip2_ip2_0_split <- ip2
I0502 12:19:57.576427  3509 net.cpp:380] ip2_ip2_0_split -> ip2_ip2_0_split_0
I0502 12:19:57.576438  3509 net.cpp:380] ip2_ip2_0_split -> ip2_ip2_0_split_1
I0502 12:19:57.576473  3509 net.cpp:122] Setting up ip2_ip2_0_split
I0502 12:19:57.576479  3509 net.cpp:129] Top shape: 64 52 (3328)
I0502 12:19:57.576501  3509 net.cpp:129] Top shape: 64 52 (3328)
I0502 12:19:57.576505  3509 net.cpp:137] Memory required for data: 5609216
I0502 12:19:57.576509  3509 layer_factory.hpp:77] Creating layer accuracy
I0502 12:19:57.576520  3509 net.cpp:84] Creating Layer accuracy
I0502 12:19:57.576527  3509 net.cpp:406] accuracy <- ip2_ip2_0_split_0
I0502 12:19:57.576534  3509 net.cpp:406] accuracy <- label_data_1_split_0
I0502 12:19:57.576540  3509 net.cpp:380] accuracy -> accuracy
…
