…
I0502 11:53:51.138419  2549 net.cpp:294] The NetState phase (0) differed from the phase (1) specified by a rule in layer data
I0502 11:53:51.138430  2549 net.cpp:294] The NetState phase (0) differed from the phase (1) specified by a rule in layer accuracy
I0502 11:53:51.138505  2549 net.cpp:51] Initializing net from parameters: 
name: "LeNet"
state {
  phase: TRAIN
  level: 0
  stage: ""
}
layer {
  name: "data"
  type: "Data"
  top: "data"
  top: "label"
  include {
    phase: TRAIN
  }
  transform_param {
    scale: 0.00390625
  }
  data_param {
    source: "examples/final_sp/sp_train_lmdb"
    batch_size: 64
    backend: LMDB
  }
}
layer {
  name: "conv1"
  type: "Convolution"
  bottom: "data"
  top: "conv1"
  param {
    lr_mult: 1
  }
  param {
    lr_mult: 2
  }
  convolution_param {
    num_output: 20
    kernel_size: 5
    stride: 1
    weight_filler {
      type: "xavier"
    }
    bias_filler {
      type: "constant"
    }
  }
}
layer {
  name: "pool1"
  type: "Pooling"
  bottom: "conv1"
  top: "pool1"
  pooling_param {
    pool: MAX
    kernel_size: 2
    stride: 2
  }
}
layer {
  name: "conv2"
  type: "Convolution"
  bottom: "pool1"
  top: "conv2"
  param {
    lr_mult: 1
  }
  param {
    lr_mult: 2
  }
  convolution_param {
    num_output: 50
    kernel_size: 5
    stride: 1
    weight_filler {
      type: "xavier"
    }
    bias_filler {
      type: "constant"
    }
  }
}
layer {
  name: "pool2"
  type: "Pooling"
  bottom: "conv2"
  top: "pool2"
  pooling_param {
    pool: MAX
    kernel_size: 2
    stride: 2
  }
}
layer {
  name: "ip1"
  type: "InnerProduct"
  bottom: "pool2"
  top: "ip1"
  param {
    lr_mult: 1
  }
  param {
    lr_mult: 2
  }
  inner_product_param {
    num_output: 500
    weight_filler {
      type: "xavier"
    }
    bias_filler {
      type: "constant"
    }
  }
}
layer {
  name: "relu1"
  type: "ReLU"
  bottom: "ip1"
  top: "ip1"
}
layer {
  name: "ip2"
  type: "InnerProduct"
  bottom: "ip1"
  top: "ip2"
  param {
    lr_mult: 1
  }
  param {
    lr_mult: 2
  }
  inner_product_param {
    num_output: 52
    weight_filler {
      type: "xavier"
    }
    bias_filler {
      type: "constant"
    }
  }
}
layer {
  name: "loss"
  type: "SoftmaxWithLoss"
  bottom: "ip2"
  bottom: "label"
  top: "loss"
}
I0502 11:53:51.138552  2549 layer_factory.hpp:77] Creating layer data
I0502 11:53:51.138648  2549 db_lmdb.cpp:35] Opened lmdb examples/final_sp/sp_train_lmdb
I0502 11:53:51.138667  2549 net.cpp:84] Creating Layer data
I0502 11:53:51.138674  2549 net.cpp:380] data -> data
I0502 11:53:51.138692  2549 net.cpp:380] data -> label
I0502 11:53:51.139210  2549 data_layer.cpp:45] output data size: 64,3,28,28
I0502 11:53:51.143113  2549 net.cpp:122] Setting up data
I0502 11:53:51.143142  2549 net.cpp:129] Top shape: 64 3 28 28 (150528)
I0502 11:53:51.143148  2549 net.cpp:129] Top shape: 64 (64)
I0502 11:53:51.143152  2549 net.cpp:137] Memory required for data: 602368
I0502 11:53:51.143164  2549 layer_factory.hpp:77] Creating layer conv1
I0502 11:53:51.143198  2549 net.cpp:84] Creating Layer conv1
I0502 11:53:51.143208  2549 net.cpp:406] conv1 <- data
I0502 11:53:51.143224  2549 net.cpp:380] conv1 -> conv1
I0502 11:53:51.144162  2549 net.cpp:122] Setting up conv1
I0502 11:53:51.144176  2549 net.cpp:129] Top shape: 64 20 24 24 (737280)
I0502 11:53:51.144181  2549 net.cpp:137] Memory required for data: 3551488
I0502 11:53:51.144204  2549 layer_factory.hpp:77] Creating layer pool1
I0502 11:53:51.144229  2549 net.cpp:84] Creating Layer pool1
I0502 11:53:51.144234  2549 net.cpp:406] pool1 <- conv1
I0502 11:53:51.144244  2549 net.cpp:380] pool1 -> pool1
I0502 11:53:51.144289  2549 net.cpp:122] Setting up pool1
I0502 11:53:51.144297  2549 net.cpp:129] Top shape: 64 20 12 12 (184320)
I0502 11:53:51.144301  2549 net.cpp:137] Memory required for data: 4288768
I0502 11:53:51.144305  2549 layer_factory.hpp:77] Creating layer conv2
I0502 11:53:51.144316  2549 net.cpp:84] Creating Layer conv2
I0502 11:53:51.144321  2549 net.cpp:406] conv2 <- pool1
I0502 11:53:51.144332  2549 net.cpp:380] conv2 -> conv2
I0502 11:53:51.145375  2549 net.cpp:122] Setting up conv2
I0502 11:53:51.145390  2549 net.cpp:129] Top shape: 64 50 8 8 (204800)
I0502 11:53:51.145395  2549 net.cpp:137] Memory required for data: 5107968
I0502 11:53:51.145404  2549 layer_factory.hpp:77] Creating layer pool2
I0502 11:53:51.145414  2549 net.cpp:84] Creating Layer pool2
I0502 11:53:51.145421  2549 net.cpp:406] pool2 <- conv2
I0502 11:53:51.145426  2549 net.cpp:380] pool2 -> pool2
I0502 11:53:51.145455  2549 net.cpp:122] Setting up pool2
I0502 11:53:51.145460  2549 net.cpp:129] Top shape: 64 50 4 4 (51200)
I0502 11:53:51.145463  2549 net.cpp:137] Memory required for data: 5312768
I0502 11:53:51.145467  2549 layer_factory.hpp:77] Creating layer ip1
I0502 11:53:51.145473  2549 net.cpp:84] Creating Layer ip1
I0502 11:53:51.145476  2549 net.cpp:406] ip1 <- pool2
I0502 11:53:51.145480  2549 net.cpp:380] ip1 -> ip1
I0502 11:53:51.149068  2549 net.cpp:122] Setting up ip1
I0502 11:53:51.149085  2549 net.cpp:129] Top shape: 64 500 (32000)
I0502 11:53:51.149089  2549 net.cpp:137] Memory required for data: 5440768
I0502 11:53:51.149101  2549 layer_factory.hpp:77] Creating layer relu1
I0502 11:53:51.149111  2549 net.cpp:84] Creating Layer relu1
I0502 11:53:51.149116  2549 net.cpp:406] relu1 <- ip1
I0502 11:53:51.149122  2549 net.cpp:367] relu1 -> ip1 (in-place)
I0502 11:53:51.149132  2549 net.cpp:122] Setting up relu1
I0502 11:53:51.149137  2549 net.cpp:129] Top shape: 64 500 (32000)
I0502 11:53:51.149140  2549 net.cpp:137] Memory required for data: 5568768
I0502 11:53:51.149143  2549 layer_factory.hpp:77] Creating layer ip2
I0502 11:53:51.149153  2549 net.cpp:84] Creating Layer ip2
I0502 11:53:51.149157  2549 net.cpp:406] ip2 <- ip1
I0502 11:53:51.149163  2549 net.cpp:380] ip2 -> ip2
I0502 11:53:51.149443  2549 net.cpp:122] Setting up ip2
I0502 11:53:51.149452  2549 net.cpp:129] Top shape: 64 52 (3328)
I0502 11:53:51.149456  2549 net.cpp:137] Memory required for data: 5582080
I0502 11:53:51.149462  2549 layer_factory.hpp:77] Creating layer loss
I0502 11:53:51.149472  2549 net.cpp:84] Creating Layer loss
I0502 11:53:51.149477  2549 net.cpp:406] loss <- ip2
I0502 11:53:51.149482  2549 net.cpp:406] loss <- label
I0502 11:53:51.149487  2549 net.cpp:380] loss -> loss
I0502 11:53:51.149505  2549 layer_factory.hpp:77] Creating layer loss
…
I0502 11:53:51.150269  2549 solver.cpp:190] Creating test net (#0) specified by net file: models/sp_final_lenet/lenet_train_val.prototxt
I0502 11:53:51.150327  2549 net.cpp:294] The NetState phase (1) differed from the phase (0) specified by a rule in layer data
I0502 11:53:51.150457  2549 net.cpp:51] Initializing net from parameters: 
name: "LeNet"
state {
  phase: TEST
}
layer {
  name: "data"
  type: "Data"
  top: "data"
  top: "label"
  include {
    phase: TEST
  }
  transform_param {
    scale: 0.00390625
  }
  data_param {
    source: "examples/final_sp/sp_val_lmdb"
    batch_size: 64
    backend: LMDB
  }
}
layer {
  name: "conv1"
  type: "Convolution"
  bottom: "data"
  top: "conv1"
  param {
    lr_mult: 1
  }
  param {
    lr_mult: 2
  }
  convolution_param {
    num_output: 20
    kernel_size: 5
    stride: 1
    weight_filler {
      type: "xavier"
    }
    bias_filler {
      type: "constant"
    }
  }
}
layer {
  name: "pool1"
  type: "Pooling"
  bottom: "conv1"
  top: "pool1"
  pooling_param {
    pool: MAX
    kernel_size: 2
    stride: 2
  }
}
layer {
  name: "conv2"
  type: "Convolution"
  bottom: "pool1"
  top: "conv2"
  param {
    lr_mult: 1
  }
  param {
    lr_mult: 2
  }
  convolution_param {
    num_output: 50
    kernel_size: 5
    stride: 1
    weight_filler {
      type: "xavier"
    }
    bias_filler {
      type: "constant"
    }
  }
}
layer {
  name: "pool2"
  type: "Pooling"
  bottom: "conv2"
  top: "pool2"
  pooling_param {
    pool: MAX
    kernel_size: 2
    stride: 2
  }
}
layer {
  name: "ip1"
  type: "InnerProduct"
  bottom: "pool2"
  top: "ip1"
  param {
    lr_mult: 1
  }
  param {
    lr_mult: 2
  }
  inner_product_param {
    num_output: 500
    weight_filler {
      type: "xavier"
    }
    bias_filler {
      type: "constant"
    }
  }
}
layer {
  name: "relu1"
  type: "ReLU"
  bottom: "ip1"
  top: "ip1"
}
layer {
  name: "ip2"
  type: "InnerProduct"
  bottom: "ip1"
  top: "ip2"
  param {
    lr_mult: 1
  }
  param {
    lr_mult: 2
  }
  inner_product_param {
    num_output: 52
    weight_filler {
      type: "xavier"
    }
    bias_filler {
      type: "constant"
    }
  }
}
layer {
  name: "accuracy"
  type: "Accuracy"
  bottom: "ip2"
  bottom: "label"
  top: "accuracy"
  include {
    phase: TEST
  }
}
layer {
  name: "loss"
  type: "SoftmaxWithLoss"
  bottom: "ip2"
  bottom: "label"
  top: "loss"
}
I0502 11:53:51.150856  2549 layer_factory.hpp:77] Creating layer data
I0502 11:53:51.150926  2549 db_lmdb.cpp:35] Opened lmdb examples/final_sp/sp_val_lmdb
I0502 11:53:51.150943  2549 net.cpp:84] Creating Layer data
I0502 11:53:51.150951  2549 net.cpp:380] data -> data
I0502 11:53:51.150964  2549 net.cpp:380] data -> label
I0502 11:53:51.151075  2549 data_layer.cpp:45] output data size: 64,3,28,28
I0502 11:53:51.155361  2549 net.cpp:122] Setting up data
I0502 11:53:51.155387  2549 net.cpp:129] Top shape: 64 3 28 28 (150528)
I0502 11:53:51.155393  2549 net.cpp:129] Top shape: 64 (64)
I0502 11:53:51.155396  2549 net.cpp:137] Memory required for data: 602368
I0502 11:53:51.155405  2549 layer_factory.hpp:77] Creating layer label_data_1_split
I0502 11:53:51.155419  2549 net.cpp:84] Creating Layer label_data_1_split
I0502 11:53:51.155426  2549 net.cpp:406] label_data_1_split <- label
I0502 11:53:51.155437  2549 net.cpp:380] label_data_1_split -> label_data_1_split_0
I0502 11:53:51.155450  2549 net.cpp:380] label_data_1_split -> label_data_1_split_1
I0502 11:53:51.155495  2549 net.cpp:122] Setting up label_data_1_split
I0502 11:53:51.155503  2549 net.cpp:129] Top shape: 64 (64)
I0502 11:53:51.155508  2549 net.cpp:129] Top shape: 64 (64)
I0502 11:53:51.155513  2549 net.cpp:137] Memory required for data: 602880
I0502 11:53:51.155517  2549 layer_factory.hpp:77] Creating layer conv1
I0502 11:53:51.155532  2549 net.cpp:84] Creating Layer conv1
I0502 11:53:51.155539  2549 net.cpp:406] conv1 <- data
I0502 11:53:51.155546  2549 net.cpp:380] conv1 -> conv1
I0502 11:53:51.155728  2549 net.cpp:122] Setting up conv1
I0502 11:53:51.155736  2549 net.cpp:129] Top shape: 64 20 24 24 (737280)
I0502 11:53:51.155740  2549 net.cpp:137] Memory required for data: 3552000
I0502 11:53:51.155752  2549 layer_factory.hpp:77] Creating layer pool1
I0502 11:53:51.155773  2549 net.cpp:84] Creating Layer pool1
I0502 11:53:51.155779  2549 net.cpp:406] pool1 <- conv1
I0502 11:53:51.155786  2549 net.cpp:380] pool1 -> pool1
I0502 11:53:51.155822  2549 net.cpp:122] Setting up pool1
I0502 11:53:51.155828  2549 net.cpp:129] Top shape: 64 20 12 12 (184320)
I0502 11:53:51.155833  2549 net.cpp:137] Memory required for data: 4289280
I0502 11:53:51.155836  2549 layer_factory.hpp:77] Creating layer conv2
I0502 11:53:51.155848  2549 net.cpp:84] Creating Layer conv2
I0502 11:53:51.155851  2549 net.cpp:406] conv2 <- pool1
I0502 11:53:51.155864  2549 net.cpp:380] conv2 -> conv2
I0502 11:53:51.156170  2549 net.cpp:122] Setting up conv2
I0502 11:53:51.156179  2549 net.cpp:129] Top shape: 64 50 8 8 (204800)
I0502 11:53:51.156183  2549 net.cpp:137] Memory required for data: 5108480
I0502 11:53:51.156193  2549 layer_factory.hpp:77] Creating layer pool2
I0502 11:53:51.156203  2549 net.cpp:84] Creating Layer pool2
I0502 11:53:51.156206  2549 net.cpp:406] pool2 <- conv2
I0502 11:53:51.156213  2549 net.cpp:380] pool2 -> pool2
I0502 11:53:51.156585  2549 net.cpp:122] Setting up pool2
I0502 11:53:51.156592  2549 net.cpp:129] Top shape: 64 50 4 4 (51200)
I0502 11:53:51.156596  2549 net.cpp:137] Memory required for data: 5313280
I0502 11:53:51.156601  2549 layer_factory.hpp:77] Creating layer ip1
I0502 11:53:51.156610  2549 net.cpp:84] Creating Layer ip1
I0502 11:53:51.156615  2549 net.cpp:406] ip1 <- pool2
I0502 11:53:51.156622  2549 net.cpp:380] ip1 -> ip1
I0502 11:53:51.159204  2549 net.cpp:122] Setting up ip1
I0502 11:53:51.159221  2549 net.cpp:129] Top shape: 64 500 (32000)
I0502 11:53:51.159225  2549 net.cpp:137] Memory required for data: 5441280
I0502 11:53:51.159240  2549 layer_factory.hpp:77] Creating layer relu1
I0502 11:53:51.159250  2549 net.cpp:84] Creating Layer relu1
I0502 11:53:51.159256  2549 net.cpp:406] relu1 <- ip1
I0502 11:53:51.159265  2549 net.cpp:367] relu1 -> ip1 (in-place)
I0502 11:53:51.159273  2549 net.cpp:122] Setting up relu1
I0502 11:53:51.159279  2549 net.cpp:129] Top shape: 64 500 (32000)
I0502 11:53:51.159283  2549 net.cpp:137] Memory required for data: 5569280
I0502 11:53:51.159291  2549 layer_factory.hpp:77] Creating layer ip2
I0502 11:53:51.159303  2549 net.cpp:84] Creating Layer ip2
I0502 11:53:51.159308  2549 net.cpp:406] ip2 <- ip1
I0502 11:53:51.159317  2549 net.cpp:380] ip2 -> ip2
I0502 11:53:51.159561  2549 net.cpp:122] Setting up ip2
I0502 11:53:51.159569  2549 net.cpp:129] Top shape: 64 52 (3328)
I0502 11:53:51.159572  2549 net.cpp:137] Memory required for data: 5582592
I0502 11:53:51.159580  2549 layer_factory.hpp:77] Creating layer ip2_ip2_0_split
I0502 11:53:51.159590  2549 net.cpp:84] Creating Layer ip2_ip2_0_split
I0502 11:53:51.159593  2549 net.cpp:406] ip2_ip2_0_split <- ip2
I0502 11:53:51.159600  2549 net.cpp:380] ip2_ip2_0_split -> ip2_ip2_0_split_0
I0502 11:53:51.159610  2549 net.cpp:380] ip2_ip2_0_split -> ip2_ip2_0_split_1
I0502 11:53:51.159644  2549 net.cpp:122] Setting up ip2_ip2_0_split
I0502 11:53:51.159652  2549 net.cpp:129] Top shape: 64 52 (3328)
I0502 11:53:51.159658  2549 net.cpp:129] Top shape: 64 52 (3328)
I0502 11:53:51.159662  2549 net.cpp:137] Memory required for data: 5609216
I0502 11:53:51.159665  2549 layer_factory.hpp:77] Creating layer accuracy
I0502 11:53:51.159677  2549 net.cpp:84] Creating Layer accuracy
I0502 11:53:51.159680  2549 net.cpp:406] accuracy <- ip2_ip2_0_split_0
I0502 11:53:51.159687  2549 net.cpp:406] accuracy <- label_data_1_split_0
I0502 11:53:51.159694  2549 net.cpp:380] accuracy -> accuracy
…
