…
I0502 11:39:54.424947  2424 net.cpp:294] The NetState phase (0) differed from the phase (1) specified by a rule in layer data
I0502 11:39:54.424960  2424 net.cpp:294] The NetState phase (0) differed from the phase (1) specified by a rule in layer accuracy
I0502 11:39:54.425022  2424 net.cpp:51] Initializing net from parameters: 
name: "LeNet"
state {
  phase: TRAIN
  level: 0
  stage: ""
}
layer {
  name: "data"
  type: "Data"
  top: "data"
  top: "label"
  include {
    phase: TRAIN
  }
  transform_param {
    scale: 0.00390625
  }
  data_param {
    source: "examples/final_sp/sp_train_lmdb"
    batch_size: 64
    backend: LMDB
  }
}
layer {
  name: "conv1"
  type: "Convolution"
  bottom: "data"
  top: "conv1"
  param {
    lr_mult: 1
  }
  param {
    lr_mult: 2
  }
  convolution_param {
    num_output: 20
    kernel_size: 5
    stride: 1
    weight_filler {
      type: "xavier"
    }
    bias_filler {
      type: "constant"
    }
  }
}
layer {
  name: "pool1"
  type: "Pooling"
  bottom: "conv1"
  top: "pool1"
  pooling_param {
    pool: MAX
    kernel_size: 2
    stride: 2
  }
}
layer {
  name: "conv2"
  type: "Convolution"
  bottom: "pool1"
  top: "conv2"
  param {
    lr_mult: 1
  }
  param {
    lr_mult: 2
  }
  convolution_param {
    num_output: 50
    kernel_size: 5
    stride: 1
    weight_filler {
      type: "xavier"
    }
    bias_filler {
      type: "constant"
    }
  }
}
layer {
  name: "pool2"
  type: "Pooling"
  bottom: "conv2"
  top: "pool2"
  pooling_param {
    pool: MAX
    kernel_size: 2
    stride: 2
  }
}
layer {
  name: "ip1"
  type: "InnerProduct"
  bottom: "pool2"
  top: "ip1"
  param {
    lr_mult: 1
  }
  param {
    lr_mult: 2
  }
  inner_product_param {
    num_output: 500
    weight_filler {
      type: "xavier"
    }
    bias_filler {
      type: "constant"
    }
  }
}
layer {
  name: "relu1"
  type: "ReLU"
  bottom: "ip1"
  top: "ip1"
}
layer {
  name: "ip2"
  type: "InnerProduct"
  bottom: "ip1"
  top: "ip2"
  param {
    lr_mult: 1
  }
  param {
    lr_mult: 2
  }
  inner_product_param {
    num_output: 52
    weight_filler {
      type: "xavier"
    }
    bias_filler {
      type: "constant"
    }
  }
}
layer {
  name: "loss"
  type: "SoftmaxWithLoss"
  bottom: "ip2"
  bottom: "label"
  top: "loss"
}
I0502 11:39:54.425078  2424 layer_factory.hpp:77] Creating layer data
I0502 11:39:54.425189  2424 db_lmdb.cpp:35] Opened lmdb examples/final_sp/sp_train_lmdb
I0502 11:39:54.425213  2424 net.cpp:84] Creating Layer data
I0502 11:39:54.425222  2424 net.cpp:380] data -> data
I0502 11:39:54.425243  2424 net.cpp:380] data -> label
I0502 11:39:54.425755  2424 data_layer.cpp:45] output data size: 64,3,28,28
I0502 11:39:54.429638  2424 net.cpp:122] Setting up data
I0502 11:39:54.429671  2424 net.cpp:129] Top shape: 64 3 28 28 (150528)
I0502 11:39:54.429677  2424 net.cpp:129] Top shape: 64 (64)
I0502 11:39:54.429680  2424 net.cpp:137] Memory required for data: 602368
I0502 11:39:54.429692  2424 layer_factory.hpp:77] Creating layer conv1
I0502 11:39:54.429723  2424 net.cpp:84] Creating Layer conv1
I0502 11:39:54.429730  2424 net.cpp:406] conv1 <- data
I0502 11:39:54.429746  2424 net.cpp:380] conv1 -> conv1
I0502 11:39:54.430884  2424 net.cpp:122] Setting up conv1
I0502 11:39:54.430897  2424 net.cpp:129] Top shape: 64 20 24 24 (737280)
I0502 11:39:54.430902  2424 net.cpp:137] Memory required for data: 3551488
I0502 11:39:54.430922  2424 layer_factory.hpp:77] Creating layer pool1
I0502 11:39:54.430951  2424 net.cpp:84] Creating Layer pool1
I0502 11:39:54.430956  2424 net.cpp:406] pool1 <- conv1
I0502 11:39:54.430964  2424 net.cpp:380] pool1 -> pool1
I0502 11:39:54.431041  2424 net.cpp:122] Setting up pool1
I0502 11:39:54.431048  2424 net.cpp:129] Top shape: 64 20 12 12 (184320)
I0502 11:39:54.431052  2424 net.cpp:137] Memory required for data: 4288768
I0502 11:39:54.431057  2424 layer_factory.hpp:77] Creating layer conv2
I0502 11:39:54.431068  2424 net.cpp:84] Creating Layer conv2
I0502 11:39:54.431074  2424 net.cpp:406] conv2 <- pool1
I0502 11:39:54.431082  2424 net.cpp:380] conv2 -> conv2
I0502 11:39:54.432132  2424 net.cpp:122] Setting up conv2
I0502 11:39:54.432145  2424 net.cpp:129] Top shape: 64 50 8 8 (204800)
I0502 11:39:54.432150  2424 net.cpp:137] Memory required for data: 5107968
I0502 11:39:54.432163  2424 layer_factory.hpp:77] Creating layer pool2
I0502 11:39:54.432173  2424 net.cpp:84] Creating Layer pool2
I0502 11:39:54.432178  2424 net.cpp:406] pool2 <- conv2
I0502 11:39:54.432184  2424 net.cpp:380] pool2 -> pool2
I0502 11:39:54.432209  2424 net.cpp:122] Setting up pool2
I0502 11:39:54.432214  2424 net.cpp:129] Top shape: 64 50 4 4 (51200)
I0502 11:39:54.432217  2424 net.cpp:137] Memory required for data: 5312768
I0502 11:39:54.432219  2424 layer_factory.hpp:77] Creating layer ip1
I0502 11:39:54.432225  2424 net.cpp:84] Creating Layer ip1
I0502 11:39:54.432227  2424 net.cpp:406] ip1 <- pool2
I0502 11:39:54.432231  2424 net.cpp:380] ip1 -> ip1
I0502 11:39:54.434476  2424 net.cpp:122] Setting up ip1
I0502 11:39:54.434530  2424 net.cpp:129] Top shape: 64 500 (32000)
I0502 11:39:54.434535  2424 net.cpp:137] Memory required for data: 5440768
I0502 11:39:54.434548  2424 layer_factory.hpp:77] Creating layer relu1
I0502 11:39:54.434559  2424 net.cpp:84] Creating Layer relu1
I0502 11:39:54.434567  2424 net.cpp:406] relu1 <- ip1
I0502 11:39:54.434573  2424 net.cpp:367] relu1 -> ip1 (in-place)
I0502 11:39:54.434582  2424 net.cpp:122] Setting up relu1
I0502 11:39:54.434587  2424 net.cpp:129] Top shape: 64 500 (32000)
I0502 11:39:54.434589  2424 net.cpp:137] Memory required for data: 5568768
I0502 11:39:54.434593  2424 layer_factory.hpp:77] Creating layer ip2
I0502 11:39:54.434599  2424 net.cpp:84] Creating Layer ip2
I0502 11:39:54.434602  2424 net.cpp:406] ip2 <- ip1
I0502 11:39:54.434607  2424 net.cpp:380] ip2 -> ip2
I0502 11:39:54.434804  2424 net.cpp:122] Setting up ip2
I0502 11:39:54.434813  2424 net.cpp:129] Top shape: 64 52 (3328)
I0502 11:39:54.434816  2424 net.cpp:137] Memory required for data: 5582080
I0502 11:39:54.434821  2424 layer_factory.hpp:77] Creating layer loss
I0502 11:39:54.434828  2424 net.cpp:84] Creating Layer loss
I0502 11:39:54.434833  2424 net.cpp:406] loss <- ip2
I0502 11:39:54.434835  2424 net.cpp:406] loss <- label
I0502 11:39:54.434840  2424 net.cpp:380] loss -> loss
I0502 11:39:54.434854  2424 layer_factory.hpp:77] Creating layer loss
…
I0502 11:39:54.435211  2424 solver.cpp:190] Creating test net (#0) specified by net file: models/sp_final_lenet/lenet_train_val.prototxt
I0502 11:39:54.435253  2424 net.cpp:294] The NetState phase (1) differed from the phase (0) specified by a rule in layer data
I0502 11:39:54.435333  2424 net.cpp:51] Initializing net from parameters: 
name: "LeNet"
state {
  phase: TEST
}
layer {
  name: "data"
  type: "Data"
  top: "data"
  top: "label"
  include {
    phase: TEST
  }
  transform_param {
    scale: 0.00390625
  }
  data_param {
    source: "examples/final_sp/sp_val_lmdb"
    batch_size: 64
    backend: LMDB
  }
}
layer {
  name: "conv1"
  type: "Convolution"
  bottom: "data"
  top: "conv1"
  param {
    lr_mult: 1
  }
  param {
    lr_mult: 2
  }
  convolution_param {
    num_output: 20
    kernel_size: 5
    stride: 1
    weight_filler {
      type: "xavier"
    }
    bias_filler {
      type: "constant"
    }
  }
}
layer {
  name: "pool1"
  type: "Pooling"
  bottom: "conv1"
  top: "pool1"
  pooling_param {
    pool: MAX
    kernel_size: 2
    stride: 2
  }
}
layer {
  name: "conv2"
  type: "Convolution"
  bottom: "pool1"
  top: "conv2"
  param {
    lr_mult: 1
  }
  param {
    lr_mult: 2
  }
  convolution_param {
    num_output: 50
    kernel_size: 5
    stride: 1
    weight_filler {
      type: "xavier"
    }
    bias_filler {
      type: "constant"
    }
  }
}
layer {
  name: "pool2"
  type: "Pooling"
  bottom: "conv2"
  top: "pool2"
  pooling_param {
    pool: MAX
    kernel_size: 2
    stride: 2
  }
}
layer {
  name: "ip1"
  type: "InnerProduct"
  bottom: "pool2"
  top: "ip1"
  param {
    lr_mult: 1
  }
  param {
    lr_mult: 2
  }
  inner_product_param {
    num_output: 500
    weight_filler {
      type: "xavier"
    }
    bias_filler {
      type: "constant"
    }
  }
}
layer {
  name: "relu1"
  type: "ReLU"
  bottom: "ip1"
  top: "ip1"
}
layer {
  name: "ip2"
  type: "InnerProduct"
  bottom: "ip1"
  top: "ip2"
  param {
    lr_mult: 1
  }
  param {
    lr_mult: 2
  }
  inner_product_param {
    num_output: 52
    weight_filler {
      type: "xavier"
    }
    bias_filler {
      type: "constant"
    }
  }
}
layer {
  name: "accuracy"
  type: "Accuracy"
  bottom: "ip2"
  bottom: "label"
  top: "accuracy"
  include {
    phase: TEST
  }
}
layer {
  name: "loss"
  type: "SoftmaxWithLoss"
  bottom: "ip2"
  bottom: "label"
  top: "loss"
}
I0502 11:39:54.435432  2424 layer_factory.hpp:77] Creating layer data
I0502 11:39:54.435510  2424 db_lmdb.cpp:35] Opened lmdb examples/final_sp/sp_val_lmdb
I0502 11:39:54.435526  2424 net.cpp:84] Creating Layer data
I0502 11:39:54.435534  2424 net.cpp:380] data -> data
I0502 11:39:54.435544  2424 net.cpp:380] data -> label
I0502 11:39:54.435710  2424 data_layer.cpp:45] output data size: 64,3,28,28
I0502 11:39:54.441013  2424 net.cpp:122] Setting up data
I0502 11:39:54.441037  2424 net.cpp:129] Top shape: 64 3 28 28 (150528)
I0502 11:39:54.441043  2424 net.cpp:129] Top shape: 64 (64)
I0502 11:39:54.441047  2424 net.cpp:137] Memory required for data: 602368
I0502 11:39:54.441054  2424 layer_factory.hpp:77] Creating layer label_data_1_split
I0502 11:39:54.441068  2424 net.cpp:84] Creating Layer label_data_1_split
I0502 11:39:54.441073  2424 net.cpp:406] label_data_1_split <- label
I0502 11:39:54.441082  2424 net.cpp:380] label_data_1_split -> label_data_1_split_0
I0502 11:39:54.441094  2424 net.cpp:380] label_data_1_split -> label_data_1_split_1
I0502 11:39:54.441155  2424 net.cpp:122] Setting up label_data_1_split
I0502 11:39:54.441164  2424 net.cpp:129] Top shape: 64 (64)
I0502 11:39:54.441169  2424 net.cpp:129] Top shape: 64 (64)
I0502 11:39:54.441172  2424 net.cpp:137] Memory required for data: 602880
I0502 11:39:54.441177  2424 layer_factory.hpp:77] Creating layer conv1
I0502 11:39:54.441190  2424 net.cpp:84] Creating Layer conv1
I0502 11:39:54.441196  2424 net.cpp:406] conv1 <- data
I0502 11:39:54.441203  2424 net.cpp:380] conv1 -> conv1
I0502 11:39:54.441409  2424 net.cpp:122] Setting up conv1
I0502 11:39:54.441416  2424 net.cpp:129] Top shape: 64 20 24 24 (737280)
I0502 11:39:54.441419  2424 net.cpp:137] Memory required for data: 3552000
I0502 11:39:54.441431  2424 layer_factory.hpp:77] Creating layer pool1
I0502 11:39:54.441449  2424 net.cpp:84] Creating Layer pool1
I0502 11:39:54.441457  2424 net.cpp:406] pool1 <- conv1
I0502 11:39:54.441463  2424 net.cpp:380] pool1 -> pool1
I0502 11:39:54.441495  2424 net.cpp:122] Setting up pool1
I0502 11:39:54.441500  2424 net.cpp:129] Top shape: 64 20 12 12 (184320)
I0502 11:39:54.441504  2424 net.cpp:137] Memory required for data: 4289280
I0502 11:39:54.441506  2424 layer_factory.hpp:77] Creating layer conv2
I0502 11:39:54.441514  2424 net.cpp:84] Creating Layer conv2
I0502 11:39:54.441516  2424 net.cpp:406] conv2 <- pool1
I0502 11:39:54.441520  2424 net.cpp:380] conv2 -> conv2
I0502 11:39:54.441778  2424 net.cpp:122] Setting up conv2
I0502 11:39:54.441783  2424 net.cpp:129] Top shape: 64 50 8 8 (204800)
I0502 11:39:54.441787  2424 net.cpp:137] Memory required for data: 5108480
I0502 11:39:54.441792  2424 layer_factory.hpp:77] Creating layer pool2
I0502 11:39:54.441797  2424 net.cpp:84] Creating Layer pool2
I0502 11:39:54.441798  2424 net.cpp:406] pool2 <- conv2
I0502 11:39:54.441802  2424 net.cpp:380] pool2 -> pool2
I0502 11:39:54.441825  2424 net.cpp:122] Setting up pool2
I0502 11:39:54.441829  2424 net.cpp:129] Top shape: 64 50 4 4 (51200)
I0502 11:39:54.441833  2424 net.cpp:137] Memory required for data: 5313280
I0502 11:39:54.441834  2424 layer_factory.hpp:77] Creating layer ip1
I0502 11:39:54.441839  2424 net.cpp:84] Creating Layer ip1
I0502 11:39:54.441843  2424 net.cpp:406] ip1 <- pool2
I0502 11:39:54.441846  2424 net.cpp:380] ip1 -> ip1
I0502 11:39:54.444087  2424 net.cpp:122] Setting up ip1
I0502 11:39:54.444104  2424 net.cpp:129] Top shape: 64 500 (32000)
I0502 11:39:54.444108  2424 net.cpp:137] Memory required for data: 5441280
I0502 11:39:54.444123  2424 layer_factory.hpp:77] Creating layer relu1
I0502 11:39:54.444145  2424 net.cpp:84] Creating Layer relu1
I0502 11:39:54.444165  2424 net.cpp:406] relu1 <- ip1
I0502 11:39:54.444172  2424 net.cpp:367] relu1 -> ip1 (in-place)
I0502 11:39:54.444180  2424 net.cpp:122] Setting up relu1
I0502 11:39:54.444185  2424 net.cpp:129] Top shape: 64 500 (32000)
I0502 11:39:54.444190  2424 net.cpp:137] Memory required for data: 5569280
I0502 11:39:54.444192  2424 layer_factory.hpp:77] Creating layer ip2
I0502 11:39:54.444203  2424 net.cpp:84] Creating Layer ip2
I0502 11:39:54.444209  2424 net.cpp:406] ip2 <- ip1
I0502 11:39:54.444214  2424 net.cpp:380] ip2 -> ip2
I0502 11:39:54.444406  2424 net.cpp:122] Setting up ip2
I0502 11:39:54.444411  2424 net.cpp:129] Top shape: 64 52 (3328)
I0502 11:39:54.444412  2424 net.cpp:137] Memory required for data: 5582592
I0502 11:39:54.444417  2424 layer_factory.hpp:77] Creating layer ip2_ip2_0_split
I0502 11:39:54.444422  2424 net.cpp:84] Creating Layer ip2_ip2_0_split
I0502 11:39:54.444425  2424 net.cpp:406] ip2_ip2_0_split <- ip2
I0502 11:39:54.444429  2424 net.cpp:380] ip2_ip2_0_split -> ip2_ip2_0_split_0
I0502 11:39:54.444434  2424 net.cpp:380] ip2_ip2_0_split -> ip2_ip2_0_split_1
I0502 11:39:54.444506  2424 net.cpp:122] Setting up ip2_ip2_0_split
I0502 11:39:54.444519  2424 net.cpp:129] Top shape: 64 52 (3328)
I0502 11:39:54.444525  2424 net.cpp:129] Top shape: 64 52 (3328)
I0502 11:39:54.444530  2424 net.cpp:137] Memory required for data: 5609216
I0502 11:39:54.444535  2424 layer_factory.hpp:77] Creating layer accuracy
I0502 11:39:54.444545  2424 net.cpp:84] Creating Layer accuracy
I0502 11:39:54.444550  2424 net.cpp:406] accuracy <- ip2_ip2_0_split_0
I0502 11:39:54.444557  2424 net.cpp:406] accuracy <- label_data_1_split_0
I0502 11:39:54.444564  2424 net.cpp:380] accuracy -> accuracy
…
