…
I0502 12:00:36.790256  2606 net.cpp:294] The NetState phase (0) differed from the phase (1) specified by a rule in layer data
I0502 12:00:36.790269  2606 net.cpp:294] The NetState phase (0) differed from the phase (1) specified by a rule in layer accuracy
I0502 12:00:36.790347  2606 net.cpp:51] Initializing net from parameters: 
name: "LeNet"
state {
  phase: TRAIN
  level: 0
  stage: ""
}
layer {
  name: "data"
  type: "Data"
  top: "data"
  top: "label"
  include {
    phase: TRAIN
  }
  transform_param {
    scale: 0.00390625
  }
  data_param {
    source: "examples/final_sp/sp_train_lmdb"
    batch_size: 64
    backend: LMDB
  }
}
layer {
  name: "conv1"
  type: "Convolution"
  bottom: "data"
  top: "conv1"
  param {
    lr_mult: 1
  }
  param {
    lr_mult: 2
  }
  convolution_param {
    num_output: 20
    kernel_size: 5
    stride: 1
    weight_filler {
      type: "xavier"
    }
    bias_filler {
      type: "constant"
    }
  }
}
layer {
  name: "pool1"
  type: "Pooling"
  bottom: "conv1"
  top: "pool1"
  pooling_param {
    pool: MAX
    kernel_size: 2
    stride: 2
  }
}
layer {
  name: "conv2"
  type: "Convolution"
  bottom: "pool1"
  top: "conv2"
  param {
    lr_mult: 1
  }
  param {
    lr_mult: 2
  }
  convolution_param {
    num_output: 50
    kernel_size: 5
    stride: 1
    weight_filler {
      type: "xavier"
    }
    bias_filler {
      type: "constant"
    }
  }
}
layer {
  name: "pool2"
  type: "Pooling"
  bottom: "conv2"
  top: "pool2"
  pooling_param {
    pool: MAX
    kernel_size: 2
    stride: 2
  }
}
layer {
  name: "ip1"
  type: "InnerProduct"
  bottom: "pool2"
  top: "ip1"
  param {
    lr_mult: 1
  }
  param {
    lr_mult: 2
  }
  inner_product_param {
    num_output: 500
    weight_filler {
      type: "xavier"
    }
    bias_filler {
      type: "constant"
    }
  }
}
layer {
  name: "relu1"
  type: "ReLU"
  bottom: "ip1"
  top: "ip1"
}
layer {
  name: "ip2"
  type: "InnerProduct"
  bottom: "ip1"
  top: "ip2"
  param {
    lr_mult: 1
  }
  param {
    lr_mult: 2
  }
  inner_product_param {
    num_output: 52
    weight_filler {
      type: "xavier"
    }
    bias_filler {
      type: "constant"
    }
  }
}
layer {
  name: "loss"
  type: "SoftmaxWithLoss"
  bottom: "ip2"
  bottom: "label"
  top: "loss"
}
I0502 12:00:36.790405  2606 layer_factory.hpp:77] Creating layer data
I0502 12:00:36.790488  2606 db_lmdb.cpp:35] Opened lmdb examples/final_sp/sp_train_lmdb
I0502 12:00:36.790510  2606 net.cpp:84] Creating Layer data
I0502 12:00:36.790520  2606 net.cpp:380] data -> data
I0502 12:00:36.790542  2606 net.cpp:380] data -> label
I0502 12:00:36.791077  2606 data_layer.cpp:45] output data size: 64,3,28,28
I0502 12:00:36.795017  2606 net.cpp:122] Setting up data
I0502 12:00:36.795047  2606 net.cpp:129] Top shape: 64 3 28 28 (150528)
I0502 12:00:36.795053  2606 net.cpp:129] Top shape: 64 (64)
I0502 12:00:36.795058  2606 net.cpp:137] Memory required for data: 602368
I0502 12:00:36.795068  2606 layer_factory.hpp:77] Creating layer conv1
I0502 12:00:36.795100  2606 net.cpp:84] Creating Layer conv1
I0502 12:00:36.795107  2606 net.cpp:406] conv1 <- data
I0502 12:00:36.795123  2606 net.cpp:380] conv1 -> conv1
I0502 12:00:36.796099  2606 net.cpp:122] Setting up conv1
I0502 12:00:36.796113  2606 net.cpp:129] Top shape: 64 20 24 24 (737280)
I0502 12:00:36.796118  2606 net.cpp:137] Memory required for data: 3551488
I0502 12:00:36.796138  2606 layer_factory.hpp:77] Creating layer pool1
I0502 12:00:36.796169  2606 net.cpp:84] Creating Layer pool1
I0502 12:00:36.796186  2606 net.cpp:406] pool1 <- conv1
I0502 12:00:36.796197  2606 net.cpp:380] pool1 -> pool1
I0502 12:00:36.796252  2606 net.cpp:122] Setting up pool1
I0502 12:00:36.796259  2606 net.cpp:129] Top shape: 64 20 12 12 (184320)
I0502 12:00:36.796263  2606 net.cpp:137] Memory required for data: 4288768
I0502 12:00:36.796268  2606 layer_factory.hpp:77] Creating layer conv2
I0502 12:00:36.796279  2606 net.cpp:84] Creating Layer conv2
I0502 12:00:36.796284  2606 net.cpp:406] conv2 <- pool1
I0502 12:00:36.796293  2606 net.cpp:380] conv2 -> conv2
I0502 12:00:36.797314  2606 net.cpp:122] Setting up conv2
I0502 12:00:36.797327  2606 net.cpp:129] Top shape: 64 50 8 8 (204800)
I0502 12:00:36.797333  2606 net.cpp:137] Memory required for data: 5107968
I0502 12:00:36.797344  2606 layer_factory.hpp:77] Creating layer pool2
I0502 12:00:36.797354  2606 net.cpp:84] Creating Layer pool2
I0502 12:00:36.797359  2606 net.cpp:406] pool2 <- conv2
I0502 12:00:36.797377  2606 net.cpp:380] pool2 -> pool2
I0502 12:00:36.797410  2606 net.cpp:122] Setting up pool2
I0502 12:00:36.797418  2606 net.cpp:129] Top shape: 64 50 4 4 (51200)
I0502 12:00:36.797422  2606 net.cpp:137] Memory required for data: 5312768
I0502 12:00:36.797426  2606 layer_factory.hpp:77] Creating layer ip1
I0502 12:00:36.797436  2606 net.cpp:84] Creating Layer ip1
I0502 12:00:36.797441  2606 net.cpp:406] ip1 <- pool2
I0502 12:00:36.797448  2606 net.cpp:380] ip1 -> ip1
I0502 12:00:36.799985  2606 net.cpp:122] Setting up ip1
I0502 12:00:36.799999  2606 net.cpp:129] Top shape: 64 500 (32000)
I0502 12:00:36.800004  2606 net.cpp:137] Memory required for data: 5440768
I0502 12:00:36.800016  2606 layer_factory.hpp:77] Creating layer relu1
I0502 12:00:36.800032  2606 net.cpp:84] Creating Layer relu1
I0502 12:00:36.800060  2606 net.cpp:406] relu1 <- ip1
I0502 12:00:36.800081  2606 net.cpp:367] relu1 -> ip1 (in-place)
I0502 12:00:36.800103  2606 net.cpp:122] Setting up relu1
I0502 12:00:36.800124  2606 net.cpp:129] Top shape: 64 500 (32000)
I0502 12:00:36.800140  2606 net.cpp:137] Memory required for data: 5568768
I0502 12:00:36.800158  2606 layer_factory.hpp:77] Creating layer ip2
I0502 12:00:36.800179  2606 net.cpp:84] Creating Layer ip2
I0502 12:00:36.800197  2606 net.cpp:406] ip2 <- ip1
I0502 12:00:36.800220  2606 net.cpp:380] ip2 -> ip2
I0502 12:00:36.800577  2606 net.cpp:122] Setting up ip2
I0502 12:00:36.800601  2606 net.cpp:129] Top shape: 64 52 (3328)
I0502 12:00:36.800616  2606 net.cpp:137] Memory required for data: 5582080
I0502 12:00:36.800637  2606 layer_factory.hpp:77] Creating layer loss
I0502 12:00:36.800659  2606 net.cpp:84] Creating Layer loss
I0502 12:00:36.800675  2606 net.cpp:406] loss <- ip2
I0502 12:00:36.800693  2606 net.cpp:406] loss <- label
I0502 12:00:36.800714  2606 net.cpp:380] loss -> loss
I0502 12:00:36.800747  2606 layer_factory.hpp:77] Creating layer loss
…
I0502 12:00:36.801952  2606 solver.cpp:190] Creating test net (#0) specified by net file: models/sp_final_lenet/lenet_train_val.prototxt
I0502 12:00:36.802002  2606 net.cpp:294] The NetState phase (1) differed from the phase (0) specified by a rule in layer data
I0502 12:00:36.802088  2606 net.cpp:51] Initializing net from parameters: 
name: "LeNet"
state {
  phase: TEST
}
layer {
  name: "data"
  type: "Data"
  top: "data"
  top: "label"
  include {
    phase: TEST
  }
  transform_param {
    scale: 0.00390625
  }
  data_param {
    source: "examples/final_sp/sp_val_lmdb"
    batch_size: 64
    backend: LMDB
  }
}
layer {
  name: "conv1"
  type: "Convolution"
  bottom: "data"
  top: "conv1"
  param {
    lr_mult: 1
  }
  param {
    lr_mult: 2
  }
  convolution_param {
    num_output: 20
    kernel_size: 5
    stride: 1
    weight_filler {
      type: "xavier"
    }
    bias_filler {
      type: "constant"
    }
  }
}
layer {
  name: "pool1"
  type: "Pooling"
  bottom: "conv1"
  top: "pool1"
  pooling_param {
    pool: MAX
    kernel_size: 2
    stride: 2
  }
}
layer {
  name: "conv2"
  type: "Convolution"
  bottom: "pool1"
  top: "conv2"
  param {
    lr_mult: 1
  }
  param {
    lr_mult: 2
  }
  convolution_param {
    num_output: 50
    kernel_size: 5
    stride: 1
    weight_filler {
      type: "xavier"
    }
    bias_filler {
      type: "constant"
    }
  }
}
layer {
  name: "pool2"
  type: "Pooling"
  bottom: "conv2"
  top: "pool2"
  pooling_param {
    pool: MAX
    kernel_size: 2
    stride: 2
  }
}
layer {
  name: "ip1"
  type: "InnerProduct"
  bottom: "pool2"
  top: "ip1"
  param {
    lr_mult: 1
  }
  param {
    lr_mult: 2
  }
  inner_product_param {
    num_output: 500
    weight_filler {
      type: "xavier"
    }
    bias_filler {
      type: "constant"
    }
  }
}
layer {
  name: "relu1"
  type: "ReLU"
  bottom: "ip1"
  top: "ip1"
}
layer {
  name: "ip2"
  type: "InnerProduct"
  bottom: "ip1"
  top: "ip2"
  param {
    lr_mult: 1
  }
  param {
    lr_mult: 2
  }
  inner_product_param {
    num_output: 52
    weight_filler {
      type: "xavier"
    }
    bias_filler {
      type: "constant"
    }
  }
}
layer {
  name: "accuracy"
  type: "Accuracy"
  bottom: "ip2"
  bottom: "label"
  top: "accuracy"
  include {
    phase: TEST
  }
}
layer {
  name: "loss"
  type: "SoftmaxWithLoss"
  bottom: "ip2"
  bottom: "label"
  top: "loss"
}
I0502 12:00:36.802171  2606 layer_factory.hpp:77] Creating layer data
I0502 12:00:36.802255  2606 db_lmdb.cpp:35] Opened lmdb examples/final_sp/sp_val_lmdb
I0502 12:00:36.802273  2606 net.cpp:84] Creating Layer data
I0502 12:00:36.802283  2606 net.cpp:380] data -> data
I0502 12:00:36.802294  2606 net.cpp:380] data -> label
I0502 12:00:36.802386  2606 data_layer.cpp:45] output data size: 64,3,28,28
I0502 12:00:36.806849  2606 net.cpp:122] Setting up data
I0502 12:00:36.806875  2606 net.cpp:129] Top shape: 64 3 28 28 (150528)
I0502 12:00:36.806881  2606 net.cpp:129] Top shape: 64 (64)
I0502 12:00:36.806885  2606 net.cpp:137] Memory required for data: 602368
I0502 12:00:36.806892  2606 layer_factory.hpp:77] Creating layer label_data_1_split
I0502 12:00:36.806910  2606 net.cpp:84] Creating Layer label_data_1_split
I0502 12:00:36.806916  2606 net.cpp:406] label_data_1_split <- label
I0502 12:00:36.806926  2606 net.cpp:380] label_data_1_split -> label_data_1_split_0
I0502 12:00:36.806943  2606 net.cpp:380] label_data_1_split -> label_data_1_split_1
I0502 12:00:36.806987  2606 net.cpp:122] Setting up label_data_1_split
I0502 12:00:36.806994  2606 net.cpp:129] Top shape: 64 (64)
I0502 12:00:36.807000  2606 net.cpp:129] Top shape: 64 (64)
I0502 12:00:36.807003  2606 net.cpp:137] Memory required for data: 602880
I0502 12:00:36.807008  2606 layer_factory.hpp:77] Creating layer conv1
I0502 12:00:36.807024  2606 net.cpp:84] Creating Layer conv1
I0502 12:00:36.807029  2606 net.cpp:406] conv1 <- data
I0502 12:00:36.807039  2606 net.cpp:380] conv1 -> conv1
I0502 12:00:36.807237  2606 net.cpp:122] Setting up conv1
I0502 12:00:36.807245  2606 net.cpp:129] Top shape: 64 20 24 24 (737280)
I0502 12:00:36.807250  2606 net.cpp:137] Memory required for data: 3552000
I0502 12:00:36.807261  2606 layer_factory.hpp:77] Creating layer pool1
I0502 12:00:36.807282  2606 net.cpp:84] Creating Layer pool1
I0502 12:00:36.807288  2606 net.cpp:406] pool1 <- conv1
I0502 12:00:36.807296  2606 net.cpp:380] pool1 -> pool1
I0502 12:00:36.807333  2606 net.cpp:122] Setting up pool1
I0502 12:00:36.807339  2606 net.cpp:129] Top shape: 64 20 12 12 (184320)
I0502 12:00:36.807343  2606 net.cpp:137] Memory required for data: 4289280
I0502 12:00:36.807348  2606 layer_factory.hpp:77] Creating layer conv2
I0502 12:00:36.807358  2606 net.cpp:84] Creating Layer conv2
I0502 12:00:36.807363  2606 net.cpp:406] conv2 <- pool1
I0502 12:00:36.807374  2606 net.cpp:380] conv2 -> conv2
I0502 12:00:36.808002  2606 net.cpp:122] Setting up conv2
I0502 12:00:36.808010  2606 net.cpp:129] Top shape: 64 50 8 8 (204800)
I0502 12:00:36.808013  2606 net.cpp:137] Memory required for data: 5108480
I0502 12:00:36.808022  2606 layer_factory.hpp:77] Creating layer pool2
I0502 12:00:36.808030  2606 net.cpp:84] Creating Layer pool2
I0502 12:00:36.808035  2606 net.cpp:406] pool2 <- conv2
I0502 12:00:36.808042  2606 net.cpp:380] pool2 -> pool2
I0502 12:00:36.808075  2606 net.cpp:122] Setting up pool2
I0502 12:00:36.808084  2606 net.cpp:129] Top shape: 64 50 4 4 (51200)
I0502 12:00:36.808090  2606 net.cpp:137] Memory required for data: 5313280
I0502 12:00:36.808095  2606 layer_factory.hpp:77] Creating layer ip1
I0502 12:00:36.808104  2606 net.cpp:84] Creating Layer ip1
I0502 12:00:36.808109  2606 net.cpp:406] ip1 <- pool2
I0502 12:00:36.808115  2606 net.cpp:380] ip1 -> ip1
I0502 12:00:36.810720  2606 net.cpp:122] Setting up ip1
I0502 12:00:36.810739  2606 net.cpp:129] Top shape: 64 500 (32000)
I0502 12:00:36.810744  2606 net.cpp:137] Memory required for data: 5441280
I0502 12:00:36.810761  2606 layer_factory.hpp:77] Creating layer relu1
I0502 12:00:36.810773  2606 net.cpp:84] Creating Layer relu1
I0502 12:00:36.810778  2606 net.cpp:406] relu1 <- ip1
I0502 12:00:36.810788  2606 net.cpp:367] relu1 -> ip1 (in-place)
I0502 12:00:36.810798  2606 net.cpp:122] Setting up relu1
I0502 12:00:36.810804  2606 net.cpp:129] Top shape: 64 500 (32000)
I0502 12:00:36.810808  2606 net.cpp:137] Memory required for data: 5569280
I0502 12:00:36.810812  2606 layer_factory.hpp:77] Creating layer ip2
I0502 12:00:36.810825  2606 net.cpp:84] Creating Layer ip2
I0502 12:00:36.810830  2606 net.cpp:406] ip2 <- ip1
I0502 12:00:36.810838  2606 net.cpp:380] ip2 -> ip2
I0502 12:00:36.811056  2606 net.cpp:122] Setting up ip2
I0502 12:00:36.811064  2606 net.cpp:129] Top shape: 64 52 (3328)
I0502 12:00:36.811066  2606 net.cpp:137] Memory required for data: 5582592
I0502 12:00:36.811074  2606 layer_factory.hpp:77] Creating layer ip2_ip2_0_split
I0502 12:00:36.811080  2606 net.cpp:84] Creating Layer ip2_ip2_0_split
I0502 12:00:36.811087  2606 net.cpp:406] ip2_ip2_0_split <- ip2
I0502 12:00:36.811094  2606 net.cpp:380] ip2_ip2_0_split -> ip2_ip2_0_split_0
I0502 12:00:36.811106  2606 net.cpp:380] ip2_ip2_0_split -> ip2_ip2_0_split_1
I0502 12:00:36.811137  2606 net.cpp:122] Setting up ip2_ip2_0_split
I0502 12:00:36.811161  2606 net.cpp:129] Top shape: 64 52 (3328)
I0502 12:00:36.811167  2606 net.cpp:129] Top shape: 64 52 (3328)
I0502 12:00:36.811172  2606 net.cpp:137] Memory required for data: 5609216
I0502 12:00:36.811175  2606 layer_factory.hpp:77] Creating layer accuracy
I0502 12:00:36.811187  2606 net.cpp:84] Creating Layer accuracy
I0502 12:00:36.811192  2606 net.cpp:406] accuracy <- ip2_ip2_0_split_0
I0502 12:00:36.811197  2606 net.cpp:406] accuracy <- label_data_1_split_0
I0502 12:00:36.811205  2606 net.cpp:380] accuracy -> accuracy
…
