…
I0501 23:43:26.177494 18130 net.cpp:294] The NetState phase (0) differed from the phase (1) specified by a rule in layer data
I0501 23:43:26.177503 18130 net.cpp:294] The NetState phase (0) differed from the phase (1) specified by a rule in layer accuracy
I0501 23:43:26.177574 18130 net.cpp:51] Initializing net from parameters: 
name: "LeNet"
state {
  phase: TRAIN
  level: 0
  stage: ""
}
layer {
  name: "data"
  type: "Data"
  top: "data"
  top: "label"
  include {
    phase: TRAIN
  }
  transform_param {
    scale: 0.00390625
  }
  data_param {
    source: "examples/final_sp/sp_train_lmdb"
    batch_size: 64
    backend: LMDB
  }
}
layer {
  name: "conv1"
  type: "Convolution"
  bottom: "data"
  top: "conv1"
  param {
    lr_mult: 1
  }
  param {
    lr_mult: 2
  }
  convolution_param {
    num_output: 20
    kernel_size: 5
    stride: 1
    weight_filler {
      type: "xavier"
    }
    bias_filler {
      type: "constant"
    }
  }
}
layer {
  name: "pool1"
  type: "Pooling"
  bottom: "conv1"
  top: "pool1"
  pooling_param {
    pool: MAX
    kernel_size: 2
    stride: 2
  }
}
layer {
  name: "conv2"
  type: "Convolution"
  bottom: "pool1"
  top: "conv2"
  param {
    lr_mult: 1
  }
  param {
    lr_mult: 2
  }
  convolution_param {
    num_output: 50
    kernel_size: 5
    stride: 1
    weight_filler {
      type: "xavier"
    }
    bias_filler {
      type: "constant"
    }
  }
}
layer {
  name: "pool2"
  type: "Pooling"
  bottom: "conv2"
  top: "pool2"
  pooling_param {
    pool: MAX
    kernel_size: 2
    stride: 2
  }
}
layer {
  name: "ip1"
  type: "InnerProduct"
  bottom: "pool2"
  top: "ip1"
  param {
    lr_mult: 1
  }
  param {
    lr_mult: 2
  }
  inner_product_param {
    num_output: 500
    weight_filler {
      type: "xavier"
    }
    bias_filler {
      type: "constant"
    }
  }
}
layer {
  name: "relu1"
  type: "ReLU"
  bottom: "ip1"
  top: "ip1"
}
layer {
  name: "ip2"
  type: "InnerProduct"
  bottom: "ip1"
  top: "ip2"
  param {
    lr_mult: 1
  }
  param {
    lr_mult: 2
  }
  inner_product_param {
    num_output: 52
    weight_filler {
      type: "xavier"
    }
    bias_filler {
      type: "constant"
    }
  }
}
layer {
  name: "loss"
  type: "SoftmaxWithLoss"
  bottom: "ip2"
  bottom: "label"
  top: "loss"
}
I0501 23:43:26.177616 18130 layer_factory.hpp:77] Creating layer data
I0501 23:43:26.177736 18130 db_lmdb.cpp:35] Opened lmdb examples/final_sp/sp_train_lmdb
I0501 23:43:26.177755 18130 net.cpp:84] Creating Layer data
I0501 23:43:26.177762 18130 net.cpp:380] data -> data
I0501 23:43:26.177778 18130 net.cpp:380] data -> label
I0501 23:43:26.178292 18130 data_layer.cpp:45] output data size: 64,3,28,28
I0501 23:43:26.182243 18130 net.cpp:122] Setting up data
I0501 23:43:26.182281 18130 net.cpp:129] Top shape: 64 3 28 28 (150528)
I0501 23:43:26.182288 18130 net.cpp:129] Top shape: 64 (64)
I0501 23:43:26.182291 18130 net.cpp:137] Memory required for data: 602368
I0501 23:43:26.182304 18130 layer_factory.hpp:77] Creating layer conv1
I0501 23:43:26.182332 18130 net.cpp:84] Creating Layer conv1
I0501 23:43:26.182339 18130 net.cpp:406] conv1 <- data
I0501 23:43:26.182354 18130 net.cpp:380] conv1 -> conv1
I0501 23:43:26.188623 18130 net.cpp:122] Setting up conv1
I0501 23:43:26.188652 18130 net.cpp:129] Top shape: 64 20 24 24 (737280)
I0501 23:43:26.188655 18130 net.cpp:137] Memory required for data: 3551488
I0501 23:43:26.188683 18130 layer_factory.hpp:77] Creating layer pool1
I0501 23:43:26.188699 18130 net.cpp:84] Creating Layer pool1
I0501 23:43:26.188716 18130 net.cpp:406] pool1 <- conv1
I0501 23:43:26.188725 18130 net.cpp:380] pool1 -> pool1
I0501 23:43:26.189144 18130 net.cpp:122] Setting up pool1
I0501 23:43:26.189153 18130 net.cpp:129] Top shape: 64 20 12 12 (184320)
I0501 23:43:26.189159 18130 net.cpp:137] Memory required for data: 4288768
I0501 23:43:26.189164 18130 layer_factory.hpp:77] Creating layer conv2
I0501 23:43:26.189177 18130 net.cpp:84] Creating Layer conv2
I0501 23:43:26.189180 18130 net.cpp:406] conv2 <- pool1
I0501 23:43:26.189188 18130 net.cpp:380] conv2 -> conv2
I0501 23:43:26.190229 18130 net.cpp:122] Setting up conv2
I0501 23:43:26.190335 18130 net.cpp:129] Top shape: 64 50 8 8 (204800)
I0501 23:43:26.190343 18130 net.cpp:137] Memory required for data: 5107968
I0501 23:43:26.190395 18130 layer_factory.hpp:77] Creating layer pool2
I0501 23:43:26.190431 18130 net.cpp:84] Creating Layer pool2
I0501 23:43:26.190438 18130 net.cpp:406] pool2 <- conv2
I0501 23:43:26.190459 18130 net.cpp:380] pool2 -> pool2
I0501 23:43:26.190783 18130 net.cpp:122] Setting up pool2
I0501 23:43:26.190793 18130 net.cpp:129] Top shape: 64 50 4 4 (51200)
I0501 23:43:26.190826 18130 net.cpp:137] Memory required for data: 5312768
I0501 23:43:26.190855 18130 layer_factory.hpp:77] Creating layer ip1
I0501 23:43:26.190896 18130 net.cpp:84] Creating Layer ip1
I0501 23:43:26.190903 18130 net.cpp:406] ip1 <- pool2
I0501 23:43:26.190932 18130 net.cpp:380] ip1 -> ip1
I0501 23:43:26.194739 18130 net.cpp:122] Setting up ip1
I0501 23:43:26.194756 18130 net.cpp:129] Top shape: 64 500 (32000)
I0501 23:43:26.194759 18130 net.cpp:137] Memory required for data: 5440768
I0501 23:43:26.194818 18130 layer_factory.hpp:77] Creating layer relu1
I0501 23:43:26.194849 18130 net.cpp:84] Creating Layer relu1
I0501 23:43:26.194855 18130 net.cpp:406] relu1 <- ip1
I0501 23:43:26.194916 18130 net.cpp:367] relu1 -> ip1 (in-place)
I0501 23:43:26.194947 18130 net.cpp:122] Setting up relu1
I0501 23:43:26.194954 18130 net.cpp:129] Top shape: 64 500 (32000)
I0501 23:43:26.194977 18130 net.cpp:137] Memory required for data: 5568768
I0501 23:43:26.194999 18130 layer_factory.hpp:77] Creating layer ip2
I0501 23:43:26.195027 18130 net.cpp:84] Creating Layer ip2
I0501 23:43:26.195032 18130 net.cpp:406] ip2 <- ip1
I0501 23:43:26.195060 18130 net.cpp:380] ip2 -> ip2
I0501 23:43:26.195268 18130 net.cpp:122] Setting up ip2
I0501 23:43:26.195276 18130 net.cpp:129] Top shape: 64 52 (3328)
I0501 23:43:26.195278 18130 net.cpp:137] Memory required for data: 5582080
I0501 23:43:26.195286 18130 layer_factory.hpp:77] Creating layer loss
I0501 23:43:26.195297 18130 net.cpp:84] Creating Layer loss
I0501 23:43:26.195302 18130 net.cpp:406] loss <- ip2
I0501 23:43:26.195307 18130 net.cpp:406] loss <- label
I0501 23:43:26.195317 18130 net.cpp:380] loss -> loss
I0501 23:43:26.195333 18130 layer_factory.hpp:77] Creating layer loss
…
I0501 23:43:26.195648 18130 solver.cpp:190] Creating test net (#0) specified by net file: models/sp_final_lenet/lenet_train_val.prototxt
I0501 23:43:26.195688 18130 net.cpp:294] The NetState phase (1) differed from the phase (0) specified by a rule in layer data
I0501 23:43:26.195763 18130 net.cpp:51] Initializing net from parameters: 
name: "LeNet"
state {
  phase: TEST
}
layer {
  name: "data"
  type: "Data"
  top: "data"
  top: "label"
  include {
    phase: TEST
  }
  transform_param {
    scale: 0.00390625
  }
  data_param {
    source: "examples/final_sp/sp_val_lmdb"
    batch_size: 64
    backend: LMDB
  }
}
layer {
  name: "conv1"
  type: "Convolution"
  bottom: "data"
  top: "conv1"
  param {
    lr_mult: 1
  }
  param {
    lr_mult: 2
  }
  convolution_param {
    num_output: 20
    kernel_size: 5
    stride: 1
    weight_filler {
      type: "xavier"
    }
    bias_filler {
      type: "constant"
    }
  }
}
layer {
  name: "pool1"
  type: "Pooling"
  bottom: "conv1"
  top: "pool1"
  pooling_param {
    pool: MAX
    kernel_size: 2
    stride: 2
  }
}
layer {
  name: "conv2"
  type: "Convolution"
  bottom: "pool1"
  top: "conv2"
  param {
    lr_mult: 1
  }
  param {
    lr_mult: 2
  }
  convolution_param {
    num_output: 50
    kernel_size: 5
    stride: 1
    weight_filler {
      type: "xavier"
    }
    bias_filler {
      type: "constant"
    }
  }
}
layer {
  name: "pool2"
  type: "Pooling"
  bottom: "conv2"
  top: "pool2"
  pooling_param {
    pool: MAX
    kernel_size: 2
    stride: 2
  }
}
layer {
  name: "ip1"
  type: "InnerProduct"
  bottom: "pool2"
  top: "ip1"
  param {
    lr_mult: 1
  }
  param {
    lr_mult: 2
  }
  inner_product_param {
    num_output: 500
    weight_filler {
      type: "xavier"
    }
    bias_filler {
      type: "constant"
    }
  }
}
layer {
  name: "relu1"
  type: "ReLU"
  bottom: "ip1"
  top: "ip1"
}
layer {
  name: "ip2"
  type: "InnerProduct"
  bottom: "ip1"
  top: "ip2"
  param {
    lr_mult: 1
  }
  param {
    lr_mult: 2
  }
  inner_product_param {
    num_output: 52
    weight_filler {
      type: "xavier"
    }
    bias_filler {
      type: "constant"
    }
  }
}
layer {
  name: "accuracy"
  type: "Accuracy"
  bottom: "ip2"
  bottom: "label"
  top: "accuracy"
  include {
    phase: TEST
  }
}
layer {
  name: "loss"
  type: "SoftmaxWithLoss"
  bottom: "ip2"
  bottom: "label"
  top: "loss"
}
I0501 23:43:26.195829 18130 layer_factory.hpp:77] Creating layer data
I0501 23:43:26.195888 18130 db_lmdb.cpp:35] Opened lmdb examples/final_sp/sp_val_lmdb
I0501 23:43:26.195902 18130 net.cpp:84] Creating Layer data
I0501 23:43:26.195909 18130 net.cpp:380] data -> data
I0501 23:43:26.195916 18130 net.cpp:380] data -> label
I0501 23:43:26.195983 18130 data_layer.cpp:45] output data size: 64,3,28,28
I0501 23:43:26.207721 18130 net.cpp:122] Setting up data
I0501 23:43:26.207799 18130 net.cpp:129] Top shape: 64 3 28 28 (150528)
I0501 23:43:26.207821 18130 net.cpp:129] Top shape: 64 (64)
I0501 23:43:26.207828 18130 net.cpp:137] Memory required for data: 602368
I0501 23:43:26.207835 18130 layer_factory.hpp:77] Creating layer label_data_1_split
I0501 23:43:26.207850 18130 net.cpp:84] Creating Layer label_data_1_split
I0501 23:43:26.207855 18130 net.cpp:406] label_data_1_split <- label
I0501 23:43:26.207867 18130 net.cpp:380] label_data_1_split -> label_data_1_split_0
I0501 23:43:26.207881 18130 net.cpp:380] label_data_1_split -> label_data_1_split_1
I0501 23:43:26.207929 18130 net.cpp:122] Setting up label_data_1_split
I0501 23:43:26.207937 18130 net.cpp:129] Top shape: 64 (64)
I0501 23:43:26.207942 18130 net.cpp:129] Top shape: 64 (64)
I0501 23:43:26.207944 18130 net.cpp:137] Memory required for data: 602880
I0501 23:43:26.207948 18130 layer_factory.hpp:77] Creating layer conv1
I0501 23:43:26.207963 18130 net.cpp:84] Creating Layer conv1
I0501 23:43:26.207983 18130 net.cpp:406] conv1 <- data
I0501 23:43:26.208016 18130 net.cpp:380] conv1 -> conv1
I0501 23:43:26.208236 18130 net.cpp:122] Setting up conv1
I0501 23:43:26.208246 18130 net.cpp:129] Top shape: 64 20 24 24 (737280)
I0501 23:43:26.208250 18130 net.cpp:137] Memory required for data: 3552000
I0501 23:43:26.208262 18130 layer_factory.hpp:77] Creating layer pool1
I0501 23:43:26.208284 18130 net.cpp:84] Creating Layer pool1
I0501 23:43:26.208289 18130 net.cpp:406] pool1 <- conv1
I0501 23:43:26.208298 18130 net.cpp:380] pool1 -> pool1
I0501 23:43:26.208353 18130 net.cpp:122] Setting up pool1
I0501 23:43:26.208361 18130 net.cpp:129] Top shape: 64 20 12 12 (184320)
I0501 23:43:26.208365 18130 net.cpp:137] Memory required for data: 4289280
I0501 23:43:26.208369 18130 layer_factory.hpp:77] Creating layer conv2
I0501 23:43:26.208384 18130 net.cpp:84] Creating Layer conv2
I0501 23:43:26.208389 18130 net.cpp:406] conv2 <- pool1
I0501 23:43:26.208395 18130 net.cpp:380] conv2 -> conv2
I0501 23:43:26.208721 18130 net.cpp:122] Setting up conv2
I0501 23:43:26.208730 18130 net.cpp:129] Top shape: 64 50 8 8 (204800)
I0501 23:43:26.208734 18130 net.cpp:137] Memory required for data: 5108480
I0501 23:43:26.208745 18130 layer_factory.hpp:77] Creating layer pool2
I0501 23:43:26.208752 18130 net.cpp:84] Creating Layer pool2
I0501 23:43:26.208756 18130 net.cpp:406] pool2 <- conv2
I0501 23:43:26.208765 18130 net.cpp:380] pool2 -> pool2
I0501 23:43:26.208794 18130 net.cpp:122] Setting up pool2
I0501 23:43:26.208801 18130 net.cpp:129] Top shape: 64 50 4 4 (51200)
I0501 23:43:26.208806 18130 net.cpp:137] Memory required for data: 5313280
I0501 23:43:26.208809 18130 layer_factory.hpp:77] Creating layer ip1
I0501 23:43:26.208818 18130 net.cpp:84] Creating Layer ip1
I0501 23:43:26.208822 18130 net.cpp:406] ip1 <- pool2
I0501 23:43:26.208830 18130 net.cpp:380] ip1 -> ip1
I0501 23:43:26.211186 18130 net.cpp:122] Setting up ip1
I0501 23:43:26.211205 18130 net.cpp:129] Top shape: 64 500 (32000)
I0501 23:43:26.211210 18130 net.cpp:137] Memory required for data: 5441280
I0501 23:43:26.211228 18130 layer_factory.hpp:77] Creating layer relu1
I0501 23:43:26.211239 18130 net.cpp:84] Creating Layer relu1
I0501 23:43:26.211251 18130 net.cpp:406] relu1 <- ip1
I0501 23:43:26.211261 18130 net.cpp:367] relu1 -> ip1 (in-place)
I0501 23:43:26.211272 18130 net.cpp:122] Setting up relu1
I0501 23:43:26.211277 18130 net.cpp:129] Top shape: 64 500 (32000)
I0501 23:43:26.211280 18130 net.cpp:137] Memory required for data: 5569280
I0501 23:43:26.211284 18130 layer_factory.hpp:77] Creating layer ip2
I0501 23:43:26.211299 18130 net.cpp:84] Creating Layer ip2
I0501 23:43:26.211307 18130 net.cpp:406] ip2 <- ip1
I0501 23:43:26.211314 18130 net.cpp:380] ip2 -> ip2
I0501 23:43:26.211513 18130 net.cpp:122] Setting up ip2
I0501 23:43:26.211521 18130 net.cpp:129] Top shape: 64 52 (3328)
I0501 23:43:26.211525 18130 net.cpp:137] Memory required for data: 5582592
I0501 23:43:26.211532 18130 layer_factory.hpp:77] Creating layer ip2_ip2_0_split
I0501 23:43:26.211539 18130 net.cpp:84] Creating Layer ip2_ip2_0_split
I0501 23:43:26.211544 18130 net.cpp:406] ip2_ip2_0_split <- ip2
I0501 23:43:26.211551 18130 net.cpp:380] ip2_ip2_0_split -> ip2_ip2_0_split_0
I0501 23:43:26.211560 18130 net.cpp:380] ip2_ip2_0_split -> ip2_ip2_0_split_1
I0501 23:43:26.211606 18130 net.cpp:122] Setting up ip2_ip2_0_split
I0501 23:43:26.211611 18130 net.cpp:129] Top shape: 64 52 (3328)
I0501 23:43:26.211616 18130 net.cpp:129] Top shape: 64 52 (3328)
I0501 23:43:26.211619 18130 net.cpp:137] Memory required for data: 5609216
I0501 23:43:26.211623 18130 layer_factory.hpp:77] Creating layer accuracy
I0501 23:43:26.211630 18130 net.cpp:84] Creating Layer accuracy
I0501 23:43:26.211634 18130 net.cpp:406] accuracy <- ip2_ip2_0_split_0
I0501 23:43:26.211640 18130 net.cpp:406] accuracy <- label_data_1_split_0
I0501 23:43:26.211647 18130 net.cpp:380] accuracy -> accuracy
…
