…
I0502 00:05:35.583540 18994 net.cpp:294] The NetState phase (0) differed from the phase (1) specified by a rule in layer data
I0502 00:05:35.583551 18994 net.cpp:294] The NetState phase (0) differed from the phase (1) specified by a rule in layer accuracy
I0502 00:05:35.583626 18994 net.cpp:51] Initializing net from parameters: 
name: "LeNet"
state {
  phase: TRAIN
  level: 0
  stage: ""
}
layer {
  name: "data"
  type: "Data"
  top: "data"
  top: "label"
  include {
    phase: TRAIN
  }
  transform_param {
    scale: 0.00390625
  }
  data_param {
    source: "examples/final_sp/sp_train_lmdb"
    batch_size: 64
    backend: LMDB
  }
}
layer {
  name: "conv1"
  type: "Convolution"
  bottom: "data"
  top: "conv1"
  param {
    lr_mult: 1
  }
  param {
    lr_mult: 2
  }
  convolution_param {
    num_output: 20
    kernel_size: 5
    stride: 1
    weight_filler {
      type: "xavier"
    }
    bias_filler {
      type: "constant"
    }
  }
}
layer {
  name: "pool1"
  type: "Pooling"
  bottom: "conv1"
  top: "pool1"
  pooling_param {
    pool: MAX
    kernel_size: 2
    stride: 2
  }
}
layer {
  name: "conv2"
  type: "Convolution"
  bottom: "pool1"
  top: "conv2"
  param {
    lr_mult: 1
  }
  param {
    lr_mult: 2
  }
  convolution_param {
    num_output: 50
    kernel_size: 5
    stride: 1
    weight_filler {
      type: "xavier"
    }
    bias_filler {
      type: "constant"
    }
  }
}
layer {
  name: "pool2"
  type: "Pooling"
  bottom: "conv2"
  top: "pool2"
  pooling_param {
    pool: MAX
    kernel_size: 2
    stride: 2
  }
}
layer {
  name: "ip1"
  type: "InnerProduct"
  bottom: "pool2"
  top: "ip1"
  param {
    lr_mult: 1
  }
  param {
    lr_mult: 2
  }
  inner_product_param {
    num_output: 500
    weight_filler {
      type: "xavier"
    }
    bias_filler {
      type: "constant"
    }
  }
}
layer {
  name: "relu1"
  type: "ReLU"
  bottom: "ip1"
  top: "ip1"
}
layer {
  name: "ip2"
  type: "InnerProduct"
  bottom: "ip1"
  top: "ip2"
  param {
    lr_mult: 1
  }
  param {
    lr_mult: 2
  }
  inner_product_param {
    num_output: 52
    weight_filler {
      type: "xavier"
    }
    bias_filler {
      type: "constant"
    }
  }
}
layer {
  name: "loss"
  type: "SoftmaxWithLoss"
  bottom: "ip2"
  bottom: "label"
  top: "loss"
}
I0502 00:05:35.583672 18994 layer_factory.hpp:77] Creating layer data
I0502 00:05:35.583782 18994 db_lmdb.cpp:35] Opened lmdb examples/final_sp/sp_train_lmdb
I0502 00:05:35.583828 18994 net.cpp:84] Creating Layer data
I0502 00:05:35.583839 18994 net.cpp:380] data -> data
I0502 00:05:35.583856 18994 net.cpp:380] data -> label
I0502 00:05:35.584383 18994 data_layer.cpp:45] output data size: 64,3,28,28
I0502 00:05:35.588331 18994 net.cpp:122] Setting up data
I0502 00:05:35.588356 18994 net.cpp:129] Top shape: 64 3 28 28 (150528)
I0502 00:05:35.588361 18994 net.cpp:129] Top shape: 64 (64)
I0502 00:05:35.588363 18994 net.cpp:137] Memory required for data: 602368
I0502 00:05:35.588373 18994 layer_factory.hpp:77] Creating layer conv1
I0502 00:05:35.588407 18994 net.cpp:84] Creating Layer conv1
I0502 00:05:35.588414 18994 net.cpp:406] conv1 <- data
I0502 00:05:35.588450 18994 net.cpp:380] conv1 -> conv1
I0502 00:05:35.589759 18994 net.cpp:122] Setting up conv1
I0502 00:05:35.589772 18994 net.cpp:129] Top shape: 64 20 24 24 (737280)
I0502 00:05:35.589776 18994 net.cpp:137] Memory required for data: 3551488
I0502 00:05:35.589798 18994 layer_factory.hpp:77] Creating layer pool1
I0502 00:05:35.589809 18994 net.cpp:84] Creating Layer pool1
I0502 00:05:35.589833 18994 net.cpp:406] pool1 <- conv1
I0502 00:05:35.589843 18994 net.cpp:380] pool1 -> pool1
I0502 00:05:35.589932 18994 net.cpp:122] Setting up pool1
I0502 00:05:35.589939 18994 net.cpp:129] Top shape: 64 20 12 12 (184320)
I0502 00:05:35.589942 18994 net.cpp:137] Memory required for data: 4288768
I0502 00:05:35.589946 18994 layer_factory.hpp:77] Creating layer conv2
I0502 00:05:35.589959 18994 net.cpp:84] Creating Layer conv2
I0502 00:05:35.589967 18994 net.cpp:406] conv2 <- pool1
I0502 00:05:35.589977 18994 net.cpp:380] conv2 -> conv2
I0502 00:05:35.591070 18994 net.cpp:122] Setting up conv2
I0502 00:05:35.591084 18994 net.cpp:129] Top shape: 64 50 8 8 (204800)
I0502 00:05:35.591085 18994 net.cpp:137] Memory required for data: 5107968
I0502 00:05:35.591096 18994 layer_factory.hpp:77] Creating layer pool2
I0502 00:05:35.591121 18994 net.cpp:84] Creating Layer pool2
I0502 00:05:35.591128 18994 net.cpp:406] pool2 <- conv2
I0502 00:05:35.591135 18994 net.cpp:380] pool2 -> pool2
I0502 00:05:35.591174 18994 net.cpp:122] Setting up pool2
I0502 00:05:35.591181 18994 net.cpp:129] Top shape: 64 50 4 4 (51200)
I0502 00:05:35.591184 18994 net.cpp:137] Memory required for data: 5312768
I0502 00:05:35.591188 18994 layer_factory.hpp:77] Creating layer ip1
I0502 00:05:35.591197 18994 net.cpp:84] Creating Layer ip1
I0502 00:05:35.591202 18994 net.cpp:406] ip1 <- pool2
I0502 00:05:35.591209 18994 net.cpp:380] ip1 -> ip1
I0502 00:05:35.593436 18994 net.cpp:122] Setting up ip1
I0502 00:05:35.593449 18994 net.cpp:129] Top shape: 64 500 (32000)
I0502 00:05:35.593452 18994 net.cpp:137] Memory required for data: 5440768
I0502 00:05:35.593492 18994 layer_factory.hpp:77] Creating layer relu1
I0502 00:05:35.593503 18994 net.cpp:84] Creating Layer relu1
I0502 00:05:35.593508 18994 net.cpp:406] relu1 <- ip1
I0502 00:05:35.593515 18994 net.cpp:367] relu1 -> ip1 (in-place)
I0502 00:05:35.593528 18994 net.cpp:122] Setting up relu1
I0502 00:05:35.593533 18994 net.cpp:129] Top shape: 64 500 (32000)
I0502 00:05:35.593538 18994 net.cpp:137] Memory required for data: 5568768
I0502 00:05:35.593559 18994 layer_factory.hpp:77] Creating layer ip2
I0502 00:05:35.593569 18994 net.cpp:84] Creating Layer ip2
I0502 00:05:35.593575 18994 net.cpp:406] ip2 <- ip1
I0502 00:05:35.593580 18994 net.cpp:380] ip2 -> ip2
I0502 00:05:35.593901 18994 net.cpp:122] Setting up ip2
I0502 00:05:35.593909 18994 net.cpp:129] Top shape: 64 52 (3328)
I0502 00:05:35.593914 18994 net.cpp:137] Memory required for data: 5582080
I0502 00:05:35.593920 18994 layer_factory.hpp:77] Creating layer loss
I0502 00:05:35.593930 18994 net.cpp:84] Creating Layer loss
I0502 00:05:35.593935 18994 net.cpp:406] loss <- ip2
I0502 00:05:35.593940 18994 net.cpp:406] loss <- label
I0502 00:05:35.593948 18994 net.cpp:380] loss -> loss
I0502 00:05:35.593966 18994 layer_factory.hpp:77] Creating layer loss
…
I0502 00:05:35.594389 18994 solver.cpp:190] Creating test net (#0) specified by net file: models/sp_final_lenet/lenet_train_val.prototxt
I0502 00:05:35.594430 18994 net.cpp:294] The NetState phase (1) differed from the phase (0) specified by a rule in layer data
I0502 00:05:35.594539 18994 net.cpp:51] Initializing net from parameters: 
name: "LeNet"
state {
  phase: TEST
}
layer {
  name: "data"
  type: "Data"
  top: "data"
  top: "label"
  include {
    phase: TEST
  }
  transform_param {
    scale: 0.00390625
  }
  data_param {
    source: "examples/final_sp/sp_val_lmdb"
    batch_size: 64
    backend: LMDB
  }
}
layer {
  name: "conv1"
  type: "Convolution"
  bottom: "data"
  top: "conv1"
  param {
    lr_mult: 1
  }
  param {
    lr_mult: 2
  }
  convolution_param {
    num_output: 20
    kernel_size: 5
    stride: 1
    weight_filler {
      type: "xavier"
    }
    bias_filler {
      type: "constant"
    }
  }
}
layer {
  name: "pool1"
  type: "Pooling"
  bottom: "conv1"
  top: "pool1"
  pooling_param {
    pool: MAX
    kernel_size: 2
    stride: 2
  }
}
layer {
  name: "conv2"
  type: "Convolution"
  bottom: "pool1"
  top: "conv2"
  param {
    lr_mult: 1
  }
  param {
    lr_mult: 2
  }
  convolution_param {
    num_output: 50
    kernel_size: 5
    stride: 1
    weight_filler {
      type: "xavier"
    }
    bias_filler {
      type: "constant"
    }
  }
}
layer {
  name: "pool2"
  type: "Pooling"
  bottom: "conv2"
  top: "pool2"
  pooling_param {
    pool: MAX
    kernel_size: 2
    stride: 2
  }
}
layer {
  name: "ip1"
  type: "InnerProduct"
  bottom: "pool2"
  top: "ip1"
  param {
    lr_mult: 1
  }
  param {
    lr_mult: 2
  }
  inner_product_param {
    num_output: 500
    weight_filler {
      type: "xavier"
    }
    bias_filler {
      type: "constant"
    }
  }
}
layer {
  name: "relu1"
  type: "ReLU"
  bottom: "ip1"
  top: "ip1"
}
layer {
  name: "ip2"
  type: "InnerProduct"
  bottom: "ip1"
  top: "ip2"
  param {
    lr_mult: 1
  }
  param {
    lr_mult: 2
  }
  inner_product_param {
    num_output: 52
    weight_filler {
      type: "xavier"
    }
    bias_filler {
      type: "constant"
    }
  }
}
layer {
  name: "accuracy"
  type: "Accuracy"
  bottom: "ip2"
  bottom: "label"
  top: "accuracy"
  include {
    phase: TEST
  }
}
layer {
  name: "loss"
  type: "SoftmaxWithLoss"
  bottom: "ip2"
  bottom: "label"
  top: "loss"
}
I0502 00:05:35.594619 18994 layer_factory.hpp:77] Creating layer data
I0502 00:05:35.594696 18994 db_lmdb.cpp:35] Opened lmdb examples/final_sp/sp_val_lmdb
I0502 00:05:35.594714 18994 net.cpp:84] Creating Layer data
I0502 00:05:35.594725 18994 net.cpp:380] data -> data
I0502 00:05:35.594753 18994 net.cpp:380] data -> label
I0502 00:05:35.594857 18994 data_layer.cpp:45] output data size: 64,3,28,28
I0502 00:05:35.599953 18994 net.cpp:122] Setting up data
I0502 00:05:35.599982 18994 net.cpp:129] Top shape: 64 3 28 28 (150528)
I0502 00:05:35.599988 18994 net.cpp:129] Top shape: 64 (64)
I0502 00:05:35.599992 18994 net.cpp:137] Memory required for data: 602368
I0502 00:05:35.599999 18994 layer_factory.hpp:77] Creating layer label_data_1_split
I0502 00:05:35.600014 18994 net.cpp:84] Creating Layer label_data_1_split
I0502 00:05:35.600021 18994 net.cpp:406] label_data_1_split <- label
I0502 00:05:35.600033 18994 net.cpp:380] label_data_1_split -> label_data_1_split_0
I0502 00:05:35.600046 18994 net.cpp:380] label_data_1_split -> label_data_1_split_1
I0502 00:05:35.600095 18994 net.cpp:122] Setting up label_data_1_split
I0502 00:05:35.600105 18994 net.cpp:129] Top shape: 64 (64)
I0502 00:05:35.600111 18994 net.cpp:129] Top shape: 64 (64)
I0502 00:05:35.600116 18994 net.cpp:137] Memory required for data: 602880
I0502 00:05:35.600119 18994 layer_factory.hpp:77] Creating layer conv1
I0502 00:05:35.600134 18994 net.cpp:84] Creating Layer conv1
I0502 00:05:35.600152 18994 net.cpp:406] conv1 <- data
I0502 00:05:35.600172 18994 net.cpp:380] conv1 -> conv1
I0502 00:05:35.600361 18994 net.cpp:122] Setting up conv1
I0502 00:05:35.600370 18994 net.cpp:129] Top shape: 64 20 24 24 (737280)
I0502 00:05:35.600375 18994 net.cpp:137] Memory required for data: 3552000
I0502 00:05:35.600386 18994 layer_factory.hpp:77] Creating layer pool1
I0502 00:05:35.600404 18994 net.cpp:84] Creating Layer pool1
I0502 00:05:35.600410 18994 net.cpp:406] pool1 <- conv1
I0502 00:05:35.600419 18994 net.cpp:380] pool1 -> pool1
I0502 00:05:35.600452 18994 net.cpp:122] Setting up pool1
I0502 00:05:35.600459 18994 net.cpp:129] Top shape: 64 20 12 12 (184320)
I0502 00:05:35.600463 18994 net.cpp:137] Memory required for data: 4289280
I0502 00:05:35.600468 18994 layer_factory.hpp:77] Creating layer conv2
I0502 00:05:35.600494 18994 net.cpp:84] Creating Layer conv2
I0502 00:05:35.600499 18994 net.cpp:406] conv2 <- pool1
I0502 00:05:35.600507 18994 net.cpp:380] conv2 -> conv2
I0502 00:05:35.600819 18994 net.cpp:122] Setting up conv2
I0502 00:05:35.600828 18994 net.cpp:129] Top shape: 64 50 8 8 (204800)
I0502 00:05:35.600832 18994 net.cpp:137] Memory required for data: 5108480
I0502 00:05:35.600842 18994 layer_factory.hpp:77] Creating layer pool2
I0502 00:05:35.600852 18994 net.cpp:84] Creating Layer pool2
I0502 00:05:35.600857 18994 net.cpp:406] pool2 <- conv2
I0502 00:05:35.600864 18994 net.cpp:380] pool2 -> pool2
I0502 00:05:35.601205 18994 net.cpp:122] Setting up pool2
I0502 00:05:35.601213 18994 net.cpp:129] Top shape: 64 50 4 4 (51200)
I0502 00:05:35.601217 18994 net.cpp:137] Memory required for data: 5313280
I0502 00:05:35.601222 18994 layer_factory.hpp:77] Creating layer ip1
I0502 00:05:35.601231 18994 net.cpp:84] Creating Layer ip1
I0502 00:05:35.601236 18994 net.cpp:406] ip1 <- pool2
I0502 00:05:35.601243 18994 net.cpp:380] ip1 -> ip1
I0502 00:05:35.603868 18994 net.cpp:122] Setting up ip1
I0502 00:05:35.603885 18994 net.cpp:129] Top shape: 64 500 (32000)
I0502 00:05:35.603891 18994 net.cpp:137] Memory required for data: 5441280
I0502 00:05:35.603904 18994 layer_factory.hpp:77] Creating layer relu1
I0502 00:05:35.603914 18994 net.cpp:84] Creating Layer relu1
I0502 00:05:35.603930 18994 net.cpp:406] relu1 <- ip1
I0502 00:05:35.603940 18994 net.cpp:367] relu1 -> ip1 (in-place)
I0502 00:05:35.603951 18994 net.cpp:122] Setting up relu1
I0502 00:05:35.603958 18994 net.cpp:129] Top shape: 64 500 (32000)
I0502 00:05:35.603961 18994 net.cpp:137] Memory required for data: 5569280
I0502 00:05:35.603965 18994 layer_factory.hpp:77] Creating layer ip2
I0502 00:05:35.603979 18994 net.cpp:84] Creating Layer ip2
I0502 00:05:35.603983 18994 net.cpp:406] ip2 <- ip1
I0502 00:05:35.603988 18994 net.cpp:380] ip2 -> ip2
I0502 00:05:35.604221 18994 net.cpp:122] Setting up ip2
I0502 00:05:35.604228 18994 net.cpp:129] Top shape: 64 52 (3328)
I0502 00:05:35.604230 18994 net.cpp:137] Memory required for data: 5582592
I0502 00:05:35.604238 18994 layer_factory.hpp:77] Creating layer ip2_ip2_0_split
I0502 00:05:35.604248 18994 net.cpp:84] Creating Layer ip2_ip2_0_split
I0502 00:05:35.604251 18994 net.cpp:406] ip2_ip2_0_split <- ip2
I0502 00:05:35.604260 18994 net.cpp:380] ip2_ip2_0_split -> ip2_ip2_0_split_0
I0502 00:05:35.604270 18994 net.cpp:380] ip2_ip2_0_split -> ip2_ip2_0_split_1
I0502 00:05:35.604305 18994 net.cpp:122] Setting up ip2_ip2_0_split
I0502 00:05:35.604310 18994 net.cpp:129] Top shape: 64 52 (3328)
I0502 00:05:35.604313 18994 net.cpp:129] Top shape: 64 52 (3328)
I0502 00:05:35.604317 18994 net.cpp:137] Memory required for data: 5609216
I0502 00:05:35.604321 18994 layer_factory.hpp:77] Creating layer accuracy
I0502 00:05:35.604331 18994 net.cpp:84] Creating Layer accuracy
I0502 00:05:35.604336 18994 net.cpp:406] accuracy <- ip2_ip2_0_split_0
I0502 00:05:35.604339 18994 net.cpp:406] accuracy <- label_data_1_split_0
I0502 00:05:35.604348 18994 net.cpp:380] accuracy -> accuracy
…
