…
I0501 23:54:43.036089 18731 net.cpp:294] The NetState phase (0) differed from the phase (1) specified by a rule in layer data
I0501 23:54:43.036103 18731 net.cpp:294] The NetState phase (0) differed from the phase (1) specified by a rule in layer accuracy
I0501 23:54:43.036168 18731 net.cpp:51] Initializing net from parameters: 
name: "LeNet"
state {
  phase: TRAIN
  level: 0
  stage: ""
}
layer {
  name: "data"
  type: "Data"
  top: "data"
  top: "label"
  include {
    phase: TRAIN
  }
  transform_param {
    scale: 0.00390625
  }
  data_param {
    source: "examples/final_sp/sp_train_lmdb"
    batch_size: 64
    backend: LMDB
  }
}
layer {
  name: "conv1"
  type: "Convolution"
  bottom: "data"
  top: "conv1"
  param {
    lr_mult: 1
  }
  param {
    lr_mult: 2
  }
  convolution_param {
    num_output: 20
    kernel_size: 5
    stride: 1
    weight_filler {
      type: "xavier"
    }
    bias_filler {
      type: "constant"
    }
  }
}
layer {
  name: "pool1"
  type: "Pooling"
  bottom: "conv1"
  top: "pool1"
  pooling_param {
    pool: MAX
    kernel_size: 2
    stride: 2
  }
}
layer {
  name: "conv2"
  type: "Convolution"
  bottom: "pool1"
  top: "conv2"
  param {
    lr_mult: 1
  }
  param {
    lr_mult: 2
  }
  convolution_param {
    num_output: 50
    kernel_size: 5
    stride: 1
    weight_filler {
      type: "xavier"
    }
    bias_filler {
      type: "constant"
    }
  }
}
layer {
  name: "pool2"
  type: "Pooling"
  bottom: "conv2"
  top: "pool2"
  pooling_param {
    pool: MAX
    kernel_size: 2
    stride: 2
  }
}
layer {
  name: "ip1"
  type: "InnerProduct"
  bottom: "pool2"
  top: "ip1"
  param {
    lr_mult: 1
  }
  param {
    lr_mult: 2
  }
  inner_product_param {
    num_output: 500
    weight_filler {
      type: "xavier"
    }
    bias_filler {
      type: "constant"
    }
  }
}
layer {
  name: "relu1"
  type: "ReLU"
  bottom: "ip1"
  top: "ip1"
}
layer {
  name: "ip2"
  type: "InnerProduct"
  bottom: "ip1"
  top: "ip2"
  param {
    lr_mult: 1
  }
  param {
    lr_mult: 2
  }
  inner_product_param {
    num_output: 52
    weight_filler {
      type: "xavier"
    }
    bias_filler {
      type: "constant"
    }
  }
}
layer {
  name: "loss"
  type: "SoftmaxWithLoss"
  bottom: "ip2"
  bottom: "label"
  top: "loss"
}
I0501 23:54:43.036226 18731 layer_factory.hpp:77] Creating layer data
I0501 23:54:43.036310 18731 db_lmdb.cpp:35] Opened lmdb examples/final_sp/sp_train_lmdb
I0501 23:54:43.036334 18731 net.cpp:84] Creating Layer data
I0501 23:54:43.036343 18731 net.cpp:380] data -> data
I0501 23:54:43.036365 18731 net.cpp:380] data -> label
I0501 23:54:43.036908 18731 data_layer.cpp:45] output data size: 64,3,28,28
I0501 23:54:43.040778 18731 net.cpp:122] Setting up data
I0501 23:54:43.040804 18731 net.cpp:129] Top shape: 64 3 28 28 (150528)
I0501 23:54:43.040810 18731 net.cpp:129] Top shape: 64 (64)
I0501 23:54:43.040814 18731 net.cpp:137] Memory required for data: 602368
I0501 23:54:43.040827 18731 layer_factory.hpp:77] Creating layer conv1
I0501 23:54:43.040859 18731 net.cpp:84] Creating Layer conv1
I0501 23:54:43.040872 18731 net.cpp:406] conv1 <- data
I0501 23:54:43.040910 18731 net.cpp:380] conv1 -> conv1
I0501 23:54:43.041893 18731 net.cpp:122] Setting up conv1
I0501 23:54:43.041908 18731 net.cpp:129] Top shape: 64 20 24 24 (737280)
I0501 23:54:43.041911 18731 net.cpp:137] Memory required for data: 3551488
I0501 23:54:43.041931 18731 layer_factory.hpp:77] Creating layer pool1
I0501 23:54:43.041945 18731 net.cpp:84] Creating Layer pool1
I0501 23:54:43.041965 18731 net.cpp:406] pool1 <- conv1
I0501 23:54:43.041975 18731 net.cpp:380] pool1 -> pool1
I0501 23:54:43.042021 18731 net.cpp:122] Setting up pool1
I0501 23:54:43.042028 18731 net.cpp:129] Top shape: 64 20 12 12 (184320)
I0501 23:54:43.042032 18731 net.cpp:137] Memory required for data: 4288768
I0501 23:54:43.042037 18731 layer_factory.hpp:77] Creating layer conv2
I0501 23:54:43.042047 18731 net.cpp:84] Creating Layer conv2
I0501 23:54:43.042052 18731 net.cpp:406] conv2 <- pool1
I0501 23:54:43.042062 18731 net.cpp:380] conv2 -> conv2
I0501 23:54:43.042758 18731 net.cpp:122] Setting up conv2
I0501 23:54:43.042769 18731 net.cpp:129] Top shape: 64 50 8 8 (204800)
I0501 23:54:43.042774 18731 net.cpp:137] Memory required for data: 5107968
I0501 23:54:43.042784 18731 layer_factory.hpp:77] Creating layer pool2
I0501 23:54:43.042795 18731 net.cpp:84] Creating Layer pool2
I0501 23:54:43.042800 18731 net.cpp:406] pool2 <- conv2
I0501 23:54:43.042806 18731 net.cpp:380] pool2 -> pool2
I0501 23:54:43.043149 18731 net.cpp:122] Setting up pool2
I0501 23:54:43.043159 18731 net.cpp:129] Top shape: 64 50 4 4 (51200)
I0501 23:54:43.043162 18731 net.cpp:137] Memory required for data: 5312768
I0501 23:54:43.043166 18731 layer_factory.hpp:77] Creating layer ip1
I0501 23:54:43.043176 18731 net.cpp:84] Creating Layer ip1
I0501 23:54:43.043180 18731 net.cpp:406] ip1 <- pool2
I0501 23:54:43.043190 18731 net.cpp:380] ip1 -> ip1
I0501 23:54:43.045742 18731 net.cpp:122] Setting up ip1
I0501 23:54:43.045756 18731 net.cpp:129] Top shape: 64 500 (32000)
I0501 23:54:43.045760 18731 net.cpp:137] Memory required for data: 5440768
I0501 23:54:43.045773 18731 layer_factory.hpp:77] Creating layer relu1
I0501 23:54:43.045783 18731 net.cpp:84] Creating Layer relu1
I0501 23:54:43.045789 18731 net.cpp:406] relu1 <- ip1
I0501 23:54:43.045797 18731 net.cpp:367] relu1 -> ip1 (in-place)
I0501 23:54:43.045807 18731 net.cpp:122] Setting up relu1
I0501 23:54:43.045814 18731 net.cpp:129] Top shape: 64 500 (32000)
I0501 23:54:43.045819 18731 net.cpp:137] Memory required for data: 5568768
I0501 23:54:43.045822 18731 layer_factory.hpp:77] Creating layer ip2
I0501 23:54:43.045830 18731 net.cpp:84] Creating Layer ip2
I0501 23:54:43.045833 18731 net.cpp:406] ip2 <- ip1
I0501 23:54:43.045842 18731 net.cpp:380] ip2 -> ip2
I0501 23:54:43.046026 18731 net.cpp:122] Setting up ip2
I0501 23:54:43.046033 18731 net.cpp:129] Top shape: 64 52 (3328)
I0501 23:54:43.046037 18731 net.cpp:137] Memory required for data: 5582080
I0501 23:54:43.046044 18731 layer_factory.hpp:77] Creating layer loss
I0501 23:54:43.046054 18731 net.cpp:84] Creating Layer loss
I0501 23:54:43.046058 18731 net.cpp:406] loss <- ip2
I0501 23:54:43.046063 18731 net.cpp:406] loss <- label
I0501 23:54:43.046073 18731 net.cpp:380] loss -> loss
I0501 23:54:43.046087 18731 layer_factory.hpp:77] Creating layer loss
…
I0501 23:54:43.046397 18731 solver.cpp:190] Creating test net (#0) specified by net file: models/sp_final_lenet/lenet_train_val.prototxt
I0501 23:54:43.046429 18731 net.cpp:294] The NetState phase (1) differed from the phase (0) specified by a rule in layer data
I0501 23:54:43.046496 18731 net.cpp:51] Initializing net from parameters: 
name: "LeNet"
state {
  phase: TEST
}
layer {
  name: "data"
  type: "Data"
  top: "data"
  top: "label"
  include {
    phase: TEST
  }
  transform_param {
    scale: 0.00390625
  }
  data_param {
    source: "examples/final_sp/sp_val_lmdb"
    batch_size: 64
    backend: LMDB
  }
}
layer {
  name: "conv1"
  type: "Convolution"
  bottom: "data"
  top: "conv1"
  param {
    lr_mult: 1
  }
  param {
    lr_mult: 2
  }
  convolution_param {
    num_output: 20
    kernel_size: 5
    stride: 1
    weight_filler {
      type: "xavier"
    }
    bias_filler {
      type: "constant"
    }
  }
}
layer {
  name: "pool1"
  type: "Pooling"
  bottom: "conv1"
  top: "pool1"
  pooling_param {
    pool: MAX
    kernel_size: 2
    stride: 2
  }
}
layer {
  name: "conv2"
  type: "Convolution"
  bottom: "pool1"
  top: "conv2"
  param {
    lr_mult: 1
  }
  param {
    lr_mult: 2
  }
  convolution_param {
    num_output: 50
    kernel_size: 5
    stride: 1
    weight_filler {
      type: "xavier"
    }
    bias_filler {
      type: "constant"
    }
  }
}
layer {
  name: "pool2"
  type: "Pooling"
  bottom: "conv2"
  top: "pool2"
  pooling_param {
    pool: MAX
    kernel_size: 2
    stride: 2
  }
}
layer {
  name: "ip1"
  type: "InnerProduct"
  bottom: "pool2"
  top: "ip1"
  param {
    lr_mult: 1
  }
  param {
    lr_mult: 2
  }
  inner_product_param {
    num_output: 500
    weight_filler {
      type: "xavier"
    }
    bias_filler {
      type: "constant"
    }
  }
}
layer {
  name: "relu1"
  type: "ReLU"
  bottom: "ip1"
  top: "ip1"
}
layer {
  name: "ip2"
  type: "InnerProduct"
  bottom: "ip1"
  top: "ip2"
  param {
    lr_mult: 1
  }
  param {
    lr_mult: 2
  }
  inner_product_param {
    num_output: 52
    weight_filler {
      type: "xavier"
    }
    bias_filler {
      type: "constant"
    }
  }
}
layer {
  name: "accuracy"
  type: "Accuracy"
  bottom: "ip2"
  bottom: "label"
  top: "accuracy"
  include {
    phase: TEST
  }
}
layer {
  name: "loss"
  type: "SoftmaxWithLoss"
  bottom: "ip2"
  bottom: "label"
  top: "loss"
}
I0501 23:54:43.046545 18731 layer_factory.hpp:77] Creating layer data
I0501 23:54:43.046597 18731 db_lmdb.cpp:35] Opened lmdb examples/final_sp/sp_val_lmdb
I0501 23:54:43.046608 18731 net.cpp:84] Creating Layer data
I0501 23:54:43.046612 18731 net.cpp:380] data -> data
I0501 23:54:43.046619 18731 net.cpp:380] data -> label
I0501 23:54:43.047008 18731 data_layer.cpp:45] output data size: 64,3,28,28
I0501 23:54:43.052120 18731 net.cpp:122] Setting up data
I0501 23:54:43.052147 18731 net.cpp:129] Top shape: 64 3 28 28 (150528)
I0501 23:54:43.052153 18731 net.cpp:129] Top shape: 64 (64)
I0501 23:54:43.052156 18731 net.cpp:137] Memory required for data: 602368
I0501 23:54:43.052163 18731 layer_factory.hpp:77] Creating layer label_data_1_split
I0501 23:54:43.052177 18731 net.cpp:84] Creating Layer label_data_1_split
I0501 23:54:43.052184 18731 net.cpp:406] label_data_1_split <- label
I0501 23:54:43.052193 18731 net.cpp:380] label_data_1_split -> label_data_1_split_0
I0501 23:54:43.052206 18731 net.cpp:380] label_data_1_split -> label_data_1_split_1
I0501 23:54:43.052309 18731 net.cpp:122] Setting up label_data_1_split
I0501 23:54:43.052317 18731 net.cpp:129] Top shape: 64 (64)
I0501 23:54:43.052322 18731 net.cpp:129] Top shape: 64 (64)
I0501 23:54:43.052325 18731 net.cpp:137] Memory required for data: 602880
I0501 23:54:43.052330 18731 layer_factory.hpp:77] Creating layer conv1
I0501 23:54:43.052346 18731 net.cpp:84] Creating Layer conv1
I0501 23:54:43.052353 18731 net.cpp:406] conv1 <- data
I0501 23:54:43.052363 18731 net.cpp:380] conv1 -> conv1
I0501 23:54:43.052543 18731 net.cpp:122] Setting up conv1
I0501 23:54:43.052551 18731 net.cpp:129] Top shape: 64 20 24 24 (737280)
I0501 23:54:43.052556 18731 net.cpp:137] Memory required for data: 3552000
I0501 23:54:43.052567 18731 layer_factory.hpp:77] Creating layer pool1
I0501 23:54:43.052585 18731 net.cpp:84] Creating Layer pool1
I0501 23:54:43.052592 18731 net.cpp:406] pool1 <- conv1
I0501 23:54:43.052597 18731 net.cpp:380] pool1 -> pool1
I0501 23:54:43.052631 18731 net.cpp:122] Setting up pool1
I0501 23:54:43.052639 18731 net.cpp:129] Top shape: 64 20 12 12 (184320)
I0501 23:54:43.052644 18731 net.cpp:137] Memory required for data: 4289280
I0501 23:54:43.052647 18731 layer_factory.hpp:77] Creating layer conv2
I0501 23:54:43.052660 18731 net.cpp:84] Creating Layer conv2
I0501 23:54:43.052665 18731 net.cpp:406] conv2 <- pool1
I0501 23:54:43.052673 18731 net.cpp:380] conv2 -> conv2
I0501 23:54:43.053267 18731 net.cpp:122] Setting up conv2
I0501 23:54:43.053277 18731 net.cpp:129] Top shape: 64 50 8 8 (204800)
I0501 23:54:43.053283 18731 net.cpp:137] Memory required for data: 5108480
I0501 23:54:43.053293 18731 layer_factory.hpp:77] Creating layer pool2
I0501 23:54:43.053303 18731 net.cpp:84] Creating Layer pool2
I0501 23:54:43.053308 18731 net.cpp:406] pool2 <- conv2
I0501 23:54:43.053314 18731 net.cpp:380] pool2 -> pool2
I0501 23:54:43.053347 18731 net.cpp:122] Setting up pool2
I0501 23:54:43.053354 18731 net.cpp:129] Top shape: 64 50 4 4 (51200)
I0501 23:54:43.053359 18731 net.cpp:137] Memory required for data: 5313280
I0501 23:54:43.053364 18731 layer_factory.hpp:77] Creating layer ip1
I0501 23:54:43.053369 18731 net.cpp:84] Creating Layer ip1
I0501 23:54:43.053375 18731 net.cpp:406] ip1 <- pool2
I0501 23:54:43.053383 18731 net.cpp:380] ip1 -> ip1
I0501 23:54:43.055966 18731 net.cpp:122] Setting up ip1
I0501 23:54:43.055982 18731 net.cpp:129] Top shape: 64 500 (32000)
I0501 23:54:43.055986 18731 net.cpp:137] Memory required for data: 5441280
I0501 23:54:43.055999 18731 layer_factory.hpp:77] Creating layer relu1
I0501 23:54:43.056008 18731 net.cpp:84] Creating Layer relu1
I0501 23:54:43.056015 18731 net.cpp:406] relu1 <- ip1
I0501 23:54:43.056025 18731 net.cpp:367] relu1 -> ip1 (in-place)
I0501 23:54:43.056035 18731 net.cpp:122] Setting up relu1
I0501 23:54:43.056041 18731 net.cpp:129] Top shape: 64 500 (32000)
I0501 23:54:43.056046 18731 net.cpp:137] Memory required for data: 5569280
I0501 23:54:43.056049 18731 layer_factory.hpp:77] Creating layer ip2
I0501 23:54:43.056058 18731 net.cpp:84] Creating Layer ip2
I0501 23:54:43.056064 18731 net.cpp:406] ip2 <- ip1
I0501 23:54:43.056071 18731 net.cpp:380] ip2 -> ip2
I0501 23:54:43.061023 18731 net.cpp:122] Setting up ip2
I0501 23:54:43.061035 18731 net.cpp:129] Top shape: 64 52 (3328)
I0501 23:54:43.061043 18731 net.cpp:137] Memory required for data: 5582592
I0501 23:54:43.061056 18731 layer_factory.hpp:77] Creating layer ip2_ip2_0_split
I0501 23:54:43.061075 18731 net.cpp:84] Creating Layer ip2_ip2_0_split
I0501 23:54:43.061081 18731 net.cpp:406] ip2_ip2_0_split <- ip2
I0501 23:54:43.061089 18731 net.cpp:380] ip2_ip2_0_split -> ip2_ip2_0_split_0
I0501 23:54:43.061100 18731 net.cpp:380] ip2_ip2_0_split -> ip2_ip2_0_split_1
I0501 23:54:43.061131 18731 net.cpp:122] Setting up ip2_ip2_0_split
I0501 23:54:43.061137 18731 net.cpp:129] Top shape: 64 52 (3328)
I0501 23:54:43.061142 18731 net.cpp:129] Top shape: 64 52 (3328)
I0501 23:54:43.061148 18731 net.cpp:137] Memory required for data: 5609216
I0501 23:54:43.061151 18731 layer_factory.hpp:77] Creating layer accuracy
I0501 23:54:43.061156 18731 net.cpp:84] Creating Layer accuracy
I0501 23:54:43.061159 18731 net.cpp:406] accuracy <- ip2_ip2_0_split_0
I0501 23:54:43.061162 18731 net.cpp:406] accuracy <- label_data_1_split_0
I0501 23:54:43.061168 18731 net.cpp:380] accuracy -> accuracy
…
