…
I0502 13:47:25.692759  5613 net.cpp:294] The NetState phase (0) differed from the phase (1) specified by a rule in layer data
I0502 13:47:25.692771  5613 net.cpp:294] The NetState phase (0) differed from the phase (1) specified by a rule in layer accuracy
I0502 13:47:25.692842  5613 net.cpp:51] Initializing net from parameters: 
name: "LeNet"
state {
  phase: TRAIN
  level: 0
  stage: ""
}
layer {
  name: "data"
  type: "Data"
  top: "data"
  top: "label"
  include {
    phase: TRAIN
  }
  transform_param {
    scale: 0.00390625
  }
  data_param {
    source: "examples/final_sp/sp_train_lmdb"
    batch_size: 64
    backend: LMDB
  }
}
layer {
  name: "conv1"
  type: "Convolution"
  bottom: "data"
  top: "conv1"
  param {
    lr_mult: 1
  }
  param {
    lr_mult: 2
  }
  convolution_param {
    num_output: 20
    kernel_size: 5
    stride: 1
    weight_filler {
      type: "xavier"
    }
    bias_filler {
      type: "constant"
    }
  }
}
layer {
  name: "pool1"
  type: "Pooling"
  bottom: "conv1"
  top: "pool1"
  pooling_param {
    pool: MAX
    kernel_size: 2
    stride: 2
  }
}
layer {
  name: "conv2"
  type: "Convolution"
  bottom: "pool1"
  top: "conv2"
  param {
    lr_mult: 1
  }
  param {
    lr_mult: 2
  }
  convolution_param {
    num_output: 50
    kernel_size: 5
    stride: 1
    weight_filler {
      type: "xavier"
    }
    bias_filler {
      type: "constant"
    }
  }
}
layer {
  name: "pool2"
  type: "Pooling"
  bottom: "conv2"
  top: "pool2"
  pooling_param {
    pool: MAX
    kernel_size: 2
    stride: 2
  }
}
layer {
  name: "ip1"
  type: "InnerProduct"
  bottom: "pool2"
  top: "ip1"
  param {
    lr_mult: 1
  }
  param {
    lr_mult: 2
  }
  inner_product_param {
    num_output: 500
    weight_filler {
      type: "xavier"
    }
    bias_filler {
      type: "constant"
    }
  }
}
layer {
  name: "relu1"
  type: "ReLU"
  bottom: "ip1"
  top: "ip1"
}
layer {
  name: "ip2"
  type: "InnerProduct"
  bottom: "ip1"
  top: "ip2"
  param {
    lr_mult: 1
  }
  param {
    lr_mult: 2
  }
  inner_product_param {
    num_output: 52
    weight_filler {
      type: "xavier"
    }
    bias_filler {
      type: "constant"
    }
  }
}
layer {
  name: "loss"
  type: "SoftmaxWithLoss"
  bottom: "ip2"
  bottom: "label"
  top: "loss"
}
I0502 13:47:25.692919  5613 layer_factory.hpp:77] Creating layer data
I0502 13:47:25.693001  5613 db_lmdb.cpp:35] Opened lmdb examples/final_sp/sp_train_lmdb
I0502 13:47:25.693022  5613 net.cpp:84] Creating Layer data
I0502 13:47:25.693032  5613 net.cpp:380] data -> data
I0502 13:47:25.693053  5613 net.cpp:380] data -> label
I0502 13:47:25.693564  5613 data_layer.cpp:45] output data size: 64,3,28,28
I0502 13:47:25.697448  5613 net.cpp:122] Setting up data
I0502 13:47:25.697474  5613 net.cpp:129] Top shape: 64 3 28 28 (150528)
I0502 13:47:25.697479  5613 net.cpp:129] Top shape: 64 (64)
I0502 13:47:25.697484  5613 net.cpp:137] Memory required for data: 602368
I0502 13:47:25.697496  5613 layer_factory.hpp:77] Creating layer conv1
I0502 13:47:25.697525  5613 net.cpp:84] Creating Layer conv1
I0502 13:47:25.697532  5613 net.cpp:406] conv1 <- data
I0502 13:47:25.697548  5613 net.cpp:380] conv1 -> conv1
I0502 13:47:25.698735  5613 net.cpp:122] Setting up conv1
I0502 13:47:25.698748  5613 net.cpp:129] Top shape: 64 20 24 24 (737280)
I0502 13:47:25.698753  5613 net.cpp:137] Memory required for data: 3551488
I0502 13:47:25.698778  5613 layer_factory.hpp:77] Creating layer pool1
I0502 13:47:25.698802  5613 net.cpp:84] Creating Layer pool1
I0502 13:47:25.698807  5613 net.cpp:406] pool1 <- conv1
I0502 13:47:25.698815  5613 net.cpp:380] pool1 -> pool1
I0502 13:47:25.698885  5613 net.cpp:122] Setting up pool1
I0502 13:47:25.698894  5613 net.cpp:129] Top shape: 64 20 12 12 (184320)
I0502 13:47:25.698899  5613 net.cpp:137] Memory required for data: 4288768
I0502 13:47:25.698902  5613 layer_factory.hpp:77] Creating layer conv2
I0502 13:47:25.698913  5613 net.cpp:84] Creating Layer conv2
I0502 13:47:25.698918  5613 net.cpp:406] conv2 <- pool1
I0502 13:47:25.698925  5613 net.cpp:380] conv2 -> conv2
I0502 13:47:25.699964  5613 net.cpp:122] Setting up conv2
I0502 13:47:25.699975  5613 net.cpp:129] Top shape: 64 50 8 8 (204800)
I0502 13:47:25.699980  5613 net.cpp:137] Memory required for data: 5107968
I0502 13:47:25.699991  5613 layer_factory.hpp:77] Creating layer pool2
I0502 13:47:25.700001  5613 net.cpp:84] Creating Layer pool2
I0502 13:47:25.700006  5613 net.cpp:406] pool2 <- conv2
I0502 13:47:25.700013  5613 net.cpp:380] pool2 -> pool2
I0502 13:47:25.700043  5613 net.cpp:122] Setting up pool2
I0502 13:47:25.700050  5613 net.cpp:129] Top shape: 64 50 4 4 (51200)
I0502 13:47:25.700054  5613 net.cpp:137] Memory required for data: 5312768
I0502 13:47:25.700058  5613 layer_factory.hpp:77] Creating layer ip1
I0502 13:47:25.700067  5613 net.cpp:84] Creating Layer ip1
I0502 13:47:25.700073  5613 net.cpp:406] ip1 <- pool2
I0502 13:47:25.700079  5613 net.cpp:380] ip1 -> ip1
I0502 13:47:25.702311  5613 net.cpp:122] Setting up ip1
I0502 13:47:25.702327  5613 net.cpp:129] Top shape: 64 500 (32000)
I0502 13:47:25.702332  5613 net.cpp:137] Memory required for data: 5440768
I0502 13:47:25.702344  5613 layer_factory.hpp:77] Creating layer relu1
I0502 13:47:25.702355  5613 net.cpp:84] Creating Layer relu1
I0502 13:47:25.702361  5613 net.cpp:406] relu1 <- ip1
I0502 13:47:25.702369  5613 net.cpp:367] relu1 -> ip1 (in-place)
I0502 13:47:25.702380  5613 net.cpp:122] Setting up relu1
I0502 13:47:25.702386  5613 net.cpp:129] Top shape: 64 500 (32000)
I0502 13:47:25.702391  5613 net.cpp:137] Memory required for data: 5568768
I0502 13:47:25.702395  5613 layer_factory.hpp:77] Creating layer ip2
I0502 13:47:25.702404  5613 net.cpp:84] Creating Layer ip2
I0502 13:47:25.702409  5613 net.cpp:406] ip2 <- ip1
I0502 13:47:25.702416  5613 net.cpp:380] ip2 -> ip2
I0502 13:47:25.702616  5613 net.cpp:122] Setting up ip2
I0502 13:47:25.702623  5613 net.cpp:129] Top shape: 64 52 (3328)
I0502 13:47:25.702627  5613 net.cpp:137] Memory required for data: 5582080
I0502 13:47:25.702635  5613 layer_factory.hpp:77] Creating layer loss
I0502 13:47:25.702644  5613 net.cpp:84] Creating Layer loss
I0502 13:47:25.702648  5613 net.cpp:406] loss <- ip2
I0502 13:47:25.702654  5613 net.cpp:406] loss <- label
I0502 13:47:25.702661  5613 net.cpp:380] loss -> loss
I0502 13:47:25.702678  5613 layer_factory.hpp:77] Creating layer loss
…
I0502 13:47:25.702982  5613 solver.cpp:190] Creating test net (#0) specified by net file: models/sp_final_lenet/lenet_train_val.prototxt
I0502 13:47:25.703022  5613 net.cpp:294] The NetState phase (1) differed from the phase (0) specified by a rule in layer data
I0502 13:47:25.703091  5613 net.cpp:51] Initializing net from parameters: 
name: "LeNet"
state {
  phase: TEST
}
layer {
  name: "data"
  type: "Data"
  top: "data"
  top: "label"
  include {
    phase: TEST
  }
  transform_param {
    scale: 0.00390625
  }
  data_param {
    source: "examples/final_sp/sp_val_lmdb"
    batch_size: 64
    backend: LMDB
  }
}
layer {
  name: "conv1"
  type: "Convolution"
  bottom: "data"
  top: "conv1"
  param {
    lr_mult: 1
  }
  param {
    lr_mult: 2
  }
  convolution_param {
    num_output: 20
    kernel_size: 5
    stride: 1
    weight_filler {
      type: "xavier"
    }
    bias_filler {
      type: "constant"
    }
  }
}
layer {
  name: "pool1"
  type: "Pooling"
  bottom: "conv1"
  top: "pool1"
  pooling_param {
    pool: MAX
    kernel_size: 2
    stride: 2
  }
}
layer {
  name: "conv2"
  type: "Convolution"
  bottom: "pool1"
  top: "conv2"
  param {
    lr_mult: 1
  }
  param {
    lr_mult: 2
  }
  convolution_param {
    num_output: 50
    kernel_size: 5
    stride: 1
    weight_filler {
      type: "xavier"
    }
    bias_filler {
      type: "constant"
    }
  }
}
layer {
  name: "pool2"
  type: "Pooling"
  bottom: "conv2"
  top: "pool2"
  pooling_param {
    pool: MAX
    kernel_size: 2
    stride: 2
  }
}
layer {
  name: "ip1"
  type: "InnerProduct"
  bottom: "pool2"
  top: "ip1"
  param {
    lr_mult: 1
  }
  param {
    lr_mult: 2
  }
  inner_product_param {
    num_output: 500
    weight_filler {
      type: "xavier"
    }
    bias_filler {
      type: "constant"
    }
  }
}
layer {
  name: "relu1"
  type: "ReLU"
  bottom: "ip1"
  top: "ip1"
}
layer {
  name: "ip2"
  type: "InnerProduct"
  bottom: "ip1"
  top: "ip2"
  param {
    lr_mult: 1
  }
  param {
    lr_mult: 2
  }
  inner_product_param {
    num_output: 52
    weight_filler {
      type: "xavier"
    }
    bias_filler {
      type: "constant"
    }
  }
}
layer {
  name: "accuracy"
  type: "Accuracy"
  bottom: "ip2"
  bottom: "label"
  top: "accuracy"
  include {
    phase: TEST
  }
}
layer {
  name: "loss"
  type: "SoftmaxWithLoss"
  bottom: "ip2"
  bottom: "label"
  top: "loss"
}
I0502 13:47:25.703155  5613 layer_factory.hpp:77] Creating layer data
I0502 13:47:25.703208  5613 db_lmdb.cpp:35] Opened lmdb examples/final_sp/sp_val_lmdb
I0502 13:47:25.703223  5613 net.cpp:84] Creating Layer data
I0502 13:47:25.703230  5613 net.cpp:380] data -> data
I0502 13:47:25.703240  5613 net.cpp:380] data -> label
I0502 13:47:25.703425  5613 data_layer.cpp:45] output data size: 64,3,28,28
I0502 13:47:25.708395  5613 net.cpp:122] Setting up data
I0502 13:47:25.708421  5613 net.cpp:129] Top shape: 64 3 28 28 (150528)
I0502 13:47:25.708427  5613 net.cpp:129] Top shape: 64 (64)
I0502 13:47:25.708431  5613 net.cpp:137] Memory required for data: 602368
I0502 13:47:25.708439  5613 layer_factory.hpp:77] Creating layer label_data_1_split
I0502 13:47:25.708452  5613 net.cpp:84] Creating Layer label_data_1_split
I0502 13:47:25.708458  5613 net.cpp:406] label_data_1_split <- label
I0502 13:47:25.708467  5613 net.cpp:380] label_data_1_split -> label_data_1_split_0
I0502 13:47:25.708479  5613 net.cpp:380] label_data_1_split -> label_data_1_split_1
I0502 13:47:25.708529  5613 net.cpp:122] Setting up label_data_1_split
I0502 13:47:25.708536  5613 net.cpp:129] Top shape: 64 (64)
I0502 13:47:25.708541  5613 net.cpp:129] Top shape: 64 (64)
I0502 13:47:25.708545  5613 net.cpp:137] Memory required for data: 602880
I0502 13:47:25.708549  5613 layer_factory.hpp:77] Creating layer conv1
I0502 13:47:25.708561  5613 net.cpp:84] Creating Layer conv1
I0502 13:47:25.708566  5613 net.cpp:406] conv1 <- data
I0502 13:47:25.708573  5613 net.cpp:380] conv1 -> conv1
I0502 13:47:25.708762  5613 net.cpp:122] Setting up conv1
I0502 13:47:25.708770  5613 net.cpp:129] Top shape: 64 20 24 24 (737280)
I0502 13:47:25.708775  5613 net.cpp:137] Memory required for data: 3552000
I0502 13:47:25.708793  5613 layer_factory.hpp:77] Creating layer pool1
I0502 13:47:25.708811  5613 net.cpp:84] Creating Layer pool1
I0502 13:47:25.708817  5613 net.cpp:406] pool1 <- conv1
I0502 13:47:25.708823  5613 net.cpp:380] pool1 -> pool1
I0502 13:47:25.708856  5613 net.cpp:122] Setting up pool1
I0502 13:47:25.708863  5613 net.cpp:129] Top shape: 64 20 12 12 (184320)
I0502 13:47:25.708868  5613 net.cpp:137] Memory required for data: 4289280
I0502 13:47:25.708871  5613 layer_factory.hpp:77] Creating layer conv2
I0502 13:47:25.708881  5613 net.cpp:84] Creating Layer conv2
I0502 13:47:25.708885  5613 net.cpp:406] conv2 <- pool1
I0502 13:47:25.708892  5613 net.cpp:380] conv2 -> conv2
I0502 13:47:25.709205  5613 net.cpp:122] Setting up conv2
I0502 13:47:25.709213  5613 net.cpp:129] Top shape: 64 50 8 8 (204800)
I0502 13:47:25.709218  5613 net.cpp:137] Memory required for data: 5108480
I0502 13:47:25.709228  5613 layer_factory.hpp:77] Creating layer pool2
I0502 13:47:25.709234  5613 net.cpp:84] Creating Layer pool2
I0502 13:47:25.709239  5613 net.cpp:406] pool2 <- conv2
I0502 13:47:25.709245  5613 net.cpp:380] pool2 -> pool2
I0502 13:47:25.709611  5613 net.cpp:122] Setting up pool2
I0502 13:47:25.709620  5613 net.cpp:129] Top shape: 64 50 4 4 (51200)
I0502 13:47:25.709625  5613 net.cpp:137] Memory required for data: 5313280
I0502 13:47:25.709631  5613 layer_factory.hpp:77] Creating layer ip1
I0502 13:47:25.709641  5613 net.cpp:84] Creating Layer ip1
I0502 13:47:25.709646  5613 net.cpp:406] ip1 <- pool2
I0502 13:47:25.709655  5613 net.cpp:380] ip1 -> ip1
I0502 13:47:25.712167  5613 net.cpp:122] Setting up ip1
I0502 13:47:25.712180  5613 net.cpp:129] Top shape: 64 500 (32000)
I0502 13:47:25.712184  5613 net.cpp:137] Memory required for data: 5441280
I0502 13:47:25.712198  5613 layer_factory.hpp:77] Creating layer relu1
I0502 13:47:25.712240  5613 net.cpp:84] Creating Layer relu1
I0502 13:47:25.712245  5613 net.cpp:406] relu1 <- ip1
I0502 13:47:25.712254  5613 net.cpp:367] relu1 -> ip1 (in-place)
I0502 13:47:25.712262  5613 net.cpp:122] Setting up relu1
I0502 13:47:25.712270  5613 net.cpp:129] Top shape: 64 500 (32000)
I0502 13:47:25.712273  5613 net.cpp:137] Memory required for data: 5569280
I0502 13:47:25.712277  5613 layer_factory.hpp:77] Creating layer ip2
I0502 13:47:25.712287  5613 net.cpp:84] Creating Layer ip2
I0502 13:47:25.712292  5613 net.cpp:406] ip2 <- ip1
I0502 13:47:25.712298  5613 net.cpp:380] ip2 -> ip2
I0502 13:47:25.712496  5613 net.cpp:122] Setting up ip2
I0502 13:47:25.712503  5613 net.cpp:129] Top shape: 64 52 (3328)
I0502 13:47:25.712507  5613 net.cpp:137] Memory required for data: 5582592
I0502 13:47:25.712514  5613 layer_factory.hpp:77] Creating layer ip2_ip2_0_split
I0502 13:47:25.712523  5613 net.cpp:84] Creating Layer ip2_ip2_0_split
I0502 13:47:25.712528  5613 net.cpp:406] ip2_ip2_0_split <- ip2
I0502 13:47:25.712534  5613 net.cpp:380] ip2_ip2_0_split -> ip2_ip2_0_split_0
I0502 13:47:25.712544  5613 net.cpp:380] ip2_ip2_0_split -> ip2_ip2_0_split_1
I0502 13:47:25.712574  5613 net.cpp:122] Setting up ip2_ip2_0_split
I0502 13:47:25.712579  5613 net.cpp:129] Top shape: 64 52 (3328)
I0502 13:47:25.712585  5613 net.cpp:129] Top shape: 64 52 (3328)
I0502 13:47:25.712589  5613 net.cpp:137] Memory required for data: 5609216
I0502 13:47:25.712592  5613 layer_factory.hpp:77] Creating layer accuracy
I0502 13:47:25.712602  5613 net.cpp:84] Creating Layer accuracy
I0502 13:47:25.712610  5613 net.cpp:406] accuracy <- ip2_ip2_0_split_0
I0502 13:47:25.712615  5613 net.cpp:406] accuracy <- label_data_1_split_0
I0502 13:47:25.712622  5613 net.cpp:380] accuracy -> accuracy
…
