…
I0502 13:40:28.742835  5568 net.cpp:294] The NetState phase (0) differed from the phase (1) specified by a rule in layer data
I0502 13:40:28.742844  5568 net.cpp:294] The NetState phase (0) differed from the phase (1) specified by a rule in layer accuracy
I0502 13:40:28.742908  5568 net.cpp:51] Initializing net from parameters: 
name: "LeNet"
state {
  phase: TRAIN
  level: 0
  stage: ""
}
layer {
  name: "data"
  type: "Data"
  top: "data"
  top: "label"
  include {
    phase: TRAIN
  }
  transform_param {
    scale: 0.00390625
  }
  data_param {
    source: "examples/final_sp/sp_train_lmdb"
    batch_size: 64
    backend: LMDB
  }
}
layer {
  name: "conv1"
  type: "Convolution"
  bottom: "data"
  top: "conv1"
  param {
    lr_mult: 1
  }
  param {
    lr_mult: 2
  }
  convolution_param {
    num_output: 20
    kernel_size: 5
    stride: 1
    weight_filler {
      type: "xavier"
    }
    bias_filler {
      type: "constant"
    }
  }
}
layer {
  name: "pool1"
  type: "Pooling"
  bottom: "conv1"
  top: "pool1"
  pooling_param {
    pool: MAX
    kernel_size: 2
    stride: 2
  }
}
layer {
  name: "conv2"
  type: "Convolution"
  bottom: "pool1"
  top: "conv2"
  param {
    lr_mult: 1
  }
  param {
    lr_mult: 2
  }
  convolution_param {
    num_output: 50
    kernel_size: 5
    stride: 1
    weight_filler {
      type: "xavier"
    }
    bias_filler {
      type: "constant"
    }
  }
}
layer {
  name: "pool2"
  type: "Pooling"
  bottom: "conv2"
  top: "pool2"
  pooling_param {
    pool: MAX
    kernel_size: 2
    stride: 2
  }
}
layer {
  name: "ip1"
  type: "InnerProduct"
  bottom: "pool2"
  top: "ip1"
  param {
    lr_mult: 1
  }
  param {
    lr_mult: 2
  }
  inner_product_param {
    num_output: 500
    weight_filler {
      type: "xavier"
    }
    bias_filler {
      type: "constant"
    }
  }
}
layer {
  name: "relu1"
  type: "ReLU"
  bottom: "ip1"
  top: "ip1"
}
layer {
  name: "ip2"
  type: "InnerProduct"
  bottom: "ip1"
  top: "ip2"
  param {
    lr_mult: 1
  }
  param {
    lr_mult: 2
  }
  inner_product_param {
    num_output: 52
    weight_filler {
      type: "xavier"
    }
    bias_filler {
      type: "constant"
    }
  }
}
layer {
  name: "loss"
  type: "SoftmaxWithLoss"
  bottom: "ip2"
  bottom: "label"
  top: "loss"
}
I0502 13:40:28.742947  5568 layer_factory.hpp:77] Creating layer data
I0502 13:40:28.743036  5568 db_lmdb.cpp:35] Opened lmdb examples/final_sp/sp_train_lmdb
I0502 13:40:28.743055  5568 net.cpp:84] Creating Layer data
I0502 13:40:28.743062  5568 net.cpp:380] data -> data
I0502 13:40:28.743079  5568 net.cpp:380] data -> label
I0502 13:40:28.743603  5568 data_layer.cpp:45] output data size: 64,3,28,28
I0502 13:40:28.747473  5568 net.cpp:122] Setting up data
I0502 13:40:28.747496  5568 net.cpp:129] Top shape: 64 3 28 28 (150528)
I0502 13:40:28.747500  5568 net.cpp:129] Top shape: 64 (64)
I0502 13:40:28.747503  5568 net.cpp:137] Memory required for data: 602368
I0502 13:40:28.747512  5568 layer_factory.hpp:77] Creating layer conv1
I0502 13:40:28.747545  5568 net.cpp:84] Creating Layer conv1
I0502 13:40:28.747552  5568 net.cpp:406] conv1 <- data
I0502 13:40:28.747565  5568 net.cpp:380] conv1 -> conv1
I0502 13:40:28.748898  5568 net.cpp:122] Setting up conv1
I0502 13:40:28.748914  5568 net.cpp:129] Top shape: 64 20 24 24 (737280)
I0502 13:40:28.748917  5568 net.cpp:137] Memory required for data: 3551488
I0502 13:40:28.748940  5568 layer_factory.hpp:77] Creating layer pool1
I0502 13:40:28.748971  5568 net.cpp:84] Creating Layer pool1
I0502 13:40:28.748977  5568 net.cpp:406] pool1 <- conv1
I0502 13:40:28.748984  5568 net.cpp:380] pool1 -> pool1
I0502 13:40:28.749042  5568 net.cpp:122] Setting up pool1
I0502 13:40:28.749049  5568 net.cpp:129] Top shape: 64 20 12 12 (184320)
I0502 13:40:28.749053  5568 net.cpp:137] Memory required for data: 4288768
I0502 13:40:28.749074  5568 layer_factory.hpp:77] Creating layer conv2
I0502 13:40:28.749086  5568 net.cpp:84] Creating Layer conv2
I0502 13:40:28.749092  5568 net.cpp:406] conv2 <- pool1
I0502 13:40:28.749099  5568 net.cpp:380] conv2 -> conv2
I0502 13:40:28.750130  5568 net.cpp:122] Setting up conv2
I0502 13:40:28.750142  5568 net.cpp:129] Top shape: 64 50 8 8 (204800)
I0502 13:40:28.750147  5568 net.cpp:137] Memory required for data: 5107968
I0502 13:40:28.750157  5568 layer_factory.hpp:77] Creating layer pool2
I0502 13:40:28.750169  5568 net.cpp:84] Creating Layer pool2
I0502 13:40:28.750175  5568 net.cpp:406] pool2 <- conv2
I0502 13:40:28.750182  5568 net.cpp:380] pool2 -> pool2
I0502 13:40:28.750216  5568 net.cpp:122] Setting up pool2
I0502 13:40:28.750224  5568 net.cpp:129] Top shape: 64 50 4 4 (51200)
I0502 13:40:28.750228  5568 net.cpp:137] Memory required for data: 5312768
I0502 13:40:28.750232  5568 layer_factory.hpp:77] Creating layer ip1
I0502 13:40:28.750250  5568 net.cpp:84] Creating Layer ip1
I0502 13:40:28.750255  5568 net.cpp:406] ip1 <- pool2
I0502 13:40:28.750262  5568 net.cpp:380] ip1 -> ip1
I0502 13:40:28.752468  5568 net.cpp:122] Setting up ip1
I0502 13:40:28.752483  5568 net.cpp:129] Top shape: 64 500 (32000)
I0502 13:40:28.752487  5568 net.cpp:137] Memory required for data: 5440768
I0502 13:40:28.752501  5568 layer_factory.hpp:77] Creating layer relu1
I0502 13:40:28.752513  5568 net.cpp:84] Creating Layer relu1
I0502 13:40:28.752519  5568 net.cpp:406] relu1 <- ip1
I0502 13:40:28.752528  5568 net.cpp:367] relu1 -> ip1 (in-place)
I0502 13:40:28.752539  5568 net.cpp:122] Setting up relu1
I0502 13:40:28.752544  5568 net.cpp:129] Top shape: 64 500 (32000)
I0502 13:40:28.752547  5568 net.cpp:137] Memory required for data: 5568768
I0502 13:40:28.752552  5568 layer_factory.hpp:77] Creating layer ip2
I0502 13:40:28.752558  5568 net.cpp:84] Creating Layer ip2
I0502 13:40:28.752563  5568 net.cpp:406] ip2 <- ip1
I0502 13:40:28.752573  5568 net.cpp:380] ip2 -> ip2
I0502 13:40:28.752763  5568 net.cpp:122] Setting up ip2
I0502 13:40:28.752769  5568 net.cpp:129] Top shape: 64 52 (3328)
I0502 13:40:28.752773  5568 net.cpp:137] Memory required for data: 5582080
I0502 13:40:28.752779  5568 layer_factory.hpp:77] Creating layer loss
I0502 13:40:28.752817  5568 net.cpp:84] Creating Layer loss
I0502 13:40:28.752825  5568 net.cpp:406] loss <- ip2
I0502 13:40:28.752830  5568 net.cpp:406] loss <- label
I0502 13:40:28.752836  5568 net.cpp:380] loss -> loss
I0502 13:40:28.752852  5568 layer_factory.hpp:77] Creating layer loss
…
I0502 13:40:28.753268  5568 solver.cpp:190] Creating test net (#0) specified by net file: models/sp_final_lenet/lenet_train_val.prototxt
I0502 13:40:28.753309  5568 net.cpp:294] The NetState phase (1) differed from the phase (0) specified by a rule in layer data
I0502 13:40:28.753417  5568 net.cpp:51] Initializing net from parameters: 
name: "LeNet"
state {
  phase: TEST
}
layer {
  name: "data"
  type: "Data"
  top: "data"
  top: "label"
  include {
    phase: TEST
  }
  transform_param {
    scale: 0.00390625
  }
  data_param {
    source: "examples/final_sp/sp_val_lmdb"
    batch_size: 64
    backend: LMDB
  }
}
layer {
  name: "conv1"
  type: "Convolution"
  bottom: "data"
  top: "conv1"
  param {
    lr_mult: 1
  }
  param {
    lr_mult: 2
  }
  convolution_param {
    num_output: 20
    kernel_size: 5
    stride: 1
    weight_filler {
      type: "xavier"
    }
    bias_filler {
      type: "constant"
    }
  }
}
layer {
  name: "pool1"
  type: "Pooling"
  bottom: "conv1"
  top: "pool1"
  pooling_param {
    pool: MAX
    kernel_size: 2
    stride: 2
  }
}
layer {
  name: "conv2"
  type: "Convolution"
  bottom: "pool1"
  top: "conv2"
  param {
    lr_mult: 1
  }
  param {
    lr_mult: 2
  }
  convolution_param {
    num_output: 50
    kernel_size: 5
    stride: 1
    weight_filler {
      type: "xavier"
    }
    bias_filler {
      type: "constant"
    }
  }
}
layer {
  name: "pool2"
  type: "Pooling"
  bottom: "conv2"
  top: "pool2"
  pooling_param {
    pool: MAX
    kernel_size: 2
    stride: 2
  }
}
layer {
  name: "ip1"
  type: "InnerProduct"
  bottom: "pool2"
  top: "ip1"
  param {
    lr_mult: 1
  }
  param {
    lr_mult: 2
  }
  inner_product_param {
    num_output: 500
    weight_filler {
      type: "xavier"
    }
    bias_filler {
      type: "constant"
    }
  }
}
layer {
  name: "relu1"
  type: "ReLU"
  bottom: "ip1"
  top: "ip1"
}
layer {
  name: "ip2"
  type: "InnerProduct"
  bottom: "ip1"
  top: "ip2"
  param {
    lr_mult: 1
  }
  param {
    lr_mult: 2
  }
  inner_product_param {
    num_output: 52
    weight_filler {
      type: "xavier"
    }
    bias_filler {
      type: "constant"
    }
  }
}
layer {
  name: "accuracy"
  type: "Accuracy"
  bottom: "ip2"
  bottom: "label"
  top: "accuracy"
  include {
    phase: TEST
  }
}
layer {
  name: "loss"
  type: "SoftmaxWithLoss"
  bottom: "ip2"
  bottom: "label"
  top: "loss"
}
I0502 13:40:28.753491  5568 layer_factory.hpp:77] Creating layer data
I0502 13:40:28.753561  5568 db_lmdb.cpp:35] Opened lmdb examples/final_sp/sp_val_lmdb
I0502 13:40:28.753578  5568 net.cpp:84] Creating Layer data
I0502 13:40:28.753584  5568 net.cpp:380] data -> data
I0502 13:40:28.753597  5568 net.cpp:380] data -> label
I0502 13:40:28.754003  5568 data_layer.cpp:45] output data size: 64,3,28,28
I0502 13:40:28.759272  5568 net.cpp:122] Setting up data
I0502 13:40:28.759300  5568 net.cpp:129] Top shape: 64 3 28 28 (150528)
I0502 13:40:28.759305  5568 net.cpp:129] Top shape: 64 (64)
I0502 13:40:28.759308  5568 net.cpp:137] Memory required for data: 602368
I0502 13:40:28.759316  5568 layer_factory.hpp:77] Creating layer label_data_1_split
I0502 13:40:28.759333  5568 net.cpp:84] Creating Layer label_data_1_split
I0502 13:40:28.759337  5568 net.cpp:406] label_data_1_split <- label
I0502 13:40:28.759346  5568 net.cpp:380] label_data_1_split -> label_data_1_split_0
I0502 13:40:28.759357  5568 net.cpp:380] label_data_1_split -> label_data_1_split_1
I0502 13:40:28.759420  5568 net.cpp:122] Setting up label_data_1_split
I0502 13:40:28.759428  5568 net.cpp:129] Top shape: 64 (64)
I0502 13:40:28.759431  5568 net.cpp:129] Top shape: 64 (64)
I0502 13:40:28.759433  5568 net.cpp:137] Memory required for data: 602880
I0502 13:40:28.759436  5568 layer_factory.hpp:77] Creating layer conv1
I0502 13:40:28.759450  5568 net.cpp:84] Creating Layer conv1
I0502 13:40:28.759455  5568 net.cpp:406] conv1 <- data
I0502 13:40:28.759464  5568 net.cpp:380] conv1 -> conv1
I0502 13:40:28.759651  5568 net.cpp:122] Setting up conv1
I0502 13:40:28.759658  5568 net.cpp:129] Top shape: 64 20 24 24 (737280)
I0502 13:40:28.759661  5568 net.cpp:137] Memory required for data: 3552000
I0502 13:40:28.759673  5568 layer_factory.hpp:77] Creating layer pool1
I0502 13:40:28.759699  5568 net.cpp:84] Creating Layer pool1
I0502 13:40:28.759706  5568 net.cpp:406] pool1 <- conv1
I0502 13:40:28.759712  5568 net.cpp:380] pool1 -> pool1
I0502 13:40:28.759749  5568 net.cpp:122] Setting up pool1
I0502 13:40:28.759757  5568 net.cpp:129] Top shape: 64 20 12 12 (184320)
I0502 13:40:28.759759  5568 net.cpp:137] Memory required for data: 4289280
I0502 13:40:28.759763  5568 layer_factory.hpp:77] Creating layer conv2
I0502 13:40:28.759774  5568 net.cpp:84] Creating Layer conv2
I0502 13:40:28.759778  5568 net.cpp:406] conv2 <- pool1
I0502 13:40:28.759788  5568 net.cpp:380] conv2 -> conv2
I0502 13:40:28.760095  5568 net.cpp:122] Setting up conv2
I0502 13:40:28.760103  5568 net.cpp:129] Top shape: 64 50 8 8 (204800)
I0502 13:40:28.760116  5568 net.cpp:137] Memory required for data: 5108480
I0502 13:40:28.760128  5568 layer_factory.hpp:77] Creating layer pool2
I0502 13:40:28.760133  5568 net.cpp:84] Creating Layer pool2
I0502 13:40:28.760138  5568 net.cpp:406] pool2 <- conv2
I0502 13:40:28.760144  5568 net.cpp:380] pool2 -> pool2
I0502 13:40:28.760521  5568 net.cpp:122] Setting up pool2
I0502 13:40:28.760529  5568 net.cpp:129] Top shape: 64 50 4 4 (51200)
I0502 13:40:28.760530  5568 net.cpp:137] Memory required for data: 5313280
I0502 13:40:28.760535  5568 layer_factory.hpp:77] Creating layer ip1
I0502 13:40:28.760542  5568 net.cpp:84] Creating Layer ip1
I0502 13:40:28.760546  5568 net.cpp:406] ip1 <- pool2
I0502 13:40:28.760556  5568 net.cpp:380] ip1 -> ip1
I0502 13:40:28.763160  5568 net.cpp:122] Setting up ip1
I0502 13:40:28.763175  5568 net.cpp:129] Top shape: 64 500 (32000)
I0502 13:40:28.763177  5568 net.cpp:137] Memory required for data: 5441280
I0502 13:40:28.763186  5568 layer_factory.hpp:77] Creating layer relu1
I0502 13:40:28.763193  5568 net.cpp:84] Creating Layer relu1
I0502 13:40:28.763196  5568 net.cpp:406] relu1 <- ip1
I0502 13:40:28.763204  5568 net.cpp:367] relu1 -> ip1 (in-place)
I0502 13:40:28.763211  5568 net.cpp:122] Setting up relu1
I0502 13:40:28.763216  5568 net.cpp:129] Top shape: 64 500 (32000)
I0502 13:40:28.763221  5568 net.cpp:137] Memory required for data: 5569280
I0502 13:40:28.763224  5568 layer_factory.hpp:77] Creating layer ip2
I0502 13:40:28.763236  5568 net.cpp:84] Creating Layer ip2
I0502 13:40:28.763240  5568 net.cpp:406] ip2 <- ip1
I0502 13:40:28.763247  5568 net.cpp:380] ip2 -> ip2
I0502 13:40:28.763474  5568 net.cpp:122] Setting up ip2
I0502 13:40:28.763481  5568 net.cpp:129] Top shape: 64 52 (3328)
I0502 13:40:28.763484  5568 net.cpp:137] Memory required for data: 5582592
I0502 13:40:28.763489  5568 layer_factory.hpp:77] Creating layer ip2_ip2_0_split
I0502 13:40:28.763501  5568 net.cpp:84] Creating Layer ip2_ip2_0_split
I0502 13:40:28.763506  5568 net.cpp:406] ip2_ip2_0_split <- ip2
I0502 13:40:28.763514  5568 net.cpp:380] ip2_ip2_0_split -> ip2_ip2_0_split_0
I0502 13:40:28.763521  5568 net.cpp:380] ip2_ip2_0_split -> ip2_ip2_0_split_1
I0502 13:40:28.763558  5568 net.cpp:122] Setting up ip2_ip2_0_split
I0502 13:40:28.763564  5568 net.cpp:129] Top shape: 64 52 (3328)
I0502 13:40:28.763568  5568 net.cpp:129] Top shape: 64 52 (3328)
I0502 13:40:28.763572  5568 net.cpp:137] Memory required for data: 5609216
I0502 13:40:28.763576  5568 layer_factory.hpp:77] Creating layer accuracy
I0502 13:40:28.763586  5568 net.cpp:84] Creating Layer accuracy
I0502 13:40:28.763590  5568 net.cpp:406] accuracy <- ip2_ip2_0_split_0
I0502 13:40:28.763595  5568 net.cpp:406] accuracy <- label_data_1_split_0
I0502 13:40:28.763602  5568 net.cpp:380] accuracy -> accuracy
…
