…
I0502 13:22:21.494792  5416 net.cpp:294] The NetState phase (0) differed from the phase (1) specified by a rule in layer data
I0502 13:22:21.494804  5416 net.cpp:294] The NetState phase (0) differed from the phase (1) specified by a rule in layer accuracy
I0502 13:22:21.494879  5416 net.cpp:51] Initializing net from parameters: 
name: "LeNet"
state {
  phase: TRAIN
  level: 0
  stage: ""
}
layer {
  name: "data"
  type: "Data"
  top: "data"
  top: "label"
  include {
    phase: TRAIN
  }
  transform_param {
    scale: 0.00390625
  }
  data_param {
    source: "examples/final_sp/sp_train_lmdb"
    batch_size: 64
    backend: LMDB
  }
}
layer {
  name: "conv1"
  type: "Convolution"
  bottom: "data"
  top: "conv1"
  param {
    lr_mult: 1
  }
  param {
    lr_mult: 2
  }
  convolution_param {
    num_output: 20
    kernel_size: 5
    stride: 1
    weight_filler {
      type: "xavier"
    }
    bias_filler {
      type: "constant"
    }
  }
}
layer {
  name: "pool1"
  type: "Pooling"
  bottom: "conv1"
  top: "pool1"
  pooling_param {
    pool: MAX
    kernel_size: 2
    stride: 2
  }
}
layer {
  name: "conv2"
  type: "Convolution"
  bottom: "pool1"
  top: "conv2"
  param {
    lr_mult: 1
  }
  param {
    lr_mult: 2
  }
  convolution_param {
    num_output: 50
    kernel_size: 5
    stride: 1
    weight_filler {
      type: "xavier"
    }
    bias_filler {
      type: "constant"
    }
  }
}
layer {
  name: "pool2"
  type: "Pooling"
  bottom: "conv2"
  top: "pool2"
  pooling_param {
    pool: MAX
    kernel_size: 2
    stride: 2
  }
}
layer {
  name: "ip1"
  type: "InnerProduct"
  bottom: "pool2"
  top: "ip1"
  param {
    lr_mult: 1
  }
  param {
    lr_mult: 2
  }
  inner_product_param {
    num_output: 500
    weight_filler {
      type: "xavier"
    }
    bias_filler {
      type: "constant"
    }
  }
}
layer {
  name: "relu1"
  type: "ReLU"
  bottom: "ip1"
  top: "ip1"
}
layer {
  name: "ip2"
  type: "InnerProduct"
  bottom: "ip1"
  top: "ip2"
  param {
    lr_mult: 1
  }
  param {
    lr_mult: 2
  }
  inner_product_param {
    num_output: 52
    weight_filler {
      type: "xavier"
    }
    bias_filler {
      type: "constant"
    }
  }
}
layer {
  name: "loss"
  type: "SoftmaxWithLoss"
  bottom: "ip2"
  bottom: "label"
  top: "loss"
}
I0502 13:22:21.494933  5416 layer_factory.hpp:77] Creating layer data
I0502 13:22:21.495023  5416 db_lmdb.cpp:35] Opened lmdb examples/final_sp/sp_train_lmdb
I0502 13:22:21.495043  5416 net.cpp:84] Creating Layer data
I0502 13:22:21.495048  5416 net.cpp:380] data -> data
I0502 13:22:21.495065  5416 net.cpp:380] data -> label
I0502 13:22:21.495566  5416 data_layer.cpp:45] output data size: 64,3,28,28
I0502 13:22:21.499498  5416 net.cpp:122] Setting up data
I0502 13:22:21.499526  5416 net.cpp:129] Top shape: 64 3 28 28 (150528)
I0502 13:22:21.499532  5416 net.cpp:129] Top shape: 64 (64)
I0502 13:22:21.499536  5416 net.cpp:137] Memory required for data: 602368
I0502 13:22:21.499547  5416 layer_factory.hpp:77] Creating layer conv1
I0502 13:22:21.499575  5416 net.cpp:84] Creating Layer conv1
I0502 13:22:21.499583  5416 net.cpp:406] conv1 <- data
I0502 13:22:21.499598  5416 net.cpp:380] conv1 -> conv1
I0502 13:22:21.500545  5416 net.cpp:122] Setting up conv1
I0502 13:22:21.500557  5416 net.cpp:129] Top shape: 64 20 24 24 (737280)
I0502 13:22:21.500561  5416 net.cpp:137] Memory required for data: 3551488
I0502 13:22:21.500581  5416 layer_factory.hpp:77] Creating layer pool1
I0502 13:22:21.500615  5416 net.cpp:84] Creating Layer pool1
I0502 13:22:21.500620  5416 net.cpp:406] pool1 <- conv1
I0502 13:22:21.500628  5416 net.cpp:380] pool1 -> pool1
I0502 13:22:21.500679  5416 net.cpp:122] Setting up pool1
I0502 13:22:21.500684  5416 net.cpp:129] Top shape: 64 20 12 12 (184320)
I0502 13:22:21.500687  5416 net.cpp:137] Memory required for data: 4288768
I0502 13:22:21.500691  5416 layer_factory.hpp:77] Creating layer conv2
I0502 13:22:21.500701  5416 net.cpp:84] Creating Layer conv2
I0502 13:22:21.500705  5416 net.cpp:406] conv2 <- pool1
I0502 13:22:21.500712  5416 net.cpp:380] conv2 -> conv2
I0502 13:22:21.501890  5416 net.cpp:122] Setting up conv2
I0502 13:22:21.501902  5416 net.cpp:129] Top shape: 64 50 8 8 (204800)
I0502 13:22:21.501905  5416 net.cpp:137] Memory required for data: 5107968
I0502 13:22:21.501922  5416 layer_factory.hpp:77] Creating layer pool2
I0502 13:22:21.501931  5416 net.cpp:84] Creating Layer pool2
I0502 13:22:21.501935  5416 net.cpp:406] pool2 <- conv2
I0502 13:22:21.501945  5416 net.cpp:380] pool2 -> pool2
I0502 13:22:21.501979  5416 net.cpp:122] Setting up pool2
I0502 13:22:21.501986  5416 net.cpp:129] Top shape: 64 50 4 4 (51200)
I0502 13:22:21.501988  5416 net.cpp:137] Memory required for data: 5312768
I0502 13:22:21.501992  5416 layer_factory.hpp:77] Creating layer ip1
I0502 13:22:21.502002  5416 net.cpp:84] Creating Layer ip1
I0502 13:22:21.502005  5416 net.cpp:406] ip1 <- pool2
I0502 13:22:21.502010  5416 net.cpp:380] ip1 -> ip1
I0502 13:22:21.504539  5416 net.cpp:122] Setting up ip1
I0502 13:22:21.504552  5416 net.cpp:129] Top shape: 64 500 (32000)
I0502 13:22:21.504555  5416 net.cpp:137] Memory required for data: 5440768
I0502 13:22:21.504566  5416 layer_factory.hpp:77] Creating layer relu1
I0502 13:22:21.504575  5416 net.cpp:84] Creating Layer relu1
I0502 13:22:21.504580  5416 net.cpp:406] relu1 <- ip1
I0502 13:22:21.504586  5416 net.cpp:367] relu1 -> ip1 (in-place)
I0502 13:22:21.504595  5416 net.cpp:122] Setting up relu1
I0502 13:22:21.504601  5416 net.cpp:129] Top shape: 64 500 (32000)
I0502 13:22:21.504603  5416 net.cpp:137] Memory required for data: 5568768
I0502 13:22:21.504608  5416 layer_factory.hpp:77] Creating layer ip2
I0502 13:22:21.504616  5416 net.cpp:84] Creating Layer ip2
I0502 13:22:21.504621  5416 net.cpp:406] ip2 <- ip1
I0502 13:22:21.504627  5416 net.cpp:380] ip2 -> ip2
I0502 13:22:21.504951  5416 net.cpp:122] Setting up ip2
I0502 13:22:21.504961  5416 net.cpp:129] Top shape: 64 52 (3328)
I0502 13:22:21.504966  5416 net.cpp:137] Memory required for data: 5582080
I0502 13:22:21.504972  5416 layer_factory.hpp:77] Creating layer loss
I0502 13:22:21.504981  5416 net.cpp:84] Creating Layer loss
I0502 13:22:21.504986  5416 net.cpp:406] loss <- ip2
I0502 13:22:21.504989  5416 net.cpp:406] loss <- label
I0502 13:22:21.504997  5416 net.cpp:380] loss -> loss
I0502 13:22:21.505013  5416 layer_factory.hpp:77] Creating layer loss
…
I0502 13:22:21.505405  5416 solver.cpp:190] Creating test net (#0) specified by net file: models/sp_final_lenet/lenet_train_val.prototxt
I0502 13:22:21.505453  5416 net.cpp:294] The NetState phase (1) differed from the phase (0) specified by a rule in layer data
I0502 13:22:21.505589  5416 net.cpp:51] Initializing net from parameters: 
name: "LeNet"
state {
  phase: TEST
}
layer {
  name: "data"
  type: "Data"
  top: "data"
  top: "label"
  include {
    phase: TEST
  }
  transform_param {
    scale: 0.00390625
  }
  data_param {
    source: "examples/final_sp/sp_val_lmdb"
    batch_size: 64
    backend: LMDB
  }
}
layer {
  name: "conv1"
  type: "Convolution"
  bottom: "data"
  top: "conv1"
  param {
    lr_mult: 1
  }
  param {
    lr_mult: 2
  }
  convolution_param {
    num_output: 20
    kernel_size: 5
    stride: 1
    weight_filler {
      type: "xavier"
    }
    bias_filler {
      type: "constant"
    }
  }
}
layer {
  name: "pool1"
  type: "Pooling"
  bottom: "conv1"
  top: "pool1"
  pooling_param {
    pool: MAX
    kernel_size: 2
    stride: 2
  }
}
layer {
  name: "conv2"
  type: "Convolution"
  bottom: "pool1"
  top: "conv2"
  param {
    lr_mult: 1
  }
  param {
    lr_mult: 2
  }
  convolution_param {
    num_output: 50
    kernel_size: 5
    stride: 1
    weight_filler {
      type: "xavier"
    }
    bias_filler {
      type: "constant"
    }
  }
}
layer {
  name: "pool2"
  type: "Pooling"
  bottom: "conv2"
  top: "pool2"
  pooling_param {
    pool: MAX
    kernel_size: 2
    stride: 2
  }
}
layer {
  name: "ip1"
  type: "InnerProduct"
  bottom: "pool2"
  top: "ip1"
  param {
    lr_mult: 1
  }
  param {
    lr_mult: 2
  }
  inner_product_param {
    num_output: 500
    weight_filler {
      type: "xavier"
    }
    bias_filler {
      type: "constant"
    }
  }
}
layer {
  name: "relu1"
  type: "ReLU"
  bottom: "ip1"
  top: "ip1"
}
layer {
  name: "ip2"
  type: "InnerProduct"
  bottom: "ip1"
  top: "ip2"
  param {
    lr_mult: 1
  }
  param {
    lr_mult: 2
  }
  inner_product_param {
    num_output: 52
    weight_filler {
      type: "xavier"
    }
    bias_filler {
      type: "constant"
    }
  }
}
layer {
  name: "accuracy"
  type: "Accuracy"
  bottom: "ip2"
  bottom: "label"
  top: "accuracy"
  include {
    phase: TEST
  }
}
layer {
  name: "loss"
  type: "SoftmaxWithLoss"
  bottom: "ip2"
  bottom: "label"
  top: "loss"
}
I0502 13:22:21.505666  5416 layer_factory.hpp:77] Creating layer data
I0502 13:22:21.505728  5416 db_lmdb.cpp:35] Opened lmdb examples/final_sp/sp_val_lmdb
I0502 13:22:21.505743  5416 net.cpp:84] Creating Layer data
I0502 13:22:21.505749  5416 net.cpp:380] data -> data
I0502 13:22:21.505759  5416 net.cpp:380] data -> label
I0502 13:22:21.505846  5416 data_layer.cpp:45] output data size: 64,3,28,28
I0502 13:22:21.511153  5416 net.cpp:122] Setting up data
I0502 13:22:21.511176  5416 net.cpp:129] Top shape: 64 3 28 28 (150528)
I0502 13:22:21.511181  5416 net.cpp:129] Top shape: 64 (64)
I0502 13:22:21.511183  5416 net.cpp:137] Memory required for data: 602368
I0502 13:22:21.511189  5416 layer_factory.hpp:77] Creating layer label_data_1_split
I0502 13:22:21.511204  5416 net.cpp:84] Creating Layer label_data_1_split
I0502 13:22:21.511209  5416 net.cpp:406] label_data_1_split <- label
I0502 13:22:21.511215  5416 net.cpp:380] label_data_1_split -> label_data_1_split_0
I0502 13:22:21.511225  5416 net.cpp:380] label_data_1_split -> label_data_1_split_1
I0502 13:22:21.511283  5416 net.cpp:122] Setting up label_data_1_split
I0502 13:22:21.511289  5416 net.cpp:129] Top shape: 64 (64)
I0502 13:22:21.511292  5416 net.cpp:129] Top shape: 64 (64)
I0502 13:22:21.511296  5416 net.cpp:137] Memory required for data: 602880
I0502 13:22:21.511297  5416 layer_factory.hpp:77] Creating layer conv1
I0502 13:22:21.511307  5416 net.cpp:84] Creating Layer conv1
I0502 13:22:21.511310  5416 net.cpp:406] conv1 <- data
I0502 13:22:21.511317  5416 net.cpp:380] conv1 -> conv1
I0502 13:22:21.511545  5416 net.cpp:122] Setting up conv1
I0502 13:22:21.511553  5416 net.cpp:129] Top shape: 64 20 24 24 (737280)
I0502 13:22:21.511555  5416 net.cpp:137] Memory required for data: 3552000
I0502 13:22:21.511566  5416 layer_factory.hpp:77] Creating layer pool1
I0502 13:22:21.511587  5416 net.cpp:84] Creating Layer pool1
I0502 13:22:21.511590  5416 net.cpp:406] pool1 <- conv1
I0502 13:22:21.511595  5416 net.cpp:380] pool1 -> pool1
I0502 13:22:21.511628  5416 net.cpp:122] Setting up pool1
I0502 13:22:21.511633  5416 net.cpp:129] Top shape: 64 20 12 12 (184320)
I0502 13:22:21.511636  5416 net.cpp:137] Memory required for data: 4289280
I0502 13:22:21.511638  5416 layer_factory.hpp:77] Creating layer conv2
I0502 13:22:21.511648  5416 net.cpp:84] Creating Layer conv2
I0502 13:22:21.511652  5416 net.cpp:406] conv2 <- pool1
I0502 13:22:21.511659  5416 net.cpp:380] conv2 -> conv2
I0502 13:22:21.511924  5416 net.cpp:122] Setting up conv2
I0502 13:22:21.511931  5416 net.cpp:129] Top shape: 64 50 8 8 (204800)
I0502 13:22:21.511934  5416 net.cpp:137] Memory required for data: 5108480
I0502 13:22:21.511943  5416 layer_factory.hpp:77] Creating layer pool2
I0502 13:22:21.511950  5416 net.cpp:84] Creating Layer pool2
I0502 13:22:21.511955  5416 net.cpp:406] pool2 <- conv2
I0502 13:22:21.511960  5416 net.cpp:380] pool2 -> pool2
I0502 13:22:21.511989  5416 net.cpp:122] Setting up pool2
I0502 13:22:21.511997  5416 net.cpp:129] Top shape: 64 50 4 4 (51200)
I0502 13:22:21.512001  5416 net.cpp:137] Memory required for data: 5313280
I0502 13:22:21.512006  5416 layer_factory.hpp:77] Creating layer ip1
I0502 13:22:21.512012  5416 net.cpp:84] Creating Layer ip1
I0502 13:22:21.512017  5416 net.cpp:406] ip1 <- pool2
I0502 13:22:21.512023  5416 net.cpp:380] ip1 -> ip1
I0502 13:22:21.514278  5416 net.cpp:122] Setting up ip1
I0502 13:22:21.514294  5416 net.cpp:129] Top shape: 64 500 (32000)
I0502 13:22:21.514298  5416 net.cpp:137] Memory required for data: 5441280
I0502 13:22:21.514312  5416 layer_factory.hpp:77] Creating layer relu1
I0502 13:22:21.514322  5416 net.cpp:84] Creating Layer relu1
I0502 13:22:21.514328  5416 net.cpp:406] relu1 <- ip1
I0502 13:22:21.514335  5416 net.cpp:367] relu1 -> ip1 (in-place)
I0502 13:22:21.514346  5416 net.cpp:122] Setting up relu1
I0502 13:22:21.514353  5416 net.cpp:129] Top shape: 64 500 (32000)
I0502 13:22:21.514355  5416 net.cpp:137] Memory required for data: 5569280
I0502 13:22:21.514359  5416 layer_factory.hpp:77] Creating layer ip2
I0502 13:22:21.514369  5416 net.cpp:84] Creating Layer ip2
I0502 13:22:21.514374  5416 net.cpp:406] ip2 <- ip1
I0502 13:22:21.514380  5416 net.cpp:380] ip2 -> ip2
I0502 13:22:21.514590  5416 net.cpp:122] Setting up ip2
I0502 13:22:21.514597  5416 net.cpp:129] Top shape: 64 52 (3328)
I0502 13:22:21.514601  5416 net.cpp:137] Memory required for data: 5582592
I0502 13:22:21.514608  5416 layer_factory.hpp:77] Creating layer ip2_ip2_0_split
I0502 13:22:21.514616  5416 net.cpp:84] Creating Layer ip2_ip2_0_split
I0502 13:22:21.514621  5416 net.cpp:406] ip2_ip2_0_split <- ip2
I0502 13:22:21.514628  5416 net.cpp:380] ip2_ip2_0_split -> ip2_ip2_0_split_0
I0502 13:22:21.514636  5416 net.cpp:380] ip2_ip2_0_split -> ip2_ip2_0_split_1
I0502 13:22:21.514668  5416 net.cpp:122] Setting up ip2_ip2_0_split
I0502 13:22:21.514674  5416 net.cpp:129] Top shape: 64 52 (3328)
I0502 13:22:21.514679  5416 net.cpp:129] Top shape: 64 52 (3328)
I0502 13:22:21.514683  5416 net.cpp:137] Memory required for data: 5609216
I0502 13:22:21.514686  5416 layer_factory.hpp:77] Creating layer accuracy
I0502 13:22:21.514693  5416 net.cpp:84] Creating Layer accuracy
I0502 13:22:21.514698  5416 net.cpp:406] accuracy <- ip2_ip2_0_split_0
I0502 13:22:21.514703  5416 net.cpp:406] accuracy <- label_data_1_split_0
I0502 13:22:21.514708  5416 net.cpp:380] accuracy -> accuracy
…
