…
I0502 13:59:18.098716  5702 net.cpp:294] The NetState phase (0) differed from the phase (1) specified by a rule in layer data
I0502 13:59:18.098727  5702 net.cpp:294] The NetState phase (0) differed from the phase (1) specified by a rule in layer accuracy
I0502 13:59:18.098798  5702 net.cpp:51] Initializing net from parameters: 
name: "LeNet"
state {
  phase: TRAIN
  level: 0
  stage: ""
}
layer {
  name: "data"
  type: "Data"
  top: "data"
  top: "label"
  include {
    phase: TRAIN
  }
  transform_param {
    scale: 0.00390625
  }
  data_param {
    source: "examples/final_sp/sp_train_lmdb"
    batch_size: 64
    backend: LMDB
  }
}
layer {
  name: "conv1"
  type: "Convolution"
  bottom: "data"
  top: "conv1"
  param {
    lr_mult: 1
  }
  param {
    lr_mult: 2
  }
  convolution_param {
    num_output: 20
    kernel_size: 5
    stride: 1
    weight_filler {
      type: "xavier"
    }
    bias_filler {
      type: "constant"
    }
  }
}
layer {
  name: "pool1"
  type: "Pooling"
  bottom: "conv1"
  top: "pool1"
  pooling_param {
    pool: MAX
    kernel_size: 2
    stride: 2
  }
}
layer {
  name: "conv2"
  type: "Convolution"
  bottom: "pool1"
  top: "conv2"
  param {
    lr_mult: 1
  }
  param {
    lr_mult: 2
  }
  convolution_param {
    num_output: 50
    kernel_size: 5
    stride: 1
    weight_filler {
      type: "xavier"
    }
    bias_filler {
      type: "constant"
    }
  }
}
layer {
  name: "pool2"
  type: "Pooling"
  bottom: "conv2"
  top: "pool2"
  pooling_param {
    pool: MAX
    kernel_size: 2
    stride: 2
  }
}
layer {
  name: "ip1"
  type: "InnerProduct"
  bottom: "pool2"
  top: "ip1"
  param {
    lr_mult: 1
  }
  param {
    lr_mult: 2
  }
  inner_product_param {
    num_output: 500
    weight_filler {
      type: "xavier"
    }
    bias_filler {
      type: "constant"
    }
  }
}
layer {
  name: "relu1"
  type: "ReLU"
  bottom: "ip1"
  top: "ip1"
}
layer {
  name: "ip2"
  type: "InnerProduct"
  bottom: "ip1"
  top: "ip2"
  param {
    lr_mult: 1
  }
  param {
    lr_mult: 2
  }
  inner_product_param {
    num_output: 52
    weight_filler {
      type: "xavier"
    }
    bias_filler {
      type: "constant"
    }
  }
}
layer {
  name: "loss"
  type: "SoftmaxWithLoss"
  bottom: "ip2"
  bottom: "label"
  top: "loss"
}
I0502 13:59:18.098852  5702 layer_factory.hpp:77] Creating layer data
I0502 13:59:18.098937  5702 db_lmdb.cpp:35] Opened lmdb examples/final_sp/sp_train_lmdb
I0502 13:59:18.098958  5702 net.cpp:84] Creating Layer data
I0502 13:59:18.098966  5702 net.cpp:380] data -> data
I0502 13:59:18.099014  5702 net.cpp:380] data -> label
I0502 13:59:18.099521  5702 data_layer.cpp:45] output data size: 64,3,28,28
I0502 13:59:18.103423  5702 net.cpp:122] Setting up data
I0502 13:59:18.103451  5702 net.cpp:129] Top shape: 64 3 28 28 (150528)
I0502 13:59:18.103457  5702 net.cpp:129] Top shape: 64 (64)
I0502 13:59:18.103461  5702 net.cpp:137] Memory required for data: 602368
I0502 13:59:18.103473  5702 layer_factory.hpp:77] Creating layer conv1
I0502 13:59:18.103502  5702 net.cpp:84] Creating Layer conv1
I0502 13:59:18.103509  5702 net.cpp:406] conv1 <- data
I0502 13:59:18.103526  5702 net.cpp:380] conv1 -> conv1
I0502 13:59:18.104487  5702 net.cpp:122] Setting up conv1
I0502 13:59:18.104501  5702 net.cpp:129] Top shape: 64 20 24 24 (737280)
I0502 13:59:18.104504  5702 net.cpp:137] Memory required for data: 3551488
I0502 13:59:18.104526  5702 layer_factory.hpp:77] Creating layer pool1
I0502 13:59:18.104557  5702 net.cpp:84] Creating Layer pool1
I0502 13:59:18.104563  5702 net.cpp:406] pool1 <- conv1
I0502 13:59:18.104570  5702 net.cpp:380] pool1 -> pool1
I0502 13:59:18.104624  5702 net.cpp:122] Setting up pool1
I0502 13:59:18.104631  5702 net.cpp:129] Top shape: 64 20 12 12 (184320)
I0502 13:59:18.104635  5702 net.cpp:137] Memory required for data: 4288768
I0502 13:59:18.104640  5702 layer_factory.hpp:77] Creating layer conv2
I0502 13:59:18.104650  5702 net.cpp:84] Creating Layer conv2
I0502 13:59:18.104655  5702 net.cpp:406] conv2 <- pool1
I0502 13:59:18.104661  5702 net.cpp:380] conv2 -> conv2
I0502 13:59:18.105849  5702 net.cpp:122] Setting up conv2
I0502 13:59:18.105864  5702 net.cpp:129] Top shape: 64 50 8 8 (204800)
I0502 13:59:18.105866  5702 net.cpp:137] Memory required for data: 5107968
I0502 13:59:18.105877  5702 layer_factory.hpp:77] Creating layer pool2
I0502 13:59:18.105886  5702 net.cpp:84] Creating Layer pool2
I0502 13:59:18.105892  5702 net.cpp:406] pool2 <- conv2
I0502 13:59:18.105898  5702 net.cpp:380] pool2 -> pool2
I0502 13:59:18.105935  5702 net.cpp:122] Setting up pool2
I0502 13:59:18.105944  5702 net.cpp:129] Top shape: 64 50 4 4 (51200)
I0502 13:59:18.105947  5702 net.cpp:137] Memory required for data: 5312768
I0502 13:59:18.105950  5702 layer_factory.hpp:77] Creating layer ip1
I0502 13:59:18.105959  5702 net.cpp:84] Creating Layer ip1
I0502 13:59:18.105963  5702 net.cpp:406] ip1 <- pool2
I0502 13:59:18.105970  5702 net.cpp:380] ip1 -> ip1
I0502 13:59:18.108506  5702 net.cpp:122] Setting up ip1
I0502 13:59:18.108520  5702 net.cpp:129] Top shape: 64 500 (32000)
I0502 13:59:18.108522  5702 net.cpp:137] Memory required for data: 5440768
I0502 13:59:18.108534  5702 layer_factory.hpp:77] Creating layer relu1
I0502 13:59:18.108543  5702 net.cpp:84] Creating Layer relu1
I0502 13:59:18.108547  5702 net.cpp:406] relu1 <- ip1
I0502 13:59:18.108553  5702 net.cpp:367] relu1 -> ip1 (in-place)
I0502 13:59:18.108564  5702 net.cpp:122] Setting up relu1
I0502 13:59:18.108569  5702 net.cpp:129] Top shape: 64 500 (32000)
I0502 13:59:18.108574  5702 net.cpp:137] Memory required for data: 5568768
I0502 13:59:18.108578  5702 layer_factory.hpp:77] Creating layer ip2
I0502 13:59:18.108585  5702 net.cpp:84] Creating Layer ip2
I0502 13:59:18.108590  5702 net.cpp:406] ip2 <- ip1
I0502 13:59:18.108597  5702 net.cpp:380] ip2 -> ip2
I0502 13:59:18.108901  5702 net.cpp:122] Setting up ip2
I0502 13:59:18.108909  5702 net.cpp:129] Top shape: 64 52 (3328)
I0502 13:59:18.108913  5702 net.cpp:137] Memory required for data: 5582080
I0502 13:59:18.108922  5702 layer_factory.hpp:77] Creating layer loss
I0502 13:59:18.108930  5702 net.cpp:84] Creating Layer loss
I0502 13:59:18.108935  5702 net.cpp:406] loss <- ip2
I0502 13:59:18.108940  5702 net.cpp:406] loss <- label
I0502 13:59:18.108948  5702 net.cpp:380] loss -> loss
I0502 13:59:18.108964  5702 layer_factory.hpp:77] Creating layer loss
…
I0502 13:59:18.109283  5702 solver.cpp:190] Creating test net (#0) specified by net file: models/sp_final_lenet/lenet_train_val.prototxt
I0502 13:59:18.109331  5702 net.cpp:294] The NetState phase (1) differed from the phase (0) specified by a rule in layer data
I0502 13:59:18.109410  5702 net.cpp:51] Initializing net from parameters: 
name: "LeNet"
state {
  phase: TEST
}
layer {
  name: "data"
  type: "Data"
  top: "data"
  top: "label"
  include {
    phase: TEST
  }
  transform_param {
    scale: 0.00390625
  }
  data_param {
    source: "examples/final_sp/sp_val_lmdb"
    batch_size: 64
    backend: LMDB
  }
}
layer {
  name: "conv1"
  type: "Convolution"
  bottom: "data"
  top: "conv1"
  param {
    lr_mult: 1
  }
  param {
    lr_mult: 2
  }
  convolution_param {
    num_output: 20
    kernel_size: 5
    stride: 1
    weight_filler {
      type: "xavier"
    }
    bias_filler {
      type: "constant"
    }
  }
}
layer {
  name: "pool1"
  type: "Pooling"
  bottom: "conv1"
  top: "pool1"
  pooling_param {
    pool: MAX
    kernel_size: 2
    stride: 2
  }
}
layer {
  name: "conv2"
  type: "Convolution"
  bottom: "pool1"
  top: "conv2"
  param {
    lr_mult: 1
  }
  param {
    lr_mult: 2
  }
  convolution_param {
    num_output: 50
    kernel_size: 5
    stride: 1
    weight_filler {
      type: "xavier"
    }
    bias_filler {
      type: "constant"
    }
  }
}
layer {
  name: "pool2"
  type: "Pooling"
  bottom: "conv2"
  top: "pool2"
  pooling_param {
    pool: MAX
    kernel_size: 2
    stride: 2
  }
}
layer {
  name: "ip1"
  type: "InnerProduct"
  bottom: "pool2"
  top: "ip1"
  param {
    lr_mult: 1
  }
  param {
    lr_mult: 2
  }
  inner_product_param {
    num_output: 500
    weight_filler {
      type: "xavier"
    }
    bias_filler {
      type: "constant"
    }
  }
}
layer {
  name: "relu1"
  type: "ReLU"
  bottom: "ip1"
  top: "ip1"
}
layer {
  name: "ip2"
  type: "InnerProduct"
  bottom: "ip1"
  top: "ip2"
  param {
    lr_mult: 1
  }
  param {
    lr_mult: 2
  }
  inner_product_param {
    num_output: 52
    weight_filler {
      type: "xavier"
    }
    bias_filler {
      type: "constant"
    }
  }
}
layer {
  name: "accuracy"
  type: "Accuracy"
  bottom: "ip2"
  bottom: "label"
  top: "accuracy"
  include {
    phase: TEST
  }
}
layer {
  name: "loss"
  type: "SoftmaxWithLoss"
  bottom: "ip2"
  bottom: "label"
  top: "loss"
}
I0502 13:59:18.109485  5702 layer_factory.hpp:77] Creating layer data
I0502 13:59:18.109581  5702 db_lmdb.cpp:35] Opened lmdb examples/final_sp/sp_val_lmdb
I0502 13:59:18.109596  5702 net.cpp:84] Creating Layer data
I0502 13:59:18.109602  5702 net.cpp:380] data -> data
I0502 13:59:18.109612  5702 net.cpp:380] data -> label
I0502 13:59:18.109704  5702 data_layer.cpp:45] output data size: 64,3,28,28
I0502 13:59:18.120144  5702 net.cpp:122] Setting up data
I0502 13:59:18.120167  5702 net.cpp:129] Top shape: 64 3 28 28 (150528)
I0502 13:59:18.120174  5702 net.cpp:129] Top shape: 64 (64)
I0502 13:59:18.120177  5702 net.cpp:137] Memory required for data: 602368
I0502 13:59:18.120184  5702 layer_factory.hpp:77] Creating layer label_data_1_split
I0502 13:59:18.120200  5702 net.cpp:84] Creating Layer label_data_1_split
I0502 13:59:18.120205  5702 net.cpp:406] label_data_1_split <- label
I0502 13:59:18.120214  5702 net.cpp:380] label_data_1_split -> label_data_1_split_0
I0502 13:59:18.120227  5702 net.cpp:380] label_data_1_split -> label_data_1_split_1
I0502 13:59:18.120271  5702 net.cpp:122] Setting up label_data_1_split
I0502 13:59:18.120278  5702 net.cpp:129] Top shape: 64 (64)
I0502 13:59:18.120283  5702 net.cpp:129] Top shape: 64 (64)
I0502 13:59:18.120288  5702 net.cpp:137] Memory required for data: 602880
I0502 13:59:18.120293  5702 layer_factory.hpp:77] Creating layer conv1
I0502 13:59:18.120304  5702 net.cpp:84] Creating Layer conv1
I0502 13:59:18.120309  5702 net.cpp:406] conv1 <- data
I0502 13:59:18.120316  5702 net.cpp:380] conv1 -> conv1
I0502 13:59:18.120529  5702 net.cpp:122] Setting up conv1
I0502 13:59:18.120537  5702 net.cpp:129] Top shape: 64 20 24 24 (737280)
I0502 13:59:18.120542  5702 net.cpp:137] Memory required for data: 3552000
I0502 13:59:18.120553  5702 layer_factory.hpp:77] Creating layer pool1
I0502 13:59:18.120570  5702 net.cpp:84] Creating Layer pool1
I0502 13:59:18.120575  5702 net.cpp:406] pool1 <- conv1
I0502 13:59:18.120582  5702 net.cpp:380] pool1 -> pool1
I0502 13:59:18.120612  5702 net.cpp:122] Setting up pool1
I0502 13:59:18.120620  5702 net.cpp:129] Top shape: 64 20 12 12 (184320)
I0502 13:59:18.120623  5702 net.cpp:137] Memory required for data: 4289280
I0502 13:59:18.120627  5702 layer_factory.hpp:77] Creating layer conv2
I0502 13:59:18.120637  5702 net.cpp:84] Creating Layer conv2
I0502 13:59:18.120641  5702 net.cpp:406] conv2 <- pool1
I0502 13:59:18.120648  5702 net.cpp:380] conv2 -> conv2
I0502 13:59:18.120930  5702 net.cpp:122] Setting up conv2
I0502 13:59:18.120939  5702 net.cpp:129] Top shape: 64 50 8 8 (204800)
I0502 13:59:18.120944  5702 net.cpp:137] Memory required for data: 5108480
I0502 13:59:18.120952  5702 layer_factory.hpp:77] Creating layer pool2
I0502 13:59:18.120959  5702 net.cpp:84] Creating Layer pool2
I0502 13:59:18.120965  5702 net.cpp:406] pool2 <- conv2
I0502 13:59:18.120970  5702 net.cpp:380] pool2 -> pool2
I0502 13:59:18.120999  5702 net.cpp:122] Setting up pool2
I0502 13:59:18.121006  5702 net.cpp:129] Top shape: 64 50 4 4 (51200)
I0502 13:59:18.121011  5702 net.cpp:137] Memory required for data: 5313280
I0502 13:59:18.121016  5702 layer_factory.hpp:77] Creating layer ip1
I0502 13:59:18.121022  5702 net.cpp:84] Creating Layer ip1
I0502 13:59:18.121027  5702 net.cpp:406] ip1 <- pool2
I0502 13:59:18.121033  5702 net.cpp:380] ip1 -> ip1
I0502 13:59:18.123232  5702 net.cpp:122] Setting up ip1
I0502 13:59:18.123246  5702 net.cpp:129] Top shape: 64 500 (32000)
I0502 13:59:18.123251  5702 net.cpp:137] Memory required for data: 5441280
I0502 13:59:18.123265  5702 layer_factory.hpp:77] Creating layer relu1
I0502 13:59:18.123277  5702 net.cpp:84] Creating Layer relu1
I0502 13:59:18.123282  5702 net.cpp:406] relu1 <- ip1
I0502 13:59:18.123291  5702 net.cpp:367] relu1 -> ip1 (in-place)
I0502 13:59:18.123299  5702 net.cpp:122] Setting up relu1
I0502 13:59:18.123306  5702 net.cpp:129] Top shape: 64 500 (32000)
I0502 13:59:18.123311  5702 net.cpp:137] Memory required for data: 5569280
I0502 13:59:18.123314  5702 layer_factory.hpp:77] Creating layer ip2
I0502 13:59:18.123324  5702 net.cpp:84] Creating Layer ip2
I0502 13:59:18.123328  5702 net.cpp:406] ip2 <- ip1
I0502 13:59:18.123335  5702 net.cpp:380] ip2 -> ip2
I0502 13:59:18.123529  5702 net.cpp:122] Setting up ip2
I0502 13:59:18.123536  5702 net.cpp:129] Top shape: 64 52 (3328)
I0502 13:59:18.123543  5702 net.cpp:137] Memory required for data: 5582592
I0502 13:59:18.123553  5702 layer_factory.hpp:77] Creating layer ip2_ip2_0_split
I0502 13:59:18.123560  5702 net.cpp:84] Creating Layer ip2_ip2_0_split
I0502 13:59:18.123565  5702 net.cpp:406] ip2_ip2_0_split <- ip2
I0502 13:59:18.123571  5702 net.cpp:380] ip2_ip2_0_split -> ip2_ip2_0_split_0
I0502 13:59:18.123580  5702 net.cpp:380] ip2_ip2_0_split -> ip2_ip2_0_split_1
I0502 13:59:18.123608  5702 net.cpp:122] Setting up ip2_ip2_0_split
I0502 13:59:18.123615  5702 net.cpp:129] Top shape: 64 52 (3328)
I0502 13:59:18.123620  5702 net.cpp:129] Top shape: 64 52 (3328)
I0502 13:59:18.123623  5702 net.cpp:137] Memory required for data: 5609216
I0502 13:59:18.123627  5702 layer_factory.hpp:77] Creating layer accuracy
I0502 13:59:18.123636  5702 net.cpp:84] Creating Layer accuracy
I0502 13:59:18.123639  5702 net.cpp:406] accuracy <- ip2_ip2_0_split_0
I0502 13:59:18.123646  5702 net.cpp:406] accuracy <- label_data_1_split_0
I0502 13:59:18.123652  5702 net.cpp:380] accuracy -> accuracy
…
