…
I0502 18:35:50.484243  3557 net.cpp:294] The NetState phase (0) differed from the phase (1) specified by a rule in layer data
I0502 18:35:50.484256  3557 net.cpp:294] The NetState phase (0) differed from the phase (1) specified by a rule in layer accuracy
I0502 18:35:50.484328  3557 net.cpp:51] Initializing net from parameters: 
name: "LeNet"
state {
  phase: TRAIN
  level: 0
  stage: ""
}
layer {
  name: "data"
  type: "Data"
  top: "data"
  top: "label"
  include {
    phase: TRAIN
  }
  transform_param {
    scale: 0.00390625
  }
  data_param {
    source: "examples/final_sp/sp_train_lmdb"
    batch_size: 64
    backend: LMDB
  }
}
layer {
  name: "conv1"
  type: "Convolution"
  bottom: "data"
  top: "conv1"
  param {
    lr_mult: 1
  }
  param {
    lr_mult: 2
  }
  convolution_param {
    num_output: 20
    kernel_size: 5
    stride: 1
    weight_filler {
      type: "xavier"
    }
    bias_filler {
      type: "constant"
    }
  }
}
layer {
  name: "pool1"
  type: "Pooling"
  bottom: "conv1"
  top: "pool1"
  pooling_param {
    pool: MAX
    kernel_size: 2
    stride: 2
  }
}
layer {
  name: "conv2"
  type: "Convolution"
  bottom: "pool1"
  top: "conv2"
  param {
    lr_mult: 1
  }
  param {
    lr_mult: 2
  }
  convolution_param {
    num_output: 50
    kernel_size: 5
    stride: 1
    weight_filler {
      type: "xavier"
    }
    bias_filler {
      type: "constant"
    }
  }
}
layer {
  name: "pool2"
  type: "Pooling"
  bottom: "conv2"
  top: "pool2"
  pooling_param {
    pool: MAX
    kernel_size: 2
    stride: 2
  }
}
layer {
  name: "ip1"
  type: "InnerProduct"
  bottom: "pool2"
  top: "ip1"
  param {
    lr_mult: 1
  }
  param {
    lr_mult: 2
  }
  inner_product_param {
    num_output: 500
    weight_filler {
      type: "xavier"
    }
    bias_filler {
      type: "constant"
    }
  }
}
layer {
  name: "relu1"
  type: "ReLU"
  bottom: "ip1"
  top: "ip1"
}
layer {
  name: "ip2"
  type: "InnerProduct"
  bottom: "ip1"
  top: "ip2"
  param {
    lr_mult: 1
  }
  param {
    lr_mult: 2
  }
  inner_product_param {
    num_output: 52
    weight_filler {
      type: "xavier"
    }
    bias_filler {
      type: "constant"
    }
  }
}
layer {
  name: "loss"
  type: "SoftmaxWithLoss"
  bottom: "ip2"
  bottom: "label"
  top: "loss"
}
I0502 18:35:50.484382  3557 layer_factory.hpp:77] Creating layer data
I0502 18:35:50.484496  3557 db_lmdb.cpp:35] Opened lmdb examples/final_sp/sp_train_lmdb
I0502 18:35:50.484515  3557 net.cpp:84] Creating Layer data
I0502 18:35:50.484521  3557 net.cpp:380] data -> data
I0502 18:35:50.484539  3557 net.cpp:380] data -> label
I0502 18:35:50.489828  3557 data_layer.cpp:45] output data size: 64,3,28,28
I0502 18:35:50.493873  3557 net.cpp:122] Setting up data
I0502 18:35:50.493944  3557 net.cpp:129] Top shape: 64 3 28 28 (150528)
I0502 18:35:50.493953  3557 net.cpp:129] Top shape: 64 (64)
I0502 18:35:50.493957  3557 net.cpp:137] Memory required for data: 602368
I0502 18:35:50.493981  3557 layer_factory.hpp:77] Creating layer conv1
I0502 18:35:50.494033  3557 net.cpp:84] Creating Layer conv1
I0502 18:35:50.494089  3557 net.cpp:406] conv1 <- data
I0502 18:35:50.494137  3557 net.cpp:380] conv1 -> conv1
I0502 18:35:50.495693  3557 net.cpp:122] Setting up conv1
I0502 18:35:50.495843  3557 net.cpp:129] Top shape: 64 20 24 24 (737280)
I0502 18:35:50.495905  3557 net.cpp:137] Memory required for data: 3551488
I0502 18:35:50.495981  3557 layer_factory.hpp:77] Creating layer pool1
I0502 18:35:50.496065  3557 net.cpp:84] Creating Layer pool1
I0502 18:35:50.496121  3557 net.cpp:406] pool1 <- conv1
I0502 18:35:50.496179  3557 net.cpp:380] pool1 -> pool1
I0502 18:35:50.496299  3557 net.cpp:122] Setting up pool1
I0502 18:35:50.496361  3557 net.cpp:129] Top shape: 64 20 12 12 (184320)
I0502 18:35:50.496417  3557 net.cpp:137] Memory required for data: 4288768
I0502 18:35:50.496481  3557 layer_factory.hpp:77] Creating layer conv2
I0502 18:35:50.496547  3557 net.cpp:84] Creating Layer conv2
I0502 18:35:50.496603  3557 net.cpp:406] conv2 <- pool1
I0502 18:35:50.496660  3557 net.cpp:380] conv2 -> conv2
I0502 18:35:50.498061  3557 net.cpp:122] Setting up conv2
I0502 18:35:50.498080  3557 net.cpp:129] Top shape: 64 50 8 8 (204800)
I0502 18:35:50.498083  3557 net.cpp:137] Memory required for data: 5107968
I0502 18:35:50.498219  3557 layer_factory.hpp:77] Creating layer pool2
I0502 18:35:50.498304  3557 net.cpp:84] Creating Layer pool2
I0502 18:35:50.498324  3557 net.cpp:406] pool2 <- conv2
I0502 18:35:50.498347  3557 net.cpp:380] pool2 -> pool2
I0502 18:35:50.498719  3557 net.cpp:122] Setting up pool2
I0502 18:35:50.498728  3557 net.cpp:129] Top shape: 64 50 4 4 (51200)
I0502 18:35:50.498733  3557 net.cpp:137] Memory required for data: 5312768
I0502 18:35:50.498750  3557 layer_factory.hpp:77] Creating layer ip1
I0502 18:35:50.498759  3557 net.cpp:84] Creating Layer ip1
I0502 18:35:50.498764  3557 net.cpp:406] ip1 <- pool2
I0502 18:35:50.498772  3557 net.cpp:380] ip1 -> ip1
I0502 18:35:50.506368  3557 net.cpp:122] Setting up ip1
I0502 18:35:50.506387  3557 net.cpp:129] Top shape: 64 500 (32000)
I0502 18:35:50.506392  3557 net.cpp:137] Memory required for data: 5440768
I0502 18:35:50.506408  3557 layer_factory.hpp:77] Creating layer relu1
I0502 18:35:50.506422  3557 net.cpp:84] Creating Layer relu1
I0502 18:35:50.506427  3557 net.cpp:406] relu1 <- ip1
I0502 18:35:50.506433  3557 net.cpp:367] relu1 -> ip1 (in-place)
I0502 18:35:50.506443  3557 net.cpp:122] Setting up relu1
I0502 18:35:50.506448  3557 net.cpp:129] Top shape: 64 500 (32000)
I0502 18:35:50.506453  3557 net.cpp:137] Memory required for data: 5568768
I0502 18:35:50.506456  3557 layer_factory.hpp:77] Creating layer ip2
I0502 18:35:50.506464  3557 net.cpp:84] Creating Layer ip2
I0502 18:35:50.506469  3557 net.cpp:406] ip2 <- ip1
I0502 18:35:50.506477  3557 net.cpp:380] ip2 -> ip2
I0502 18:35:50.506680  3557 net.cpp:122] Setting up ip2
I0502 18:35:50.506686  3557 net.cpp:129] Top shape: 64 52 (3328)
I0502 18:35:50.506690  3557 net.cpp:137] Memory required for data: 5582080
I0502 18:35:50.506697  3557 layer_factory.hpp:77] Creating layer loss
I0502 18:35:50.506705  3557 net.cpp:84] Creating Layer loss
I0502 18:35:50.506711  3557 net.cpp:406] loss <- ip2
I0502 18:35:50.506716  3557 net.cpp:406] loss <- label
I0502 18:35:50.506724  3557 net.cpp:380] loss -> loss
I0502 18:35:50.506741  3557 layer_factory.hpp:77] Creating layer loss
…
I0502 18:35:50.507078  3557 solver.cpp:190] Creating test net (#0) specified by net file: models/sp_final_lenet/lenet_train_val.prototxt
I0502 18:35:50.507118  3557 net.cpp:294] The NetState phase (1) differed from the phase (0) specified by a rule in layer data
I0502 18:35:50.507195  3557 net.cpp:51] Initializing net from parameters: 
name: "LeNet"
state {
  phase: TEST
}
layer {
  name: "data"
  type: "Data"
  top: "data"
  top: "label"
  include {
    phase: TEST
  }
  transform_param {
    scale: 0.00390625
  }
  data_param {
    source: "examples/final_sp/sp_val_lmdb"
    batch_size: 64
    backend: LMDB
  }
}
layer {
  name: "conv1"
  type: "Convolution"
  bottom: "data"
  top: "conv1"
  param {
    lr_mult: 1
  }
  param {
    lr_mult: 2
  }
  convolution_param {
    num_output: 20
    kernel_size: 5
    stride: 1
    weight_filler {
      type: "xavier"
    }
    bias_filler {
      type: "constant"
    }
  }
}
layer {
  name: "pool1"
  type: "Pooling"
  bottom: "conv1"
  top: "pool1"
  pooling_param {
    pool: MAX
    kernel_size: 2
    stride: 2
  }
}
layer {
  name: "conv2"
  type: "Convolution"
  bottom: "pool1"
  top: "conv2"
  param {
    lr_mult: 1
  }
  param {
    lr_mult: 2
  }
  convolution_param {
    num_output: 50
    kernel_size: 5
    stride: 1
    weight_filler {
      type: "xavier"
    }
    bias_filler {
      type: "constant"
    }
  }
}
layer {
  name: "pool2"
  type: "Pooling"
  bottom: "conv2"
  top: "pool2"
  pooling_param {
    pool: MAX
    kernel_size: 2
    stride: 2
  }
}
layer {
  name: "ip1"
  type: "InnerProduct"
  bottom: "pool2"
  top: "ip1"
  param {
    lr_mult: 1
  }
  param {
    lr_mult: 2
  }
  inner_product_param {
    num_output: 500
    weight_filler {
      type: "xavier"
    }
    bias_filler {
      type: "constant"
    }
  }
}
layer {
  name: "relu1"
  type: "ReLU"
  bottom: "ip1"
  top: "ip1"
}
layer {
  name: "ip2"
  type: "InnerProduct"
  bottom: "ip1"
  top: "ip2"
  param {
    lr_mult: 1
  }
  param {
    lr_mult: 2
  }
  inner_product_param {
    num_output: 52
    weight_filler {
      type: "xavier"
    }
    bias_filler {
      type: "constant"
    }
  }
}
layer {
  name: "accuracy"
  type: "Accuracy"
  bottom: "ip2"
  bottom: "label"
  top: "accuracy"
  include {
    phase: TEST
  }
}
layer {
  name: "loss"
  type: "SoftmaxWithLoss"
  bottom: "ip2"
  bottom: "label"
  top: "loss"
}
I0502 18:35:50.507258  3557 layer_factory.hpp:77] Creating layer data
I0502 18:35:50.507318  3557 db_lmdb.cpp:35] Opened lmdb examples/final_sp/sp_val_lmdb
I0502 18:35:50.507331  3557 net.cpp:84] Creating Layer data
I0502 18:35:50.507339  3557 net.cpp:380] data -> data
I0502 18:35:50.507349  3557 net.cpp:380] data -> label
I0502 18:35:50.507427  3557 data_layer.cpp:45] output data size: 64,3,28,28
I0502 18:35:50.513566  3557 net.cpp:122] Setting up data
I0502 18:35:50.513613  3557 net.cpp:129] Top shape: 64 3 28 28 (150528)
I0502 18:35:50.513622  3557 net.cpp:129] Top shape: 64 (64)
I0502 18:35:50.513626  3557 net.cpp:137] Memory required for data: 602368
I0502 18:35:50.513638  3557 layer_factory.hpp:77] Creating layer label_data_1_split
I0502 18:35:50.513659  3557 net.cpp:84] Creating Layer label_data_1_split
I0502 18:35:50.513689  3557 net.cpp:406] label_data_1_split <- label
I0502 18:35:50.513720  3557 net.cpp:380] label_data_1_split -> label_data_1_split_0
I0502 18:35:50.513736  3557 net.cpp:380] label_data_1_split -> label_data_1_split_1
I0502 18:35:50.513815  3557 net.cpp:122] Setting up label_data_1_split
I0502 18:35:50.513824  3557 net.cpp:129] Top shape: 64 (64)
I0502 18:35:50.513830  3557 net.cpp:129] Top shape: 64 (64)
I0502 18:35:50.513834  3557 net.cpp:137] Memory required for data: 602880
I0502 18:35:50.513852  3557 layer_factory.hpp:77] Creating layer conv1
I0502 18:35:50.513901  3557 net.cpp:84] Creating Layer conv1
I0502 18:35:50.513942  3557 net.cpp:406] conv1 <- data
I0502 18:35:50.513998  3557 net.cpp:380] conv1 -> conv1
I0502 18:35:50.514257  3557 net.cpp:122] Setting up conv1
I0502 18:35:50.514271  3557 net.cpp:129] Top shape: 64 20 24 24 (737280)
I0502 18:35:50.514276  3557 net.cpp:137] Memory required for data: 3552000
I0502 18:35:50.514288  3557 layer_factory.hpp:77] Creating layer pool1
I0502 18:35:50.514314  3557 net.cpp:84] Creating Layer pool1
I0502 18:35:50.514320  3557 net.cpp:406] pool1 <- conv1
I0502 18:35:50.514328  3557 net.cpp:380] pool1 -> pool1
I0502 18:35:50.514374  3557 net.cpp:122] Setting up pool1
I0502 18:35:50.514382  3557 net.cpp:129] Top shape: 64 20 12 12 (184320)
I0502 18:35:50.514387  3557 net.cpp:137] Memory required for data: 4289280
I0502 18:35:50.514392  3557 layer_factory.hpp:77] Creating layer conv2
I0502 18:35:50.514405  3557 net.cpp:84] Creating Layer conv2
I0502 18:35:50.514410  3557 net.cpp:406] conv2 <- pool1
I0502 18:35:50.514418  3557 net.cpp:380] conv2 -> conv2
I0502 18:35:50.514832  3557 net.cpp:122] Setting up conv2
I0502 18:35:50.514861  3557 net.cpp:129] Top shape: 64 50 8 8 (204800)
I0502 18:35:50.514865  3557 net.cpp:137] Memory required for data: 5108480
I0502 18:35:50.514875  3557 layer_factory.hpp:77] Creating layer pool2
I0502 18:35:50.514884  3557 net.cpp:84] Creating Layer pool2
I0502 18:35:50.514889  3557 net.cpp:406] pool2 <- conv2
I0502 18:35:50.514896  3557 net.cpp:380] pool2 -> pool2
I0502 18:35:50.514927  3557 net.cpp:122] Setting up pool2
I0502 18:35:50.514932  3557 net.cpp:129] Top shape: 64 50 4 4 (51200)
I0502 18:35:50.514937  3557 net.cpp:137] Memory required for data: 5313280
I0502 18:35:50.514941  3557 layer_factory.hpp:77] Creating layer ip1
I0502 18:35:50.514950  3557 net.cpp:84] Creating Layer ip1
I0502 18:35:50.514953  3557 net.cpp:406] ip1 <- pool2
I0502 18:35:50.514959  3557 net.cpp:380] ip1 -> ip1
I0502 18:35:50.517447  3557 net.cpp:122] Setting up ip1
I0502 18:35:50.517472  3557 net.cpp:129] Top shape: 64 500 (32000)
I0502 18:35:50.517477  3557 net.cpp:137] Memory required for data: 5441280
I0502 18:35:50.517493  3557 layer_factory.hpp:77] Creating layer relu1
I0502 18:35:50.517503  3557 net.cpp:84] Creating Layer relu1
I0502 18:35:50.517509  3557 net.cpp:406] relu1 <- ip1
I0502 18:35:50.517518  3557 net.cpp:367] relu1 -> ip1 (in-place)
I0502 18:35:50.517526  3557 net.cpp:122] Setting up relu1
I0502 18:35:50.517531  3557 net.cpp:129] Top shape: 64 500 (32000)
I0502 18:35:50.517534  3557 net.cpp:137] Memory required for data: 5569280
I0502 18:35:50.517540  3557 layer_factory.hpp:77] Creating layer ip2
I0502 18:35:50.517549  3557 net.cpp:84] Creating Layer ip2
I0502 18:35:50.517554  3557 net.cpp:406] ip2 <- ip1
I0502 18:35:50.517561  3557 net.cpp:380] ip2 -> ip2
I0502 18:35:50.518168  3557 net.cpp:122] Setting up ip2
I0502 18:35:50.518182  3557 net.cpp:129] Top shape: 64 52 (3328)
I0502 18:35:50.518187  3557 net.cpp:137] Memory required for data: 5582592
I0502 18:35:50.518196  3557 layer_factory.hpp:77] Creating layer ip2_ip2_0_split
I0502 18:35:50.518208  3557 net.cpp:84] Creating Layer ip2_ip2_0_split
I0502 18:35:50.518213  3557 net.cpp:406] ip2_ip2_0_split <- ip2
I0502 18:35:50.518220  3557 net.cpp:380] ip2_ip2_0_split -> ip2_ip2_0_split_0
I0502 18:35:50.518230  3557 net.cpp:380] ip2_ip2_0_split -> ip2_ip2_0_split_1
I0502 18:35:50.518270  3557 net.cpp:122] Setting up ip2_ip2_0_split
I0502 18:35:50.518276  3557 net.cpp:129] Top shape: 64 52 (3328)
I0502 18:35:50.518281  3557 net.cpp:129] Top shape: 64 52 (3328)
I0502 18:35:50.518285  3557 net.cpp:137] Memory required for data: 5609216
I0502 18:35:50.518291  3557 layer_factory.hpp:77] Creating layer accuracy
I0502 18:35:50.518299  3557 net.cpp:84] Creating Layer accuracy
I0502 18:35:50.518304  3557 net.cpp:406] accuracy <- ip2_ip2_0_split_0
I0502 18:35:50.518311  3557 net.cpp:406] accuracy <- label_data_1_split_0
I0502 18:35:50.518321  3557 net.cpp:380] accuracy -> accuracy
…
