…
I0502 13:34:31.709215  5520 net.cpp:294] The NetState phase (0) differed from the phase (1) specified by a rule in layer data
I0502 13:34:31.709225  5520 net.cpp:294] The NetState phase (0) differed from the phase (1) specified by a rule in layer accuracy
I0502 13:34:31.709290  5520 net.cpp:51] Initializing net from parameters: 
name: "LeNet"
state {
  phase: TRAIN
  level: 0
  stage: ""
}
layer {
  name: "data"
  type: "Data"
  top: "data"
  top: "label"
  include {
    phase: TRAIN
  }
  transform_param {
    scale: 0.00390625
  }
  data_param {
    source: "examples/final_sp/sp_train_lmdb"
    batch_size: 64
    backend: LMDB
  }
}
layer {
  name: "conv1"
  type: "Convolution"
  bottom: "data"
  top: "conv1"
  param {
    lr_mult: 1
  }
  param {
    lr_mult: 2
  }
  convolution_param {
    num_output: 20
    kernel_size: 5
    stride: 1
    weight_filler {
      type: "xavier"
    }
    bias_filler {
      type: "constant"
    }
  }
}
layer {
  name: "pool1"
  type: "Pooling"
  bottom: "conv1"
  top: "pool1"
  pooling_param {
    pool: MAX
    kernel_size: 2
    stride: 2
  }
}
layer {
  name: "conv2"
  type: "Convolution"
  bottom: "pool1"
  top: "conv2"
  param {
    lr_mult: 1
  }
  param {
    lr_mult: 2
  }
  convolution_param {
    num_output: 50
    kernel_size: 5
    stride: 1
    weight_filler {
      type: "xavier"
    }
    bias_filler {
      type: "constant"
    }
  }
}
layer {
  name: "pool2"
  type: "Pooling"
  bottom: "conv2"
  top: "pool2"
  pooling_param {
    pool: MAX
    kernel_size: 2
    stride: 2
  }
}
layer {
  name: "ip1"
  type: "InnerProduct"
  bottom: "pool2"
  top: "ip1"
  param {
    lr_mult: 1
  }
  param {
    lr_mult: 2
  }
  inner_product_param {
    num_output: 500
    weight_filler {
      type: "xavier"
    }
    bias_filler {
      type: "constant"
    }
  }
}
layer {
  name: "relu1"
  type: "ReLU"
  bottom: "ip1"
  top: "ip1"
}
layer {
  name: "ip2"
  type: "InnerProduct"
  bottom: "ip1"
  top: "ip2"
  param {
    lr_mult: 1
  }
  param {
    lr_mult: 2
  }
  inner_product_param {
    num_output: 52
    weight_filler {
      type: "xavier"
    }
    bias_filler {
      type: "constant"
    }
  }
}
layer {
  name: "loss"
  type: "SoftmaxWithLoss"
  bottom: "ip2"
  bottom: "label"
  top: "loss"
}
I0502 13:34:31.709334  5520 layer_factory.hpp:77] Creating layer data
I0502 13:34:31.709424  5520 db_lmdb.cpp:35] Opened lmdb examples/final_sp/sp_train_lmdb
I0502 13:34:31.709444  5520 net.cpp:84] Creating Layer data
I0502 13:34:31.709450  5520 net.cpp:380] data -> data
I0502 13:34:31.709467  5520 net.cpp:380] data -> label
I0502 13:34:31.710002  5520 data_layer.cpp:45] output data size: 64,3,28,28
I0502 13:34:31.713855  5520 net.cpp:122] Setting up data
I0502 13:34:31.713882  5520 net.cpp:129] Top shape: 64 3 28 28 (150528)
I0502 13:34:31.713887  5520 net.cpp:129] Top shape: 64 (64)
I0502 13:34:31.713889  5520 net.cpp:137] Memory required for data: 602368
I0502 13:34:31.713904  5520 layer_factory.hpp:77] Creating layer conv1
I0502 13:34:31.713930  5520 net.cpp:84] Creating Layer conv1
I0502 13:34:31.713943  5520 net.cpp:406] conv1 <- data
I0502 13:34:31.713961  5520 net.cpp:380] conv1 -> conv1
I0502 13:34:31.714900  5520 net.cpp:122] Setting up conv1
I0502 13:34:31.714912  5520 net.cpp:129] Top shape: 64 20 24 24 (737280)
I0502 13:34:31.714915  5520 net.cpp:137] Memory required for data: 3551488
I0502 13:34:31.714928  5520 layer_factory.hpp:77] Creating layer pool1
I0502 13:34:31.714964  5520 net.cpp:84] Creating Layer pool1
I0502 13:34:31.714970  5520 net.cpp:406] pool1 <- conv1
I0502 13:34:31.714977  5520 net.cpp:380] pool1 -> pool1
I0502 13:34:31.715030  5520 net.cpp:122] Setting up pool1
I0502 13:34:31.715037  5520 net.cpp:129] Top shape: 64 20 12 12 (184320)
I0502 13:34:31.715040  5520 net.cpp:137] Memory required for data: 4288768
I0502 13:34:31.715044  5520 layer_factory.hpp:77] Creating layer conv2
I0502 13:34:31.715056  5520 net.cpp:84] Creating Layer conv2
I0502 13:34:31.715061  5520 net.cpp:406] conv2 <- pool1
I0502 13:34:31.715081  5520 net.cpp:380] conv2 -> conv2
I0502 13:34:31.716259  5520 net.cpp:122] Setting up conv2
I0502 13:34:31.716269  5520 net.cpp:129] Top shape: 64 50 8 8 (204800)
I0502 13:34:31.716272  5520 net.cpp:137] Memory required for data: 5107968
I0502 13:34:31.716281  5520 layer_factory.hpp:77] Creating layer pool2
I0502 13:34:31.716291  5520 net.cpp:84] Creating Layer pool2
I0502 13:34:31.716296  5520 net.cpp:406] pool2 <- conv2
I0502 13:34:31.716303  5520 net.cpp:380] pool2 -> pool2
I0502 13:34:31.716339  5520 net.cpp:122] Setting up pool2
I0502 13:34:31.716347  5520 net.cpp:129] Top shape: 64 50 4 4 (51200)
I0502 13:34:31.716351  5520 net.cpp:137] Memory required for data: 5312768
I0502 13:34:31.716356  5520 layer_factory.hpp:77] Creating layer ip1
I0502 13:34:31.716363  5520 net.cpp:84] Creating Layer ip1
I0502 13:34:31.716368  5520 net.cpp:406] ip1 <- pool2
I0502 13:34:31.716375  5520 net.cpp:380] ip1 -> ip1
I0502 13:34:31.718946  5520 net.cpp:122] Setting up ip1
I0502 13:34:31.718960  5520 net.cpp:129] Top shape: 64 500 (32000)
I0502 13:34:31.718962  5520 net.cpp:137] Memory required for data: 5440768
I0502 13:34:31.718981  5520 layer_factory.hpp:77] Creating layer relu1
I0502 13:34:31.718994  5520 net.cpp:84] Creating Layer relu1
I0502 13:34:31.718999  5520 net.cpp:406] relu1 <- ip1
I0502 13:34:31.719005  5520 net.cpp:367] relu1 -> ip1 (in-place)
I0502 13:34:31.719015  5520 net.cpp:122] Setting up relu1
I0502 13:34:31.719019  5520 net.cpp:129] Top shape: 64 500 (32000)
I0502 13:34:31.719022  5520 net.cpp:137] Memory required for data: 5568768
I0502 13:34:31.719025  5520 layer_factory.hpp:77] Creating layer ip2
I0502 13:34:31.719033  5520 net.cpp:84] Creating Layer ip2
I0502 13:34:31.719038  5520 net.cpp:406] ip2 <- ip1
I0502 13:34:31.719044  5520 net.cpp:380] ip2 -> ip2
I0502 13:34:31.719231  5520 net.cpp:122] Setting up ip2
I0502 13:34:31.719236  5520 net.cpp:129] Top shape: 64 52 (3328)
I0502 13:34:31.719239  5520 net.cpp:137] Memory required for data: 5582080
I0502 13:34:31.719246  5520 layer_factory.hpp:77] Creating layer loss
I0502 13:34:31.719257  5520 net.cpp:84] Creating Layer loss
I0502 13:34:31.719261  5520 net.cpp:406] loss <- ip2
I0502 13:34:31.719265  5520 net.cpp:406] loss <- label
I0502 13:34:31.719272  5520 net.cpp:380] loss -> loss
I0502 13:34:31.719286  5520 layer_factory.hpp:77] Creating layer loss
…
I0502 13:34:31.719660  5520 solver.cpp:190] Creating test net (#0) specified by net file: models/sp_final_lenet/lenet_train_val.prototxt
I0502 13:34:31.719703  5520 net.cpp:294] The NetState phase (1) differed from the phase (0) specified by a rule in layer data
I0502 13:34:31.719810  5520 net.cpp:51] Initializing net from parameters: 
name: "LeNet"
state {
  phase: TEST
}
layer {
  name: "data"
  type: "Data"
  top: "data"
  top: "label"
  include {
    phase: TEST
  }
  transform_param {
    scale: 0.00390625
  }
  data_param {
    source: "examples/final_sp/sp_val_lmdb"
    batch_size: 64
    backend: LMDB
  }
}
layer {
  name: "conv1"
  type: "Convolution"
  bottom: "data"
  top: "conv1"
  param {
    lr_mult: 1
  }
  param {
    lr_mult: 2
  }
  convolution_param {
    num_output: 20
    kernel_size: 5
    stride: 1
    weight_filler {
      type: "xavier"
    }
    bias_filler {
      type: "constant"
    }
  }
}
layer {
  name: "pool1"
  type: "Pooling"
  bottom: "conv1"
  top: "pool1"
  pooling_param {
    pool: MAX
    kernel_size: 2
    stride: 2
  }
}
layer {
  name: "conv2"
  type: "Convolution"
  bottom: "pool1"
  top: "conv2"
  param {
    lr_mult: 1
  }
  param {
    lr_mult: 2
  }
  convolution_param {
    num_output: 50
    kernel_size: 5
    stride: 1
    weight_filler {
      type: "xavier"
    }
    bias_filler {
      type: "constant"
    }
  }
}
layer {
  name: "pool2"
  type: "Pooling"
  bottom: "conv2"
  top: "pool2"
  pooling_param {
    pool: MAX
    kernel_size: 2
    stride: 2
  }
}
layer {
  name: "ip1"
  type: "InnerProduct"
  bottom: "pool2"
  top: "ip1"
  param {
    lr_mult: 1
  }
  param {
    lr_mult: 2
  }
  inner_product_param {
    num_output: 500
    weight_filler {
      type: "xavier"
    }
    bias_filler {
      type: "constant"
    }
  }
}
layer {
  name: "relu1"
  type: "ReLU"
  bottom: "ip1"
  top: "ip1"
}
layer {
  name: "ip2"
  type: "InnerProduct"
  bottom: "ip1"
  top: "ip2"
  param {
    lr_mult: 1
  }
  param {
    lr_mult: 2
  }
  inner_product_param {
    num_output: 52
    weight_filler {
      type: "xavier"
    }
    bias_filler {
      type: "constant"
    }
  }
}
layer {
  name: "accuracy"
  type: "Accuracy"
  bottom: "ip2"
  bottom: "label"
  top: "accuracy"
  include {
    phase: TEST
  }
}
layer {
  name: "loss"
  type: "SoftmaxWithLoss"
  bottom: "ip2"
  bottom: "label"
  top: "loss"
}
I0502 13:34:31.719888  5520 layer_factory.hpp:77] Creating layer data
I0502 13:34:31.719945  5520 db_lmdb.cpp:35] Opened lmdb examples/final_sp/sp_val_lmdb
I0502 13:34:31.719960  5520 net.cpp:84] Creating Layer data
I0502 13:34:31.719967  5520 net.cpp:380] data -> data
I0502 13:34:31.719976  5520 net.cpp:380] data -> label
I0502 13:34:31.720319  5520 data_layer.cpp:45] output data size: 64,3,28,28
I0502 13:34:31.725591  5520 net.cpp:122] Setting up data
I0502 13:34:31.725643  5520 net.cpp:129] Top shape: 64 3 28 28 (150528)
I0502 13:34:31.725648  5520 net.cpp:129] Top shape: 64 (64)
I0502 13:34:31.725651  5520 net.cpp:137] Memory required for data: 602368
I0502 13:34:31.725661  5520 layer_factory.hpp:77] Creating layer label_data_1_split
I0502 13:34:31.725677  5520 net.cpp:84] Creating Layer label_data_1_split
I0502 13:34:31.725680  5520 net.cpp:406] label_data_1_split <- label
I0502 13:34:31.725688  5520 net.cpp:380] label_data_1_split -> label_data_1_split_0
I0502 13:34:31.725703  5520 net.cpp:380] label_data_1_split -> label_data_1_split_1
I0502 13:34:31.725754  5520 net.cpp:122] Setting up label_data_1_split
I0502 13:34:31.725759  5520 net.cpp:129] Top shape: 64 (64)
I0502 13:34:31.725762  5520 net.cpp:129] Top shape: 64 (64)
I0502 13:34:31.725764  5520 net.cpp:137] Memory required for data: 602880
I0502 13:34:31.725767  5520 layer_factory.hpp:77] Creating layer conv1
I0502 13:34:31.725777  5520 net.cpp:84] Creating Layer conv1
I0502 13:34:31.725780  5520 net.cpp:406] conv1 <- data
I0502 13:34:31.725790  5520 net.cpp:380] conv1 -> conv1
I0502 13:34:31.725971  5520 net.cpp:122] Setting up conv1
I0502 13:34:31.725980  5520 net.cpp:129] Top shape: 64 20 24 24 (737280)
I0502 13:34:31.725982  5520 net.cpp:137] Memory required for data: 3552000
I0502 13:34:31.725993  5520 layer_factory.hpp:77] Creating layer pool1
I0502 13:34:31.726016  5520 net.cpp:84] Creating Layer pool1
I0502 13:34:31.726022  5520 net.cpp:406] pool1 <- conv1
I0502 13:34:31.726028  5520 net.cpp:380] pool1 -> pool1
I0502 13:34:31.726065  5520 net.cpp:122] Setting up pool1
I0502 13:34:31.726071  5520 net.cpp:129] Top shape: 64 20 12 12 (184320)
I0502 13:34:31.726074  5520 net.cpp:137] Memory required for data: 4289280
I0502 13:34:31.726078  5520 layer_factory.hpp:77] Creating layer conv2
I0502 13:34:31.726089  5520 net.cpp:84] Creating Layer conv2
I0502 13:34:31.726094  5520 net.cpp:406] conv2 <- pool1
I0502 13:34:31.726104  5520 net.cpp:380] conv2 -> conv2
I0502 13:34:31.726378  5520 net.cpp:122] Setting up conv2
I0502 13:34:31.726385  5520 net.cpp:129] Top shape: 64 50 8 8 (204800)
I0502 13:34:31.726387  5520 net.cpp:137] Memory required for data: 5108480
I0502 13:34:31.726394  5520 layer_factory.hpp:77] Creating layer pool2
I0502 13:34:31.726400  5520 net.cpp:84] Creating Layer pool2
I0502 13:34:31.726403  5520 net.cpp:406] pool2 <- conv2
I0502 13:34:31.726408  5520 net.cpp:380] pool2 -> pool2
I0502 13:34:31.726481  5520 net.cpp:122] Setting up pool2
I0502 13:34:31.726487  5520 net.cpp:129] Top shape: 64 50 4 4 (51200)
I0502 13:34:31.726490  5520 net.cpp:137] Memory required for data: 5313280
I0502 13:34:31.726495  5520 layer_factory.hpp:77] Creating layer ip1
I0502 13:34:31.726506  5520 net.cpp:84] Creating Layer ip1
I0502 13:34:31.726510  5520 net.cpp:406] ip1 <- pool2
I0502 13:34:31.726513  5520 net.cpp:380] ip1 -> ip1
I0502 13:34:31.728713  5520 net.cpp:122] Setting up ip1
I0502 13:34:31.728729  5520 net.cpp:129] Top shape: 64 500 (32000)
I0502 13:34:31.728734  5520 net.cpp:137] Memory required for data: 5441280
I0502 13:34:31.728749  5520 layer_factory.hpp:77] Creating layer relu1
I0502 13:34:31.728757  5520 net.cpp:84] Creating Layer relu1
I0502 13:34:31.728763  5520 net.cpp:406] relu1 <- ip1
I0502 13:34:31.728770  5520 net.cpp:367] relu1 -> ip1 (in-place)
I0502 13:34:31.728781  5520 net.cpp:122] Setting up relu1
I0502 13:34:31.728826  5520 net.cpp:129] Top shape: 64 500 (32000)
I0502 13:34:31.728830  5520 net.cpp:137] Memory required for data: 5569280
I0502 13:34:31.728837  5520 layer_factory.hpp:77] Creating layer ip2
I0502 13:34:31.728858  5520 net.cpp:84] Creating Layer ip2
I0502 13:34:31.728864  5520 net.cpp:406] ip2 <- ip1
I0502 13:34:31.728873  5520 net.cpp:380] ip2 -> ip2
I0502 13:34:31.729079  5520 net.cpp:122] Setting up ip2
I0502 13:34:31.729089  5520 net.cpp:129] Top shape: 64 52 (3328)
I0502 13:34:31.729094  5520 net.cpp:137] Memory required for data: 5582592
I0502 13:34:31.729109  5520 layer_factory.hpp:77] Creating layer ip2_ip2_0_split
I0502 13:34:31.729127  5520 net.cpp:84] Creating Layer ip2_ip2_0_split
I0502 13:34:31.729135  5520 net.cpp:406] ip2_ip2_0_split <- ip2
I0502 13:34:31.729148  5520 net.cpp:380] ip2_ip2_0_split -> ip2_ip2_0_split_0
I0502 13:34:31.729157  5520 net.cpp:380] ip2_ip2_0_split -> ip2_ip2_0_split_1
I0502 13:34:31.729192  5520 net.cpp:122] Setting up ip2_ip2_0_split
I0502 13:34:31.729198  5520 net.cpp:129] Top shape: 64 52 (3328)
I0502 13:34:31.729203  5520 net.cpp:129] Top shape: 64 52 (3328)
I0502 13:34:31.729214  5520 net.cpp:137] Memory required for data: 5609216
I0502 13:34:31.729218  5520 layer_factory.hpp:77] Creating layer accuracy
I0502 13:34:31.729228  5520 net.cpp:84] Creating Layer accuracy
I0502 13:34:31.729233  5520 net.cpp:406] accuracy <- ip2_ip2_0_split_0
I0502 13:34:31.729238  5520 net.cpp:406] accuracy <- label_data_1_split_0
I0502 13:34:31.729249  5520 net.cpp:380] accuracy -> accuracy
…
