…
I0502 13:52:54.662238  5656 net.cpp:294] The NetState phase (0) differed from the phase (1) specified by a rule in layer data
I0502 13:52:54.662256  5656 net.cpp:294] The NetState phase (0) differed from the phase (1) specified by a rule in layer accuracy
I0502 13:52:54.662336  5656 net.cpp:51] Initializing net from parameters: 
name: "LeNet"
state {
  phase: TRAIN
  level: 0
  stage: ""
}
layer {
  name: "data"
  type: "Data"
  top: "data"
  top: "label"
  include {
    phase: TRAIN
  }
  transform_param {
    scale: 0.00390625
  }
  data_param {
    source: "examples/final_sp/sp_train_lmdb"
    batch_size: 64
    backend: LMDB
  }
}
layer {
  name: "conv1"
  type: "Convolution"
  bottom: "data"
  top: "conv1"
  param {
    lr_mult: 1
  }
  param {
    lr_mult: 2
  }
  convolution_param {
    num_output: 20
    kernel_size: 5
    stride: 1
    weight_filler {
      type: "xavier"
    }
    bias_filler {
      type: "constant"
    }
  }
}
layer {
  name: "pool1"
  type: "Pooling"
  bottom: "conv1"
  top: "pool1"
  pooling_param {
    pool: MAX
    kernel_size: 2
    stride: 2
  }
}
layer {
  name: "conv2"
  type: "Convolution"
  bottom: "pool1"
  top: "conv2"
  param {
    lr_mult: 1
  }
  param {
    lr_mult: 2
  }
  convolution_param {
    num_output: 50
    kernel_size: 5
    stride: 1
    weight_filler {
      type: "xavier"
    }
    bias_filler {
      type: "constant"
    }
  }
}
layer {
  name: "pool2"
  type: "Pooling"
  bottom: "conv2"
  top: "pool2"
  pooling_param {
    pool: MAX
    kernel_size: 2
    stride: 2
  }
}
layer {
  name: "ip1"
  type: "InnerProduct"
  bottom: "pool2"
  top: "ip1"
  param {
    lr_mult: 1
  }
  param {
    lr_mult: 2
  }
  inner_product_param {
    num_output: 500
    weight_filler {
      type: "xavier"
    }
    bias_filler {
      type: "constant"
    }
  }
}
layer {
  name: "relu1"
  type: "ReLU"
  bottom: "ip1"
  top: "ip1"
}
layer {
  name: "ip2"
  type: "InnerProduct"
  bottom: "ip1"
  top: "ip2"
  param {
    lr_mult: 1
  }
  param {
    lr_mult: 2
  }
  inner_product_param {
    num_output: 52
    weight_filler {
      type: "xavier"
    }
    bias_filler {
      type: "constant"
    }
  }
}
layer {
  name: "loss"
  type: "SoftmaxWithLoss"
  bottom: "ip2"
  bottom: "label"
  top: "loss"
}
I0502 13:52:54.662396  5656 layer_factory.hpp:77] Creating layer data
I0502 13:52:54.662484  5656 db_lmdb.cpp:35] Opened lmdb examples/final_sp/sp_train_lmdb
I0502 13:52:54.662505  5656 net.cpp:84] Creating Layer data
I0502 13:52:54.662513  5656 net.cpp:380] data -> data
I0502 13:52:54.662530  5656 net.cpp:380] data -> label
I0502 13:52:54.663038  5656 data_layer.cpp:45] output data size: 64,3,28,28
I0502 13:52:54.666980  5656 net.cpp:122] Setting up data
I0502 13:52:54.667004  5656 net.cpp:129] Top shape: 64 3 28 28 (150528)
I0502 13:52:54.667009  5656 net.cpp:129] Top shape: 64 (64)
I0502 13:52:54.667011  5656 net.cpp:137] Memory required for data: 602368
I0502 13:52:54.667021  5656 layer_factory.hpp:77] Creating layer conv1
I0502 13:52:54.667050  5656 net.cpp:84] Creating Layer conv1
I0502 13:52:54.667058  5656 net.cpp:406] conv1 <- data
I0502 13:52:54.667074  5656 net.cpp:380] conv1 -> conv1
I0502 13:52:54.668212  5656 net.cpp:122] Setting up conv1
I0502 13:52:54.668226  5656 net.cpp:129] Top shape: 64 20 24 24 (737280)
I0502 13:52:54.668229  5656 net.cpp:137] Memory required for data: 3551488
I0502 13:52:54.668248  5656 layer_factory.hpp:77] Creating layer pool1
I0502 13:52:54.668282  5656 net.cpp:84] Creating Layer pool1
I0502 13:52:54.668288  5656 net.cpp:406] pool1 <- conv1
I0502 13:52:54.668294  5656 net.cpp:380] pool1 -> pool1
I0502 13:52:54.668402  5656 net.cpp:122] Setting up pool1
I0502 13:52:54.668409  5656 net.cpp:129] Top shape: 64 20 12 12 (184320)
I0502 13:52:54.668412  5656 net.cpp:137] Memory required for data: 4288768
I0502 13:52:54.668416  5656 layer_factory.hpp:77] Creating layer conv2
I0502 13:52:54.668433  5656 net.cpp:84] Creating Layer conv2
I0502 13:52:54.668439  5656 net.cpp:406] conv2 <- pool1
I0502 13:52:54.668448  5656 net.cpp:380] conv2 -> conv2
I0502 13:52:54.669481  5656 net.cpp:122] Setting up conv2
I0502 13:52:54.669492  5656 net.cpp:129] Top shape: 64 50 8 8 (204800)
I0502 13:52:54.669495  5656 net.cpp:137] Memory required for data: 5107968
I0502 13:52:54.669504  5656 layer_factory.hpp:77] Creating layer pool2
I0502 13:52:54.669514  5656 net.cpp:84] Creating Layer pool2
I0502 13:52:54.669519  5656 net.cpp:406] pool2 <- conv2
I0502 13:52:54.669525  5656 net.cpp:380] pool2 -> pool2
I0502 13:52:54.669564  5656 net.cpp:122] Setting up pool2
I0502 13:52:54.669569  5656 net.cpp:129] Top shape: 64 50 4 4 (51200)
I0502 13:52:54.669572  5656 net.cpp:137] Memory required for data: 5312768
I0502 13:52:54.669576  5656 layer_factory.hpp:77] Creating layer ip1
I0502 13:52:54.669584  5656 net.cpp:84] Creating Layer ip1
I0502 13:52:54.669589  5656 net.cpp:406] ip1 <- pool2
I0502 13:52:54.669596  5656 net.cpp:380] ip1 -> ip1
I0502 13:52:54.671789  5656 net.cpp:122] Setting up ip1
I0502 13:52:54.671802  5656 net.cpp:129] Top shape: 64 500 (32000)
I0502 13:52:54.671804  5656 net.cpp:137] Memory required for data: 5440768
I0502 13:52:54.671815  5656 layer_factory.hpp:77] Creating layer relu1
I0502 13:52:54.671823  5656 net.cpp:84] Creating Layer relu1
I0502 13:52:54.671828  5656 net.cpp:406] relu1 <- ip1
I0502 13:52:54.671835  5656 net.cpp:367] relu1 -> ip1 (in-place)
I0502 13:52:54.671844  5656 net.cpp:122] Setting up relu1
I0502 13:52:54.671849  5656 net.cpp:129] Top shape: 64 500 (32000)
I0502 13:52:54.671854  5656 net.cpp:137] Memory required for data: 5568768
I0502 13:52:54.671859  5656 layer_factory.hpp:77] Creating layer ip2
I0502 13:52:54.671886  5656 net.cpp:84] Creating Layer ip2
I0502 13:52:54.671891  5656 net.cpp:406] ip2 <- ip1
I0502 13:52:54.671900  5656 net.cpp:380] ip2 -> ip2
I0502 13:52:54.672096  5656 net.cpp:122] Setting up ip2
I0502 13:52:54.672104  5656 net.cpp:129] Top shape: 64 52 (3328)
I0502 13:52:54.672106  5656 net.cpp:137] Memory required for data: 5582080
I0502 13:52:54.672112  5656 layer_factory.hpp:77] Creating layer loss
I0502 13:52:54.672122  5656 net.cpp:84] Creating Layer loss
I0502 13:52:54.672127  5656 net.cpp:406] loss <- ip2
I0502 13:52:54.672132  5656 net.cpp:406] loss <- label
I0502 13:52:54.672138  5656 net.cpp:380] loss -> loss
I0502 13:52:54.672153  5656 layer_factory.hpp:77] Creating layer loss
…
I0502 13:52:54.672554  5656 solver.cpp:190] Creating test net (#0) specified by net file: models/sp_final_lenet/lenet_train_val.prototxt
I0502 13:52:54.672596  5656 net.cpp:294] The NetState phase (1) differed from the phase (0) specified by a rule in layer data
I0502 13:52:54.672700  5656 net.cpp:51] Initializing net from parameters: 
name: "LeNet"
state {
  phase: TEST
}
layer {
  name: "data"
  type: "Data"
  top: "data"
  top: "label"
  include {
    phase: TEST
  }
  transform_param {
    scale: 0.00390625
  }
  data_param {
    source: "examples/final_sp/sp_val_lmdb"
    batch_size: 64
    backend: LMDB
  }
}
layer {
  name: "conv1"
  type: "Convolution"
  bottom: "data"
  top: "conv1"
  param {
    lr_mult: 1
  }
  param {
    lr_mult: 2
  }
  convolution_param {
    num_output: 20
    kernel_size: 5
    stride: 1
    weight_filler {
      type: "xavier"
    }
    bias_filler {
      type: "constant"
    }
  }
}
layer {
  name: "pool1"
  type: "Pooling"
  bottom: "conv1"
  top: "pool1"
  pooling_param {
    pool: MAX
    kernel_size: 2
    stride: 2
  }
}
layer {
  name: "conv2"
  type: "Convolution"
  bottom: "pool1"
  top: "conv2"
  param {
    lr_mult: 1
  }
  param {
    lr_mult: 2
  }
  convolution_param {
    num_output: 50
    kernel_size: 5
    stride: 1
    weight_filler {
      type: "xavier"
    }
    bias_filler {
      type: "constant"
    }
  }
}
layer {
  name: "pool2"
  type: "Pooling"
  bottom: "conv2"
  top: "pool2"
  pooling_param {
    pool: MAX
    kernel_size: 2
    stride: 2
  }
}
layer {
  name: "ip1"
  type: "InnerProduct"
  bottom: "pool2"
  top: "ip1"
  param {
    lr_mult: 1
  }
  param {
    lr_mult: 2
  }
  inner_product_param {
    num_output: 500
    weight_filler {
      type: "xavier"
    }
    bias_filler {
      type: "constant"
    }
  }
}
layer {
  name: "relu1"
  type: "ReLU"
  bottom: "ip1"
  top: "ip1"
}
layer {
  name: "ip2"
  type: "InnerProduct"
  bottom: "ip1"
  top: "ip2"
  param {
    lr_mult: 1
  }
  param {
    lr_mult: 2
  }
  inner_product_param {
    num_output: 52
    weight_filler {
      type: "xavier"
    }
    bias_filler {
      type: "constant"
    }
  }
}
layer {
  name: "accuracy"
  type: "Accuracy"
  bottom: "ip2"
  bottom: "label"
  top: "accuracy"
  include {
    phase: TEST
  }
}
layer {
  name: "loss"
  type: "SoftmaxWithLoss"
  bottom: "ip2"
  bottom: "label"
  top: "loss"
}
I0502 13:52:54.672821  5656 layer_factory.hpp:77] Creating layer data
I0502 13:52:54.672889  5656 db_lmdb.cpp:35] Opened lmdb examples/final_sp/sp_val_lmdb
I0502 13:52:54.672905  5656 net.cpp:84] Creating Layer data
I0502 13:52:54.672912  5656 net.cpp:380] data -> data
I0502 13:52:54.672921  5656 net.cpp:380] data -> label
I0502 13:52:54.673100  5656 data_layer.cpp:45] output data size: 64,3,28,28
I0502 13:52:54.677705  5656 net.cpp:122] Setting up data
I0502 13:52:54.677728  5656 net.cpp:129] Top shape: 64 3 28 28 (150528)
I0502 13:52:54.677732  5656 net.cpp:129] Top shape: 64 (64)
I0502 13:52:54.677736  5656 net.cpp:137] Memory required for data: 602368
I0502 13:52:54.677740  5656 layer_factory.hpp:77] Creating layer label_data_1_split
I0502 13:52:54.677757  5656 net.cpp:84] Creating Layer label_data_1_split
I0502 13:52:54.677762  5656 net.cpp:406] label_data_1_split <- label
I0502 13:52:54.677772  5656 net.cpp:380] label_data_1_split -> label_data_1_split_0
I0502 13:52:54.677781  5656 net.cpp:380] label_data_1_split -> label_data_1_split_1
I0502 13:52:54.677831  5656 net.cpp:122] Setting up label_data_1_split
I0502 13:52:54.677837  5656 net.cpp:129] Top shape: 64 (64)
I0502 13:52:54.677840  5656 net.cpp:129] Top shape: 64 (64)
I0502 13:52:54.677842  5656 net.cpp:137] Memory required for data: 602880
I0502 13:52:54.677845  5656 layer_factory.hpp:77] Creating layer conv1
I0502 13:52:54.677856  5656 net.cpp:84] Creating Layer conv1
I0502 13:52:54.677861  5656 net.cpp:406] conv1 <- data
I0502 13:52:54.677870  5656 net.cpp:380] conv1 -> conv1
I0502 13:52:54.678107  5656 net.cpp:122] Setting up conv1
I0502 13:52:54.678113  5656 net.cpp:129] Top shape: 64 20 24 24 (737280)
I0502 13:52:54.678117  5656 net.cpp:137] Memory required for data: 3552000
I0502 13:52:54.678128  5656 layer_factory.hpp:77] Creating layer pool1
I0502 13:52:54.678149  5656 net.cpp:84] Creating Layer pool1
I0502 13:52:54.678156  5656 net.cpp:406] pool1 <- conv1
I0502 13:52:54.678162  5656 net.cpp:380] pool1 -> pool1
I0502 13:52:54.678198  5656 net.cpp:122] Setting up pool1
I0502 13:52:54.678205  5656 net.cpp:129] Top shape: 64 20 12 12 (184320)
I0502 13:52:54.678206  5656 net.cpp:137] Memory required for data: 4289280
I0502 13:52:54.678210  5656 layer_factory.hpp:77] Creating layer conv2
I0502 13:52:54.678225  5656 net.cpp:84] Creating Layer conv2
I0502 13:52:54.678231  5656 net.cpp:406] conv2 <- pool1
I0502 13:52:54.678242  5656 net.cpp:380] conv2 -> conv2
I0502 13:52:54.678513  5656 net.cpp:122] Setting up conv2
I0502 13:52:54.678519  5656 net.cpp:129] Top shape: 64 50 8 8 (204800)
I0502 13:52:54.678522  5656 net.cpp:137] Memory required for data: 5108480
I0502 13:52:54.678531  5656 layer_factory.hpp:77] Creating layer pool2
I0502 13:52:54.678539  5656 net.cpp:84] Creating Layer pool2
I0502 13:52:54.678544  5656 net.cpp:406] pool2 <- conv2
I0502 13:52:54.678550  5656 net.cpp:380] pool2 -> pool2
I0502 13:52:54.678586  5656 net.cpp:122] Setting up pool2
I0502 13:52:54.678591  5656 net.cpp:129] Top shape: 64 50 4 4 (51200)
I0502 13:52:54.678594  5656 net.cpp:137] Memory required for data: 5313280
I0502 13:52:54.678597  5656 layer_factory.hpp:77] Creating layer ip1
I0502 13:52:54.678604  5656 net.cpp:84] Creating Layer ip1
I0502 13:52:54.678608  5656 net.cpp:406] ip1 <- pool2
I0502 13:52:54.678617  5656 net.cpp:380] ip1 -> ip1
I0502 13:52:54.680866  5656 net.cpp:122] Setting up ip1
I0502 13:52:54.680882  5656 net.cpp:129] Top shape: 64 500 (32000)
I0502 13:52:54.680886  5656 net.cpp:137] Memory required for data: 5441280
I0502 13:52:54.680896  5656 layer_factory.hpp:77] Creating layer relu1
I0502 13:52:54.680907  5656 net.cpp:84] Creating Layer relu1
I0502 13:52:54.680910  5656 net.cpp:406] relu1 <- ip1
I0502 13:52:54.680917  5656 net.cpp:367] relu1 -> ip1 (in-place)
I0502 13:52:54.680927  5656 net.cpp:122] Setting up relu1
I0502 13:52:54.680932  5656 net.cpp:129] Top shape: 64 500 (32000)
I0502 13:52:54.680934  5656 net.cpp:137] Memory required for data: 5569280
I0502 13:52:54.680938  5656 layer_factory.hpp:77] Creating layer ip2
I0502 13:52:54.680951  5656 net.cpp:84] Creating Layer ip2
I0502 13:52:54.680955  5656 net.cpp:406] ip2 <- ip1
I0502 13:52:54.680963  5656 net.cpp:380] ip2 -> ip2
I0502 13:52:54.681164  5656 net.cpp:122] Setting up ip2
I0502 13:52:54.681171  5656 net.cpp:129] Top shape: 64 52 (3328)
I0502 13:52:54.681174  5656 net.cpp:137] Memory required for data: 5582592
I0502 13:52:54.681180  5656 layer_factory.hpp:77] Creating layer ip2_ip2_0_split
I0502 13:52:54.681186  5656 net.cpp:84] Creating Layer ip2_ip2_0_split
I0502 13:52:54.681191  5656 net.cpp:406] ip2_ip2_0_split <- ip2
I0502 13:52:54.681200  5656 net.cpp:380] ip2_ip2_0_split -> ip2_ip2_0_split_0
I0502 13:52:54.681208  5656 net.cpp:380] ip2_ip2_0_split -> ip2_ip2_0_split_1
I0502 13:52:54.681252  5656 net.cpp:122] Setting up ip2_ip2_0_split
I0502 13:52:54.681258  5656 net.cpp:129] Top shape: 64 52 (3328)
I0502 13:52:54.681262  5656 net.cpp:129] Top shape: 64 52 (3328)
I0502 13:52:54.681268  5656 net.cpp:137] Memory required for data: 5609216
I0502 13:52:54.681275  5656 layer_factory.hpp:77] Creating layer accuracy
I0502 13:52:54.681288  5656 net.cpp:84] Creating Layer accuracy
I0502 13:52:54.681295  5656 net.cpp:406] accuracy <- ip2_ip2_0_split_0
I0502 13:52:54.681301  5656 net.cpp:406] accuracy <- label_data_1_split_0
I0502 13:52:54.681308  5656 net.cpp:380] accuracy -> accuracy
…
