…
I0502 14:14:13.211794  5781 net.cpp:294] The NetState phase (0) differed from the phase (1) specified by a rule in layer data
I0502 14:14:13.211805  5781 net.cpp:294] The NetState phase (0) differed from the phase (1) specified by a rule in layer accuracy
I0502 14:14:13.211876  5781 net.cpp:51] Initializing net from parameters: 
name: "LeNet"
state {
  phase: TRAIN
  level: 0
  stage: ""
}
layer {
  name: "data"
  type: "Data"
  top: "data"
  top: "label"
  include {
    phase: TRAIN
  }
  transform_param {
    scale: 0.00390625
  }
  data_param {
    source: "examples/final_sp/sp_train_lmdb"
    batch_size: 64
    backend: LMDB
  }
}
layer {
  name: "conv1"
  type: "Convolution"
  bottom: "data"
  top: "conv1"
  param {
    lr_mult: 1
  }
  param {
    lr_mult: 2
  }
  convolution_param {
    num_output: 20
    kernel_size: 5
    stride: 1
    weight_filler {
      type: "xavier"
    }
    bias_filler {
      type: "constant"
    }
  }
}
layer {
  name: "pool1"
  type: "Pooling"
  bottom: "conv1"
  top: "pool1"
  pooling_param {
    pool: MAX
    kernel_size: 2
    stride: 2
  }
}
layer {
  name: "conv2"
  type: "Convolution"
  bottom: "pool1"
  top: "conv2"
  param {
    lr_mult: 1
  }
  param {
    lr_mult: 2
  }
  convolution_param {
    num_output: 50
    kernel_size: 5
    stride: 1
    weight_filler {
      type: "xavier"
    }
    bias_filler {
      type: "constant"
    }
  }
}
layer {
  name: "pool2"
  type: "Pooling"
  bottom: "conv2"
  top: "pool2"
  pooling_param {
    pool: MAX
    kernel_size: 2
    stride: 2
  }
}
layer {
  name: "ip1"
  type: "InnerProduct"
  bottom: "pool2"
  top: "ip1"
  param {
    lr_mult: 1
  }
  param {
    lr_mult: 2
  }
  inner_product_param {
    num_output: 500
    weight_filler {
      type: "xavier"
    }
    bias_filler {
      type: "constant"
    }
  }
}
layer {
  name: "relu1"
  type: "ReLU"
  bottom: "ip1"
  top: "ip1"
}
layer {
  name: "ip2"
  type: "InnerProduct"
  bottom: "ip1"
  top: "ip2"
  param {
    lr_mult: 1
  }
  param {
    lr_mult: 2
  }
  inner_product_param {
    num_output: 52
    weight_filler {
      type: "xavier"
    }
    bias_filler {
      type: "constant"
    }
  }
}
layer {
  name: "loss"
  type: "SoftmaxWithLoss"
  bottom: "ip2"
  bottom: "label"
  top: "loss"
}
I0502 14:14:13.211917  5781 layer_factory.hpp:77] Creating layer data
I0502 14:14:13.212015  5781 db_lmdb.cpp:35] Opened lmdb examples/final_sp/sp_train_lmdb
I0502 14:14:13.212035  5781 net.cpp:84] Creating Layer data
I0502 14:14:13.212043  5781 net.cpp:380] data -> data
I0502 14:14:13.212059  5781 net.cpp:380] data -> label
I0502 14:14:13.212589  5781 data_layer.cpp:45] output data size: 64,3,28,28
I0502 14:14:13.216439  5781 net.cpp:122] Setting up data
I0502 14:14:13.216470  5781 net.cpp:129] Top shape: 64 3 28 28 (150528)
I0502 14:14:13.216476  5781 net.cpp:129] Top shape: 64 (64)
I0502 14:14:13.216480  5781 net.cpp:137] Memory required for data: 602368
I0502 14:14:13.216495  5781 layer_factory.hpp:77] Creating layer conv1
I0502 14:14:13.216523  5781 net.cpp:84] Creating Layer conv1
I0502 14:14:13.216532  5781 net.cpp:406] conv1 <- data
I0502 14:14:13.216548  5781 net.cpp:380] conv1 -> conv1
I0502 14:14:13.217496  5781 net.cpp:122] Setting up conv1
I0502 14:14:13.217510  5781 net.cpp:129] Top shape: 64 20 24 24 (737280)
I0502 14:14:13.217515  5781 net.cpp:137] Memory required for data: 3551488
I0502 14:14:13.217536  5781 layer_factory.hpp:77] Creating layer pool1
I0502 14:14:13.217561  5781 net.cpp:84] Creating Layer pool1
I0502 14:14:13.217566  5781 net.cpp:406] pool1 <- conv1
I0502 14:14:13.217574  5781 net.cpp:380] pool1 -> pool1
I0502 14:14:13.217619  5781 net.cpp:122] Setting up pool1
I0502 14:14:13.217627  5781 net.cpp:129] Top shape: 64 20 12 12 (184320)
I0502 14:14:13.217630  5781 net.cpp:137] Memory required for data: 4288768
I0502 14:14:13.217634  5781 layer_factory.hpp:77] Creating layer conv2
I0502 14:14:13.217644  5781 net.cpp:84] Creating Layer conv2
I0502 14:14:13.217650  5781 net.cpp:406] conv2 <- pool1
I0502 14:14:13.217658  5781 net.cpp:380] conv2 -> conv2
I0502 14:14:13.218886  5781 net.cpp:122] Setting up conv2
I0502 14:14:13.218902  5781 net.cpp:129] Top shape: 64 50 8 8 (204800)
I0502 14:14:13.218907  5781 net.cpp:137] Memory required for data: 5107968
I0502 14:14:13.218921  5781 layer_factory.hpp:77] Creating layer pool2
I0502 14:14:13.218931  5781 net.cpp:84] Creating Layer pool2
I0502 14:14:13.218936  5781 net.cpp:406] pool2 <- conv2
I0502 14:14:13.218943  5781 net.cpp:380] pool2 -> pool2
I0502 14:14:13.218972  5781 net.cpp:122] Setting up pool2
I0502 14:14:13.218979  5781 net.cpp:129] Top shape: 64 50 4 4 (51200)
I0502 14:14:13.218983  5781 net.cpp:137] Memory required for data: 5312768
I0502 14:14:13.218988  5781 layer_factory.hpp:77] Creating layer ip1
I0502 14:14:13.218997  5781 net.cpp:84] Creating Layer ip1
I0502 14:14:13.219002  5781 net.cpp:406] ip1 <- pool2
I0502 14:14:13.219008  5781 net.cpp:380] ip1 -> ip1
I0502 14:14:13.221546  5781 net.cpp:122] Setting up ip1
I0502 14:14:13.221561  5781 net.cpp:129] Top shape: 64 500 (32000)
I0502 14:14:13.221565  5781 net.cpp:137] Memory required for data: 5440768
I0502 14:14:13.221580  5781 layer_factory.hpp:77] Creating layer relu1
I0502 14:14:13.221591  5781 net.cpp:84] Creating Layer relu1
I0502 14:14:13.221596  5781 net.cpp:406] relu1 <- ip1
I0502 14:14:13.221603  5781 net.cpp:367] relu1 -> ip1 (in-place)
I0502 14:14:13.221614  5781 net.cpp:122] Setting up relu1
I0502 14:14:13.221619  5781 net.cpp:129] Top shape: 64 500 (32000)
I0502 14:14:13.221623  5781 net.cpp:137] Memory required for data: 5568768
I0502 14:14:13.221627  5781 layer_factory.hpp:77] Creating layer ip2
I0502 14:14:13.221635  5781 net.cpp:84] Creating Layer ip2
I0502 14:14:13.221639  5781 net.cpp:406] ip2 <- ip1
I0502 14:14:13.221647  5781 net.cpp:380] ip2 -> ip2
I0502 14:14:13.221838  5781 net.cpp:122] Setting up ip2
I0502 14:14:13.221845  5781 net.cpp:129] Top shape: 64 52 (3328)
I0502 14:14:13.221853  5781 net.cpp:137] Memory required for data: 5582080
I0502 14:14:13.221860  5781 layer_factory.hpp:77] Creating layer loss
I0502 14:14:13.221869  5781 net.cpp:84] Creating Layer loss
I0502 14:14:13.221873  5781 net.cpp:406] loss <- ip2
I0502 14:14:13.221879  5781 net.cpp:406] loss <- label
I0502 14:14:13.221886  5781 net.cpp:380] loss -> loss
I0502 14:14:13.221906  5781 layer_factory.hpp:77] Creating layer loss
…
I0502 14:14:13.222249  5781 solver.cpp:190] Creating test net (#0) specified by net file: models/sp_final_lenet/lenet_train_val.prototxt
I0502 14:14:13.222291  5781 net.cpp:294] The NetState phase (1) differed from the phase (0) specified by a rule in layer data
I0502 14:14:13.222368  5781 net.cpp:51] Initializing net from parameters: 
name: "LeNet"
state {
  phase: TEST
}
layer {
  name: "data"
  type: "Data"
  top: "data"
  top: "label"
  include {
    phase: TEST
  }
  transform_param {
    scale: 0.00390625
  }
  data_param {
    source: "examples/final_sp/sp_val_lmdb"
    batch_size: 64
    backend: LMDB
  }
}
layer {
  name: "conv1"
  type: "Convolution"
  bottom: "data"
  top: "conv1"
  param {
    lr_mult: 1
  }
  param {
    lr_mult: 2
  }
  convolution_param {
    num_output: 20
    kernel_size: 5
    stride: 1
    weight_filler {
      type: "xavier"
    }
    bias_filler {
      type: "constant"
    }
  }
}
layer {
  name: "pool1"
  type: "Pooling"
  bottom: "conv1"
  top: "pool1"
  pooling_param {
    pool: MAX
    kernel_size: 2
    stride: 2
  }
}
layer {
  name: "conv2"
  type: "Convolution"
  bottom: "pool1"
  top: "conv2"
  param {
    lr_mult: 1
  }
  param {
    lr_mult: 2
  }
  convolution_param {
    num_output: 50
    kernel_size: 5
    stride: 1
    weight_filler {
      type: "xavier"
    }
    bias_filler {
      type: "constant"
    }
  }
}
layer {
  name: "pool2"
  type: "Pooling"
  bottom: "conv2"
  top: "pool2"
  pooling_param {
    pool: MAX
    kernel_size: 2
    stride: 2
  }
}
layer {
  name: "ip1"
  type: "InnerProduct"
  bottom: "pool2"
  top: "ip1"
  param {
    lr_mult: 1
  }
  param {
    lr_mult: 2
  }
  inner_product_param {
    num_output: 500
    weight_filler {
      type: "xavier"
    }
    bias_filler {
      type: "constant"
    }
  }
}
layer {
  name: "relu1"
  type: "ReLU"
  bottom: "ip1"
  top: "ip1"
}
layer {
  name: "ip2"
  type: "InnerProduct"
  bottom: "ip1"
  top: "ip2"
  param {
    lr_mult: 1
  }
  param {
    lr_mult: 2
  }
  inner_product_param {
    num_output: 52
    weight_filler {
      type: "xavier"
    }
    bias_filler {
      type: "constant"
    }
  }
}
layer {
  name: "accuracy"
  type: "Accuracy"
  bottom: "ip2"
  bottom: "label"
  top: "accuracy"
  include {
    phase: TEST
  }
}
layer {
  name: "loss"
  type: "SoftmaxWithLoss"
  bottom: "ip2"
  bottom: "label"
  top: "loss"
}
I0502 14:14:13.222440  5781 layer_factory.hpp:77] Creating layer data
I0502 14:14:13.222501  5781 db_lmdb.cpp:35] Opened lmdb examples/final_sp/sp_val_lmdb
I0502 14:14:13.222515  5781 net.cpp:84] Creating Layer data
I0502 14:14:13.222522  5781 net.cpp:380] data -> data
I0502 14:14:13.222532  5781 net.cpp:380] data -> label
I0502 14:14:13.222622  5781 data_layer.cpp:45] output data size: 64,3,28,28
I0502 14:14:13.233165  5781 net.cpp:122] Setting up data
I0502 14:14:13.233188  5781 net.cpp:129] Top shape: 64 3 28 28 (150528)
I0502 14:14:13.233196  5781 net.cpp:129] Top shape: 64 (64)
I0502 14:14:13.233199  5781 net.cpp:137] Memory required for data: 602368
I0502 14:14:13.233206  5781 layer_factory.hpp:77] Creating layer label_data_1_split
I0502 14:14:13.233219  5781 net.cpp:84] Creating Layer label_data_1_split
I0502 14:14:13.233224  5781 net.cpp:406] label_data_1_split <- label
I0502 14:14:13.233232  5781 net.cpp:380] label_data_1_split -> label_data_1_split_0
I0502 14:14:13.233244  5781 net.cpp:380] label_data_1_split -> label_data_1_split_1
I0502 14:14:13.233307  5781 net.cpp:122] Setting up label_data_1_split
I0502 14:14:13.233319  5781 net.cpp:129] Top shape: 64 (64)
I0502 14:14:13.233323  5781 net.cpp:129] Top shape: 64 (64)
I0502 14:14:13.233326  5781 net.cpp:137] Memory required for data: 602880
I0502 14:14:13.233331  5781 layer_factory.hpp:77] Creating layer conv1
I0502 14:14:13.233343  5781 net.cpp:84] Creating Layer conv1
I0502 14:14:13.233348  5781 net.cpp:406] conv1 <- data
I0502 14:14:13.233356  5781 net.cpp:380] conv1 -> conv1
I0502 14:14:13.233580  5781 net.cpp:122] Setting up conv1
I0502 14:14:13.233589  5781 net.cpp:129] Top shape: 64 20 24 24 (737280)
I0502 14:14:13.233592  5781 net.cpp:137] Memory required for data: 3552000
I0502 14:14:13.233603  5781 layer_factory.hpp:77] Creating layer pool1
I0502 14:14:13.233623  5781 net.cpp:84] Creating Layer pool1
I0502 14:14:13.233626  5781 net.cpp:406] pool1 <- conv1
I0502 14:14:13.233633  5781 net.cpp:380] pool1 -> pool1
I0502 14:14:13.233664  5781 net.cpp:122] Setting up pool1
I0502 14:14:13.233671  5781 net.cpp:129] Top shape: 64 20 12 12 (184320)
I0502 14:14:13.233675  5781 net.cpp:137] Memory required for data: 4289280
I0502 14:14:13.233680  5781 layer_factory.hpp:77] Creating layer conv2
I0502 14:14:13.233687  5781 net.cpp:84] Creating Layer conv2
I0502 14:14:13.233691  5781 net.cpp:406] conv2 <- pool1
I0502 14:14:13.233697  5781 net.cpp:380] conv2 -> conv2
I0502 14:14:13.234093  5781 net.cpp:122] Setting up conv2
I0502 14:14:13.234104  5781 net.cpp:129] Top shape: 64 50 8 8 (204800)
I0502 14:14:13.234108  5781 net.cpp:137] Memory required for data: 5108480
I0502 14:14:13.234117  5781 layer_factory.hpp:77] Creating layer pool2
I0502 14:14:13.234123  5781 net.cpp:84] Creating Layer pool2
I0502 14:14:13.234127  5781 net.cpp:406] pool2 <- conv2
I0502 14:14:13.234133  5781 net.cpp:380] pool2 -> pool2
I0502 14:14:13.234499  5781 net.cpp:122] Setting up pool2
I0502 14:14:13.234510  5781 net.cpp:129] Top shape: 64 50 4 4 (51200)
I0502 14:14:13.234514  5781 net.cpp:137] Memory required for data: 5313280
I0502 14:14:13.234519  5781 layer_factory.hpp:77] Creating layer ip1
I0502 14:14:13.234526  5781 net.cpp:84] Creating Layer ip1
I0502 14:14:13.234530  5781 net.cpp:406] ip1 <- pool2
I0502 14:14:13.234537  5781 net.cpp:380] ip1 -> ip1
I0502 14:14:13.238281  5781 net.cpp:122] Setting up ip1
I0502 14:14:13.238298  5781 net.cpp:129] Top shape: 64 500 (32000)
I0502 14:14:13.238302  5781 net.cpp:137] Memory required for data: 5441280
I0502 14:14:13.238318  5781 layer_factory.hpp:77] Creating layer relu1
I0502 14:14:13.238330  5781 net.cpp:84] Creating Layer relu1
I0502 14:14:13.238334  5781 net.cpp:406] relu1 <- ip1
I0502 14:14:13.238342  5781 net.cpp:367] relu1 -> ip1 (in-place)
I0502 14:14:13.238349  5781 net.cpp:122] Setting up relu1
I0502 14:14:13.238354  5781 net.cpp:129] Top shape: 64 500 (32000)
I0502 14:14:13.238358  5781 net.cpp:137] Memory required for data: 5569280
I0502 14:14:13.238361  5781 layer_factory.hpp:77] Creating layer ip2
I0502 14:14:13.238371  5781 net.cpp:84] Creating Layer ip2
I0502 14:14:13.238375  5781 net.cpp:406] ip2 <- ip1
I0502 14:14:13.238381  5781 net.cpp:380] ip2 -> ip2
I0502 14:14:13.239147  5781 net.cpp:122] Setting up ip2
I0502 14:14:13.239166  5781 net.cpp:129] Top shape: 64 52 (3328)
I0502 14:14:13.239171  5781 net.cpp:137] Memory required for data: 5582592
I0502 14:14:13.239183  5781 layer_factory.hpp:77] Creating layer ip2_ip2_0_split
I0502 14:14:13.239192  5781 net.cpp:84] Creating Layer ip2_ip2_0_split
I0502 14:14:13.239197  5781 net.cpp:406] ip2_ip2_0_split <- ip2
I0502 14:14:13.239205  5781 net.cpp:380] ip2_ip2_0_split -> ip2_ip2_0_split_0
I0502 14:14:13.239217  5781 net.cpp:380] ip2_ip2_0_split -> ip2_ip2_0_split_1
I0502 14:14:13.239251  5781 net.cpp:122] Setting up ip2_ip2_0_split
I0502 14:14:13.239259  5781 net.cpp:129] Top shape: 64 52 (3328)
I0502 14:14:13.239264  5781 net.cpp:129] Top shape: 64 52 (3328)
I0502 14:14:13.239266  5781 net.cpp:137] Memory required for data: 5609216
I0502 14:14:13.239272  5781 layer_factory.hpp:77] Creating layer accuracy
I0502 14:14:13.239279  5781 net.cpp:84] Creating Layer accuracy
I0502 14:14:13.239285  5781 net.cpp:406] accuracy <- ip2_ip2_0_split_0
I0502 14:14:13.239290  5781 net.cpp:406] accuracy <- label_data_1_split_0
I0502 14:14:13.239297  5781 net.cpp:380] accuracy -> accuracy
…
