…
I0502 13:15:24.499320  5358 net.cpp:294] The NetState phase (0) differed from the phase (1) specified by a rule in layer data
I0502 13:15:24.499333  5358 net.cpp:294] The NetState phase (0) differed from the phase (1) specified by a rule in layer accuracy
I0502 13:15:24.499395  5358 net.cpp:51] Initializing net from parameters: 
name: "LeNet"
state {
  phase: TRAIN
  level: 0
  stage: ""
}
layer {
  name: "data"
  type: "Data"
  top: "data"
  top: "label"
  include {
    phase: TRAIN
  }
  transform_param {
    scale: 0.00390625
  }
  data_param {
    source: "examples/final_sp/sp_train_lmdb"
    batch_size: 64
    backend: LMDB
  }
}
layer {
  name: "conv1"
  type: "Convolution"
  bottom: "data"
  top: "conv1"
  param {
    lr_mult: 1
  }
  param {
    lr_mult: 2
  }
  convolution_param {
    num_output: 20
    kernel_size: 5
    stride: 1
    weight_filler {
      type: "xavier"
    }
    bias_filler {
      type: "constant"
    }
  }
}
layer {
  name: "pool1"
  type: "Pooling"
  bottom: "conv1"
  top: "pool1"
  pooling_param {
    pool: MAX
    kernel_size: 2
    stride: 2
  }
}
layer {
  name: "conv2"
  type: "Convolution"
  bottom: "pool1"
  top: "conv2"
  param {
    lr_mult: 1
  }
  param {
    lr_mult: 2
  }
  convolution_param {
    num_output: 50
    kernel_size: 5
    stride: 1
    weight_filler {
      type: "xavier"
    }
    bias_filler {
      type: "constant"
    }
  }
}
layer {
  name: "pool2"
  type: "Pooling"
  bottom: "conv2"
  top: "pool2"
  pooling_param {
    pool: MAX
    kernel_size: 2
    stride: 2
  }
}
layer {
  name: "ip1"
  type: "InnerProduct"
  bottom: "pool2"
  top: "ip1"
  param {
    lr_mult: 1
  }
  param {
    lr_mult: 2
  }
  inner_product_param {
    num_output: 500
    weight_filler {
      type: "xavier"
    }
    bias_filler {
      type: "constant"
    }
  }
}
layer {
  name: "relu1"
  type: "ReLU"
  bottom: "ip1"
  top: "ip1"
}
layer {
  name: "ip2"
  type: "InnerProduct"
  bottom: "ip1"
  top: "ip2"
  param {
    lr_mult: 1
  }
  param {
    lr_mult: 2
  }
  inner_product_param {
    num_output: 52
    weight_filler {
      type: "xavier"
    }
    bias_filler {
      type: "constant"
    }
  }
}
layer {
  name: "loss"
  type: "SoftmaxWithLoss"
  bottom: "ip2"
  bottom: "label"
  top: "loss"
}
I0502 13:15:24.499439  5358 layer_factory.hpp:77] Creating layer data
I0502 13:15:24.499562  5358 db_lmdb.cpp:35] Opened lmdb examples/final_sp/sp_train_lmdb
I0502 13:15:24.499585  5358 net.cpp:84] Creating Layer data
I0502 13:15:24.499591  5358 net.cpp:380] data -> data
I0502 13:15:24.499610  5358 net.cpp:380] data -> label
I0502 13:15:24.500128  5358 data_layer.cpp:45] output data size: 64,3,28,28
I0502 13:15:24.504012  5358 net.cpp:122] Setting up data
I0502 13:15:24.504035  5358 net.cpp:129] Top shape: 64 3 28 28 (150528)
I0502 13:15:24.504040  5358 net.cpp:129] Top shape: 64 (64)
I0502 13:15:24.504042  5358 net.cpp:137] Memory required for data: 602368
I0502 13:15:24.504051  5358 layer_factory.hpp:77] Creating layer conv1
I0502 13:15:24.504091  5358 net.cpp:84] Creating Layer conv1
I0502 13:15:24.504099  5358 net.cpp:406] conv1 <- data
I0502 13:15:24.504117  5358 net.cpp:380] conv1 -> conv1
I0502 13:15:24.505102  5358 net.cpp:122] Setting up conv1
I0502 13:15:24.505118  5358 net.cpp:129] Top shape: 64 20 24 24 (737280)
I0502 13:15:24.505122  5358 net.cpp:137] Memory required for data: 3551488
I0502 13:15:24.505146  5358 layer_factory.hpp:77] Creating layer pool1
I0502 13:15:24.505174  5358 net.cpp:84] Creating Layer pool1
I0502 13:15:24.505180  5358 net.cpp:406] pool1 <- conv1
I0502 13:15:24.505188  5358 net.cpp:380] pool1 -> pool1
I0502 13:15:24.505236  5358 net.cpp:122] Setting up pool1
I0502 13:15:24.505244  5358 net.cpp:129] Top shape: 64 20 12 12 (184320)
I0502 13:15:24.505247  5358 net.cpp:137] Memory required for data: 4288768
I0502 13:15:24.505251  5358 layer_factory.hpp:77] Creating layer conv2
I0502 13:15:24.505264  5358 net.cpp:84] Creating Layer conv2
I0502 13:15:24.505268  5358 net.cpp:406] conv2 <- pool1
I0502 13:15:24.505275  5358 net.cpp:380] conv2 -> conv2
I0502 13:15:24.506388  5358 net.cpp:122] Setting up conv2
I0502 13:15:24.506403  5358 net.cpp:129] Top shape: 64 50 8 8 (204800)
I0502 13:15:24.506409  5358 net.cpp:137] Memory required for data: 5107968
I0502 13:15:24.506423  5358 layer_factory.hpp:77] Creating layer pool2
I0502 13:15:24.506434  5358 net.cpp:84] Creating Layer pool2
I0502 13:15:24.506439  5358 net.cpp:406] pool2 <- conv2
I0502 13:15:24.506446  5358 net.cpp:380] pool2 -> pool2
I0502 13:15:24.506487  5358 net.cpp:122] Setting up pool2
I0502 13:15:24.506496  5358 net.cpp:129] Top shape: 64 50 4 4 (51200)
I0502 13:15:24.506500  5358 net.cpp:137] Memory required for data: 5312768
I0502 13:15:24.506505  5358 layer_factory.hpp:77] Creating layer ip1
I0502 13:15:24.506512  5358 net.cpp:84] Creating Layer ip1
I0502 13:15:24.506516  5358 net.cpp:406] ip1 <- pool2
I0502 13:15:24.506533  5358 net.cpp:380] ip1 -> ip1
I0502 13:15:24.509101  5358 net.cpp:122] Setting up ip1
I0502 13:15:24.509119  5358 net.cpp:129] Top shape: 64 500 (32000)
I0502 13:15:24.509124  5358 net.cpp:137] Memory required for data: 5440768
I0502 13:15:24.509147  5358 layer_factory.hpp:77] Creating layer relu1
I0502 13:15:24.509171  5358 net.cpp:84] Creating Layer relu1
I0502 13:15:24.509176  5358 net.cpp:406] relu1 <- ip1
I0502 13:15:24.509186  5358 net.cpp:367] relu1 -> ip1 (in-place)
I0502 13:15:24.509196  5358 net.cpp:122] Setting up relu1
I0502 13:15:24.509202  5358 net.cpp:129] Top shape: 64 500 (32000)
I0502 13:15:24.509205  5358 net.cpp:137] Memory required for data: 5568768
I0502 13:15:24.509209  5358 layer_factory.hpp:77] Creating layer ip2
I0502 13:15:24.509217  5358 net.cpp:84] Creating Layer ip2
I0502 13:15:24.509225  5358 net.cpp:406] ip2 <- ip1
I0502 13:15:24.509232  5358 net.cpp:380] ip2 -> ip2
I0502 13:15:24.509459  5358 net.cpp:122] Setting up ip2
I0502 13:15:24.509466  5358 net.cpp:129] Top shape: 64 52 (3328)
I0502 13:15:24.509471  5358 net.cpp:137] Memory required for data: 5582080
I0502 13:15:24.509479  5358 layer_factory.hpp:77] Creating layer loss
I0502 13:15:24.509488  5358 net.cpp:84] Creating Layer loss
I0502 13:15:24.509493  5358 net.cpp:406] loss <- ip2
I0502 13:15:24.509498  5358 net.cpp:406] loss <- label
I0502 13:15:24.509507  5358 net.cpp:380] loss -> loss
I0502 13:15:24.509523  5358 layer_factory.hpp:77] Creating layer loss
…
I0502 13:15:24.509836  5358 solver.cpp:190] Creating test net (#0) specified by net file: models/sp_final_lenet/lenet_train_val.prototxt
I0502 13:15:24.509878  5358 net.cpp:294] The NetState phase (1) differed from the phase (0) specified by a rule in layer data
I0502 13:15:24.509953  5358 net.cpp:51] Initializing net from parameters: 
name: "LeNet"
state {
  phase: TEST
}
layer {
  name: "data"
  type: "Data"
  top: "data"
  top: "label"
  include {
    phase: TEST
  }
  transform_param {
    scale: 0.00390625
  }
  data_param {
    source: "examples/final_sp/sp_val_lmdb"
    batch_size: 64
    backend: LMDB
  }
}
layer {
  name: "conv1"
  type: "Convolution"
  bottom: "data"
  top: "conv1"
  param {
    lr_mult: 1
  }
  param {
    lr_mult: 2
  }
  convolution_param {
    num_output: 20
    kernel_size: 5
    stride: 1
    weight_filler {
      type: "xavier"
    }
    bias_filler {
      type: "constant"
    }
  }
}
layer {
  name: "pool1"
  type: "Pooling"
  bottom: "conv1"
  top: "pool1"
  pooling_param {
    pool: MAX
    kernel_size: 2
    stride: 2
  }
}
layer {
  name: "conv2"
  type: "Convolution"
  bottom: "pool1"
  top: "conv2"
  param {
    lr_mult: 1
  }
  param {
    lr_mult: 2
  }
  convolution_param {
    num_output: 50
    kernel_size: 5
    stride: 1
    weight_filler {
      type: "xavier"
    }
    bias_filler {
      type: "constant"
    }
  }
}
layer {
  name: "pool2"
  type: "Pooling"
  bottom: "conv2"
  top: "pool2"
  pooling_param {
    pool: MAX
    kernel_size: 2
    stride: 2
  }
}
layer {
  name: "ip1"
  type: "InnerProduct"
  bottom: "pool2"
  top: "ip1"
  param {
    lr_mult: 1
  }
  param {
    lr_mult: 2
  }
  inner_product_param {
    num_output: 500
    weight_filler {
      type: "xavier"
    }
    bias_filler {
      type: "constant"
    }
  }
}
layer {
  name: "relu1"
  type: "ReLU"
  bottom: "ip1"
  top: "ip1"
}
layer {
  name: "ip2"
  type: "InnerProduct"
  bottom: "ip1"
  top: "ip2"
  param {
    lr_mult: 1
  }
  param {
    lr_mult: 2
  }
  inner_product_param {
    num_output: 52
    weight_filler {
      type: "xavier"
    }
    bias_filler {
      type: "constant"
    }
  }
}
layer {
  name: "accuracy"
  type: "Accuracy"
  bottom: "ip2"
  bottom: "label"
  top: "accuracy"
  include {
    phase: TEST
  }
}
layer {
  name: "loss"
  type: "SoftmaxWithLoss"
  bottom: "ip2"
  bottom: "label"
  top: "loss"
}
I0502 13:15:24.510048  5358 layer_factory.hpp:77] Creating layer data
I0502 13:15:24.510109  5358 db_lmdb.cpp:35] Opened lmdb examples/final_sp/sp_val_lmdb
I0502 13:15:24.510124  5358 net.cpp:84] Creating Layer data
I0502 13:15:24.510133  5358 net.cpp:380] data -> data
I0502 13:15:24.510143  5358 net.cpp:380] data -> label
I0502 13:15:24.510532  5358 data_layer.cpp:45] output data size: 64,3,28,28
I0502 13:15:24.515717  5358 net.cpp:122] Setting up data
I0502 13:15:24.515743  5358 net.cpp:129] Top shape: 64 3 28 28 (150528)
I0502 13:15:24.515748  5358 net.cpp:129] Top shape: 64 (64)
I0502 13:15:24.515751  5358 net.cpp:137] Memory required for data: 602368
I0502 13:15:24.515759  5358 layer_factory.hpp:77] Creating layer label_data_1_split
I0502 13:15:24.515774  5358 net.cpp:84] Creating Layer label_data_1_split
I0502 13:15:24.515779  5358 net.cpp:406] label_data_1_split <- label
I0502 13:15:24.515791  5358 net.cpp:380] label_data_1_split -> label_data_1_split_0
I0502 13:15:24.515805  5358 net.cpp:380] label_data_1_split -> label_data_1_split_1
I0502 13:15:24.515852  5358 net.cpp:122] Setting up label_data_1_split
I0502 13:15:24.515859  5358 net.cpp:129] Top shape: 64 (64)
I0502 13:15:24.515863  5358 net.cpp:129] Top shape: 64 (64)
I0502 13:15:24.515867  5358 net.cpp:137] Memory required for data: 602880
I0502 13:15:24.515872  5358 layer_factory.hpp:77] Creating layer conv1
I0502 13:15:24.515887  5358 net.cpp:84] Creating Layer conv1
I0502 13:15:24.515892  5358 net.cpp:406] conv1 <- data
I0502 13:15:24.515909  5358 net.cpp:380] conv1 -> conv1
I0502 13:15:24.516090  5358 net.cpp:122] Setting up conv1
I0502 13:15:24.516098  5358 net.cpp:129] Top shape: 64 20 24 24 (737280)
I0502 13:15:24.516103  5358 net.cpp:137] Memory required for data: 3552000
I0502 13:15:24.516114  5358 layer_factory.hpp:77] Creating layer pool1
I0502 13:15:24.516131  5358 net.cpp:84] Creating Layer pool1
I0502 13:15:24.516136  5358 net.cpp:406] pool1 <- conv1
I0502 13:15:24.516147  5358 net.cpp:380] pool1 -> pool1
I0502 13:15:24.516185  5358 net.cpp:122] Setting up pool1
I0502 13:15:24.516191  5358 net.cpp:129] Top shape: 64 20 12 12 (184320)
I0502 13:15:24.516196  5358 net.cpp:137] Memory required for data: 4289280
I0502 13:15:24.516201  5358 layer_factory.hpp:77] Creating layer conv2
I0502 13:15:24.516214  5358 net.cpp:84] Creating Layer conv2
I0502 13:15:24.516219  5358 net.cpp:406] conv2 <- pool1
I0502 13:15:24.516227  5358 net.cpp:380] conv2 -> conv2
I0502 13:15:24.516567  5358 net.cpp:122] Setting up conv2
I0502 13:15:24.516579  5358 net.cpp:129] Top shape: 64 50 8 8 (204800)
I0502 13:15:24.516584  5358 net.cpp:137] Memory required for data: 5108480
I0502 13:15:24.516595  5358 layer_factory.hpp:77] Creating layer pool2
I0502 13:15:24.516603  5358 net.cpp:84] Creating Layer pool2
I0502 13:15:24.516607  5358 net.cpp:406] pool2 <- conv2
I0502 13:15:24.516615  5358 net.cpp:380] pool2 -> pool2
I0502 13:15:24.517005  5358 net.cpp:122] Setting up pool2
I0502 13:15:24.517015  5358 net.cpp:129] Top shape: 64 50 4 4 (51200)
I0502 13:15:24.517025  5358 net.cpp:137] Memory required for data: 5313280
I0502 13:15:24.517031  5358 layer_factory.hpp:77] Creating layer ip1
I0502 13:15:24.517041  5358 net.cpp:84] Creating Layer ip1
I0502 13:15:24.517045  5358 net.cpp:406] ip1 <- pool2
I0502 13:15:24.517053  5358 net.cpp:380] ip1 -> ip1
I0502 13:15:24.525271  5358 net.cpp:122] Setting up ip1
I0502 13:15:24.525291  5358 net.cpp:129] Top shape: 64 500 (32000)
I0502 13:15:24.525295  5358 net.cpp:137] Memory required for data: 5441280
I0502 13:15:24.525308  5358 layer_factory.hpp:77] Creating layer relu1
I0502 13:15:24.525319  5358 net.cpp:84] Creating Layer relu1
I0502 13:15:24.525323  5358 net.cpp:406] relu1 <- ip1
I0502 13:15:24.525331  5358 net.cpp:367] relu1 -> ip1 (in-place)
I0502 13:15:24.525337  5358 net.cpp:122] Setting up relu1
I0502 13:15:24.525342  5358 net.cpp:129] Top shape: 64 500 (32000)
I0502 13:15:24.525346  5358 net.cpp:137] Memory required for data: 5569280
I0502 13:15:24.525348  5358 layer_factory.hpp:77] Creating layer ip2
I0502 13:15:24.525359  5358 net.cpp:84] Creating Layer ip2
I0502 13:15:24.525363  5358 net.cpp:406] ip2 <- ip1
I0502 13:15:24.525369  5358 net.cpp:380] ip2 -> ip2
I0502 13:15:24.525665  5358 net.cpp:122] Setting up ip2
I0502 13:15:24.525671  5358 net.cpp:129] Top shape: 64 52 (3328)
I0502 13:15:24.525676  5358 net.cpp:137] Memory required for data: 5582592
I0502 13:15:24.525681  5358 layer_factory.hpp:77] Creating layer ip2_ip2_0_split
I0502 13:15:24.525688  5358 net.cpp:84] Creating Layer ip2_ip2_0_split
I0502 13:15:24.525692  5358 net.cpp:406] ip2_ip2_0_split <- ip2
I0502 13:15:24.525699  5358 net.cpp:380] ip2_ip2_0_split -> ip2_ip2_0_split_0
I0502 13:15:24.525707  5358 net.cpp:380] ip2_ip2_0_split -> ip2_ip2_0_split_1
I0502 13:15:24.526089  5358 net.cpp:122] Setting up ip2_ip2_0_split
I0502 13:15:24.526098  5358 net.cpp:129] Top shape: 64 52 (3328)
I0502 13:15:24.526101  5358 net.cpp:129] Top shape: 64 52 (3328)
I0502 13:15:24.526104  5358 net.cpp:137] Memory required for data: 5609216
I0502 13:15:24.526109  5358 layer_factory.hpp:77] Creating layer accuracy
I0502 13:15:24.526116  5358 net.cpp:84] Creating Layer accuracy
I0502 13:15:24.526119  5358 net.cpp:406] accuracy <- ip2_ip2_0_split_0
I0502 13:15:24.526124  5358 net.cpp:406] accuracy <- label_data_1_split_0
I0502 13:15:24.526131  5358 net.cpp:380] accuracy -> accuracy
…
