…
I0502 13:28:18.958657  5461 net.cpp:294] The NetState phase (0) differed from the phase (1) specified by a rule in layer data
I0502 13:28:18.958669  5461 net.cpp:294] The NetState phase (0) differed from the phase (1) specified by a rule in layer accuracy
I0502 13:28:18.958731  5461 net.cpp:51] Initializing net from parameters: 
name: "LeNet"
state {
  phase: TRAIN
  level: 0
  stage: ""
}
layer {
  name: "data"
  type: "Data"
  top: "data"
  top: "label"
  include {
    phase: TRAIN
  }
  transform_param {
    scale: 0.00390625
  }
  data_param {
    source: "examples/final_sp/sp_train_lmdb"
    batch_size: 64
    backend: LMDB
  }
}
layer {
  name: "conv1"
  type: "Convolution"
  bottom: "data"
  top: "conv1"
  param {
    lr_mult: 1
  }
  param {
    lr_mult: 2
  }
  convolution_param {
    num_output: 20
    kernel_size: 5
    stride: 1
    weight_filler {
      type: "xavier"
    }
    bias_filler {
      type: "constant"
    }
  }
}
layer {
  name: "pool1"
  type: "Pooling"
  bottom: "conv1"
  top: "pool1"
  pooling_param {
    pool: MAX
    kernel_size: 2
    stride: 2
  }
}
layer {
  name: "conv2"
  type: "Convolution"
  bottom: "pool1"
  top: "conv2"
  param {
    lr_mult: 1
  }
  param {
    lr_mult: 2
  }
  convolution_param {
    num_output: 50
    kernel_size: 5
    stride: 1
    weight_filler {
      type: "xavier"
    }
    bias_filler {
      type: "constant"
    }
  }
}
layer {
  name: "pool2"
  type: "Pooling"
  bottom: "conv2"
  top: "pool2"
  pooling_param {
    pool: MAX
    kernel_size: 2
    stride: 2
  }
}
layer {
  name: "ip1"
  type: "InnerProduct"
  bottom: "pool2"
  top: "ip1"
  param {
    lr_mult: 1
  }
  param {
    lr_mult: 2
  }
  inner_product_param {
    num_output: 500
    weight_filler {
      type: "xavier"
    }
    bias_filler {
      type: "constant"
    }
  }
}
layer {
  name: "relu1"
  type: "ReLU"
  bottom: "ip1"
  top: "ip1"
}
layer {
  name: "ip2"
  type: "InnerProduct"
  bottom: "ip1"
  top: "ip2"
  param {
    lr_mult: 1
  }
  param {
    lr_mult: 2
  }
  inner_product_param {
    num_output: 52
    weight_filler {
      type: "xavier"
    }
    bias_filler {
      type: "constant"
    }
  }
}
layer {
  name: "loss"
  type: "SoftmaxWithLoss"
  bottom: "ip2"
  bottom: "label"
  top: "loss"
}
I0502 13:28:18.958784  5461 layer_factory.hpp:77] Creating layer data
I0502 13:28:18.958863  5461 db_lmdb.cpp:35] Opened lmdb examples/final_sp/sp_train_lmdb
I0502 13:28:18.958885  5461 net.cpp:84] Creating Layer data
I0502 13:28:18.958894  5461 net.cpp:380] data -> data
I0502 13:28:18.958914  5461 net.cpp:380] data -> label
I0502 13:28:18.959439  5461 data_layer.cpp:45] output data size: 64,3,28,28
I0502 13:28:18.963320  5461 net.cpp:122] Setting up data
I0502 13:28:18.963348  5461 net.cpp:129] Top shape: 64 3 28 28 (150528)
I0502 13:28:18.963354  5461 net.cpp:129] Top shape: 64 (64)
I0502 13:28:18.963358  5461 net.cpp:137] Memory required for data: 602368
I0502 13:28:18.963371  5461 layer_factory.hpp:77] Creating layer conv1
I0502 13:28:18.963402  5461 net.cpp:84] Creating Layer conv1
I0502 13:28:18.963409  5461 net.cpp:406] conv1 <- data
I0502 13:28:18.963424  5461 net.cpp:380] conv1 -> conv1
I0502 13:28:18.964367  5461 net.cpp:122] Setting up conv1
I0502 13:28:18.964380  5461 net.cpp:129] Top shape: 64 20 24 24 (737280)
I0502 13:28:18.964385  5461 net.cpp:137] Memory required for data: 3551488
I0502 13:28:18.964404  5461 layer_factory.hpp:77] Creating layer pool1
I0502 13:28:18.964435  5461 net.cpp:84] Creating Layer pool1
I0502 13:28:18.964440  5461 net.cpp:406] pool1 <- conv1
I0502 13:28:18.964448  5461 net.cpp:380] pool1 -> pool1
I0502 13:28:18.964503  5461 net.cpp:122] Setting up pool1
I0502 13:28:18.964511  5461 net.cpp:129] Top shape: 64 20 12 12 (184320)
I0502 13:28:18.964515  5461 net.cpp:137] Memory required for data: 4288768
I0502 13:28:18.964519  5461 layer_factory.hpp:77] Creating layer conv2
I0502 13:28:18.964530  5461 net.cpp:84] Creating Layer conv2
I0502 13:28:18.964536  5461 net.cpp:406] conv2 <- pool1
I0502 13:28:18.964545  5461 net.cpp:380] conv2 -> conv2
I0502 13:28:18.965656  5461 net.cpp:122] Setting up conv2
I0502 13:28:18.965670  5461 net.cpp:129] Top shape: 64 50 8 8 (204800)
I0502 13:28:18.965674  5461 net.cpp:137] Memory required for data: 5107968
I0502 13:28:18.965683  5461 layer_factory.hpp:77] Creating layer pool2
I0502 13:28:18.965694  5461 net.cpp:84] Creating Layer pool2
I0502 13:28:18.965699  5461 net.cpp:406] pool2 <- conv2
I0502 13:28:18.965708  5461 net.cpp:380] pool2 -> pool2
I0502 13:28:18.965746  5461 net.cpp:122] Setting up pool2
I0502 13:28:18.965752  5461 net.cpp:129] Top shape: 64 50 4 4 (51200)
I0502 13:28:18.965755  5461 net.cpp:137] Memory required for data: 5312768
I0502 13:28:18.965759  5461 layer_factory.hpp:77] Creating layer ip1
I0502 13:28:18.965770  5461 net.cpp:84] Creating Layer ip1
I0502 13:28:18.965776  5461 net.cpp:406] ip1 <- pool2
I0502 13:28:18.965785  5461 net.cpp:380] ip1 -> ip1
I0502 13:28:18.968314  5461 net.cpp:122] Setting up ip1
I0502 13:28:18.968328  5461 net.cpp:129] Top shape: 64 500 (32000)
I0502 13:28:18.968331  5461 net.cpp:137] Memory required for data: 5440768
I0502 13:28:18.968343  5461 layer_factory.hpp:77] Creating layer relu1
I0502 13:28:18.968354  5461 net.cpp:84] Creating Layer relu1
I0502 13:28:18.968360  5461 net.cpp:406] relu1 <- ip1
I0502 13:28:18.968367  5461 net.cpp:367] relu1 -> ip1 (in-place)
I0502 13:28:18.968379  5461 net.cpp:122] Setting up relu1
I0502 13:28:18.968382  5461 net.cpp:129] Top shape: 64 500 (32000)
I0502 13:28:18.968384  5461 net.cpp:137] Memory required for data: 5568768
I0502 13:28:18.968386  5461 layer_factory.hpp:77] Creating layer ip2
I0502 13:28:18.968394  5461 net.cpp:84] Creating Layer ip2
I0502 13:28:18.968395  5461 net.cpp:406] ip2 <- ip1
I0502 13:28:18.968400  5461 net.cpp:380] ip2 -> ip2
I0502 13:28:18.968583  5461 net.cpp:122] Setting up ip2
I0502 13:28:18.968588  5461 net.cpp:129] Top shape: 64 52 (3328)
I0502 13:28:18.968590  5461 net.cpp:137] Memory required for data: 5582080
I0502 13:28:18.968595  5461 layer_factory.hpp:77] Creating layer loss
I0502 13:28:18.968601  5461 net.cpp:84] Creating Layer loss
I0502 13:28:18.968605  5461 net.cpp:406] loss <- ip2
I0502 13:28:18.968607  5461 net.cpp:406] loss <- label
I0502 13:28:18.968612  5461 net.cpp:380] loss -> loss
I0502 13:28:18.968626  5461 layer_factory.hpp:77] Creating layer loss
…
I0502 13:28:18.968937  5461 solver.cpp:190] Creating test net (#0) specified by net file: models/sp_final_lenet/lenet_train_val.prototxt
I0502 13:28:18.968977  5461 net.cpp:294] The NetState phase (1) differed from the phase (0) specified by a rule in layer data
I0502 13:28:18.969076  5461 net.cpp:51] Initializing net from parameters: 
name: "LeNet"
state {
  phase: TEST
}
layer {
  name: "data"
  type: "Data"
  top: "data"
  top: "label"
  include {
    phase: TEST
  }
  transform_param {
    scale: 0.00390625
  }
  data_param {
    source: "examples/final_sp/sp_val_lmdb"
    batch_size: 64
    backend: LMDB
  }
}
layer {
  name: "conv1"
  type: "Convolution"
  bottom: "data"
  top: "conv1"
  param {
    lr_mult: 1
  }
  param {
    lr_mult: 2
  }
  convolution_param {
    num_output: 20
    kernel_size: 5
    stride: 1
    weight_filler {
      type: "xavier"
    }
    bias_filler {
      type: "constant"
    }
  }
}
layer {
  name: "pool1"
  type: "Pooling"
  bottom: "conv1"
  top: "pool1"
  pooling_param {
    pool: MAX
    kernel_size: 2
    stride: 2
  }
}
layer {
  name: "conv2"
  type: "Convolution"
  bottom: "pool1"
  top: "conv2"
  param {
    lr_mult: 1
  }
  param {
    lr_mult: 2
  }
  convolution_param {
    num_output: 50
    kernel_size: 5
    stride: 1
    weight_filler {
      type: "xavier"
    }
    bias_filler {
      type: "constant"
    }
  }
}
layer {
  name: "pool2"
  type: "Pooling"
  bottom: "conv2"
  top: "pool2"
  pooling_param {
    pool: MAX
    kernel_size: 2
    stride: 2
  }
}
layer {
  name: "ip1"
  type: "InnerProduct"
  bottom: "pool2"
  top: "ip1"
  param {
    lr_mult: 1
  }
  param {
    lr_mult: 2
  }
  inner_product_param {
    num_output: 500
    weight_filler {
      type: "xavier"
    }
    bias_filler {
      type: "constant"
    }
  }
}
layer {
  name: "relu1"
  type: "ReLU"
  bottom: "ip1"
  top: "ip1"
}
layer {
  name: "ip2"
  type: "InnerProduct"
  bottom: "ip1"
  top: "ip2"
  param {
    lr_mult: 1
  }
  param {
    lr_mult: 2
  }
  inner_product_param {
    num_output: 52
    weight_filler {
      type: "xavier"
    }
    bias_filler {
      type: "constant"
    }
  }
}
layer {
  name: "accuracy"
  type: "Accuracy"
  bottom: "ip2"
  bottom: "label"
  top: "accuracy"
  include {
    phase: TEST
  }
}
layer {
  name: "loss"
  type: "SoftmaxWithLoss"
  bottom: "ip2"
  bottom: "label"
  top: "loss"
}
I0502 13:28:18.969146  5461 layer_factory.hpp:77] Creating layer data
I0502 13:28:18.969197  5461 db_lmdb.cpp:35] Opened lmdb examples/final_sp/sp_val_lmdb
I0502 13:28:18.969213  5461 net.cpp:84] Creating Layer data
I0502 13:28:18.969219  5461 net.cpp:380] data -> data
I0502 13:28:18.969229  5461 net.cpp:380] data -> label
I0502 13:28:18.969558  5461 data_layer.cpp:45] output data size: 64,3,28,28
I0502 13:28:18.974885  5461 net.cpp:122] Setting up data
I0502 13:28:18.974912  5461 net.cpp:129] Top shape: 64 3 28 28 (150528)
I0502 13:28:18.974918  5461 net.cpp:129] Top shape: 64 (64)
I0502 13:28:18.974922  5461 net.cpp:137] Memory required for data: 602368
I0502 13:28:18.974930  5461 layer_factory.hpp:77] Creating layer label_data_1_split
I0502 13:28:18.974943  5461 net.cpp:84] Creating Layer label_data_1_split
I0502 13:28:18.974951  5461 net.cpp:406] label_data_1_split <- label
I0502 13:28:18.974962  5461 net.cpp:380] label_data_1_split -> label_data_1_split_0
I0502 13:28:18.974977  5461 net.cpp:380] label_data_1_split -> label_data_1_split_1
I0502 13:28:18.975072  5461 net.cpp:122] Setting up label_data_1_split
I0502 13:28:18.975082  5461 net.cpp:129] Top shape: 64 (64)
I0502 13:28:18.975090  5461 net.cpp:129] Top shape: 64 (64)
I0502 13:28:18.975093  5461 net.cpp:137] Memory required for data: 602880
I0502 13:28:18.975097  5461 layer_factory.hpp:77] Creating layer conv1
I0502 13:28:18.975112  5461 net.cpp:84] Creating Layer conv1
I0502 13:28:18.975117  5461 net.cpp:406] conv1 <- data
I0502 13:28:18.975124  5461 net.cpp:380] conv1 -> conv1
I0502 13:28:18.975319  5461 net.cpp:122] Setting up conv1
I0502 13:28:18.975328  5461 net.cpp:129] Top shape: 64 20 24 24 (737280)
I0502 13:28:18.975332  5461 net.cpp:137] Memory required for data: 3552000
I0502 13:28:18.975343  5461 layer_factory.hpp:77] Creating layer pool1
I0502 13:28:18.975361  5461 net.cpp:84] Creating Layer pool1
I0502 13:28:18.975368  5461 net.cpp:406] pool1 <- conv1
I0502 13:28:18.975375  5461 net.cpp:380] pool1 -> pool1
I0502 13:28:18.975407  5461 net.cpp:122] Setting up pool1
I0502 13:28:18.975414  5461 net.cpp:129] Top shape: 64 20 12 12 (184320)
I0502 13:28:18.975419  5461 net.cpp:137] Memory required for data: 4289280
I0502 13:28:18.975422  5461 layer_factory.hpp:77] Creating layer conv2
I0502 13:28:18.975435  5461 net.cpp:84] Creating Layer conv2
I0502 13:28:18.975440  5461 net.cpp:406] conv2 <- pool1
I0502 13:28:18.975447  5461 net.cpp:380] conv2 -> conv2
I0502 13:28:18.976075  5461 net.cpp:122] Setting up conv2
I0502 13:28:18.976083  5461 net.cpp:129] Top shape: 64 50 8 8 (204800)
I0502 13:28:18.976091  5461 net.cpp:137] Memory required for data: 5108480
I0502 13:28:18.976101  5461 layer_factory.hpp:77] Creating layer pool2
I0502 13:28:18.976110  5461 net.cpp:84] Creating Layer pool2
I0502 13:28:18.976115  5461 net.cpp:406] pool2 <- conv2
I0502 13:28:18.976124  5461 net.cpp:380] pool2 -> pool2
I0502 13:28:18.976155  5461 net.cpp:122] Setting up pool2
I0502 13:28:18.976162  5461 net.cpp:129] Top shape: 64 50 4 4 (51200)
I0502 13:28:18.976166  5461 net.cpp:137] Memory required for data: 5313280
I0502 13:28:18.976171  5461 layer_factory.hpp:77] Creating layer ip1
I0502 13:28:18.976184  5461 net.cpp:84] Creating Layer ip1
I0502 13:28:18.976188  5461 net.cpp:406] ip1 <- pool2
I0502 13:28:18.976195  5461 net.cpp:380] ip1 -> ip1
I0502 13:28:18.978741  5461 net.cpp:122] Setting up ip1
I0502 13:28:18.978758  5461 net.cpp:129] Top shape: 64 500 (32000)
I0502 13:28:18.978765  5461 net.cpp:137] Memory required for data: 5441280
I0502 13:28:18.978777  5461 layer_factory.hpp:77] Creating layer relu1
I0502 13:28:18.978787  5461 net.cpp:84] Creating Layer relu1
I0502 13:28:18.978792  5461 net.cpp:406] relu1 <- ip1
I0502 13:28:18.978798  5461 net.cpp:367] relu1 -> ip1 (in-place)
I0502 13:28:18.978807  5461 net.cpp:122] Setting up relu1
I0502 13:28:18.978812  5461 net.cpp:129] Top shape: 64 500 (32000)
I0502 13:28:18.978816  5461 net.cpp:137] Memory required for data: 5569280
I0502 13:28:18.978818  5461 layer_factory.hpp:77] Creating layer ip2
I0502 13:28:18.978830  5461 net.cpp:84] Creating Layer ip2
I0502 13:28:18.978837  5461 net.cpp:406] ip2 <- ip1
I0502 13:28:18.978843  5461 net.cpp:380] ip2 -> ip2
I0502 13:28:18.979051  5461 net.cpp:122] Setting up ip2
I0502 13:28:18.979059  5461 net.cpp:129] Top shape: 64 52 (3328)
I0502 13:28:18.979063  5461 net.cpp:137] Memory required for data: 5582592
I0502 13:28:18.979068  5461 layer_factory.hpp:77] Creating layer ip2_ip2_0_split
I0502 13:28:18.979076  5461 net.cpp:84] Creating Layer ip2_ip2_0_split
I0502 13:28:18.979081  5461 net.cpp:406] ip2_ip2_0_split <- ip2
I0502 13:28:18.979089  5461 net.cpp:380] ip2_ip2_0_split -> ip2_ip2_0_split_0
I0502 13:28:18.979101  5461 net.cpp:380] ip2_ip2_0_split -> ip2_ip2_0_split_1
I0502 13:28:18.979130  5461 net.cpp:122] Setting up ip2_ip2_0_split
I0502 13:28:18.979135  5461 net.cpp:129] Top shape: 64 52 (3328)
I0502 13:28:18.979138  5461 net.cpp:129] Top shape: 64 52 (3328)
I0502 13:28:18.979140  5461 net.cpp:137] Memory required for data: 5609216
I0502 13:28:18.979143  5461 layer_factory.hpp:77] Creating layer accuracy
I0502 13:28:18.979149  5461 net.cpp:84] Creating Layer accuracy
I0502 13:28:18.979152  5461 net.cpp:406] accuracy <- ip2_ip2_0_split_0
I0502 13:28:18.979156  5461 net.cpp:406] accuracy <- label_data_1_split_0
I0502 13:28:18.979161  5461 net.cpp:380] accuracy -> accuracy
…
