…
I0502 18:23:32.710285  2718 net.cpp:294] The NetState phase (0) differed from the phase (1) specified by a rule in layer data
I0502 18:23:32.710335  2718 net.cpp:294] The NetState phase (0) differed from the phase (1) specified by a rule in layer accuracy
I0502 18:23:32.710620  2718 net.cpp:51] Initializing net from parameters: 
name: "LeNet"
state {
  phase: TRAIN
  level: 0
  stage: ""
}
layer {
  name: "data"
  type: "Data"
  top: "data"
  top: "label"
  include {
    phase: TRAIN
  }
  transform_param {
    scale: 0.00390625
  }
  data_param {
    source: "examples/final_sp/sp_train_lmdb"
    batch_size: 64
    backend: LMDB
  }
}
layer {
  name: "conv1"
  type: "Convolution"
  bottom: "data"
  top: "conv1"
  param {
    lr_mult: 1
  }
  param {
    lr_mult: 2
  }
  convolution_param {
    num_output: 20
    kernel_size: 5
    stride: 1
    weight_filler {
      type: "xavier"
    }
    bias_filler {
      type: "constant"
    }
  }
}
layer {
  name: "pool1"
  type: "Pooling"
  bottom: "conv1"
  top: "pool1"
  pooling_param {
    pool: MAX
    kernel_size: 2
    stride: 2
  }
}
layer {
  name: "conv2"
  type: "Convolution"
  bottom: "pool1"
  top: "conv2"
  param {
    lr_mult: 1
  }
  param {
    lr_mult: 2
  }
  convolution_param {
    num_output: 50
    kernel_size: 5
    stride: 1
    weight_filler {
      type: "xavier"
    }
    bias_filler {
      type: "constant"
    }
  }
}
layer {
  name: "pool2"
  type: "Pooling"
  bottom: "conv2"
  top: "pool2"
  pooling_param {
    pool: MAX
    kernel_size: 2
    stride: 2
  }
}
layer {
  name: "ip1"
  type: "InnerProduct"
  bottom: "pool2"
  top: "ip1"
  param {
    lr_mult: 1
  }
  param {
    lr_mult: 2
  }
  inner_product_param {
    num_output: 500
    weight_filler {
      type: "xavier"
    }
    bias_filler {
      type: "constant"
    }
  }
}
layer {
  name: "relu1"
  type: "ReLU"
  bottom: "ip1"
  top: "ip1"
}
layer {
  name: "ip2"
  type: "InnerProduct"
  bottom: "ip1"
  top: "ip2"
  param {
    lr_mult: 1
  }
  param {
    lr_mult: 2
  }
  inner_product_param {
    num_output: 52
    weight_filler {
      type: "xavier"
    }
    bias_filler {
      type: "constant"
    }
  }
}
layer {
  name: "loss"
  type: "SoftmaxWithLoss"
  bottom: "ip2"
  bottom: "label"
  top: "loss"
}
I0502 18:23:32.710826  2718 layer_factory.hpp:77] Creating layer data
I0502 18:23:32.742455  2718 db_lmdb.cpp:35] Opened lmdb examples/final_sp/sp_train_lmdb
I0502 18:23:32.754935  2718 net.cpp:84] Creating Layer data
I0502 18:23:32.755061  2718 net.cpp:380] data -> data
I0502 18:23:32.755203  2718 net.cpp:380] data -> label
I0502 18:23:32.757268  2718 data_layer.cpp:45] output data size: 64,3,28,28
I0502 18:23:32.767112  2718 net.cpp:122] Setting up data
I0502 18:23:32.767207  2718 net.cpp:129] Top shape: 64 3 28 28 (150528)
I0502 18:23:32.767246  2718 net.cpp:129] Top shape: 64 (64)
I0502 18:23:32.767271  2718 net.cpp:137] Memory required for data: 602368
I0502 18:23:32.767313  2718 layer_factory.hpp:77] Creating layer conv1
I0502 18:23:32.767441  2718 net.cpp:84] Creating Layer conv1
I0502 18:23:32.767590  2718 net.cpp:406] conv1 <- data
I0502 18:23:32.767683  2718 net.cpp:380] conv1 -> conv1
I0502 18:23:32.771415  2718 net.cpp:122] Setting up conv1
I0502 18:23:32.771483  2718 net.cpp:129] Top shape: 64 20 24 24 (737280)
I0502 18:23:32.771502  2718 net.cpp:137] Memory required for data: 3551488
I0502 18:23:32.771580  2718 layer_factory.hpp:77] Creating layer pool1
I0502 18:23:32.771672  2718 net.cpp:84] Creating Layer pool1
I0502 18:23:32.771692  2718 net.cpp:406] pool1 <- conv1
I0502 18:23:32.771783  2718 net.cpp:380] pool1 -> pool1
I0502 18:23:32.772083  2718 net.cpp:122] Setting up pool1
I0502 18:23:32.772125  2718 net.cpp:129] Top shape: 64 20 12 12 (184320)
I0502 18:23:32.772141  2718 net.cpp:137] Memory required for data: 4288768
I0502 18:23:32.772158  2718 layer_factory.hpp:77] Creating layer conv2
I0502 18:23:32.772204  2718 net.cpp:84] Creating Layer conv2
I0502 18:23:32.772225  2718 net.cpp:406] conv2 <- pool1
I0502 18:23:32.772255  2718 net.cpp:380] conv2 -> conv2
I0502 18:23:32.775662  2718 net.cpp:122] Setting up conv2
I0502 18:23:32.775722  2718 net.cpp:129] Top shape: 64 50 8 8 (204800)
I0502 18:23:32.775734  2718 net.cpp:137] Memory required for data: 5107968
I0502 18:23:32.775775  2718 layer_factory.hpp:77] Creating layer pool2
I0502 18:23:32.775816  2718 net.cpp:84] Creating Layer pool2
I0502 18:23:32.775835  2718 net.cpp:406] pool2 <- conv2
I0502 18:23:32.775867  2718 net.cpp:380] pool2 -> pool2
I0502 18:23:32.775995  2718 net.cpp:122] Setting up pool2
I0502 18:23:32.776018  2718 net.cpp:129] Top shape: 64 50 4 4 (51200)
I0502 18:23:32.776037  2718 net.cpp:137] Memory required for data: 5312768
I0502 18:23:32.776051  2718 layer_factory.hpp:77] Creating layer ip1
I0502 18:23:32.776087  2718 net.cpp:84] Creating Layer ip1
I0502 18:23:32.776103  2718 net.cpp:406] ip1 <- pool2
I0502 18:23:32.776131  2718 net.cpp:380] ip1 -> ip1
I0502 18:23:32.784308  2718 net.cpp:122] Setting up ip1
I0502 18:23:32.784356  2718 net.cpp:129] Top shape: 64 500 (32000)
I0502 18:23:32.784366  2718 net.cpp:137] Memory required for data: 5440768
I0502 18:23:32.784426  2718 layer_factory.hpp:77] Creating layer relu1
I0502 18:23:32.784456  2718 net.cpp:84] Creating Layer relu1
I0502 18:23:32.784472  2718 net.cpp:406] relu1 <- ip1
I0502 18:23:32.784502  2718 net.cpp:367] relu1 -> ip1 (in-place)
I0502 18:23:32.784539  2718 net.cpp:122] Setting up relu1
I0502 18:23:32.784562  2718 net.cpp:129] Top shape: 64 500 (32000)
I0502 18:23:32.784580  2718 net.cpp:137] Memory required for data: 5568768
I0502 18:23:32.784595  2718 layer_factory.hpp:77] Creating layer ip2
I0502 18:23:32.784621  2718 net.cpp:84] Creating Layer ip2
I0502 18:23:32.784638  2718 net.cpp:406] ip2 <- ip1
I0502 18:23:32.784663  2718 net.cpp:380] ip2 -> ip2
I0502 18:23:32.785214  2718 net.cpp:122] Setting up ip2
I0502 18:23:32.785230  2718 net.cpp:129] Top shape: 64 52 (3328)
I0502 18:23:32.785238  2718 net.cpp:137] Memory required for data: 5582080
I0502 18:23:32.785254  2718 layer_factory.hpp:77] Creating layer loss
I0502 18:23:32.785279  2718 net.cpp:84] Creating Layer loss
I0502 18:23:32.785292  2718 net.cpp:406] loss <- ip2
I0502 18:23:32.785308  2718 net.cpp:406] loss <- label
I0502 18:23:32.785333  2718 net.cpp:380] loss -> loss
I0502 18:23:32.785370  2718 layer_factory.hpp:77] Creating layer loss
…
I0502 18:23:32.786118  2718 solver.cpp:190] Creating test net (#0) specified by net file: models/sp_final_lenet/lenet_train_val.prototxt
I0502 18:23:32.786201  2718 net.cpp:294] The NetState phase (1) differed from the phase (0) specified by a rule in layer data
I0502 18:23:32.786382  2718 net.cpp:51] Initializing net from parameters: 
name: "LeNet"
state {
  phase: TEST
}
layer {
  name: "data"
  type: "Data"
  top: "data"
  top: "label"
  include {
    phase: TEST
  }
  transform_param {
    scale: 0.00390625
  }
  data_param {
    source: "examples/final_sp/sp_val_lmdb"
    batch_size: 64
    backend: LMDB
  }
}
layer {
  name: "conv1"
  type: "Convolution"
  bottom: "data"
  top: "conv1"
  param {
    lr_mult: 1
  }
  param {
    lr_mult: 2
  }
  convolution_param {
    num_output: 20
    kernel_size: 5
    stride: 1
    weight_filler {
      type: "xavier"
    }
    bias_filler {
      type: "constant"
    }
  }
}
layer {
  name: "pool1"
  type: "Pooling"
  bottom: "conv1"
  top: "pool1"
  pooling_param {
    pool: MAX
    kernel_size: 2
    stride: 2
  }
}
layer {
  name: "conv2"
  type: "Convolution"
  bottom: "pool1"
  top: "conv2"
  param {
    lr_mult: 1
  }
  param {
    lr_mult: 2
  }
  convolution_param {
    num_output: 50
    kernel_size: 5
    stride: 1
    weight_filler {
      type: "xavier"
    }
    bias_filler {
      type: "constant"
    }
  }
}
layer {
  name: "pool2"
  type: "Pooling"
  bottom: "conv2"
  top: "pool2"
  pooling_param {
    pool: MAX
    kernel_size: 2
    stride: 2
  }
}
layer {
  name: "ip1"
  type: "InnerProduct"
  bottom: "pool2"
  top: "ip1"
  param {
    lr_mult: 1
  }
  param {
    lr_mult: 2
  }
  inner_product_param {
    num_output: 500
    weight_filler {
      type: "xavier"
    }
    bias_filler {
      type: "constant"
    }
  }
}
layer {
  name: "relu1"
  type: "ReLU"
  bottom: "ip1"
  top: "ip1"
}
layer {
  name: "ip2"
  type: "InnerProduct"
  bottom: "ip1"
  top: "ip2"
  param {
    lr_mult: 1
  }
  param {
    lr_mult: 2
  }
  inner_product_param {
    num_output: 52
    weight_filler {
      type: "xavier"
    }
    bias_filler {
      type: "constant"
    }
  }
}
layer {
  name: "accuracy"
  type: "Accuracy"
  bottom: "ip2"
  bottom: "label"
  top: "accuracy"
  include {
    phase: TEST
  }
}
layer {
  name: "loss"
  type: "SoftmaxWithLoss"
  bottom: "ip2"
  bottom: "label"
  top: "loss"
}
I0502 18:23:32.786569  2718 layer_factory.hpp:77] Creating layer data
I0502 18:23:32.796386  2718 db_lmdb.cpp:35] Opened lmdb examples/final_sp/sp_val_lmdb
I0502 18:23:32.805534  2718 net.cpp:84] Creating Layer data
I0502 18:23:32.805570  2718 net.cpp:380] data -> data
I0502 18:23:32.805593  2718 net.cpp:380] data -> label
I0502 18:23:32.805847  2718 data_layer.cpp:45] output data size: 64,3,28,28
I0502 18:23:32.816249  2718 net.cpp:122] Setting up data
I0502 18:23:32.816303  2718 net.cpp:129] Top shape: 64 3 28 28 (150528)
I0502 18:23:32.816321  2718 net.cpp:129] Top shape: 64 (64)
I0502 18:23:32.816331  2718 net.cpp:137] Memory required for data: 602368
I0502 18:23:32.816347  2718 layer_factory.hpp:77] Creating layer label_data_1_split
I0502 18:23:32.816376  2718 net.cpp:84] Creating Layer label_data_1_split
I0502 18:23:32.816422  2718 net.cpp:406] label_data_1_split <- label
I0502 18:23:32.816474  2718 net.cpp:380] label_data_1_split -> label_data_1_split_0
I0502 18:23:32.816531  2718 net.cpp:380] label_data_1_split -> label_data_1_split_1
I0502 18:23:32.816675  2718 net.cpp:122] Setting up label_data_1_split
I0502 18:23:32.816702  2718 net.cpp:129] Top shape: 64 (64)
I0502 18:23:32.816715  2718 net.cpp:129] Top shape: 64 (64)
I0502 18:23:32.816725  2718 net.cpp:137] Memory required for data: 602880
I0502 18:23:32.816735  2718 layer_factory.hpp:77] Creating layer conv1
I0502 18:23:32.816771  2718 net.cpp:84] Creating Layer conv1
I0502 18:23:32.816788  2718 net.cpp:406] conv1 <- data
I0502 18:23:32.816815  2718 net.cpp:380] conv1 -> conv1
I0502 18:23:32.817457  2718 net.cpp:122] Setting up conv1
I0502 18:23:32.817481  2718 net.cpp:129] Top shape: 64 20 24 24 (737280)
I0502 18:23:32.817490  2718 net.cpp:137] Memory required for data: 3552000
I0502 18:23:32.817522  2718 layer_factory.hpp:77] Creating layer pool1
I0502 18:23:32.817569  2718 net.cpp:84] Creating Layer pool1
I0502 18:23:32.817585  2718 net.cpp:406] pool1 <- conv1
I0502 18:23:32.817608  2718 net.cpp:380] pool1 -> pool1
I0502 18:23:32.818114  2718 net.cpp:122] Setting up pool1
I0502 18:23:32.818154  2718 net.cpp:129] Top shape: 64 20 12 12 (184320)
I0502 18:23:32.818166  2718 net.cpp:137] Memory required for data: 4289280
I0502 18:23:32.818177  2718 layer_factory.hpp:77] Creating layer conv2
I0502 18:23:32.818214  2718 net.cpp:84] Creating Layer conv2
I0502 18:23:32.818238  2718 net.cpp:406] conv2 <- pool1
I0502 18:23:32.818261  2718 net.cpp:380] conv2 -> conv2
I0502 18:23:32.819043  2718 net.cpp:122] Setting up conv2
I0502 18:23:32.819063  2718 net.cpp:129] Top shape: 64 50 8 8 (204800)
I0502 18:23:32.819072  2718 net.cpp:137] Memory required for data: 5108480
I0502 18:23:32.819089  2718 layer_factory.hpp:77] Creating layer pool2
I0502 18:23:32.819103  2718 net.cpp:84] Creating Layer pool2
I0502 18:23:32.819109  2718 net.cpp:406] pool2 <- conv2
I0502 18:23:32.819131  2718 net.cpp:380] pool2 -> pool2
I0502 18:23:32.819228  2718 net.cpp:122] Setting up pool2
I0502 18:23:32.819248  2718 net.cpp:129] Top shape: 64 50 4 4 (51200)
I0502 18:23:32.819259  2718 net.cpp:137] Memory required for data: 5313280
I0502 18:23:32.819269  2718 layer_factory.hpp:77] Creating layer ip1
I0502 18:23:32.819289  2718 net.cpp:84] Creating Layer ip1
I0502 18:23:32.819303  2718 net.cpp:406] ip1 <- pool2
I0502 18:23:32.819326  2718 net.cpp:380] ip1 -> ip1
I0502 18:23:32.824874  2718 net.cpp:122] Setting up ip1
I0502 18:23:32.824904  2718 net.cpp:129] Top shape: 64 500 (32000)
I0502 18:23:32.824911  2718 net.cpp:137] Memory required for data: 5441280
I0502 18:23:32.824937  2718 layer_factory.hpp:77] Creating layer relu1
I0502 18:23:32.824980  2718 net.cpp:84] Creating Layer relu1
I0502 18:23:32.824995  2718 net.cpp:406] relu1 <- ip1
I0502 18:23:32.825021  2718 net.cpp:367] relu1 -> ip1 (in-place)
I0502 18:23:32.825044  2718 net.cpp:122] Setting up relu1
I0502 18:23:32.825060  2718 net.cpp:129] Top shape: 64 500 (32000)
I0502 18:23:32.825072  2718 net.cpp:137] Memory required for data: 5569280
I0502 18:23:32.825081  2718 layer_factory.hpp:77] Creating layer ip2
I0502 18:23:32.825107  2718 net.cpp:84] Creating Layer ip2
I0502 18:23:32.825120  2718 net.cpp:406] ip2 <- ip1
I0502 18:23:32.825140  2718 net.cpp:380] ip2 -> ip2
I0502 18:23:32.825636  2718 net.cpp:122] Setting up ip2
I0502 18:23:32.825654  2718 net.cpp:129] Top shape: 64 52 (3328)
I0502 18:23:32.825661  2718 net.cpp:137] Memory required for data: 5582592
I0502 18:23:32.825677  2718 layer_factory.hpp:77] Creating layer ip2_ip2_0_split
I0502 18:23:32.825696  2718 net.cpp:84] Creating Layer ip2_ip2_0_split
I0502 18:23:32.825708  2718 net.cpp:406] ip2_ip2_0_split <- ip2
I0502 18:23:32.825728  2718 net.cpp:380] ip2_ip2_0_split -> ip2_ip2_0_split_0
I0502 18:23:32.825753  2718 net.cpp:380] ip2_ip2_0_split -> ip2_ip2_0_split_1
I0502 18:23:32.825841  2718 net.cpp:122] Setting up ip2_ip2_0_split
I0502 18:23:32.825855  2718 net.cpp:129] Top shape: 64 52 (3328)
I0502 18:23:32.825865  2718 net.cpp:129] Top shape: 64 52 (3328)
I0502 18:23:32.825875  2718 net.cpp:137] Memory required for data: 5609216
I0502 18:23:32.825886  2718 layer_factory.hpp:77] Creating layer accuracy
I0502 18:23:32.825904  2718 net.cpp:84] Creating Layer accuracy
I0502 18:23:32.825917  2718 net.cpp:406] accuracy <- ip2_ip2_0_split_0
I0502 18:23:32.825935  2718 net.cpp:406] accuracy <- label_data_1_split_0
I0502 18:23:32.825958  2718 net.cpp:380] accuracy -> accuracy
…
