…
I0509 15:40:10.725898  7475 net.cpp:294] The NetState phase (0) differed from the phase (1) specified by a rule in layer data
I0509 15:40:10.725909  7475 net.cpp:294] The NetState phase (0) differed from the phase (1) specified by a rule in layer accuracy
I0509 15:40:10.725976  7475 net.cpp:51] Initializing net from parameters: 
name: "LeNet"
state {
  phase: TRAIN
  level: 0
  stage: ""
}
layer {
  name: "data"
  type: "Data"
  top: "data"
  top: "label"
  include {
    phase: TRAIN
  }
  transform_param {
    scale: 0.00390625
  }
  data_param {
    source: "examples/final_sp/sp_train_lmdb_int2"
    batch_size: 64
    backend: LMDB
  }
}
layer {
  name: "conv1"
  type: "Convolution"
  bottom: "data"
  top: "conv1"
  param {
    lr_mult: 1
  }
  param {
    lr_mult: 2
  }
  convolution_param {
    num_output: 20
    kernel_size: 5
    stride: 1
    weight_filler {
      type: "xavier"
    }
    bias_filler {
      type: "constant"
    }
  }
}
layer {
  name: "pool1"
  type: "Pooling"
  bottom: "conv1"
  top: "pool1"
  pooling_param {
    pool: MAX
    kernel_size: 2
    stride: 2
  }
}
layer {
  name: "conv2"
  type: "Convolution"
  bottom: "pool1"
  top: "conv2"
  param {
    lr_mult: 1
  }
  param {
    lr_mult: 2
  }
  convolution_param {
    num_output: 50
    kernel_size: 5
    stride: 1
    weight_filler {
      type: "xavier"
    }
    bias_filler {
      type: "constant"
    }
  }
}
layer {
  name: "pool2"
  type: "Pooling"
  bottom: "conv2"
  top: "pool2"
  pooling_param {
    pool: MAX
    kernel_size: 2
    stride: 2
  }
}
layer {
  name: "ip1"
  type: "InnerProduct"
  bottom: "pool2"
  top: "ip1"
  param {
    lr_mult: 1
  }
  param {
    lr_mult: 2
  }
  inner_product_param {
    num_output: 500
    weight_filler {
      type: "xavier"
    }
    bias_filler {
      type: "constant"
    }
  }
}
layer {
  name: "relu1"
  type: "ReLU"
  bottom: "ip1"
  top: "ip1"
}
layer {
  name: "ip2"
  type: "InnerProduct"
  bottom: "ip1"
  top: "ip2"
  param {
    lr_mult: 1
  }
  param {
    lr_mult: 2
  }
  inner_product_param {
    num_output: 52
    weight_filler {
      type: "xavier"
    }
    bias_filler {
      type: "constant"
    }
  }
}
layer {
  name: "loss"
  type: "SoftmaxWithLoss"
  bottom: "ip2"
  bottom: "label"
  top: "loss"
}
I0509 15:40:10.726029  7475 layer_factory.hpp:77] Creating layer data
I0509 15:40:10.726114  7475 db_lmdb.cpp:35] Opened lmdb examples/final_sp/sp_train_lmdb_int2
I0509 15:40:10.726133  7475 net.cpp:84] Creating Layer data
I0509 15:40:10.726140  7475 net.cpp:380] data -> data
I0509 15:40:10.726160  7475 net.cpp:380] data -> label
I0509 15:40:10.726707  7475 data_layer.cpp:45] output data size: 64,3,28,28
I0509 15:40:10.730618  7475 net.cpp:122] Setting up data
I0509 15:40:10.730648  7475 net.cpp:129] Top shape: 64 3 28 28 (150528)
I0509 15:40:10.730654  7475 net.cpp:129] Top shape: 64 (64)
I0509 15:40:10.730657  7475 net.cpp:137] Memory required for data: 602368
I0509 15:40:10.730669  7475 layer_factory.hpp:77] Creating layer conv1
I0509 15:40:10.730701  7475 net.cpp:84] Creating Layer conv1
I0509 15:40:10.730731  7475 net.cpp:406] conv1 <- data
I0509 15:40:10.730787  7475 net.cpp:380] conv1 -> conv1
I0509 15:40:10.732141  7475 net.cpp:122] Setting up conv1
I0509 15:40:10.732163  7475 net.cpp:129] Top shape: 64 20 24 24 (737280)
I0509 15:40:10.732168  7475 net.cpp:137] Memory required for data: 3551488
I0509 15:40:10.732193  7475 layer_factory.hpp:77] Creating layer pool1
I0509 15:40:10.732210  7475 net.cpp:84] Creating Layer pool1
I0509 15:40:10.732230  7475 net.cpp:406] pool1 <- conv1
I0509 15:40:10.732240  7475 net.cpp:380] pool1 -> pool1
I0509 15:40:10.732568  7475 net.cpp:122] Setting up pool1
I0509 15:40:10.732576  7475 net.cpp:129] Top shape: 64 20 12 12 (184320)
I0509 15:40:10.732580  7475 net.cpp:137] Memory required for data: 4288768
I0509 15:40:10.732584  7475 layer_factory.hpp:77] Creating layer conv2
I0509 15:40:10.732617  7475 net.cpp:84] Creating Layer conv2
I0509 15:40:10.732623  7475 net.cpp:406] conv2 <- pool1
I0509 15:40:10.732630  7475 net.cpp:380] conv2 -> conv2
I0509 15:40:10.733323  7475 net.cpp:122] Setting up conv2
I0509 15:40:10.733333  7475 net.cpp:129] Top shape: 64 50 8 8 (204800)
I0509 15:40:10.733337  7475 net.cpp:137] Memory required for data: 5107968
I0509 15:40:10.733350  7475 layer_factory.hpp:77] Creating layer pool2
I0509 15:40:10.733361  7475 net.cpp:84] Creating Layer pool2
I0509 15:40:10.733366  7475 net.cpp:406] pool2 <- conv2
I0509 15:40:10.733376  7475 net.cpp:380] pool2 -> pool2
I0509 15:40:10.733404  7475 net.cpp:122] Setting up pool2
I0509 15:40:10.733410  7475 net.cpp:129] Top shape: 64 50 4 4 (51200)
I0509 15:40:10.733413  7475 net.cpp:137] Memory required for data: 5312768
I0509 15:40:10.733417  7475 layer_factory.hpp:77] Creating layer ip1
I0509 15:40:10.733427  7475 net.cpp:84] Creating Layer ip1
I0509 15:40:10.733430  7475 net.cpp:406] ip1 <- pool2
I0509 15:40:10.733438  7475 net.cpp:380] ip1 -> ip1
I0509 15:40:10.735657  7475 net.cpp:122] Setting up ip1
I0509 15:40:10.735672  7475 net.cpp:129] Top shape: 64 500 (32000)
I0509 15:40:10.735675  7475 net.cpp:137] Memory required for data: 5440768
I0509 15:40:10.735692  7475 layer_factory.hpp:77] Creating layer relu1
I0509 15:40:10.735702  7475 net.cpp:84] Creating Layer relu1
I0509 15:40:10.735707  7475 net.cpp:406] relu1 <- ip1
I0509 15:40:10.735713  7475 net.cpp:367] relu1 -> ip1 (in-place)
I0509 15:40:10.735723  7475 net.cpp:122] Setting up relu1
I0509 15:40:10.735731  7475 net.cpp:129] Top shape: 64 500 (32000)
I0509 15:40:10.735735  7475 net.cpp:137] Memory required for data: 5568768
I0509 15:40:10.735738  7475 layer_factory.hpp:77] Creating layer ip2
I0509 15:40:10.735750  7475 net.cpp:84] Creating Layer ip2
I0509 15:40:10.735755  7475 net.cpp:406] ip2 <- ip1
I0509 15:40:10.735762  7475 net.cpp:380] ip2 -> ip2
I0509 15:40:10.735954  7475 net.cpp:122] Setting up ip2
I0509 15:40:10.735963  7475 net.cpp:129] Top shape: 64 52 (3328)
I0509 15:40:10.735967  7475 net.cpp:137] Memory required for data: 5582080
I0509 15:40:10.735977  7475 layer_factory.hpp:77] Creating layer loss
I0509 15:40:10.735987  7475 net.cpp:84] Creating Layer loss
I0509 15:40:10.735993  7475 net.cpp:406] loss <- ip2
I0509 15:40:10.735998  7475 net.cpp:406] loss <- label
I0509 15:40:10.736006  7475 net.cpp:380] loss -> loss
I0509 15:40:10.736023  7475 layer_factory.hpp:77] Creating layer loss
…
I0509 15:40:10.736352  7475 solver.cpp:190] Creating test net (#0) specified by net file: models/sp_lenet_int2/lenet_train_val.prototxt
I0509 15:40:10.736390  7475 net.cpp:294] The NetState phase (1) differed from the phase (0) specified by a rule in layer data
I0509 15:40:10.736471  7475 net.cpp:51] Initializing net from parameters: 
name: "LeNet"
state {
  phase: TEST
}
layer {
  name: "data"
  type: "Data"
  top: "data"
  top: "label"
  include {
    phase: TEST
  }
  transform_param {
    scale: 0.00390625
  }
  data_param {
    source: "examples/final_sp/sp_val_lmdb_int2"
    batch_size: 64
    backend: LMDB
  }
}
layer {
  name: "conv1"
  type: "Convolution"
  bottom: "data"
  top: "conv1"
  param {
    lr_mult: 1
  }
  param {
    lr_mult: 2
  }
  convolution_param {
    num_output: 20
    kernel_size: 5
    stride: 1
    weight_filler {
      type: "xavier"
    }
    bias_filler {
      type: "constant"
    }
  }
}
layer {
  name: "pool1"
  type: "Pooling"
  bottom: "conv1"
  top: "pool1"
  pooling_param {
    pool: MAX
    kernel_size: 2
    stride: 2
  }
}
layer {
  name: "conv2"
  type: "Convolution"
  bottom: "pool1"
  top: "conv2"
  param {
    lr_mult: 1
  }
  param {
    lr_mult: 2
  }
  convolution_param {
    num_output: 50
    kernel_size: 5
    stride: 1
    weight_filler {
      type: "xavier"
    }
    bias_filler {
      type: "constant"
    }
  }
}
layer {
  name: "pool2"
  type: "Pooling"
  bottom: "conv2"
  top: "pool2"
  pooling_param {
    pool: MAX
    kernel_size: 2
    stride: 2
  }
}
layer {
  name: "ip1"
  type: "InnerProduct"
  bottom: "pool2"
  top: "ip1"
  param {
    lr_mult: 1
  }
  param {
    lr_mult: 2
  }
  inner_product_param {
    num_output: 500
    weight_filler {
      type: "xavier"
    }
    bias_filler {
      type: "constant"
    }
  }
}
layer {
  name: "relu1"
  type: "ReLU"
  bottom: "ip1"
  top: "ip1"
}
layer {
  name: "ip2"
  type: "InnerProduct"
  bottom: "ip1"
  top: "ip2"
  param {
    lr_mult: 1
  }
  param {
    lr_mult: 2
  }
  inner_product_param {
    num_output: 52
    weight_filler {
      type: "xavier"
    }
    bias_filler {
      type: "constant"
    }
  }
}
layer {
  name: "accuracy"
  type: "Accuracy"
  bottom: "ip2"
  bottom: "label"
  top: "accuracy"
  include {
    phase: TEST
  }
}
layer {
  name: "loss"
  type: "SoftmaxWithLoss"
  bottom: "ip2"
  bottom: "label"
  top: "loss"
}
I0509 15:40:10.736527  7475 layer_factory.hpp:77] Creating layer data
I0509 15:40:10.736577  7475 db_lmdb.cpp:35] Opened lmdb examples/final_sp/sp_val_lmdb_int2
I0509 15:40:10.736588  7475 net.cpp:84] Creating Layer data
I0509 15:40:10.736593  7475 net.cpp:380] data -> data
I0509 15:40:10.736599  7475 net.cpp:380] data -> label
I0509 15:40:10.736824  7475 data_layer.cpp:45] output data size: 64,3,28,28
I0509 15:40:10.740878  7475 net.cpp:122] Setting up data
I0509 15:40:10.740948  7475 net.cpp:129] Top shape: 64 3 28 28 (150528)
I0509 15:40:10.740954  7475 net.cpp:129] Top shape: 64 (64)
I0509 15:40:10.740958  7475 net.cpp:137] Memory required for data: 602368
I0509 15:40:10.740965  7475 layer_factory.hpp:77] Creating layer label_data_1_split
I0509 15:40:10.740979  7475 net.cpp:84] Creating Layer label_data_1_split
I0509 15:40:10.740984  7475 net.cpp:406] label_data_1_split <- label
I0509 15:40:10.740994  7475 net.cpp:380] label_data_1_split -> label_data_1_split_0
I0509 15:40:10.741008  7475 net.cpp:380] label_data_1_split -> label_data_1_split_1
I0509 15:40:10.741047  7475 net.cpp:122] Setting up label_data_1_split
I0509 15:40:10.741055  7475 net.cpp:129] Top shape: 64 (64)
I0509 15:40:10.741060  7475 net.cpp:129] Top shape: 64 (64)
I0509 15:40:10.741072  7475 net.cpp:137] Memory required for data: 602880
I0509 15:40:10.741076  7475 layer_factory.hpp:77] Creating layer conv1
I0509 15:40:10.741092  7475 net.cpp:84] Creating Layer conv1
I0509 15:40:10.741096  7475 net.cpp:406] conv1 <- data
I0509 15:40:10.741104  7475 net.cpp:380] conv1 -> conv1
I0509 15:40:10.741303  7475 net.cpp:122] Setting up conv1
I0509 15:40:10.741312  7475 net.cpp:129] Top shape: 64 20 24 24 (737280)
I0509 15:40:10.741317  7475 net.cpp:137] Memory required for data: 3552000
I0509 15:40:10.741328  7475 layer_factory.hpp:77] Creating layer pool1
I0509 15:40:10.741343  7475 net.cpp:84] Creating Layer pool1
I0509 15:40:10.741349  7475 net.cpp:406] pool1 <- conv1
I0509 15:40:10.741358  7475 net.cpp:380] pool1 -> pool1
I0509 15:40:10.741390  7475 net.cpp:122] Setting up pool1
I0509 15:40:10.741397  7475 net.cpp:129] Top shape: 64 20 12 12 (184320)
I0509 15:40:10.741401  7475 net.cpp:137] Memory required for data: 4289280
I0509 15:40:10.741405  7475 layer_factory.hpp:77] Creating layer conv2
I0509 15:40:10.741425  7475 net.cpp:84] Creating Layer conv2
I0509 15:40:10.741430  7475 net.cpp:406] conv2 <- pool1
I0509 15:40:10.741438  7475 net.cpp:380] conv2 -> conv2
I0509 15:40:10.741724  7475 net.cpp:122] Setting up conv2
I0509 15:40:10.741731  7475 net.cpp:129] Top shape: 64 50 8 8 (204800)
I0509 15:40:10.741735  7475 net.cpp:137] Memory required for data: 5108480
I0509 15:40:10.741744  7475 layer_factory.hpp:77] Creating layer pool2
I0509 15:40:10.741751  7475 net.cpp:84] Creating Layer pool2
I0509 15:40:10.741765  7475 net.cpp:406] pool2 <- conv2
I0509 15:40:10.741771  7475 net.cpp:380] pool2 -> pool2
I0509 15:40:10.742135  7475 net.cpp:122] Setting up pool2
I0509 15:40:10.742143  7475 net.cpp:129] Top shape: 64 50 4 4 (51200)
I0509 15:40:10.742152  7475 net.cpp:137] Memory required for data: 5313280
I0509 15:40:10.742162  7475 layer_factory.hpp:77] Creating layer ip1
I0509 15:40:10.742180  7475 net.cpp:84] Creating Layer ip1
I0509 15:40:10.742185  7475 net.cpp:406] ip1 <- pool2
I0509 15:40:10.742194  7475 net.cpp:380] ip1 -> ip1
I0509 15:40:10.746052  7475 net.cpp:122] Setting up ip1
I0509 15:40:10.746078  7475 net.cpp:129] Top shape: 64 500 (32000)
I0509 15:40:10.746083  7475 net.cpp:137] Memory required for data: 5441280
I0509 15:40:10.746105  7475 layer_factory.hpp:77] Creating layer relu1
I0509 15:40:10.746116  7475 net.cpp:84] Creating Layer relu1
I0509 15:40:10.746142  7475 net.cpp:406] relu1 <- ip1
I0509 15:40:10.746166  7475 net.cpp:367] relu1 -> ip1 (in-place)
I0509 15:40:10.746182  7475 net.cpp:122] Setting up relu1
I0509 15:40:10.746201  7475 net.cpp:129] Top shape: 64 500 (32000)
I0509 15:40:10.746214  7475 net.cpp:137] Memory required for data: 5569280
I0509 15:40:10.746232  7475 layer_factory.hpp:77] Creating layer ip2
I0509 15:40:10.746245  7475 net.cpp:84] Creating Layer ip2
I0509 15:40:10.746263  7475 net.cpp:406] ip2 <- ip1
I0509 15:40:10.746282  7475 net.cpp:380] ip2 -> ip2
I0509 15:40:10.746635  7475 net.cpp:122] Setting up ip2
I0509 15:40:10.746647  7475 net.cpp:129] Top shape: 64 52 (3328)
I0509 15:40:10.746651  7475 net.cpp:137] Memory required for data: 5582592
I0509 15:40:10.746659  7475 layer_factory.hpp:77] Creating layer ip2_ip2_0_split
I0509 15:40:10.746665  7475 net.cpp:84] Creating Layer ip2_ip2_0_split
I0509 15:40:10.746670  7475 net.cpp:406] ip2_ip2_0_split <- ip2
I0509 15:40:10.746676  7475 net.cpp:380] ip2_ip2_0_split -> ip2_ip2_0_split_0
I0509 15:40:10.746685  7475 net.cpp:380] ip2_ip2_0_split -> ip2_ip2_0_split_1
I0509 15:40:10.746718  7475 net.cpp:122] Setting up ip2_ip2_0_split
I0509 15:40:10.746726  7475 net.cpp:129] Top shape: 64 52 (3328)
I0509 15:40:10.746731  7475 net.cpp:129] Top shape: 64 52 (3328)
I0509 15:40:10.746733  7475 net.cpp:137] Memory required for data: 5609216
I0509 15:40:10.746737  7475 layer_factory.hpp:77] Creating layer accuracy
I0509 15:40:10.746744  7475 net.cpp:84] Creating Layer accuracy
I0509 15:40:10.746748  7475 net.cpp:406] accuracy <- ip2_ip2_0_split_0
I0509 15:40:10.746752  7475 net.cpp:406] accuracy <- label_data_1_split_0
I0509 15:40:10.746758  7475 net.cpp:380] accuracy -> accuracy
…
