…
I0502 12:53:34.803624  5177 net.cpp:294] The NetState phase (0) differed from the phase (1) specified by a rule in layer data
I0502 12:53:34.803668  5177 net.cpp:294] The NetState phase (0) differed from the phase (1) specified by a rule in layer accuracy
I0502 12:53:34.803899  5177 net.cpp:51] Initializing net from parameters: 
name: "LeNet"
state {
  phase: TRAIN
  level: 0
  stage: ""
}
layer {
  name: "data"
  type: "Data"
  top: "data"
  top: "label"
  include {
    phase: TRAIN
  }
  transform_param {
    scale: 0.00390625
  }
  data_param {
    source: "examples/final_sp/sp_train_lmdb"
    batch_size: 64
    backend: LMDB
  }
}
layer {
  name: "conv1"
  type: "Convolution"
  bottom: "data"
  top: "conv1"
  param {
    lr_mult: 1
  }
  param {
    lr_mult: 2
  }
  convolution_param {
    num_output: 20
    kernel_size: 5
    stride: 1
    weight_filler {
      type: "xavier"
    }
    bias_filler {
      type: "constant"
    }
  }
}
layer {
  name: "pool1"
  type: "Pooling"
  bottom: "conv1"
  top: "pool1"
  pooling_param {
    pool: MAX
    kernel_size: 2
    stride: 2
  }
}
layer {
  name: "conv2"
  type: "Convolution"
  bottom: "pool1"
  top: "conv2"
  param {
    lr_mult: 1
  }
  param {
    lr_mult: 2
  }
  convolution_param {
    num_output: 50
    kernel_size: 5
    stride: 1
    weight_filler {
      type: "xavier"
    }
    bias_filler {
      type: "constant"
    }
  }
}
layer {
  name: "pool2"
  type: "Pooling"
  bottom: "conv2"
  top: "pool2"
  pooling_param {
    pool: MAX
    kernel_size: 2
    stride: 2
  }
}
layer {
  name: "ip1"
  type: "InnerProduct"
  bottom: "pool2"
  top: "ip1"
  param {
    lr_mult: 1
  }
  param {
    lr_mult: 2
  }
  inner_product_param {
    num_output: 500
    weight_filler {
      type: "xavier"
    }
    bias_filler {
      type: "constant"
    }
  }
}
layer {
  name: "relu1"
  type: "ReLU"
  bottom: "ip1"
  top: "ip1"
}
layer {
  name: "ip2"
  type: "InnerProduct"
  bottom: "ip1"
  top: "ip2"
  param {
    lr_mult: 1
  }
  param {
    lr_mult: 2
  }
  inner_product_param {
    num_output: 52
    weight_filler {
      type: "xavier"
    }
    bias_filler {
      type: "constant"
    }
  }
}
layer {
  name: "loss"
  type: "SoftmaxWithLoss"
  bottom: "ip2"
  bottom: "label"
  top: "loss"
}
I0502 12:53:34.804049  5177 layer_factory.hpp:77] Creating layer data
I0502 12:53:34.804308  5177 db_lmdb.cpp:35] Opened lmdb examples/final_sp/sp_train_lmdb
I0502 12:53:34.804371  5177 net.cpp:84] Creating Layer data
I0502 12:53:34.804396  5177 net.cpp:380] data -> data
I0502 12:53:34.804456  5177 net.cpp:380] data -> label
I0502 12:53:34.805968  5177 data_layer.cpp:45] output data size: 64,3,28,28
I0502 12:53:34.814471  5177 net.cpp:122] Setting up data
I0502 12:53:34.814532  5177 net.cpp:129] Top shape: 64 3 28 28 (150528)
I0502 12:53:34.814548  5177 net.cpp:129] Top shape: 64 (64)
I0502 12:53:34.814561  5177 net.cpp:137] Memory required for data: 602368
I0502 12:53:34.814586  5177 layer_factory.hpp:77] Creating layer conv1
I0502 12:53:34.814642  5177 net.cpp:84] Creating Layer conv1
I0502 12:53:34.814666  5177 net.cpp:406] conv1 <- data
I0502 12:53:34.814709  5177 net.cpp:380] conv1 -> conv1
I0502 12:53:34.818289  5177 net.cpp:122] Setting up conv1
I0502 12:53:34.818348  5177 net.cpp:129] Top shape: 64 20 24 24 (737280)
I0502 12:53:34.818367  5177 net.cpp:137] Memory required for data: 3551488
I0502 12:53:34.818431  5177 layer_factory.hpp:77] Creating layer pool1
I0502 12:53:34.818600  5177 net.cpp:84] Creating Layer pool1
I0502 12:53:34.818624  5177 net.cpp:406] pool1 <- conv1
I0502 12:53:34.818650  5177 net.cpp:380] pool1 -> pool1
I0502 12:53:34.818856  5177 net.cpp:122] Setting up pool1
I0502 12:53:34.818889  5177 net.cpp:129] Top shape: 64 20 12 12 (184320)
I0502 12:53:34.818904  5177 net.cpp:137] Memory required for data: 4288768
I0502 12:53:34.818918  5177 layer_factory.hpp:77] Creating layer conv2
I0502 12:53:34.818954  5177 net.cpp:84] Creating Layer conv2
I0502 12:53:34.818974  5177 net.cpp:406] conv2 <- pool1
I0502 12:53:34.819001  5177 net.cpp:380] conv2 -> conv2
I0502 12:53:34.821131  5177 net.cpp:122] Setting up conv2
I0502 12:53:34.821167  5177 net.cpp:129] Top shape: 64 50 8 8 (204800)
I0502 12:53:34.821178  5177 net.cpp:137] Memory required for data: 5107968
I0502 12:53:34.821208  5177 layer_factory.hpp:77] Creating layer pool2
I0502 12:53:34.821229  5177 net.cpp:84] Creating Layer pool2
I0502 12:53:34.821238  5177 net.cpp:406] pool2 <- conv2
I0502 12:53:34.821254  5177 net.cpp:380] pool2 -> pool2
I0502 12:53:34.821337  5177 net.cpp:122] Setting up pool2
I0502 12:53:34.821355  5177 net.cpp:129] Top shape: 64 50 4 4 (51200)
I0502 12:53:34.821365  5177 net.cpp:137] Memory required for data: 5312768
I0502 12:53:34.821375  5177 layer_factory.hpp:77] Creating layer ip1
I0502 12:53:34.821391  5177 net.cpp:84] Creating Layer ip1
I0502 12:53:34.821404  5177 net.cpp:406] ip1 <- pool2
I0502 12:53:34.821419  5177 net.cpp:380] ip1 -> ip1
I0502 12:53:34.832401  5177 net.cpp:122] Setting up ip1
I0502 12:53:34.832480  5177 net.cpp:129] Top shape: 64 500 (32000)
I0502 12:53:34.832506  5177 net.cpp:137] Memory required for data: 5440768
I0502 12:53:34.832545  5177 layer_factory.hpp:77] Creating layer relu1
I0502 12:53:34.832576  5177 net.cpp:84] Creating Layer relu1
I0502 12:53:34.832617  5177 net.cpp:406] relu1 <- ip1
I0502 12:53:34.832645  5177 net.cpp:367] relu1 -> ip1 (in-place)
I0502 12:53:34.832680  5177 net.cpp:122] Setting up relu1
I0502 12:53:34.832707  5177 net.cpp:129] Top shape: 64 500 (32000)
I0502 12:53:34.832729  5177 net.cpp:137] Memory required for data: 5568768
I0502 12:53:34.832752  5177 layer_factory.hpp:77] Creating layer ip2
I0502 12:53:34.832780  5177 net.cpp:84] Creating Layer ip2
I0502 12:53:34.832814  5177 net.cpp:406] ip2 <- ip1
I0502 12:53:34.832844  5177 net.cpp:380] ip2 -> ip2
I0502 12:53:34.833346  5177 net.cpp:122] Setting up ip2
I0502 12:53:34.833380  5177 net.cpp:129] Top shape: 64 52 (3328)
I0502 12:53:34.833403  5177 net.cpp:137] Memory required for data: 5582080
I0502 12:53:34.833431  5177 layer_factory.hpp:77] Creating layer loss
I0502 12:53:34.833459  5177 net.cpp:84] Creating Layer loss
I0502 12:53:34.833484  5177 net.cpp:406] loss <- ip2
I0502 12:53:34.833508  5177 net.cpp:406] loss <- label
I0502 12:53:34.833536  5177 net.cpp:380] loss -> loss
I0502 12:53:34.833575  5177 layer_factory.hpp:77] Creating layer loss
…
I0502 12:53:34.834041  5177 solver.cpp:190] Creating test net (#0) specified by net file: models/sp_final_lenet/lenet_train_val.prototxt
I0502 12:53:34.834095  5177 net.cpp:294] The NetState phase (1) differed from the phase (0) specified by a rule in layer data
I0502 12:53:34.834203  5177 net.cpp:51] Initializing net from parameters: 
name: "LeNet"
state {
  phase: TEST
}
layer {
  name: "data"
  type: "Data"
  top: "data"
  top: "label"
  include {
    phase: TEST
  }
  transform_param {
    scale: 0.00390625
  }
  data_param {
    source: "examples/final_sp/sp_val_lmdb"
    batch_size: 64
    backend: LMDB
  }
}
layer {
  name: "conv1"
  type: "Convolution"
  bottom: "data"
  top: "conv1"
  param {
    lr_mult: 1
  }
  param {
    lr_mult: 2
  }
  convolution_param {
    num_output: 20
    kernel_size: 5
    stride: 1
    weight_filler {
      type: "xavier"
    }
    bias_filler {
      type: "constant"
    }
  }
}
layer {
  name: "pool1"
  type: "Pooling"
  bottom: "conv1"
  top: "pool1"
  pooling_param {
    pool: MAX
    kernel_size: 2
    stride: 2
  }
}
layer {
  name: "conv2"
  type: "Convolution"
  bottom: "pool1"
  top: "conv2"
  param {
    lr_mult: 1
  }
  param {
    lr_mult: 2
  }
  convolution_param {
    num_output: 50
    kernel_size: 5
    stride: 1
    weight_filler {
      type: "xavier"
    }
    bias_filler {
      type: "constant"
    }
  }
}
layer {
  name: "pool2"
  type: "Pooling"
  bottom: "conv2"
  top: "pool2"
  pooling_param {
    pool: MAX
    kernel_size: 2
    stride: 2
  }
}
layer {
  name: "ip1"
  type: "InnerProduct"
  bottom: "pool2"
  top: "ip1"
  param {
    lr_mult: 1
  }
  param {
    lr_mult: 2
  }
  inner_product_param {
    num_output: 500
    weight_filler {
      type: "xavier"
    }
    bias_filler {
      type: "constant"
    }
  }
}
layer {
  name: "relu1"
  type: "ReLU"
  bottom: "ip1"
  top: "ip1"
}
layer {
  name: "ip2"
  type: "InnerProduct"
  bottom: "ip1"
  top: "ip2"
  param {
    lr_mult: 1
  }
  param {
    lr_mult: 2
  }
  inner_product_param {
    num_output: 52
    weight_filler {
      type: "xavier"
    }
    bias_filler {
      type: "constant"
    }
  }
}
layer {
  name: "accuracy"
  type: "Accuracy"
  bottom: "ip2"
  bottom: "label"
  top: "accuracy"
  include {
    phase: TEST
  }
}
layer {
  name: "loss"
  type: "SoftmaxWithLoss"
  bottom: "ip2"
  bottom: "label"
  top: "loss"
}
I0502 12:53:34.834311  5177 layer_factory.hpp:77] Creating layer data
I0502 12:53:34.834414  5177 db_lmdb.cpp:35] Opened lmdb examples/final_sp/sp_val_lmdb
I0502 12:53:34.834436  5177 net.cpp:84] Creating Layer data
I0502 12:53:34.834446  5177 net.cpp:380] data -> data
I0502 12:53:34.834462  5177 net.cpp:380] data -> label
I0502 12:53:34.834600  5177 data_layer.cpp:45] output data size: 64,3,28,28
I0502 12:53:34.839865  5177 net.cpp:122] Setting up data
I0502 12:53:34.839892  5177 net.cpp:129] Top shape: 64 3 28 28 (150528)
I0502 12:53:34.839898  5177 net.cpp:129] Top shape: 64 (64)
I0502 12:53:34.839902  5177 net.cpp:137] Memory required for data: 602368
I0502 12:53:34.839910  5177 layer_factory.hpp:77] Creating layer label_data_1_split
I0502 12:53:34.839923  5177 net.cpp:84] Creating Layer label_data_1_split
I0502 12:53:34.839929  5177 net.cpp:406] label_data_1_split <- label
I0502 12:53:34.839937  5177 net.cpp:380] label_data_1_split -> label_data_1_split_0
I0502 12:53:34.839951  5177 net.cpp:380] label_data_1_split -> label_data_1_split_1
I0502 12:53:34.840005  5177 net.cpp:122] Setting up label_data_1_split
I0502 12:53:34.840013  5177 net.cpp:129] Top shape: 64 (64)
I0502 12:53:34.840018  5177 net.cpp:129] Top shape: 64 (64)
I0502 12:53:34.840021  5177 net.cpp:137] Memory required for data: 602880
I0502 12:53:34.840025  5177 layer_factory.hpp:77] Creating layer conv1
I0502 12:53:34.840037  5177 net.cpp:84] Creating Layer conv1
I0502 12:53:34.840042  5177 net.cpp:406] conv1 <- data
I0502 12:53:34.840049  5177 net.cpp:380] conv1 -> conv1
I0502 12:53:34.840241  5177 net.cpp:122] Setting up conv1
I0502 12:53:34.840250  5177 net.cpp:129] Top shape: 64 20 24 24 (737280)
I0502 12:53:34.840255  5177 net.cpp:137] Memory required for data: 3552000
I0502 12:53:34.840266  5177 layer_factory.hpp:77] Creating layer pool1
I0502 12:53:34.840284  5177 net.cpp:84] Creating Layer pool1
I0502 12:53:34.840289  5177 net.cpp:406] pool1 <- conv1
I0502 12:53:34.840296  5177 net.cpp:380] pool1 -> pool1
I0502 12:53:34.840328  5177 net.cpp:122] Setting up pool1
I0502 12:53:34.840335  5177 net.cpp:129] Top shape: 64 20 12 12 (184320)
I0502 12:53:34.840339  5177 net.cpp:137] Memory required for data: 4289280
I0502 12:53:34.840343  5177 layer_factory.hpp:77] Creating layer conv2
I0502 12:53:34.840353  5177 net.cpp:84] Creating Layer conv2
I0502 12:53:34.840358  5177 net.cpp:406] conv2 <- pool1
I0502 12:53:34.840364  5177 net.cpp:380] conv2 -> conv2
I0502 12:53:34.841018  5177 net.cpp:122] Setting up conv2
I0502 12:53:34.841027  5177 net.cpp:129] Top shape: 64 50 8 8 (204800)
I0502 12:53:34.841032  5177 net.cpp:137] Memory required for data: 5108480
I0502 12:53:34.841044  5177 layer_factory.hpp:77] Creating layer pool2
I0502 12:53:34.841053  5177 net.cpp:84] Creating Layer pool2
I0502 12:53:34.841058  5177 net.cpp:406] pool2 <- conv2
I0502 12:53:34.841063  5177 net.cpp:380] pool2 -> pool2
I0502 12:53:34.841094  5177 net.cpp:122] Setting up pool2
I0502 12:53:34.841102  5177 net.cpp:129] Top shape: 64 50 4 4 (51200)
I0502 12:53:34.841106  5177 net.cpp:137] Memory required for data: 5313280
I0502 12:53:34.841110  5177 layer_factory.hpp:77] Creating layer ip1
I0502 12:53:34.841118  5177 net.cpp:84] Creating Layer ip1
I0502 12:53:34.841122  5177 net.cpp:406] ip1 <- pool2
I0502 12:53:34.841128  5177 net.cpp:380] ip1 -> ip1
I0502 12:53:34.843688  5177 net.cpp:122] Setting up ip1
I0502 12:53:34.843703  5177 net.cpp:129] Top shape: 64 500 (32000)
I0502 12:53:34.843706  5177 net.cpp:137] Memory required for data: 5441280
I0502 12:53:34.843719  5177 layer_factory.hpp:77] Creating layer relu1
I0502 12:53:34.843730  5177 net.cpp:84] Creating Layer relu1
I0502 12:53:34.843735  5177 net.cpp:406] relu1 <- ip1
I0502 12:53:34.843750  5177 net.cpp:367] relu1 -> ip1 (in-place)
I0502 12:53:34.843760  5177 net.cpp:122] Setting up relu1
I0502 12:53:34.843765  5177 net.cpp:129] Top shape: 64 500 (32000)
I0502 12:53:34.843770  5177 net.cpp:137] Memory required for data: 5569280
I0502 12:53:34.843773  5177 layer_factory.hpp:77] Creating layer ip2
I0502 12:53:34.843783  5177 net.cpp:84] Creating Layer ip2
I0502 12:53:34.843787  5177 net.cpp:406] ip2 <- ip1
I0502 12:53:34.843794  5177 net.cpp:380] ip2 -> ip2
I0502 12:53:34.843997  5177 net.cpp:122] Setting up ip2
I0502 12:53:34.844005  5177 net.cpp:129] Top shape: 64 52 (3328)
I0502 12:53:34.844009  5177 net.cpp:137] Memory required for data: 5582592
I0502 12:53:34.844017  5177 layer_factory.hpp:77] Creating layer ip2_ip2_0_split
I0502 12:53:34.844027  5177 net.cpp:84] Creating Layer ip2_ip2_0_split
I0502 12:53:34.844030  5177 net.cpp:406] ip2_ip2_0_split <- ip2
I0502 12:53:34.844035  5177 net.cpp:380] ip2_ip2_0_split -> ip2_ip2_0_split_0
I0502 12:53:34.844044  5177 net.cpp:380] ip2_ip2_0_split -> ip2_ip2_0_split_1
I0502 12:53:34.844079  5177 net.cpp:122] Setting up ip2_ip2_0_split
I0502 12:53:34.844086  5177 net.cpp:129] Top shape: 64 52 (3328)
I0502 12:53:34.844092  5177 net.cpp:129] Top shape: 64 52 (3328)
I0502 12:53:34.844095  5177 net.cpp:137] Memory required for data: 5609216
I0502 12:53:34.844099  5177 layer_factory.hpp:77] Creating layer accuracy
I0502 12:53:34.844106  5177 net.cpp:84] Creating Layer accuracy
I0502 12:53:34.844110  5177 net.cpp:406] accuracy <- ip2_ip2_0_split_0
I0502 12:53:34.844116  5177 net.cpp:406] accuracy <- label_data_1_split_0
I0502 12:53:34.844123  5177 net.cpp:380] accuracy -> accuracy
…
