…
I0502 13:00:38.504130  5246 net.cpp:294] The NetState phase (0) differed from the phase (1) specified by a rule in layer data
I0502 13:00:38.504140  5246 net.cpp:294] The NetState phase (0) differed from the phase (1) specified by a rule in layer accuracy
I0502 13:00:38.504209  5246 net.cpp:51] Initializing net from parameters: 
name: "LeNet"
state {
  phase: TRAIN
  level: 0
  stage: ""
}
layer {
  name: "data"
  type: "Data"
  top: "data"
  top: "label"
  include {
    phase: TRAIN
  }
  transform_param {
    scale: 0.00390625
  }
  data_param {
    source: "examples/final_sp/sp_train_lmdb"
    batch_size: 64
    backend: LMDB
  }
}
layer {
  name: "conv1"
  type: "Convolution"
  bottom: "data"
  top: "conv1"
  param {
    lr_mult: 1
  }
  param {
    lr_mult: 2
  }
  convolution_param {
    num_output: 20
    kernel_size: 5
    stride: 1
    weight_filler {
      type: "xavier"
    }
    bias_filler {
      type: "constant"
    }
  }
}
layer {
  name: "pool1"
  type: "Pooling"
  bottom: "conv1"
  top: "pool1"
  pooling_param {
    pool: MAX
    kernel_size: 2
    stride: 2
  }
}
layer {
  name: "conv2"
  type: "Convolution"
  bottom: "pool1"
  top: "conv2"
  param {
    lr_mult: 1
  }
  param {
    lr_mult: 2
  }
  convolution_param {
    num_output: 50
    kernel_size: 5
    stride: 1
    weight_filler {
      type: "xavier"
    }
    bias_filler {
      type: "constant"
    }
  }
}
layer {
  name: "pool2"
  type: "Pooling"
  bottom: "conv2"
  top: "pool2"
  pooling_param {
    pool: MAX
    kernel_size: 2
    stride: 2
  }
}
layer {
  name: "ip1"
  type: "InnerProduct"
  bottom: "pool2"
  top: "ip1"
  param {
    lr_mult: 1
  }
  param {
    lr_mult: 2
  }
  inner_product_param {
    num_output: 500
    weight_filler {
      type: "xavier"
    }
    bias_filler {
      type: "constant"
    }
  }
}
layer {
  name: "relu1"
  type: "ReLU"
  bottom: "ip1"
  top: "ip1"
}
layer {
  name: "ip2"
  type: "InnerProduct"
  bottom: "ip1"
  top: "ip2"
  param {
    lr_mult: 1
  }
  param {
    lr_mult: 2
  }
  inner_product_param {
    num_output: 52
    weight_filler {
      type: "xavier"
    }
    bias_filler {
      type: "constant"
    }
  }
}
layer {
  name: "loss"
  type: "SoftmaxWithLoss"
  bottom: "ip2"
  bottom: "label"
  top: "loss"
}
I0502 13:00:38.504252  5246 layer_factory.hpp:77] Creating layer data
I0502 13:00:38.504349  5246 db_lmdb.cpp:35] Opened lmdb examples/final_sp/sp_train_lmdb
I0502 13:00:38.504374  5246 net.cpp:84] Creating Layer data
I0502 13:00:38.504382  5246 net.cpp:380] data -> data
I0502 13:00:38.504429  5246 net.cpp:380] data -> label
I0502 13:00:38.504941  5246 data_layer.cpp:45] output data size: 64,3,28,28
I0502 13:00:38.508774  5246 net.cpp:122] Setting up data
I0502 13:00:38.508821  5246 net.cpp:129] Top shape: 64 3 28 28 (150528)
I0502 13:00:38.508827  5246 net.cpp:129] Top shape: 64 (64)
I0502 13:00:38.508831  5246 net.cpp:137] Memory required for data: 602368
I0502 13:00:38.508841  5246 layer_factory.hpp:77] Creating layer conv1
I0502 13:00:38.508873  5246 net.cpp:84] Creating Layer conv1
I0502 13:00:38.508882  5246 net.cpp:406] conv1 <- data
I0502 13:00:38.508896  5246 net.cpp:380] conv1 -> conv1
I0502 13:00:38.510013  5246 net.cpp:122] Setting up conv1
I0502 13:00:38.510028  5246 net.cpp:129] Top shape: 64 20 24 24 (737280)
I0502 13:00:38.510032  5246 net.cpp:137] Memory required for data: 3551488
I0502 13:00:38.510053  5246 layer_factory.hpp:77] Creating layer pool1
I0502 13:00:38.510084  5246 net.cpp:84] Creating Layer pool1
I0502 13:00:38.510089  5246 net.cpp:406] pool1 <- conv1
I0502 13:00:38.510097  5246 net.cpp:380] pool1 -> pool1
I0502 13:00:38.510494  5246 net.cpp:122] Setting up pool1
I0502 13:00:38.510501  5246 net.cpp:129] Top shape: 64 20 12 12 (184320)
I0502 13:00:38.510505  5246 net.cpp:137] Memory required for data: 4288768
I0502 13:00:38.510517  5246 layer_factory.hpp:77] Creating layer conv2
I0502 13:00:38.510536  5246 net.cpp:84] Creating Layer conv2
I0502 13:00:38.510541  5246 net.cpp:406] conv2 <- pool1
I0502 13:00:38.510548  5246 net.cpp:380] conv2 -> conv2
I0502 13:00:38.511198  5246 net.cpp:122] Setting up conv2
I0502 13:00:38.511209  5246 net.cpp:129] Top shape: 64 50 8 8 (204800)
I0502 13:00:38.511214  5246 net.cpp:137] Memory required for data: 5107968
I0502 13:00:38.511224  5246 layer_factory.hpp:77] Creating layer pool2
I0502 13:00:38.511234  5246 net.cpp:84] Creating Layer pool2
I0502 13:00:38.511238  5246 net.cpp:406] pool2 <- conv2
I0502 13:00:38.511245  5246 net.cpp:380] pool2 -> pool2
I0502 13:00:38.511274  5246 net.cpp:122] Setting up pool2
I0502 13:00:38.511281  5246 net.cpp:129] Top shape: 64 50 4 4 (51200)
I0502 13:00:38.511286  5246 net.cpp:137] Memory required for data: 5312768
I0502 13:00:38.511291  5246 layer_factory.hpp:77] Creating layer ip1
I0502 13:00:38.511298  5246 net.cpp:84] Creating Layer ip1
I0502 13:00:38.511303  5246 net.cpp:406] ip1 <- pool2
I0502 13:00:38.511309  5246 net.cpp:380] ip1 -> ip1
I0502 13:00:38.513540  5246 net.cpp:122] Setting up ip1
I0502 13:00:38.513555  5246 net.cpp:129] Top shape: 64 500 (32000)
I0502 13:00:38.513558  5246 net.cpp:137] Memory required for data: 5440768
I0502 13:00:38.513572  5246 layer_factory.hpp:77] Creating layer relu1
I0502 13:00:38.513581  5246 net.cpp:84] Creating Layer relu1
I0502 13:00:38.513587  5246 net.cpp:406] relu1 <- ip1
I0502 13:00:38.513594  5246 net.cpp:367] relu1 -> ip1 (in-place)
I0502 13:00:38.513605  5246 net.cpp:122] Setting up relu1
I0502 13:00:38.513610  5246 net.cpp:129] Top shape: 64 500 (32000)
I0502 13:00:38.513614  5246 net.cpp:137] Memory required for data: 5568768
I0502 13:00:38.513618  5246 layer_factory.hpp:77] Creating layer ip2
I0502 13:00:38.513626  5246 net.cpp:84] Creating Layer ip2
I0502 13:00:38.513631  5246 net.cpp:406] ip2 <- ip1
I0502 13:00:38.513638  5246 net.cpp:380] ip2 -> ip2
I0502 13:00:38.513825  5246 net.cpp:122] Setting up ip2
I0502 13:00:38.513833  5246 net.cpp:129] Top shape: 64 52 (3328)
I0502 13:00:38.513836  5246 net.cpp:137] Memory required for data: 5582080
I0502 13:00:38.513844  5246 layer_factory.hpp:77] Creating layer loss
I0502 13:00:38.513851  5246 net.cpp:84] Creating Layer loss
I0502 13:00:38.513856  5246 net.cpp:406] loss <- ip2
I0502 13:00:38.513861  5246 net.cpp:406] loss <- label
I0502 13:00:38.513869  5246 net.cpp:380] loss -> loss
I0502 13:00:38.513883  5246 layer_factory.hpp:77] Creating layer loss
…
I0502 13:00:38.514217  5246 solver.cpp:190] Creating test net (#0) specified by net file: models/sp_final_lenet/lenet_train_val.prototxt
I0502 13:00:38.514255  5246 net.cpp:294] The NetState phase (1) differed from the phase (0) specified by a rule in layer data
I0502 13:00:38.514325  5246 net.cpp:51] Initializing net from parameters: 
name: "LeNet"
state {
  phase: TEST
}
layer {
  name: "data"
  type: "Data"
  top: "data"
  top: "label"
  include {
    phase: TEST
  }
  transform_param {
    scale: 0.00390625
  }
  data_param {
    source: "examples/final_sp/sp_val_lmdb"
    batch_size: 64
    backend: LMDB
  }
}
layer {
  name: "conv1"
  type: "Convolution"
  bottom: "data"
  top: "conv1"
  param {
    lr_mult: 1
  }
  param {
    lr_mult: 2
  }
  convolution_param {
    num_output: 20
    kernel_size: 5
    stride: 1
    weight_filler {
      type: "xavier"
    }
    bias_filler {
      type: "constant"
    }
  }
}
layer {
  name: "pool1"
  type: "Pooling"
  bottom: "conv1"
  top: "pool1"
  pooling_param {
    pool: MAX
    kernel_size: 2
    stride: 2
  }
}
layer {
  name: "conv2"
  type: "Convolution"
  bottom: "pool1"
  top: "conv2"
  param {
    lr_mult: 1
  }
  param {
    lr_mult: 2
  }
  convolution_param {
    num_output: 50
    kernel_size: 5
    stride: 1
    weight_filler {
      type: "xavier"
    }
    bias_filler {
      type: "constant"
    }
  }
}
layer {
  name: "pool2"
  type: "Pooling"
  bottom: "conv2"
  top: "pool2"
  pooling_param {
    pool: MAX
    kernel_size: 2
    stride: 2
  }
}
layer {
  name: "ip1"
  type: "InnerProduct"
  bottom: "pool2"
  top: "ip1"
  param {
    lr_mult: 1
  }
  param {
    lr_mult: 2
  }
  inner_product_param {
    num_output: 500
    weight_filler {
      type: "xavier"
    }
    bias_filler {
      type: "constant"
    }
  }
}
layer {
  name: "relu1"
  type: "ReLU"
  bottom: "ip1"
  top: "ip1"
}
layer {
  name: "ip2"
  type: "InnerProduct"
  bottom: "ip1"
  top: "ip2"
  param {
    lr_mult: 1
  }
  param {
    lr_mult: 2
  }
  inner_product_param {
    num_output: 52
    weight_filler {
      type: "xavier"
    }
    bias_filler {
      type: "constant"
    }
  }
}
layer {
  name: "accuracy"
  type: "Accuracy"
  bottom: "ip2"
  bottom: "label"
  top: "accuracy"
  include {
    phase: TEST
  }
}
layer {
  name: "loss"
  type: "SoftmaxWithLoss"
  bottom: "ip2"
  bottom: "label"
  top: "loss"
}
I0502 13:00:38.514397  5246 layer_factory.hpp:77] Creating layer data
I0502 13:00:38.514457  5246 db_lmdb.cpp:35] Opened lmdb examples/final_sp/sp_val_lmdb
I0502 13:00:38.514472  5246 net.cpp:84] Creating Layer data
I0502 13:00:38.514477  5246 net.cpp:380] data -> data
I0502 13:00:38.514487  5246 net.cpp:380] data -> label
I0502 13:00:38.514678  5246 data_layer.cpp:45] output data size: 64,3,28,28
I0502 13:00:38.520273  5246 net.cpp:122] Setting up data
I0502 13:00:38.520300  5246 net.cpp:129] Top shape: 64 3 28 28 (150528)
I0502 13:00:38.520306  5246 net.cpp:129] Top shape: 64 (64)
I0502 13:00:38.520310  5246 net.cpp:137] Memory required for data: 602368
I0502 13:00:38.520318  5246 layer_factory.hpp:77] Creating layer label_data_1_split
I0502 13:00:38.520331  5246 net.cpp:84] Creating Layer label_data_1_split
I0502 13:00:38.520336  5246 net.cpp:406] label_data_1_split <- label
I0502 13:00:38.520344  5246 net.cpp:380] label_data_1_split -> label_data_1_split_0
I0502 13:00:38.520357  5246 net.cpp:380] label_data_1_split -> label_data_1_split_1
I0502 13:00:38.520400  5246 net.cpp:122] Setting up label_data_1_split
I0502 13:00:38.520406  5246 net.cpp:129] Top shape: 64 (64)
I0502 13:00:38.520411  5246 net.cpp:129] Top shape: 64 (64)
I0502 13:00:38.520414  5246 net.cpp:137] Memory required for data: 602880
I0502 13:00:38.520419  5246 layer_factory.hpp:77] Creating layer conv1
I0502 13:00:38.520432  5246 net.cpp:84] Creating Layer conv1
I0502 13:00:38.520438  5246 net.cpp:406] conv1 <- data
I0502 13:00:38.520445  5246 net.cpp:380] conv1 -> conv1
I0502 13:00:38.520618  5246 net.cpp:122] Setting up conv1
I0502 13:00:38.520624  5246 net.cpp:129] Top shape: 64 20 24 24 (737280)
I0502 13:00:38.520627  5246 net.cpp:137] Memory required for data: 3552000
I0502 13:00:38.520634  5246 layer_factory.hpp:77] Creating layer pool1
I0502 13:00:38.520651  5246 net.cpp:84] Creating Layer pool1
I0502 13:00:38.520654  5246 net.cpp:406] pool1 <- conv1
I0502 13:00:38.520658  5246 net.cpp:380] pool1 -> pool1
I0502 13:00:38.520684  5246 net.cpp:122] Setting up pool1
I0502 13:00:38.520687  5246 net.cpp:129] Top shape: 64 20 12 12 (184320)
I0502 13:00:38.520690  5246 net.cpp:137] Memory required for data: 4289280
I0502 13:00:38.520692  5246 layer_factory.hpp:77] Creating layer conv2
I0502 13:00:38.520699  5246 net.cpp:84] Creating Layer conv2
I0502 13:00:38.520701  5246 net.cpp:406] conv2 <- pool1
I0502 13:00:38.520705  5246 net.cpp:380] conv2 -> conv2
I0502 13:00:38.521045  5246 net.cpp:122] Setting up conv2
I0502 13:00:38.521054  5246 net.cpp:129] Top shape: 64 50 8 8 (204800)
I0502 13:00:38.521059  5246 net.cpp:137] Memory required for data: 5108480
I0502 13:00:38.521069  5246 layer_factory.hpp:77] Creating layer pool2
I0502 13:00:38.521082  5246 net.cpp:84] Creating Layer pool2
I0502 13:00:38.521088  5246 net.cpp:406] pool2 <- conv2
I0502 13:00:38.521095  5246 net.cpp:380] pool2 -> pool2
I0502 13:00:38.521472  5246 net.cpp:122] Setting up pool2
I0502 13:00:38.521481  5246 net.cpp:129] Top shape: 64 50 4 4 (51200)
I0502 13:00:38.521486  5246 net.cpp:137] Memory required for data: 5313280
I0502 13:00:38.521489  5246 layer_factory.hpp:77] Creating layer ip1
I0502 13:00:38.521497  5246 net.cpp:84] Creating Layer ip1
I0502 13:00:38.521502  5246 net.cpp:406] ip1 <- pool2
I0502 13:00:38.521508  5246 net.cpp:380] ip1 -> ip1
I0502 13:00:38.524075  5246 net.cpp:122] Setting up ip1
I0502 13:00:38.524089  5246 net.cpp:129] Top shape: 64 500 (32000)
I0502 13:00:38.524093  5246 net.cpp:137] Memory required for data: 5441280
I0502 13:00:38.524107  5246 layer_factory.hpp:77] Creating layer relu1
I0502 13:00:38.524124  5246 net.cpp:84] Creating Layer relu1
I0502 13:00:38.524129  5246 net.cpp:406] relu1 <- ip1
I0502 13:00:38.524137  5246 net.cpp:367] relu1 -> ip1 (in-place)
I0502 13:00:38.524147  5246 net.cpp:122] Setting up relu1
I0502 13:00:38.524154  5246 net.cpp:129] Top shape: 64 500 (32000)
I0502 13:00:38.524158  5246 net.cpp:137] Memory required for data: 5569280
I0502 13:00:38.524161  5246 layer_factory.hpp:77] Creating layer ip2
I0502 13:00:38.524171  5246 net.cpp:84] Creating Layer ip2
I0502 13:00:38.524176  5246 net.cpp:406] ip2 <- ip1
I0502 13:00:38.524183  5246 net.cpp:380] ip2 -> ip2
I0502 13:00:38.524374  5246 net.cpp:122] Setting up ip2
I0502 13:00:38.524379  5246 net.cpp:129] Top shape: 64 52 (3328)
I0502 13:00:38.524384  5246 net.cpp:137] Memory required for data: 5582592
I0502 13:00:38.524391  5246 layer_factory.hpp:77] Creating layer ip2_ip2_0_split
I0502 13:00:38.524399  5246 net.cpp:84] Creating Layer ip2_ip2_0_split
I0502 13:00:38.524405  5246 net.cpp:406] ip2_ip2_0_split <- ip2
I0502 13:00:38.524410  5246 net.cpp:380] ip2_ip2_0_split -> ip2_ip2_0_split_0
I0502 13:00:38.524418  5246 net.cpp:380] ip2_ip2_0_split -> ip2_ip2_0_split_1
I0502 13:00:38.524447  5246 net.cpp:122] Setting up ip2_ip2_0_split
I0502 13:00:38.524453  5246 net.cpp:129] Top shape: 64 52 (3328)
I0502 13:00:38.524458  5246 net.cpp:129] Top shape: 64 52 (3328)
I0502 13:00:38.524462  5246 net.cpp:137] Memory required for data: 5609216
I0502 13:00:38.524466  5246 layer_factory.hpp:77] Creating layer accuracy
I0502 13:00:38.524473  5246 net.cpp:84] Creating Layer accuracy
I0502 13:00:38.524478  5246 net.cpp:406] accuracy <- ip2_ip2_0_split_0
I0502 13:00:38.524484  5246 net.cpp:406] accuracy <- label_data_1_split_0
I0502 13:00:38.524492  5246 net.cpp:380] accuracy -> accuracy
…
