…
I0502 13:07:40.947834  5302 net.cpp:294] The NetState phase (0) differed from the phase (1) specified by a rule in layer data
I0502 13:07:40.947844  5302 net.cpp:294] The NetState phase (0) differed from the phase (1) specified by a rule in layer accuracy
I0502 13:07:40.947906  5302 net.cpp:51] Initializing net from parameters: 
name: "LeNet"
state {
  phase: TRAIN
  level: 0
  stage: ""
}
layer {
  name: "data"
  type: "Data"
  top: "data"
  top: "label"
  include {
    phase: TRAIN
  }
  transform_param {
    scale: 0.00390625
  }
  data_param {
    source: "examples/final_sp/sp_train_lmdb"
    batch_size: 64
    backend: LMDB
  }
}
layer {
  name: "conv1"
  type: "Convolution"
  bottom: "data"
  top: "conv1"
  param {
    lr_mult: 1
  }
  param {
    lr_mult: 2
  }
  convolution_param {
    num_output: 20
    kernel_size: 5
    stride: 1
    weight_filler {
      type: "xavier"
    }
    bias_filler {
      type: "constant"
    }
  }
}
layer {
  name: "pool1"
  type: "Pooling"
  bottom: "conv1"
  top: "pool1"
  pooling_param {
    pool: MAX
    kernel_size: 2
    stride: 2
  }
}
layer {
  name: "conv2"
  type: "Convolution"
  bottom: "pool1"
  top: "conv2"
  param {
    lr_mult: 1
  }
  param {
    lr_mult: 2
  }
  convolution_param {
    num_output: 50
    kernel_size: 5
    stride: 1
    weight_filler {
      type: "xavier"
    }
    bias_filler {
      type: "constant"
    }
  }
}
layer {
  name: "pool2"
  type: "Pooling"
  bottom: "conv2"
  top: "pool2"
  pooling_param {
    pool: MAX
    kernel_size: 2
    stride: 2
  }
}
layer {
  name: "ip1"
  type: "InnerProduct"
  bottom: "pool2"
  top: "ip1"
  param {
    lr_mult: 1
  }
  param {
    lr_mult: 2
  }
  inner_product_param {
    num_output: 500
    weight_filler {
      type: "xavier"
    }
    bias_filler {
      type: "constant"
    }
  }
}
layer {
  name: "relu1"
  type: "ReLU"
  bottom: "ip1"
  top: "ip1"
}
layer {
  name: "ip2"
  type: "InnerProduct"
  bottom: "ip1"
  top: "ip2"
  param {
    lr_mult: 1
  }
  param {
    lr_mult: 2
  }
  inner_product_param {
    num_output: 52
    weight_filler {
      type: "xavier"
    }
    bias_filler {
      type: "constant"
    }
  }
}
layer {
  name: "loss"
  type: "SoftmaxWithLoss"
  bottom: "ip2"
  bottom: "label"
  top: "loss"
}
I0502 13:07:40.947948  5302 layer_factory.hpp:77] Creating layer data
I0502 13:07:40.948045  5302 db_lmdb.cpp:35] Opened lmdb examples/final_sp/sp_train_lmdb
I0502 13:07:40.948065  5302 net.cpp:84] Creating Layer data
I0502 13:07:40.948073  5302 net.cpp:380] data -> data
I0502 13:07:40.948094  5302 net.cpp:380] data -> label
I0502 13:07:40.948616  5302 data_layer.cpp:45] output data size: 64,3,28,28
I0502 13:07:40.952459  5302 net.cpp:122] Setting up data
I0502 13:07:40.952487  5302 net.cpp:129] Top shape: 64 3 28 28 (150528)
I0502 13:07:40.952494  5302 net.cpp:129] Top shape: 64 (64)
I0502 13:07:40.952497  5302 net.cpp:137] Memory required for data: 602368
I0502 13:07:40.952510  5302 layer_factory.hpp:77] Creating layer conv1
I0502 13:07:40.952540  5302 net.cpp:84] Creating Layer conv1
I0502 13:07:40.952550  5302 net.cpp:406] conv1 <- data
I0502 13:07:40.952569  5302 net.cpp:380] conv1 -> conv1
I0502 13:07:40.953533  5302 net.cpp:122] Setting up conv1
I0502 13:07:40.953548  5302 net.cpp:129] Top shape: 64 20 24 24 (737280)
I0502 13:07:40.953552  5302 net.cpp:137] Memory required for data: 3551488
I0502 13:07:40.953572  5302 layer_factory.hpp:77] Creating layer pool1
I0502 13:07:40.953586  5302 net.cpp:84] Creating Layer pool1
I0502 13:07:40.953606  5302 net.cpp:406] pool1 <- conv1
I0502 13:07:40.953614  5302 net.cpp:380] pool1 -> pool1
I0502 13:07:40.953691  5302 net.cpp:122] Setting up pool1
I0502 13:07:40.953698  5302 net.cpp:129] Top shape: 64 20 12 12 (184320)
I0502 13:07:40.953702  5302 net.cpp:137] Memory required for data: 4288768
I0502 13:07:40.953706  5302 layer_factory.hpp:77] Creating layer conv2
I0502 13:07:40.953717  5302 net.cpp:84] Creating Layer conv2
I0502 13:07:40.953722  5302 net.cpp:406] conv2 <- pool1
I0502 13:07:40.953732  5302 net.cpp:380] conv2 -> conv2
I0502 13:07:40.954923  5302 net.cpp:122] Setting up conv2
I0502 13:07:40.954937  5302 net.cpp:129] Top shape: 64 50 8 8 (204800)
I0502 13:07:40.954942  5302 net.cpp:137] Memory required for data: 5107968
I0502 13:07:40.954955  5302 layer_factory.hpp:77] Creating layer pool2
I0502 13:07:40.954972  5302 net.cpp:84] Creating Layer pool2
I0502 13:07:40.954979  5302 net.cpp:406] pool2 <- conv2
I0502 13:07:40.954987  5302 net.cpp:380] pool2 -> pool2
I0502 13:07:40.955021  5302 net.cpp:122] Setting up pool2
I0502 13:07:40.955029  5302 net.cpp:129] Top shape: 64 50 4 4 (51200)
I0502 13:07:40.955032  5302 net.cpp:137] Memory required for data: 5312768
I0502 13:07:40.955036  5302 layer_factory.hpp:77] Creating layer ip1
I0502 13:07:40.955044  5302 net.cpp:84] Creating Layer ip1
I0502 13:07:40.955049  5302 net.cpp:406] ip1 <- pool2
I0502 13:07:40.955057  5302 net.cpp:380] ip1 -> ip1
I0502 13:07:40.957676  5302 net.cpp:122] Setting up ip1
I0502 13:07:40.957693  5302 net.cpp:129] Top shape: 64 500 (32000)
I0502 13:07:40.957697  5302 net.cpp:137] Memory required for data: 5440768
I0502 13:07:40.957712  5302 layer_factory.hpp:77] Creating layer relu1
I0502 13:07:40.957722  5302 net.cpp:84] Creating Layer relu1
I0502 13:07:40.957731  5302 net.cpp:406] relu1 <- ip1
I0502 13:07:40.957741  5302 net.cpp:367] relu1 -> ip1 (in-place)
I0502 13:07:40.957752  5302 net.cpp:122] Setting up relu1
I0502 13:07:40.957761  5302 net.cpp:129] Top shape: 64 500 (32000)
I0502 13:07:40.957765  5302 net.cpp:137] Memory required for data: 5568768
I0502 13:07:40.957769  5302 layer_factory.hpp:77] Creating layer ip2
I0502 13:07:40.957777  5302 net.cpp:84] Creating Layer ip2
I0502 13:07:40.957783  5302 net.cpp:406] ip2 <- ip1
I0502 13:07:40.957793  5302 net.cpp:380] ip2 -> ip2
I0502 13:07:40.957988  5302 net.cpp:122] Setting up ip2
I0502 13:07:40.957996  5302 net.cpp:129] Top shape: 64 52 (3328)
I0502 13:07:40.958001  5302 net.cpp:137] Memory required for data: 5582080
I0502 13:07:40.958009  5302 layer_factory.hpp:77] Creating layer loss
I0502 13:07:40.958019  5302 net.cpp:84] Creating Layer loss
I0502 13:07:40.958024  5302 net.cpp:406] loss <- ip2
I0502 13:07:40.958029  5302 net.cpp:406] loss <- label
I0502 13:07:40.958036  5302 net.cpp:380] loss -> loss
I0502 13:07:40.958079  5302 layer_factory.hpp:77] Creating layer loss
…
I0502 13:07:40.958408  5302 solver.cpp:190] Creating test net (#0) specified by net file: models/sp_final_lenet/lenet_train_val.prototxt
I0502 13:07:40.958449  5302 net.cpp:294] The NetState phase (1) differed from the phase (0) specified by a rule in layer data
I0502 13:07:40.958526  5302 net.cpp:51] Initializing net from parameters: 
name: "LeNet"
state {
  phase: TEST
}
layer {
  name: "data"
  type: "Data"
  top: "data"
  top: "label"
  include {
    phase: TEST
  }
  transform_param {
    scale: 0.00390625
  }
  data_param {
    source: "examples/final_sp/sp_val_lmdb"
    batch_size: 64
    backend: LMDB
  }
}
layer {
  name: "conv1"
  type: "Convolution"
  bottom: "data"
  top: "conv1"
  param {
    lr_mult: 1
  }
  param {
    lr_mult: 2
  }
  convolution_param {
    num_output: 20
    kernel_size: 5
    stride: 1
    weight_filler {
      type: "xavier"
    }
    bias_filler {
      type: "constant"
    }
  }
}
layer {
  name: "pool1"
  type: "Pooling"
  bottom: "conv1"
  top: "pool1"
  pooling_param {
    pool: MAX
    kernel_size: 2
    stride: 2
  }
}
layer {
  name: "conv2"
  type: "Convolution"
  bottom: "pool1"
  top: "conv2"
  param {
    lr_mult: 1
  }
  param {
    lr_mult: 2
  }
  convolution_param {
    num_output: 50
    kernel_size: 5
    stride: 1
    weight_filler {
      type: "xavier"
    }
    bias_filler {
      type: "constant"
    }
  }
}
layer {
  name: "pool2"
  type: "Pooling"
  bottom: "conv2"
  top: "pool2"
  pooling_param {
    pool: MAX
    kernel_size: 2
    stride: 2
  }
}
layer {
  name: "ip1"
  type: "InnerProduct"
  bottom: "pool2"
  top: "ip1"
  param {
    lr_mult: 1
  }
  param {
    lr_mult: 2
  }
  inner_product_param {
    num_output: 500
    weight_filler {
      type: "xavier"
    }
    bias_filler {
      type: "constant"
    }
  }
}
layer {
  name: "relu1"
  type: "ReLU"
  bottom: "ip1"
  top: "ip1"
}
layer {
  name: "ip2"
  type: "InnerProduct"
  bottom: "ip1"
  top: "ip2"
  param {
    lr_mult: 1
  }
  param {
    lr_mult: 2
  }
  inner_product_param {
    num_output: 52
    weight_filler {
      type: "xavier"
    }
    bias_filler {
      type: "constant"
    }
  }
}
layer {
  name: "accuracy"
  type: "Accuracy"
  bottom: "ip2"
  bottom: "label"
  top: "accuracy"
  include {
    phase: TEST
  }
}
layer {
  name: "loss"
  type: "SoftmaxWithLoss"
  bottom: "ip2"
  bottom: "label"
  top: "loss"
}
I0502 13:07:40.958606  5302 layer_factory.hpp:77] Creating layer data
I0502 13:07:40.958667  5302 db_lmdb.cpp:35] Opened lmdb examples/final_sp/sp_val_lmdb
I0502 13:07:40.958684  5302 net.cpp:84] Creating Layer data
I0502 13:07:40.958691  5302 net.cpp:380] data -> data
I0502 13:07:40.958701  5302 net.cpp:380] data -> label
I0502 13:07:40.960067  5302 data_layer.cpp:45] output data size: 64,3,28,28
I0502 13:07:40.964365  5302 net.cpp:122] Setting up data
I0502 13:07:40.964392  5302 net.cpp:129] Top shape: 64 3 28 28 (150528)
I0502 13:07:40.964398  5302 net.cpp:129] Top shape: 64 (64)
I0502 13:07:40.964402  5302 net.cpp:137] Memory required for data: 602368
I0502 13:07:40.964409  5302 layer_factory.hpp:77] Creating layer label_data_1_split
I0502 13:07:40.964427  5302 net.cpp:84] Creating Layer label_data_1_split
I0502 13:07:40.964433  5302 net.cpp:406] label_data_1_split <- label
I0502 13:07:40.964442  5302 net.cpp:380] label_data_1_split -> label_data_1_split_0
I0502 13:07:40.964454  5302 net.cpp:380] label_data_1_split -> label_data_1_split_1
I0502 13:07:40.964520  5302 net.cpp:122] Setting up label_data_1_split
I0502 13:07:40.964530  5302 net.cpp:129] Top shape: 64 (64)
I0502 13:07:40.964535  5302 net.cpp:129] Top shape: 64 (64)
I0502 13:07:40.964540  5302 net.cpp:137] Memory required for data: 602880
I0502 13:07:40.964542  5302 layer_factory.hpp:77] Creating layer conv1
I0502 13:07:40.964556  5302 net.cpp:84] Creating Layer conv1
I0502 13:07:40.964561  5302 net.cpp:406] conv1 <- data
I0502 13:07:40.964568  5302 net.cpp:380] conv1 -> conv1
I0502 13:07:40.964781  5302 net.cpp:122] Setting up conv1
I0502 13:07:40.964799  5302 net.cpp:129] Top shape: 64 20 24 24 (737280)
I0502 13:07:40.964803  5302 net.cpp:137] Memory required for data: 3552000
I0502 13:07:40.964813  5302 layer_factory.hpp:77] Creating layer pool1
I0502 13:07:40.964833  5302 net.cpp:84] Creating Layer pool1
I0502 13:07:40.964838  5302 net.cpp:406] pool1 <- conv1
I0502 13:07:40.964843  5302 net.cpp:380] pool1 -> pool1
I0502 13:07:40.964879  5302 net.cpp:122] Setting up pool1
I0502 13:07:40.964887  5302 net.cpp:129] Top shape: 64 20 12 12 (184320)
I0502 13:07:40.964891  5302 net.cpp:137] Memory required for data: 4289280
I0502 13:07:40.964895  5302 layer_factory.hpp:77] Creating layer conv2
I0502 13:07:40.964905  5302 net.cpp:84] Creating Layer conv2
I0502 13:07:40.964908  5302 net.cpp:406] conv2 <- pool1
I0502 13:07:40.964915  5302 net.cpp:380] conv2 -> conv2
I0502 13:07:40.965652  5302 net.cpp:122] Setting up conv2
I0502 13:07:40.965665  5302 net.cpp:129] Top shape: 64 50 8 8 (204800)
I0502 13:07:40.965670  5302 net.cpp:137] Memory required for data: 5108480
I0502 13:07:40.965680  5302 layer_factory.hpp:77] Creating layer pool2
I0502 13:07:40.965692  5302 net.cpp:84] Creating Layer pool2
I0502 13:07:40.965697  5302 net.cpp:406] pool2 <- conv2
I0502 13:07:40.965703  5302 net.cpp:380] pool2 -> pool2
I0502 13:07:40.965739  5302 net.cpp:122] Setting up pool2
I0502 13:07:40.965745  5302 net.cpp:129] Top shape: 64 50 4 4 (51200)
I0502 13:07:40.965750  5302 net.cpp:137] Memory required for data: 5313280
I0502 13:07:40.965754  5302 layer_factory.hpp:77] Creating layer ip1
I0502 13:07:40.965761  5302 net.cpp:84] Creating Layer ip1
I0502 13:07:40.965765  5302 net.cpp:406] ip1 <- pool2
I0502 13:07:40.965773  5302 net.cpp:380] ip1 -> ip1
I0502 13:07:40.969503  5302 net.cpp:122] Setting up ip1
I0502 13:07:40.969521  5302 net.cpp:129] Top shape: 64 500 (32000)
I0502 13:07:40.969525  5302 net.cpp:137] Memory required for data: 5441280
I0502 13:07:40.969540  5302 layer_factory.hpp:77] Creating layer relu1
I0502 13:07:40.969558  5302 net.cpp:84] Creating Layer relu1
I0502 13:07:40.969563  5302 net.cpp:406] relu1 <- ip1
I0502 13:07:40.969569  5302 net.cpp:367] relu1 -> ip1 (in-place)
I0502 13:07:40.969578  5302 net.cpp:122] Setting up relu1
I0502 13:07:40.969583  5302 net.cpp:129] Top shape: 64 500 (32000)
I0502 13:07:40.969585  5302 net.cpp:137] Memory required for data: 5569280
I0502 13:07:40.969588  5302 layer_factory.hpp:77] Creating layer ip2
I0502 13:07:40.969599  5302 net.cpp:84] Creating Layer ip2
I0502 13:07:40.969602  5302 net.cpp:406] ip2 <- ip1
I0502 13:07:40.969609  5302 net.cpp:380] ip2 -> ip2
I0502 13:07:40.969902  5302 net.cpp:122] Setting up ip2
I0502 13:07:40.969910  5302 net.cpp:129] Top shape: 64 52 (3328)
I0502 13:07:40.969914  5302 net.cpp:137] Memory required for data: 5582592
I0502 13:07:40.969921  5302 layer_factory.hpp:77] Creating layer ip2_ip2_0_split
I0502 13:07:40.969928  5302 net.cpp:84] Creating Layer ip2_ip2_0_split
I0502 13:07:40.969931  5302 net.cpp:406] ip2_ip2_0_split <- ip2
I0502 13:07:40.969938  5302 net.cpp:380] ip2_ip2_0_split -> ip2_ip2_0_split_0
I0502 13:07:40.969946  5302 net.cpp:380] ip2_ip2_0_split -> ip2_ip2_0_split_1
I0502 13:07:40.970315  5302 net.cpp:122] Setting up ip2_ip2_0_split
I0502 13:07:40.970322  5302 net.cpp:129] Top shape: 64 52 (3328)
I0502 13:07:40.970326  5302 net.cpp:129] Top shape: 64 52 (3328)
I0502 13:07:40.970330  5302 net.cpp:137] Memory required for data: 5609216
I0502 13:07:40.970333  5302 layer_factory.hpp:77] Creating layer accuracy
I0502 13:07:40.970343  5302 net.cpp:84] Creating Layer accuracy
I0502 13:07:40.970347  5302 net.cpp:406] accuracy <- ip2_ip2_0_split_0
I0502 13:07:40.970352  5302 net.cpp:406] accuracy <- label_data_1_split_0
I0502 13:07:40.970358  5302 net.cpp:380] accuracy -> accuracy
…
