…
I0502 00:31:03.539343 19202 net.cpp:294] The NetState phase (0) differed from the phase (1) specified by a rule in layer data
I0502 00:31:03.539356 19202 net.cpp:294] The NetState phase (0) differed from the phase (1) specified by a rule in layer accuracy
I0502 00:31:03.539422 19202 net.cpp:51] Initializing net from parameters: 
name: "LeNet"
state {
  phase: TRAIN
  level: 0
  stage: ""
}
layer {
  name: "data"
  type: "Data"
  top: "data"
  top: "label"
  include {
    phase: TRAIN
  }
  transform_param {
    scale: 0.00390625
  }
  data_param {
    source: "examples/final_sp/sp_train_lmdb"
    batch_size: 64
    backend: LMDB
  }
}
layer {
  name: "conv1"
  type: "Convolution"
  bottom: "data"
  top: "conv1"
  param {
    lr_mult: 1
  }
  param {
    lr_mult: 2
  }
  convolution_param {
    num_output: 20
    kernel_size: 5
    stride: 1
    weight_filler {
      type: "xavier"
    }
    bias_filler {
      type: "constant"
    }
  }
}
layer {
  name: "pool1"
  type: "Pooling"
  bottom: "conv1"
  top: "pool1"
  pooling_param {
    pool: MAX
    kernel_size: 2
    stride: 2
  }
}
layer {
  name: "conv2"
  type: "Convolution"
  bottom: "pool1"
  top: "conv2"
  param {
    lr_mult: 1
  }
  param {
    lr_mult: 2
  }
  convolution_param {
    num_output: 50
    kernel_size: 5
    stride: 1
    weight_filler {
      type: "xavier"
    }
    bias_filler {
      type: "constant"
    }
  }
}
layer {
  name: "pool2"
  type: "Pooling"
  bottom: "conv2"
  top: "pool2"
  pooling_param {
    pool: MAX
    kernel_size: 2
    stride: 2
  }
}
layer {
  name: "ip1"
  type: "InnerProduct"
  bottom: "pool2"
  top: "ip1"
  param {
    lr_mult: 1
  }
  param {
    lr_mult: 2
  }
  inner_product_param {
    num_output: 500
    weight_filler {
      type: "xavier"
    }
    bias_filler {
      type: "constant"
    }
  }
}
layer {
  name: "relu1"
  type: "ReLU"
  bottom: "ip1"
  top: "ip1"
}
layer {
  name: "ip2"
  type: "InnerProduct"
  bottom: "ip1"
  top: "ip2"
  param {
    lr_mult: 1
  }
  param {
    lr_mult: 2
  }
  inner_product_param {
    num_output: 52
    weight_filler {
      type: "xavier"
    }
    bias_filler {
      type: "constant"
    }
  }
}
layer {
  name: "loss"
  type: "SoftmaxWithLoss"
  bottom: "ip2"
  bottom: "label"
  top: "loss"
}
I0502 00:31:03.539476 19202 layer_factory.hpp:77] Creating layer data
I0502 00:31:03.539559 19202 db_lmdb.cpp:35] Opened lmdb examples/final_sp/sp_train_lmdb
I0502 00:31:03.539582 19202 net.cpp:84] Creating Layer data
I0502 00:31:03.539592 19202 net.cpp:380] data -> data
I0502 00:31:03.539613 19202 net.cpp:380] data -> label
I0502 00:31:03.540158 19202 data_layer.cpp:45] output data size: 64,3,28,28
I0502 00:31:03.544131 19202 net.cpp:122] Setting up data
I0502 00:31:03.544155 19202 net.cpp:129] Top shape: 64 3 28 28 (150528)
I0502 00:31:03.544162 19202 net.cpp:129] Top shape: 64 (64)
I0502 00:31:03.544164 19202 net.cpp:137] Memory required for data: 602368
I0502 00:31:03.544178 19202 layer_factory.hpp:77] Creating layer conv1
I0502 00:31:03.544208 19202 net.cpp:84] Creating Layer conv1
I0502 00:31:03.544215 19202 net.cpp:406] conv1 <- data
I0502 00:31:03.544232 19202 net.cpp:380] conv1 -> conv1
I0502 00:31:03.545254 19202 net.cpp:122] Setting up conv1
I0502 00:31:03.545271 19202 net.cpp:129] Top shape: 64 20 24 24 (737280)
I0502 00:31:03.545275 19202 net.cpp:137] Memory required for data: 3551488
I0502 00:31:03.545295 19202 layer_factory.hpp:77] Creating layer pool1
I0502 00:31:03.545310 19202 net.cpp:84] Creating Layer pool1
I0502 00:31:03.545326 19202 net.cpp:406] pool1 <- conv1
I0502 00:31:03.545336 19202 net.cpp:380] pool1 -> pool1
I0502 00:31:03.545384 19202 net.cpp:122] Setting up pool1
I0502 00:31:03.545392 19202 net.cpp:129] Top shape: 64 20 12 12 (184320)
I0502 00:31:03.545395 19202 net.cpp:137] Memory required for data: 4288768
I0502 00:31:03.545399 19202 layer_factory.hpp:77] Creating layer conv2
I0502 00:31:03.545411 19202 net.cpp:84] Creating Layer conv2
I0502 00:31:03.545416 19202 net.cpp:406] conv2 <- pool1
I0502 00:31:03.545425 19202 net.cpp:380] conv2 -> conv2
I0502 00:31:03.546452 19202 net.cpp:122] Setting up conv2
I0502 00:31:03.546465 19202 net.cpp:129] Top shape: 64 50 8 8 (204800)
I0502 00:31:03.546469 19202 net.cpp:137] Memory required for data: 5107968
I0502 00:31:03.546481 19202 layer_factory.hpp:77] Creating layer pool2
I0502 00:31:03.546492 19202 net.cpp:84] Creating Layer pool2
I0502 00:31:03.546499 19202 net.cpp:406] pool2 <- conv2
I0502 00:31:03.546507 19202 net.cpp:380] pool2 -> pool2
I0502 00:31:03.546535 19202 net.cpp:122] Setting up pool2
I0502 00:31:03.546540 19202 net.cpp:129] Top shape: 64 50 4 4 (51200)
I0502 00:31:03.546542 19202 net.cpp:137] Memory required for data: 5312768
I0502 00:31:03.546545 19202 layer_factory.hpp:77] Creating layer ip1
I0502 00:31:03.546551 19202 net.cpp:84] Creating Layer ip1
I0502 00:31:03.546555 19202 net.cpp:406] ip1 <- pool2
I0502 00:31:03.546560 19202 net.cpp:380] ip1 -> ip1
I0502 00:31:03.549123 19202 net.cpp:122] Setting up ip1
I0502 00:31:03.549139 19202 net.cpp:129] Top shape: 64 500 (32000)
I0502 00:31:03.549145 19202 net.cpp:137] Memory required for data: 5440768
I0502 00:31:03.549161 19202 layer_factory.hpp:77] Creating layer relu1
I0502 00:31:03.549175 19202 net.cpp:84] Creating Layer relu1
I0502 00:31:03.549181 19202 net.cpp:406] relu1 <- ip1
I0502 00:31:03.549190 19202 net.cpp:367] relu1 -> ip1 (in-place)
I0502 00:31:03.549201 19202 net.cpp:122] Setting up relu1
I0502 00:31:03.549207 19202 net.cpp:129] Top shape: 64 500 (32000)
I0502 00:31:03.549211 19202 net.cpp:137] Memory required for data: 5568768
I0502 00:31:03.549218 19202 layer_factory.hpp:77] Creating layer ip2
I0502 00:31:03.549226 19202 net.cpp:84] Creating Layer ip2
I0502 00:31:03.549230 19202 net.cpp:406] ip2 <- ip1
I0502 00:31:03.549239 19202 net.cpp:380] ip2 -> ip2
I0502 00:31:03.549444 19202 net.cpp:122] Setting up ip2
I0502 00:31:03.549451 19202 net.cpp:129] Top shape: 64 52 (3328)
I0502 00:31:03.549454 19202 net.cpp:137] Memory required for data: 5582080
I0502 00:31:03.549463 19202 layer_factory.hpp:77] Creating layer loss
I0502 00:31:03.549474 19202 net.cpp:84] Creating Layer loss
I0502 00:31:03.549479 19202 net.cpp:406] loss <- ip2
I0502 00:31:03.549484 19202 net.cpp:406] loss <- label
I0502 00:31:03.549494 19202 net.cpp:380] loss -> loss
I0502 00:31:03.549507 19202 layer_factory.hpp:77] Creating layer loss
…
I0502 00:31:03.549826 19202 solver.cpp:190] Creating test net (#0) specified by net file: models/sp_final_lenet/lenet_train_val.prototxt
I0502 00:31:03.549870 19202 net.cpp:294] The NetState phase (1) differed from the phase (0) specified by a rule in layer data
I0502 00:31:03.549942 19202 net.cpp:51] Initializing net from parameters: 
name: "LeNet"
state {
  phase: TEST
}
layer {
  name: "data"
  type: "Data"
  top: "data"
  top: "label"
  include {
    phase: TEST
  }
  transform_param {
    scale: 0.00390625
  }
  data_param {
    source: "examples/final_sp/sp_val_lmdb"
    batch_size: 64
    backend: LMDB
  }
}
layer {
  name: "conv1"
  type: "Convolution"
  bottom: "data"
  top: "conv1"
  param {
    lr_mult: 1
  }
  param {
    lr_mult: 2
  }
  convolution_param {
    num_output: 20
    kernel_size: 5
    stride: 1
    weight_filler {
      type: "xavier"
    }
    bias_filler {
      type: "constant"
    }
  }
}
layer {
  name: "pool1"
  type: "Pooling"
  bottom: "conv1"
  top: "pool1"
  pooling_param {
    pool: MAX
    kernel_size: 2
    stride: 2
  }
}
layer {
  name: "conv2"
  type: "Convolution"
  bottom: "pool1"
  top: "conv2"
  param {
    lr_mult: 1
  }
  param {
    lr_mult: 2
  }
  convolution_param {
    num_output: 50
    kernel_size: 5
    stride: 1
    weight_filler {
      type: "xavier"
    }
    bias_filler {
      type: "constant"
    }
  }
}
layer {
  name: "pool2"
  type: "Pooling"
  bottom: "conv2"
  top: "pool2"
  pooling_param {
    pool: MAX
    kernel_size: 2
    stride: 2
  }
}
layer {
  name: "ip1"
  type: "InnerProduct"
  bottom: "pool2"
  top: "ip1"
  param {
    lr_mult: 1
  }
  param {
    lr_mult: 2
  }
  inner_product_param {
    num_output: 500
    weight_filler {
      type: "xavier"
    }
    bias_filler {
      type: "constant"
    }
  }
}
layer {
  name: "relu1"
  type: "ReLU"
  bottom: "ip1"
  top: "ip1"
}
layer {
  name: "ip2"
  type: "InnerProduct"
  bottom: "ip1"
  top: "ip2"
  param {
    lr_mult: 1
  }
  param {
    lr_mult: 2
  }
  inner_product_param {
    num_output: 52
    weight_filler {
      type: "xavier"
    }
    bias_filler {
      type: "constant"
    }
  }
}
layer {
  name: "accuracy"
  type: "Accuracy"
  bottom: "ip2"
  bottom: "label"
  top: "accuracy"
  include {
    phase: TEST
  }
}
layer {
  name: "loss"
  type: "SoftmaxWithLoss"
  bottom: "ip2"
  bottom: "label"
  top: "loss"
}
I0502 00:31:03.550009 19202 layer_factory.hpp:77] Creating layer data
I0502 00:31:03.550065 19202 db_lmdb.cpp:35] Opened lmdb examples/final_sp/sp_val_lmdb
I0502 00:31:03.550081 19202 net.cpp:84] Creating Layer data
I0502 00:31:03.550088 19202 net.cpp:380] data -> data
I0502 00:31:03.550099 19202 net.cpp:380] data -> label
I0502 00:31:03.550173 19202 data_layer.cpp:45] output data size: 64,3,28,28
I0502 00:31:03.556017 19202 net.cpp:122] Setting up data
I0502 00:31:03.556044 19202 net.cpp:129] Top shape: 64 3 28 28 (150528)
I0502 00:31:03.556051 19202 net.cpp:129] Top shape: 64 (64)
I0502 00:31:03.556056 19202 net.cpp:137] Memory required for data: 602368
I0502 00:31:03.556061 19202 layer_factory.hpp:77] Creating layer label_data_1_split
I0502 00:31:03.556077 19202 net.cpp:84] Creating Layer label_data_1_split
I0502 00:31:03.556082 19202 net.cpp:406] label_data_1_split <- label
I0502 00:31:03.556094 19202 net.cpp:380] label_data_1_split -> label_data_1_split_0
I0502 00:31:03.556107 19202 net.cpp:380] label_data_1_split -> label_data_1_split_1
I0502 00:31:03.556154 19202 net.cpp:122] Setting up label_data_1_split
I0502 00:31:03.556164 19202 net.cpp:129] Top shape: 64 (64)
I0502 00:31:03.556167 19202 net.cpp:129] Top shape: 64 (64)
I0502 00:31:03.556172 19202 net.cpp:137] Memory required for data: 602880
I0502 00:31:03.556176 19202 layer_factory.hpp:77] Creating layer conv1
I0502 00:31:03.556190 19202 net.cpp:84] Creating Layer conv1
I0502 00:31:03.556195 19202 net.cpp:406] conv1 <- data
I0502 00:31:03.556203 19202 net.cpp:380] conv1 -> conv1
I0502 00:31:03.556417 19202 net.cpp:122] Setting up conv1
I0502 00:31:03.556426 19202 net.cpp:129] Top shape: 64 20 24 24 (737280)
I0502 00:31:03.556430 19202 net.cpp:137] Memory required for data: 3552000
I0502 00:31:03.556440 19202 layer_factory.hpp:77] Creating layer pool1
I0502 00:31:03.556462 19202 net.cpp:84] Creating Layer pool1
I0502 00:31:03.556465 19202 net.cpp:406] pool1 <- conv1
I0502 00:31:03.556470 19202 net.cpp:380] pool1 -> pool1
I0502 00:31:03.556506 19202 net.cpp:122] Setting up pool1
I0502 00:31:03.556514 19202 net.cpp:129] Top shape: 64 20 12 12 (184320)
I0502 00:31:03.556517 19202 net.cpp:137] Memory required for data: 4289280
I0502 00:31:03.556521 19202 layer_factory.hpp:77] Creating layer conv2
I0502 00:31:03.556532 19202 net.cpp:84] Creating Layer conv2
I0502 00:31:03.556536 19202 net.cpp:406] conv2 <- pool1
I0502 00:31:03.556543 19202 net.cpp:380] conv2 -> conv2
I0502 00:31:03.557308 19202 net.cpp:122] Setting up conv2
I0502 00:31:03.557318 19202 net.cpp:129] Top shape: 64 50 8 8 (204800)
I0502 00:31:03.557322 19202 net.cpp:137] Memory required for data: 5108480
I0502 00:31:03.557332 19202 layer_factory.hpp:77] Creating layer pool2
I0502 00:31:03.557341 19202 net.cpp:84] Creating Layer pool2
I0502 00:31:03.557345 19202 net.cpp:406] pool2 <- conv2
I0502 00:31:03.557351 19202 net.cpp:380] pool2 -> pool2
I0502 00:31:03.557387 19202 net.cpp:122] Setting up pool2
I0502 00:31:03.557394 19202 net.cpp:129] Top shape: 64 50 4 4 (51200)
I0502 00:31:03.557397 19202 net.cpp:137] Memory required for data: 5313280
I0502 00:31:03.557400 19202 layer_factory.hpp:77] Creating layer ip1
I0502 00:31:03.557407 19202 net.cpp:84] Creating Layer ip1
I0502 00:31:03.557412 19202 net.cpp:406] ip1 <- pool2
I0502 00:31:03.557420 19202 net.cpp:380] ip1 -> ip1
I0502 00:31:03.561159 19202 net.cpp:122] Setting up ip1
I0502 00:31:03.561177 19202 net.cpp:129] Top shape: 64 500 (32000)
I0502 00:31:03.561180 19202 net.cpp:137] Memory required for data: 5441280
I0502 00:31:03.561192 19202 layer_factory.hpp:77] Creating layer relu1
I0502 00:31:03.561200 19202 net.cpp:84] Creating Layer relu1
I0502 00:31:03.561204 19202 net.cpp:406] relu1 <- ip1
I0502 00:31:03.561213 19202 net.cpp:367] relu1 -> ip1 (in-place)
I0502 00:31:03.561223 19202 net.cpp:122] Setting up relu1
I0502 00:31:03.561228 19202 net.cpp:129] Top shape: 64 500 (32000)
I0502 00:31:03.561231 19202 net.cpp:137] Memory required for data: 5569280
I0502 00:31:03.561234 19202 layer_factory.hpp:77] Creating layer ip2
I0502 00:31:03.561245 19202 net.cpp:84] Creating Layer ip2
I0502 00:31:03.561249 19202 net.cpp:406] ip2 <- ip1
I0502 00:31:03.561256 19202 net.cpp:380] ip2 -> ip2
I0502 00:31:03.561542 19202 net.cpp:122] Setting up ip2
I0502 00:31:03.561552 19202 net.cpp:129] Top shape: 64 52 (3328)
I0502 00:31:03.561555 19202 net.cpp:137] Memory required for data: 5582592
I0502 00:31:03.561563 19202 layer_factory.hpp:77] Creating layer ip2_ip2_0_split
I0502 00:31:03.561570 19202 net.cpp:84] Creating Layer ip2_ip2_0_split
I0502 00:31:03.561573 19202 net.cpp:406] ip2_ip2_0_split <- ip2
I0502 00:31:03.561581 19202 net.cpp:380] ip2_ip2_0_split -> ip2_ip2_0_split_0
I0502 00:31:03.561589 19202 net.cpp:380] ip2_ip2_0_split -> ip2_ip2_0_split_1
I0502 00:31:03.561976 19202 net.cpp:122] Setting up ip2_ip2_0_split
I0502 00:31:03.561985 19202 net.cpp:129] Top shape: 64 52 (3328)
I0502 00:31:03.561990 19202 net.cpp:129] Top shape: 64 52 (3328)
I0502 00:31:03.561992 19202 net.cpp:137] Memory required for data: 5609216
I0502 00:31:03.561996 19202 layer_factory.hpp:77] Creating layer accuracy
I0502 00:31:03.562003 19202 net.cpp:84] Creating Layer accuracy
I0502 00:31:03.562008 19202 net.cpp:406] accuracy <- ip2_ip2_0_split_0
I0502 00:31:03.562013 19202 net.cpp:406] accuracy <- label_data_1_split_0
I0502 00:31:03.562021 19202 net.cpp:380] accuracy -> accuracy
…
