…
I0502 00:13:25.147792 19093 net.cpp:294] The NetState phase (0) differed from the phase (1) specified by a rule in layer data
I0502 00:13:25.147802 19093 net.cpp:294] The NetState phase (0) differed from the phase (1) specified by a rule in layer accuracy
I0502 00:13:25.147864 19093 net.cpp:51] Initializing net from parameters: 
name: "LeNet"
state {
  phase: TRAIN
  level: 0
  stage: ""
}
layer {
  name: "data"
  type: "Data"
  top: "data"
  top: "label"
  include {
    phase: TRAIN
  }
  transform_param {
    scale: 0.00390625
  }
  data_param {
    source: "examples/final_sp/sp_train_lmdb"
    batch_size: 64
    backend: LMDB
  }
}
layer {
  name: "conv1"
  type: "Convolution"
  bottom: "data"
  top: "conv1"
  param {
    lr_mult: 1
  }
  param {
    lr_mult: 2
  }
  convolution_param {
    num_output: 20
    kernel_size: 5
    stride: 1
    weight_filler {
      type: "xavier"
    }
    bias_filler {
      type: "constant"
    }
  }
}
layer {
  name: "pool1"
  type: "Pooling"
  bottom: "conv1"
  top: "pool1"
  pooling_param {
    pool: MAX
    kernel_size: 2
    stride: 2
  }
}
layer {
  name: "conv2"
  type: "Convolution"
  bottom: "pool1"
  top: "conv2"
  param {
    lr_mult: 1
  }
  param {
    lr_mult: 2
  }
  convolution_param {
    num_output: 50
    kernel_size: 5
    stride: 1
    weight_filler {
      type: "xavier"
    }
    bias_filler {
      type: "constant"
    }
  }
}
layer {
  name: "pool2"
  type: "Pooling"
  bottom: "conv2"
  top: "pool2"
  pooling_param {
    pool: MAX
    kernel_size: 2
    stride: 2
  }
}
layer {
  name: "ip1"
  type: "InnerProduct"
  bottom: "pool2"
  top: "ip1"
  param {
    lr_mult: 1
  }
  param {
    lr_mult: 2
  }
  inner_product_param {
    num_output: 500
    weight_filler {
      type: "xavier"
    }
    bias_filler {
      type: "constant"
    }
  }
}
layer {
  name: "relu1"
  type: "ReLU"
  bottom: "ip1"
  top: "ip1"
}
layer {
  name: "ip2"
  type: "InnerProduct"
  bottom: "ip1"
  top: "ip2"
  param {
    lr_mult: 1
  }
  param {
    lr_mult: 2
  }
  inner_product_param {
    num_output: 52
    weight_filler {
      type: "xavier"
    }
    bias_filler {
      type: "constant"
    }
  }
}
layer {
  name: "loss"
  type: "SoftmaxWithLoss"
  bottom: "ip2"
  bottom: "label"
  top: "loss"
}
I0502 00:13:25.147918 19093 layer_factory.hpp:77] Creating layer data
I0502 00:13:25.148030 19093 db_lmdb.cpp:35] Opened lmdb examples/final_sp/sp_train_lmdb
I0502 00:13:25.148048 19093 net.cpp:84] Creating Layer data
I0502 00:13:25.148056 19093 net.cpp:380] data -> data
I0502 00:13:25.148074 19093 net.cpp:380] data -> label
I0502 00:13:25.148593 19093 data_layer.cpp:45] output data size: 64,3,28,28
I0502 00:13:25.152595 19093 net.cpp:122] Setting up data
I0502 00:13:25.152623 19093 net.cpp:129] Top shape: 64 3 28 28 (150528)
I0502 00:13:25.152631 19093 net.cpp:129] Top shape: 64 (64)
I0502 00:13:25.152634 19093 net.cpp:137] Memory required for data: 602368
I0502 00:13:25.152647 19093 layer_factory.hpp:77] Creating layer conv1
I0502 00:13:25.152688 19093 net.cpp:84] Creating Layer conv1
I0502 00:13:25.152695 19093 net.cpp:406] conv1 <- data
I0502 00:13:25.152712 19093 net.cpp:380] conv1 -> conv1
I0502 00:13:25.153668 19093 net.cpp:122] Setting up conv1
I0502 00:13:25.153683 19093 net.cpp:129] Top shape: 64 20 24 24 (737280)
I0502 00:13:25.153687 19093 net.cpp:137] Memory required for data: 3551488
I0502 00:13:25.153709 19093 layer_factory.hpp:77] Creating layer pool1
I0502 00:13:25.153722 19093 net.cpp:84] Creating Layer pool1
I0502 00:13:25.153748 19093 net.cpp:406] pool1 <- conv1
I0502 00:13:25.153759 19093 net.cpp:380] pool1 -> pool1
I0502 00:13:25.153812 19093 net.cpp:122] Setting up pool1
I0502 00:13:25.153823 19093 net.cpp:129] Top shape: 64 20 12 12 (184320)
I0502 00:13:25.153828 19093 net.cpp:137] Memory required for data: 4288768
I0502 00:13:25.153832 19093 layer_factory.hpp:77] Creating layer conv2
I0502 00:13:25.153842 19093 net.cpp:84] Creating Layer conv2
I0502 00:13:25.153847 19093 net.cpp:406] conv2 <- pool1
I0502 00:13:25.153856 19093 net.cpp:380] conv2 -> conv2
I0502 00:13:25.154901 19093 net.cpp:122] Setting up conv2
I0502 00:13:25.154916 19093 net.cpp:129] Top shape: 64 50 8 8 (204800)
I0502 00:13:25.154920 19093 net.cpp:137] Memory required for data: 5107968
I0502 00:13:25.154932 19093 layer_factory.hpp:77] Creating layer pool2
I0502 00:13:25.154939 19093 net.cpp:84] Creating Layer pool2
I0502 00:13:25.154943 19093 net.cpp:406] pool2 <- conv2
I0502 00:13:25.154950 19093 net.cpp:380] pool2 -> pool2
I0502 00:13:25.155009 19093 net.cpp:122] Setting up pool2
I0502 00:13:25.155019 19093 net.cpp:129] Top shape: 64 50 4 4 (51200)
I0502 00:13:25.155022 19093 net.cpp:137] Memory required for data: 5312768
I0502 00:13:25.155026 19093 layer_factory.hpp:77] Creating layer ip1
I0502 00:13:25.155037 19093 net.cpp:84] Creating Layer ip1
I0502 00:13:25.155040 19093 net.cpp:406] ip1 <- pool2
I0502 00:13:25.155045 19093 net.cpp:380] ip1 -> ip1
I0502 00:13:25.157629 19093 net.cpp:122] Setting up ip1
I0502 00:13:25.157644 19093 net.cpp:129] Top shape: 64 500 (32000)
I0502 00:13:25.157655 19093 net.cpp:137] Memory required for data: 5440768
I0502 00:13:25.157687 19093 layer_factory.hpp:77] Creating layer relu1
I0502 00:13:25.157697 19093 net.cpp:84] Creating Layer relu1
I0502 00:13:25.157701 19093 net.cpp:406] relu1 <- ip1
I0502 00:13:25.157708 19093 net.cpp:367] relu1 -> ip1 (in-place)
I0502 00:13:25.157717 19093 net.cpp:122] Setting up relu1
I0502 00:13:25.157721 19093 net.cpp:129] Top shape: 64 500 (32000)
I0502 00:13:25.157724 19093 net.cpp:137] Memory required for data: 5568768
I0502 00:13:25.157729 19093 layer_factory.hpp:77] Creating layer ip2
I0502 00:13:25.157738 19093 net.cpp:84] Creating Layer ip2
I0502 00:13:25.157742 19093 net.cpp:406] ip2 <- ip1
I0502 00:13:25.157748 19093 net.cpp:380] ip2 -> ip2
I0502 00:13:25.158066 19093 net.cpp:122] Setting up ip2
I0502 00:13:25.158073 19093 net.cpp:129] Top shape: 64 52 (3328)
I0502 00:13:25.158077 19093 net.cpp:137] Memory required for data: 5582080
I0502 00:13:25.158084 19093 layer_factory.hpp:77] Creating layer loss
I0502 00:13:25.158093 19093 net.cpp:84] Creating Layer loss
I0502 00:13:25.158097 19093 net.cpp:406] loss <- ip2
I0502 00:13:25.158102 19093 net.cpp:406] loss <- label
I0502 00:13:25.158109 19093 net.cpp:380] loss -> loss
I0502 00:13:25.158125 19093 layer_factory.hpp:77] Creating layer loss
…
I0502 00:13:25.158501 19093 solver.cpp:190] Creating test net (#0) specified by net file: models/sp_final_lenet/lenet_train_val.prototxt
I0502 00:13:25.158569 19093 net.cpp:294] The NetState phase (1) differed from the phase (0) specified by a rule in layer data
I0502 00:13:25.158679 19093 net.cpp:51] Initializing net from parameters: 
name: "LeNet"
state {
  phase: TEST
}
layer {
  name: "data"
  type: "Data"
  top: "data"
  top: "label"
  include {
    phase: TEST
  }
  transform_param {
    scale: 0.00390625
  }
  data_param {
    source: "examples/final_sp/sp_val_lmdb"
    batch_size: 64
    backend: LMDB
  }
}
layer {
  name: "conv1"
  type: "Convolution"
  bottom: "data"
  top: "conv1"
  param {
    lr_mult: 1
  }
  param {
    lr_mult: 2
  }
  convolution_param {
    num_output: 20
    kernel_size: 5
    stride: 1
    weight_filler {
      type: "xavier"
    }
    bias_filler {
      type: "constant"
    }
  }
}
layer {
  name: "pool1"
  type: "Pooling"
  bottom: "conv1"
  top: "pool1"
  pooling_param {
    pool: MAX
    kernel_size: 2
    stride: 2
  }
}
layer {
  name: "conv2"
  type: "Convolution"
  bottom: "pool1"
  top: "conv2"
  param {
    lr_mult: 1
  }
  param {
    lr_mult: 2
  }
  convolution_param {
    num_output: 50
    kernel_size: 5
    stride: 1
    weight_filler {
      type: "xavier"
    }
    bias_filler {
      type: "constant"
    }
  }
}
layer {
  name: "pool2"
  type: "Pooling"
  bottom: "conv2"
  top: "pool2"
  pooling_param {
    pool: MAX
    kernel_size: 2
    stride: 2
  }
}
layer {
  name: "ip1"
  type: "InnerProduct"
  bottom: "pool2"
  top: "ip1"
  param {
    lr_mult: 1
  }
  param {
    lr_mult: 2
  }
  inner_product_param {
    num_output: 500
    weight_filler {
      type: "xavier"
    }
    bias_filler {
      type: "constant"
    }
  }
}
layer {
  name: "relu1"
  type: "ReLU"
  bottom: "ip1"
  top: "ip1"
}
layer {
  name: "ip2"
  type: "InnerProduct"
  bottom: "ip1"
  top: "ip2"
  param {
    lr_mult: 1
  }
  param {
    lr_mult: 2
  }
  inner_product_param {
    num_output: 52
    weight_filler {
      type: "xavier"
    }
    bias_filler {
      type: "constant"
    }
  }
}
layer {
  name: "accuracy"
  type: "Accuracy"
  bottom: "ip2"
  bottom: "label"
  top: "accuracy"
  include {
    phase: TEST
  }
}
layer {
  name: "loss"
  type: "SoftmaxWithLoss"
  bottom: "ip2"
  bottom: "label"
  top: "loss"
}
I0502 00:13:25.158762 19093 layer_factory.hpp:77] Creating layer data
I0502 00:13:25.158828 19093 db_lmdb.cpp:35] Opened lmdb examples/final_sp/sp_val_lmdb
I0502 00:13:25.158844 19093 net.cpp:84] Creating Layer data
I0502 00:13:25.158851 19093 net.cpp:380] data -> data
I0502 00:13:25.158859 19093 net.cpp:380] data -> label
I0502 00:13:25.158993 19093 data_layer.cpp:45] output data size: 64,3,28,28
I0502 00:13:25.164343 19093 net.cpp:122] Setting up data
I0502 00:13:25.164369 19093 net.cpp:129] Top shape: 64 3 28 28 (150528)
I0502 00:13:25.164374 19093 net.cpp:129] Top shape: 64 (64)
I0502 00:13:25.164377 19093 net.cpp:137] Memory required for data: 602368
I0502 00:13:25.164384 19093 layer_factory.hpp:77] Creating layer label_data_1_split
I0502 00:13:25.164402 19093 net.cpp:84] Creating Layer label_data_1_split
I0502 00:13:25.164405 19093 net.cpp:406] label_data_1_split <- label
I0502 00:13:25.164414 19093 net.cpp:380] label_data_1_split -> label_data_1_split_0
I0502 00:13:25.164427 19093 net.cpp:380] label_data_1_split -> label_data_1_split_1
I0502 00:13:25.164479 19093 net.cpp:122] Setting up label_data_1_split
I0502 00:13:25.164485 19093 net.cpp:129] Top shape: 64 (64)
I0502 00:13:25.164489 19093 net.cpp:129] Top shape: 64 (64)
I0502 00:13:25.164490 19093 net.cpp:137] Memory required for data: 602880
I0502 00:13:25.164492 19093 layer_factory.hpp:77] Creating layer conv1
I0502 00:13:25.164503 19093 net.cpp:84] Creating Layer conv1
I0502 00:13:25.164507 19093 net.cpp:406] conv1 <- data
I0502 00:13:25.164515 19093 net.cpp:380] conv1 -> conv1
I0502 00:13:25.164734 19093 net.cpp:122] Setting up conv1
I0502 00:13:25.164742 19093 net.cpp:129] Top shape: 64 20 24 24 (737280)
I0502 00:13:25.164746 19093 net.cpp:137] Memory required for data: 3552000
I0502 00:13:25.164757 19093 layer_factory.hpp:77] Creating layer pool1
I0502 00:13:25.164778 19093 net.cpp:84] Creating Layer pool1
I0502 00:13:25.164784 19093 net.cpp:406] pool1 <- conv1
I0502 00:13:25.164793 19093 net.cpp:380] pool1 -> pool1
I0502 00:13:25.164824 19093 net.cpp:122] Setting up pool1
I0502 00:13:25.164832 19093 net.cpp:129] Top shape: 64 20 12 12 (184320)
I0502 00:13:25.164837 19093 net.cpp:137] Memory required for data: 4289280
I0502 00:13:25.164841 19093 layer_factory.hpp:77] Creating layer conv2
I0502 00:13:25.164852 19093 net.cpp:84] Creating Layer conv2
I0502 00:13:25.164857 19093 net.cpp:406] conv2 <- pool1
I0502 00:13:25.164865 19093 net.cpp:380] conv2 -> conv2
I0502 00:13:25.165139 19093 net.cpp:122] Setting up conv2
I0502 00:13:25.165146 19093 net.cpp:129] Top shape: 64 50 8 8 (204800)
I0502 00:13:25.165149 19093 net.cpp:137] Memory required for data: 5108480
I0502 00:13:25.165159 19093 layer_factory.hpp:77] Creating layer pool2
I0502 00:13:25.165166 19093 net.cpp:84] Creating Layer pool2
I0502 00:13:25.165170 19093 net.cpp:406] pool2 <- conv2
I0502 00:13:25.165179 19093 net.cpp:380] pool2 -> pool2
I0502 00:13:25.165241 19093 net.cpp:122] Setting up pool2
I0502 00:13:25.165247 19093 net.cpp:129] Top shape: 64 50 4 4 (51200)
I0502 00:13:25.165249 19093 net.cpp:137] Memory required for data: 5313280
I0502 00:13:25.165253 19093 layer_factory.hpp:77] Creating layer ip1
I0502 00:13:25.165262 19093 net.cpp:84] Creating Layer ip1
I0502 00:13:25.165267 19093 net.cpp:406] ip1 <- pool2
I0502 00:13:25.165275 19093 net.cpp:380] ip1 -> ip1
I0502 00:13:25.168294 19093 net.cpp:122] Setting up ip1
I0502 00:13:25.168315 19093 net.cpp:129] Top shape: 64 500 (32000)
I0502 00:13:25.168319 19093 net.cpp:137] Memory required for data: 5441280
I0502 00:13:25.168334 19093 layer_factory.hpp:77] Creating layer relu1
I0502 00:13:25.168342 19093 net.cpp:84] Creating Layer relu1
I0502 00:13:25.168346 19093 net.cpp:406] relu1 <- ip1
I0502 00:13:25.168354 19093 net.cpp:367] relu1 -> ip1 (in-place)
I0502 00:13:25.168361 19093 net.cpp:122] Setting up relu1
I0502 00:13:25.168366 19093 net.cpp:129] Top shape: 64 500 (32000)
I0502 00:13:25.168370 19093 net.cpp:137] Memory required for data: 5569280
I0502 00:13:25.168375 19093 layer_factory.hpp:77] Creating layer ip2
I0502 00:13:25.168386 19093 net.cpp:84] Creating Layer ip2
I0502 00:13:25.168391 19093 net.cpp:406] ip2 <- ip1
I0502 00:13:25.168400 19093 net.cpp:380] ip2 -> ip2
I0502 00:13:25.168597 19093 net.cpp:122] Setting up ip2
I0502 00:13:25.168604 19093 net.cpp:129] Top shape: 64 52 (3328)
I0502 00:13:25.168607 19093 net.cpp:137] Memory required for data: 5582592
I0502 00:13:25.168614 19093 layer_factory.hpp:77] Creating layer ip2_ip2_0_split
I0502 00:13:25.168620 19093 net.cpp:84] Creating Layer ip2_ip2_0_split
I0502 00:13:25.168624 19093 net.cpp:406] ip2_ip2_0_split <- ip2
I0502 00:13:25.168632 19093 net.cpp:380] ip2_ip2_0_split -> ip2_ip2_0_split_0
I0502 00:13:25.168642 19093 net.cpp:380] ip2_ip2_0_split -> ip2_ip2_0_split_1
I0502 00:13:25.168678 19093 net.cpp:122] Setting up ip2_ip2_0_split
I0502 00:13:25.168684 19093 net.cpp:129] Top shape: 64 52 (3328)
I0502 00:13:25.168687 19093 net.cpp:129] Top shape: 64 52 (3328)
I0502 00:13:25.168690 19093 net.cpp:137] Memory required for data: 5609216
I0502 00:13:25.168694 19093 layer_factory.hpp:77] Creating layer accuracy
I0502 00:13:25.168704 19093 net.cpp:84] Creating Layer accuracy
I0502 00:13:25.168709 19093 net.cpp:406] accuracy <- ip2_ip2_0_split_0
I0502 00:13:25.168714 19093 net.cpp:406] accuracy <- label_data_1_split_0
I0502 00:13:25.168721 19093 net.cpp:380] accuracy -> accuracy
…
