…
I0502 00:22:50.541370 19157 net.cpp:294] The NetState phase (0) differed from the phase (1) specified by a rule in layer data
I0502 00:22:50.541381 19157 net.cpp:294] The NetState phase (0) differed from the phase (1) specified by a rule in layer accuracy
I0502 00:22:50.541447 19157 net.cpp:51] Initializing net from parameters: 
name: "LeNet"
state {
  phase: TRAIN
  level: 0
  stage: ""
}
layer {
  name: "data"
  type: "Data"
  top: "data"
  top: "label"
  include {
    phase: TRAIN
  }
  transform_param {
    scale: 0.00390625
  }
  data_param {
    source: "examples/final_sp/sp_train_lmdb"
    batch_size: 64
    backend: LMDB
  }
}
layer {
  name: "conv1"
  type: "Convolution"
  bottom: "data"
  top: "conv1"
  param {
    lr_mult: 1
  }
  param {
    lr_mult: 2
  }
  convolution_param {
    num_output: 20
    kernel_size: 5
    stride: 1
    weight_filler {
      type: "xavier"
    }
    bias_filler {
      type: "constant"
    }
  }
}
layer {
  name: "pool1"
  type: "Pooling"
  bottom: "conv1"
  top: "pool1"
  pooling_param {
    pool: MAX
    kernel_size: 2
    stride: 2
  }
}
layer {
  name: "conv2"
  type: "Convolution"
  bottom: "pool1"
  top: "conv2"
  param {
    lr_mult: 1
  }
  param {
    lr_mult: 2
  }
  convolution_param {
    num_output: 50
    kernel_size: 5
    stride: 1
    weight_filler {
      type: "xavier"
    }
    bias_filler {
      type: "constant"
    }
  }
}
layer {
  name: "pool2"
  type: "Pooling"
  bottom: "conv2"
  top: "pool2"
  pooling_param {
    pool: MAX
    kernel_size: 2
    stride: 2
  }
}
layer {
  name: "ip1"
  type: "InnerProduct"
  bottom: "pool2"
  top: "ip1"
  param {
    lr_mult: 1
  }
  param {
    lr_mult: 2
  }
  inner_product_param {
    num_output: 500
    weight_filler {
      type: "xavier"
    }
    bias_filler {
      type: "constant"
    }
  }
}
layer {
  name: "relu1"
  type: "ReLU"
  bottom: "ip1"
  top: "ip1"
}
layer {
  name: "ip2"
  type: "InnerProduct"
  bottom: "ip1"
  top: "ip2"
  param {
    lr_mult: 1
  }
  param {
    lr_mult: 2
  }
  inner_product_param {
    num_output: 52
    weight_filler {
      type: "xavier"
    }
    bias_filler {
      type: "constant"
    }
  }
}
layer {
  name: "loss"
  type: "SoftmaxWithLoss"
  bottom: "ip2"
  bottom: "label"
  top: "loss"
}
I0502 00:22:50.541491 19157 layer_factory.hpp:77] Creating layer data
I0502 00:22:50.541589 19157 db_lmdb.cpp:35] Opened lmdb examples/final_sp/sp_train_lmdb
I0502 00:22:50.541613 19157 net.cpp:84] Creating Layer data
I0502 00:22:50.541622 19157 net.cpp:380] data -> data
I0502 00:22:50.541641 19157 net.cpp:380] data -> label
I0502 00:22:50.542181 19157 data_layer.cpp:45] output data size: 64,3,28,28
I0502 00:22:50.546078 19157 net.cpp:122] Setting up data
I0502 00:22:50.546109 19157 net.cpp:129] Top shape: 64 3 28 28 (150528)
I0502 00:22:50.546115 19157 net.cpp:129] Top shape: 64 (64)
I0502 00:22:50.546118 19157 net.cpp:137] Memory required for data: 602368
I0502 00:22:50.546133 19157 layer_factory.hpp:77] Creating layer conv1
I0502 00:22:50.546162 19157 net.cpp:84] Creating Layer conv1
I0502 00:22:50.546169 19157 net.cpp:406] conv1 <- data
I0502 00:22:50.546183 19157 net.cpp:380] conv1 -> conv1
I0502 00:22:50.547703 19157 net.cpp:122] Setting up conv1
I0502 00:22:50.547719 19157 net.cpp:129] Top shape: 64 20 24 24 (737280)
I0502 00:22:50.547722 19157 net.cpp:137] Memory required for data: 3551488
I0502 00:22:50.547746 19157 layer_factory.hpp:77] Creating layer pool1
I0502 00:22:50.547760 19157 net.cpp:84] Creating Layer pool1
I0502 00:22:50.547780 19157 net.cpp:406] pool1 <- conv1
I0502 00:22:50.547791 19157 net.cpp:380] pool1 -> pool1
I0502 00:22:50.547837 19157 net.cpp:122] Setting up pool1
I0502 00:22:50.547844 19157 net.cpp:129] Top shape: 64 20 12 12 (184320)
I0502 00:22:50.547848 19157 net.cpp:137] Memory required for data: 4288768
I0502 00:22:50.547852 19157 layer_factory.hpp:77] Creating layer conv2
I0502 00:22:50.547864 19157 net.cpp:84] Creating Layer conv2
I0502 00:22:50.547868 19157 net.cpp:406] conv2 <- pool1
I0502 00:22:50.547881 19157 net.cpp:380] conv2 -> conv2
I0502 00:22:50.548552 19157 net.cpp:122] Setting up conv2
I0502 00:22:50.548565 19157 net.cpp:129] Top shape: 64 50 8 8 (204800)
I0502 00:22:50.548569 19157 net.cpp:137] Memory required for data: 5107968
I0502 00:22:50.548580 19157 layer_factory.hpp:77] Creating layer pool2
I0502 00:22:50.548588 19157 net.cpp:84] Creating Layer pool2
I0502 00:22:50.548593 19157 net.cpp:406] pool2 <- conv2
I0502 00:22:50.548600 19157 net.cpp:380] pool2 -> pool2
I0502 00:22:50.548633 19157 net.cpp:122] Setting up pool2
I0502 00:22:50.548640 19157 net.cpp:129] Top shape: 64 50 4 4 (51200)
I0502 00:22:50.548645 19157 net.cpp:137] Memory required for data: 5312768
I0502 00:22:50.548648 19157 layer_factory.hpp:77] Creating layer ip1
I0502 00:22:50.548660 19157 net.cpp:84] Creating Layer ip1
I0502 00:22:50.548663 19157 net.cpp:406] ip1 <- pool2
I0502 00:22:50.548671 19157 net.cpp:380] ip1 -> ip1
I0502 00:22:50.550902 19157 net.cpp:122] Setting up ip1
I0502 00:22:50.550918 19157 net.cpp:129] Top shape: 64 500 (32000)
I0502 00:22:50.550922 19157 net.cpp:137] Memory required for data: 5440768
I0502 00:22:50.550936 19157 layer_factory.hpp:77] Creating layer relu1
I0502 00:22:50.550951 19157 net.cpp:84] Creating Layer relu1
I0502 00:22:50.550957 19157 net.cpp:406] relu1 <- ip1
I0502 00:22:50.550966 19157 net.cpp:367] relu1 -> ip1 (in-place)
I0502 00:22:50.550976 19157 net.cpp:122] Setting up relu1
I0502 00:22:50.550981 19157 net.cpp:129] Top shape: 64 500 (32000)
I0502 00:22:50.550984 19157 net.cpp:137] Memory required for data: 5568768
I0502 00:22:50.550988 19157 layer_factory.hpp:77] Creating layer ip2
I0502 00:22:50.550997 19157 net.cpp:84] Creating Layer ip2
I0502 00:22:50.551002 19157 net.cpp:406] ip2 <- ip1
I0502 00:22:50.551009 19157 net.cpp:380] ip2 -> ip2
I0502 00:22:50.551194 19157 net.cpp:122] Setting up ip2
I0502 00:22:50.551200 19157 net.cpp:129] Top shape: 64 52 (3328)
I0502 00:22:50.551204 19157 net.cpp:137] Memory required for data: 5582080
I0502 00:22:50.551213 19157 layer_factory.hpp:77] Creating layer loss
I0502 00:22:50.551223 19157 net.cpp:84] Creating Layer loss
I0502 00:22:50.551226 19157 net.cpp:406] loss <- ip2
I0502 00:22:50.551229 19157 net.cpp:406] loss <- label
I0502 00:22:50.551234 19157 net.cpp:380] loss -> loss
I0502 00:22:50.551249 19157 layer_factory.hpp:77] Creating layer loss
…
I0502 00:22:50.551601 19157 solver.cpp:190] Creating test net (#0) specified by net file: models/sp_final_lenet/lenet_train_val.prototxt
I0502 00:22:50.551640 19157 net.cpp:294] The NetState phase (1) differed from the phase (0) specified by a rule in layer data
I0502 00:22:50.551710 19157 net.cpp:51] Initializing net from parameters: 
name: "LeNet"
state {
  phase: TEST
}
layer {
  name: "data"
  type: "Data"
  top: "data"
  top: "label"
  include {
    phase: TEST
  }
  transform_param {
    scale: 0.00390625
  }
  data_param {
    source: "examples/final_sp/sp_val_lmdb"
    batch_size: 64
    backend: LMDB
  }
}
layer {
  name: "conv1"
  type: "Convolution"
  bottom: "data"
  top: "conv1"
  param {
    lr_mult: 1
  }
  param {
    lr_mult: 2
  }
  convolution_param {
    num_output: 20
    kernel_size: 5
    stride: 1
    weight_filler {
      type: "xavier"
    }
    bias_filler {
      type: "constant"
    }
  }
}
layer {
  name: "pool1"
  type: "Pooling"
  bottom: "conv1"
  top: "pool1"
  pooling_param {
    pool: MAX
    kernel_size: 2
    stride: 2
  }
}
layer {
  name: "conv2"
  type: "Convolution"
  bottom: "pool1"
  top: "conv2"
  param {
    lr_mult: 1
  }
  param {
    lr_mult: 2
  }
  convolution_param {
    num_output: 50
    kernel_size: 5
    stride: 1
    weight_filler {
      type: "xavier"
    }
    bias_filler {
      type: "constant"
    }
  }
}
layer {
  name: "pool2"
  type: "Pooling"
  bottom: "conv2"
  top: "pool2"
  pooling_param {
    pool: MAX
    kernel_size: 2
    stride: 2
  }
}
layer {
  name: "ip1"
  type: "InnerProduct"
  bottom: "pool2"
  top: "ip1"
  param {
    lr_mult: 1
  }
  param {
    lr_mult: 2
  }
  inner_product_param {
    num_output: 500
    weight_filler {
      type: "xavier"
    }
    bias_filler {
      type: "constant"
    }
  }
}
layer {
  name: "relu1"
  type: "ReLU"
  bottom: "ip1"
  top: "ip1"
}
layer {
  name: "ip2"
  type: "InnerProduct"
  bottom: "ip1"
  top: "ip2"
  param {
    lr_mult: 1
  }
  param {
    lr_mult: 2
  }
  inner_product_param {
    num_output: 52
    weight_filler {
      type: "xavier"
    }
    bias_filler {
      type: "constant"
    }
  }
}
layer {
  name: "accuracy"
  type: "Accuracy"
  bottom: "ip2"
  bottom: "label"
  top: "accuracy"
  include {
    phase: TEST
  }
}
layer {
  name: "loss"
  type: "SoftmaxWithLoss"
  bottom: "ip2"
  bottom: "label"
  top: "loss"
}
I0502 00:22:50.551790 19157 layer_factory.hpp:77] Creating layer data
I0502 00:22:50.551864 19157 db_lmdb.cpp:35] Opened lmdb examples/final_sp/sp_val_lmdb
I0502 00:22:50.551880 19157 net.cpp:84] Creating Layer data
I0502 00:22:50.551887 19157 net.cpp:380] data -> data
I0502 00:22:50.551897 19157 net.cpp:380] data -> label
I0502 00:22:50.552160 19157 data_layer.cpp:45] output data size: 64,3,28,28
I0502 00:22:50.557020 19157 net.cpp:122] Setting up data
I0502 00:22:50.557045 19157 net.cpp:129] Top shape: 64 3 28 28 (150528)
I0502 00:22:50.557051 19157 net.cpp:129] Top shape: 64 (64)
I0502 00:22:50.557055 19157 net.cpp:137] Memory required for data: 602368
I0502 00:22:50.557065 19157 layer_factory.hpp:77] Creating layer label_data_1_split
I0502 00:22:50.557078 19157 net.cpp:84] Creating Layer label_data_1_split
I0502 00:22:50.557083 19157 net.cpp:406] label_data_1_split <- label
I0502 00:22:50.557096 19157 net.cpp:380] label_data_1_split -> label_data_1_split_0
I0502 00:22:50.557107 19157 net.cpp:380] label_data_1_split -> label_data_1_split_1
I0502 00:22:50.557169 19157 net.cpp:122] Setting up label_data_1_split
I0502 00:22:50.557179 19157 net.cpp:129] Top shape: 64 (64)
I0502 00:22:50.557184 19157 net.cpp:129] Top shape: 64 (64)
I0502 00:22:50.557188 19157 net.cpp:137] Memory required for data: 602880
I0502 00:22:50.557193 19157 layer_factory.hpp:77] Creating layer conv1
I0502 00:22:50.557206 19157 net.cpp:84] Creating Layer conv1
I0502 00:22:50.557212 19157 net.cpp:406] conv1 <- data
I0502 00:22:50.557219 19157 net.cpp:380] conv1 -> conv1
I0502 00:22:50.557432 19157 net.cpp:122] Setting up conv1
I0502 00:22:50.557440 19157 net.cpp:129] Top shape: 64 20 24 24 (737280)
I0502 00:22:50.557443 19157 net.cpp:137] Memory required for data: 3552000
I0502 00:22:50.557453 19157 layer_factory.hpp:77] Creating layer pool1
I0502 00:22:50.557474 19157 net.cpp:84] Creating Layer pool1
I0502 00:22:50.557478 19157 net.cpp:406] pool1 <- conv1
I0502 00:22:50.557485 19157 net.cpp:380] pool1 -> pool1
I0502 00:22:50.557518 19157 net.cpp:122] Setting up pool1
I0502 00:22:50.557524 19157 net.cpp:129] Top shape: 64 20 12 12 (184320)
I0502 00:22:50.557528 19157 net.cpp:137] Memory required for data: 4289280
I0502 00:22:50.557533 19157 layer_factory.hpp:77] Creating layer conv2
I0502 00:22:50.557543 19157 net.cpp:84] Creating Layer conv2
I0502 00:22:50.557548 19157 net.cpp:406] conv2 <- pool1
I0502 00:22:50.557554 19157 net.cpp:380] conv2 -> conv2
I0502 00:22:50.558305 19157 net.cpp:122] Setting up conv2
I0502 00:22:50.558315 19157 net.cpp:129] Top shape: 64 50 8 8 (204800)
I0502 00:22:50.558320 19157 net.cpp:137] Memory required for data: 5108480
I0502 00:22:50.558328 19157 layer_factory.hpp:77] Creating layer pool2
I0502 00:22:50.558341 19157 net.cpp:84] Creating Layer pool2
I0502 00:22:50.558346 19157 net.cpp:406] pool2 <- conv2
I0502 00:22:50.558353 19157 net.cpp:380] pool2 -> pool2
I0502 00:22:50.558389 19157 net.cpp:122] Setting up pool2
I0502 00:22:50.558395 19157 net.cpp:129] Top shape: 64 50 4 4 (51200)
I0502 00:22:50.558399 19157 net.cpp:137] Memory required for data: 5313280
I0502 00:22:50.558403 19157 layer_factory.hpp:77] Creating layer ip1
I0502 00:22:50.558411 19157 net.cpp:84] Creating Layer ip1
I0502 00:22:50.558415 19157 net.cpp:406] ip1 <- pool2
I0502 00:22:50.558421 19157 net.cpp:380] ip1 -> ip1
I0502 00:22:50.560822 19157 net.cpp:122] Setting up ip1
I0502 00:22:50.560837 19157 net.cpp:129] Top shape: 64 500 (32000)
I0502 00:22:50.560842 19157 net.cpp:137] Memory required for data: 5441280
I0502 00:22:50.560853 19157 layer_factory.hpp:77] Creating layer relu1
I0502 00:22:50.560861 19157 net.cpp:84] Creating Layer relu1
I0502 00:22:50.560866 19157 net.cpp:406] relu1 <- ip1
I0502 00:22:50.560874 19157 net.cpp:367] relu1 -> ip1 (in-place)
I0502 00:22:50.560884 19157 net.cpp:122] Setting up relu1
I0502 00:22:50.560891 19157 net.cpp:129] Top shape: 64 500 (32000)
I0502 00:22:50.560895 19157 net.cpp:137] Memory required for data: 5569280
I0502 00:22:50.560899 19157 layer_factory.hpp:77] Creating layer ip2
I0502 00:22:50.560910 19157 net.cpp:84] Creating Layer ip2
I0502 00:22:50.560914 19157 net.cpp:406] ip2 <- ip1
I0502 00:22:50.560920 19157 net.cpp:380] ip2 -> ip2
I0502 00:22:50.561440 19157 net.cpp:122] Setting up ip2
I0502 00:22:50.561448 19157 net.cpp:129] Top shape: 64 52 (3328)
I0502 00:22:50.561452 19157 net.cpp:137] Memory required for data: 5582592
I0502 00:22:50.561460 19157 layer_factory.hpp:77] Creating layer ip2_ip2_0_split
I0502 00:22:50.561470 19157 net.cpp:84] Creating Layer ip2_ip2_0_split
I0502 00:22:50.561475 19157 net.cpp:406] ip2_ip2_0_split <- ip2
I0502 00:22:50.561481 19157 net.cpp:380] ip2_ip2_0_split -> ip2_ip2_0_split_0
I0502 00:22:50.561493 19157 net.cpp:380] ip2_ip2_0_split -> ip2_ip2_0_split_1
I0502 00:22:50.561532 19157 net.cpp:122] Setting up ip2_ip2_0_split
I0502 00:22:50.561542 19157 net.cpp:129] Top shape: 64 52 (3328)
I0502 00:22:50.561547 19157 net.cpp:129] Top shape: 64 52 (3328)
I0502 00:22:50.561550 19157 net.cpp:137] Memory required for data: 5609216
I0502 00:22:50.561554 19157 layer_factory.hpp:77] Creating layer accuracy
I0502 00:22:50.561561 19157 net.cpp:84] Creating Layer accuracy
I0502 00:22:50.561564 19157 net.cpp:406] accuracy <- ip2_ip2_0_split_0
I0502 00:22:50.561568 19157 net.cpp:406] accuracy <- label_data_1_split_0
I0502 00:22:50.561573 19157 net.cpp:380] accuracy -> accuracy
…
