…
I0509 14:30:13.584203 28132 net.cpp:294] The NetState phase (0) differed from the phase (1) specified by a rule in layer data
I0509 14:30:13.584257 28132 net.cpp:294] The NetState phase (0) differed from the phase (1) specified by a rule in layer accuracy
I0509 14:30:13.807844 28132 net.cpp:51] Initializing net from parameters: 
name: "LeNet"
state {
  phase: TRAIN
  level: 0
  stage: ""
}
layer {
  name: "data"
  type: "Data"
  top: "data"
  top: "label"
  include {
    phase: TRAIN
  }
  transform_param {
    scale: 0.00390625
  }
  data_param {
    source: "examples/final_sp/sp_train_lmdb_int1"
    batch_size: 64
    backend: LMDB
  }
}
layer {
  name: "conv1"
  type: "Convolution"
  bottom: "data"
  top: "conv1"
  param {
    lr_mult: 1
  }
  param {
    lr_mult: 2
  }
  convolution_param {
    num_output: 20
    kernel_size: 5
    stride: 1
    weight_filler {
      type: "xavier"
    }
    bias_filler {
      type: "constant"
    }
  }
}
layer {
  name: "pool1"
  type: "Pooling"
  bottom: "conv1"
  top: "pool1"
  pooling_param {
    pool: MAX
    kernel_size: 2
    stride: 2
  }
}
layer {
  name: "conv2"
  type: "Convolution"
  bottom: "pool1"
  top: "conv2"
  param {
    lr_mult: 1
  }
  param {
    lr_mult: 2
  }
  convolution_param {
    num_output: 50
    kernel_size: 5
    stride: 1
    weight_filler {
      type: "xavier"
    }
    bias_filler {
      type: "constant"
    }
  }
}
layer {
  name: "pool2"
  type: "Pooling"
  bottom: "conv2"
  top: "pool2"
  pooling_param {
    pool: MAX
    kernel_size: 2
    stride: 2
  }
}
layer {
  name: "ip1"
  type: "InnerProduct"
  bottom: "pool2"
  top: "ip1"
  param {
    lr_mult: 1
  }
  param {
    lr_mult: 2
  }
  inner_product_param {
    num_output: 500
    weight_filler {
      type: "xavier"
    }
    bias_filler {
      type: "constant"
    }
  }
}
layer {
  name: "relu1"
  type: "ReLU"
  bottom: "ip1"
  top: "ip1"
}
layer {
  name: "ip2"
  type: "InnerProduct"
  bottom: "ip1"
  top: "ip2"
  param {
    lr_mult: 1
  }
  param {
    lr_mult: 2
  }
  inner_product_param {
    num_output: 52
    weight_filler {
      type: "xavier"
    }
    bias_filler {
      type: "constant"
    }
  }
}
layer {
  name: "loss"
  type: "SoftmaxWithLoss"
  bottom: "ip2"
  bottom: "label"
  top: "loss"
}
I0509 14:30:13.977207 28132 layer_factory.hpp:77] Creating layer data
I0509 14:30:22.345155 28132 db_lmdb.cpp:35] Opened lmdb examples/final_sp/sp_train_lmdb_int1
I0509 14:30:24.017787 28132 net.cpp:84] Creating Layer data
I0509 14:30:24.245524 28132 net.cpp:380] data -> data
I0509 14:30:24.300127 28132 net.cpp:380] data -> label
I0509 14:30:24.822983 28132 data_layer.cpp:45] output data size: 64,3,28,28
I0509 14:30:25.027603 28132 net.cpp:122] Setting up data
I0509 14:30:25.059686 28132 net.cpp:129] Top shape: 64 3 28 28 (150528)
I0509 14:30:25.059762 28132 net.cpp:129] Top shape: 64 (64)
I0509 14:30:25.059785 28132 net.cpp:137] Memory required for data: 602368
I0509 14:30:25.062319 28132 layer_factory.hpp:77] Creating layer conv1
I0509 14:30:25.079785 28132 net.cpp:84] Creating Layer conv1
I0509 14:30:25.079854 28132 net.cpp:406] conv1 <- data
I0509 14:30:25.080610 28132 net.cpp:380] conv1 -> conv1
I0509 14:30:25.162555 28132 net.cpp:122] Setting up conv1
I0509 14:30:25.162652 28132 net.cpp:129] Top shape: 64 20 24 24 (737280)
I0509 14:30:25.162672 28132 net.cpp:137] Memory required for data: 3551488
I0509 14:30:25.173521 28132 layer_factory.hpp:77] Creating layer pool1
I0509 14:30:25.173593 28132 net.cpp:84] Creating Layer pool1
I0509 14:30:25.173614 28132 net.cpp:406] pool1 <- conv1
I0509 14:30:25.173638 28132 net.cpp:380] pool1 -> pool1
I0509 14:30:25.305495 28132 net.cpp:122] Setting up pool1
I0509 14:30:25.305548 28132 net.cpp:129] Top shape: 64 20 12 12 (184320)
I0509 14:30:25.305558 28132 net.cpp:137] Memory required for data: 4288768
I0509 14:30:25.305570 28132 layer_factory.hpp:77] Creating layer conv2
I0509 14:30:25.305601 28132 net.cpp:84] Creating Layer conv2
I0509 14:30:25.305616 28132 net.cpp:406] conv2 <- pool1
I0509 14:30:25.305644 28132 net.cpp:380] conv2 -> conv2
I0509 14:30:25.307680 28132 net.cpp:122] Setting up conv2
I0509 14:30:25.307721 28132 net.cpp:129] Top shape: 64 50 8 8 (204800)
I0509 14:30:25.307736 28132 net.cpp:137] Memory required for data: 5107968
I0509 14:30:25.307772 28132 layer_factory.hpp:77] Creating layer pool2
I0509 14:30:25.307801 28132 net.cpp:84] Creating Layer pool2
I0509 14:30:25.307817 28132 net.cpp:406] pool2 <- conv2
I0509 14:30:25.307839 28132 net.cpp:380] pool2 -> pool2
I0509 14:30:25.307937 28132 net.cpp:122] Setting up pool2
I0509 14:30:25.307960 28132 net.cpp:129] Top shape: 64 50 4 4 (51200)
I0509 14:30:25.307973 28132 net.cpp:137] Memory required for data: 5312768
I0509 14:30:25.307986 28132 layer_factory.hpp:77] Creating layer ip1
I0509 14:30:25.308010 28132 net.cpp:84] Creating Layer ip1
I0509 14:30:25.308025 28132 net.cpp:406] ip1 <- pool2
I0509 14:30:25.308049 28132 net.cpp:380] ip1 -> ip1
I0509 14:30:25.315026 28132 net.cpp:122] Setting up ip1
I0509 14:30:25.315112 28132 net.cpp:129] Top shape: 64 500 (32000)
I0509 14:30:25.315125 28132 net.cpp:137] Memory required for data: 5440768
I0509 14:30:25.315166 28132 layer_factory.hpp:77] Creating layer relu1
I0509 14:30:25.315237 28132 net.cpp:84] Creating Layer relu1
I0509 14:30:25.315315 28132 net.cpp:406] relu1 <- ip1
I0509 14:30:25.315371 28132 net.cpp:367] relu1 -> ip1 (in-place)
I0509 14:30:25.329918 28132 net.cpp:122] Setting up relu1
I0509 14:30:25.330003 28132 net.cpp:129] Top shape: 64 500 (32000)
I0509 14:30:25.330011 28132 net.cpp:137] Memory required for data: 5568768
I0509 14:30:25.330025 28132 layer_factory.hpp:77] Creating layer ip2
I0509 14:30:25.330060 28132 net.cpp:84] Creating Layer ip2
I0509 14:30:25.330075 28132 net.cpp:406] ip2 <- ip1
I0509 14:30:25.330106 28132 net.cpp:380] ip2 -> ip2
I0509 14:30:25.330952 28132 net.cpp:122] Setting up ip2
I0509 14:30:25.330986 28132 net.cpp:129] Top shape: 64 52 (3328)
I0509 14:30:25.330999 28132 net.cpp:137] Memory required for data: 5582080
I0509 14:30:25.331028 28132 layer_factory.hpp:77] Creating layer loss
I0509 14:30:25.374373 28132 net.cpp:84] Creating Layer loss
I0509 14:30:25.374435 28132 net.cpp:406] loss <- ip2
I0509 14:30:25.374467 28132 net.cpp:406] loss <- label
I0509 14:30:25.374502 28132 net.cpp:380] loss -> loss
I0509 14:30:25.374590 28132 layer_factory.hpp:77] Creating layer loss
…
I0509 14:30:26.241101 28132 solver.cpp:190] Creating test net (#0) specified by net file: models/sp_lenet_int1/lenet_train_val.prototxt
I0509 14:30:26.241855 28132 net.cpp:294] The NetState phase (1) differed from the phase (0) specified by a rule in layer data
I0509 14:30:26.245712 28132 net.cpp:51] Initializing net from parameters: 
name: "LeNet"
state {
  phase: TEST
}
layer {
  name: "data"
  type: "Data"
  top: "data"
  top: "label"
  include {
    phase: TEST
  }
  transform_param {
    scale: 0.00390625
  }
  data_param {
    source: "examples/final_sp/sp_val_lmdb_int1"
    batch_size: 64
    backend: LMDB
  }
}
layer {
  name: "conv1"
  type: "Convolution"
  bottom: "data"
  top: "conv1"
  param {
    lr_mult: 1
  }
  param {
    lr_mult: 2
  }
  convolution_param {
    num_output: 20
    kernel_size: 5
    stride: 1
    weight_filler {
      type: "xavier"
    }
    bias_filler {
      type: "constant"
    }
  }
}
layer {
  name: "pool1"
  type: "Pooling"
  bottom: "conv1"
  top: "pool1"
  pooling_param {
    pool: MAX
    kernel_size: 2
    stride: 2
  }
}
layer {
  name: "conv2"
  type: "Convolution"
  bottom: "pool1"
  top: "conv2"
  param {
    lr_mult: 1
  }
  param {
    lr_mult: 2
  }
  convolution_param {
    num_output: 50
    kernel_size: 5
    stride: 1
    weight_filler {
      type: "xavier"
    }
    bias_filler {
      type: "constant"
    }
  }
}
layer {
  name: "pool2"
  type: "Pooling"
  bottom: "conv2"
  top: "pool2"
  pooling_param {
    pool: MAX
    kernel_size: 2
    stride: 2
  }
}
layer {
  name: "ip1"
  type: "InnerProduct"
  bottom: "pool2"
  top: "ip1"
  param {
    lr_mult: 1
  }
  param {
    lr_mult: 2
  }
  inner_product_param {
    num_output: 500
    weight_filler {
      type: "xavier"
    }
    bias_filler {
      type: "constant"
    }
  }
}
layer {
  name: "relu1"
  type: "ReLU"
  bottom: "ip1"
  top: "ip1"
}
layer {
  name: "ip2"
  type: "InnerProduct"
  bottom: "ip1"
  top: "ip2"
  param {
    lr_mult: 1
  }
  param {
    lr_mult: 2
  }
  inner_product_param {
    num_output: 52
    weight_filler {
      type: "xavier"
    }
    bias_filler {
      type: "constant"
    }
  }
}
layer {
  name: "accuracy"
  type: "Accuracy"
  bottom: "ip2"
  bottom: "label"
  top: "accuracy"
  include {
    phase: TEST
  }
}
layer {
  name: "loss"
  type: "SoftmaxWithLoss"
  bottom: "ip2"
  bottom: "label"
  top: "loss"
}
I0509 14:30:26.245970 28132 layer_factory.hpp:77] Creating layer data
I0509 14:30:26.430624 28132 db_lmdb.cpp:35] Opened lmdb examples/final_sp/sp_val_lmdb_int1
I0509 14:30:26.564167 28132 net.cpp:84] Creating Layer data
I0509 14:30:26.564234 28132 net.cpp:380] data -> data
I0509 14:30:26.564281 28132 net.cpp:380] data -> label
I0509 14:30:26.564615 28132 data_layer.cpp:45] output data size: 64,3,28,28
I0509 14:30:26.578627 28132 net.cpp:122] Setting up data
I0509 14:30:26.578691 28132 net.cpp:129] Top shape: 64 3 28 28 (150528)
I0509 14:30:26.578716 28132 net.cpp:129] Top shape: 64 (64)
I0509 14:30:26.578728 28132 net.cpp:137] Memory required for data: 602368
I0509 14:30:26.578747 28132 layer_factory.hpp:77] Creating layer label_data_1_split
I0509 14:30:26.662004 28132 net.cpp:84] Creating Layer label_data_1_split
I0509 14:30:26.662072 28132 net.cpp:406] label_data_1_split <- label
I0509 14:30:26.662103 28132 net.cpp:380] label_data_1_split -> label_data_1_split_0
I0509 14:30:26.662142 28132 net.cpp:380] label_data_1_split -> label_data_1_split_1
I0509 14:30:26.662333 28132 net.cpp:122] Setting up label_data_1_split
I0509 14:30:26.662364 28132 net.cpp:129] Top shape: 64 (64)
I0509 14:30:26.662381 28132 net.cpp:129] Top shape: 64 (64)
I0509 14:30:26.662396 28132 net.cpp:137] Memory required for data: 602880
I0509 14:30:26.662412 28132 layer_factory.hpp:77] Creating layer conv1
I0509 14:30:26.662457 28132 net.cpp:84] Creating Layer conv1
I0509 14:30:26.662472 28132 net.cpp:406] conv1 <- data
I0509 14:30:26.662497 28132 net.cpp:380] conv1 -> conv1
I0509 14:30:26.663190 28132 net.cpp:122] Setting up conv1
I0509 14:30:26.663225 28132 net.cpp:129] Top shape: 64 20 24 24 (737280)
I0509 14:30:26.663239 28132 net.cpp:137] Memory required for data: 3552000
I0509 14:30:26.663275 28132 layer_factory.hpp:77] Creating layer pool1
I0509 14:30:26.663305 28132 net.cpp:84] Creating Layer pool1
I0509 14:30:26.663327 28132 net.cpp:406] pool1 <- conv1
I0509 14:30:26.663349 28132 net.cpp:380] pool1 -> pool1
I0509 14:30:26.663457 28132 net.cpp:122] Setting up pool1
I0509 14:30:26.663480 28132 net.cpp:129] Top shape: 64 20 12 12 (184320)
I0509 14:30:26.663492 28132 net.cpp:137] Memory required for data: 4289280
I0509 14:30:26.663506 28132 layer_factory.hpp:77] Creating layer conv2
I0509 14:30:26.663554 28132 net.cpp:84] Creating Layer conv2
I0509 14:30:26.663569 28132 net.cpp:406] conv2 <- pool1
I0509 14:30:26.663604 28132 net.cpp:380] conv2 -> conv2
I0509 14:30:26.664458 28132 net.cpp:122] Setting up conv2
I0509 14:30:26.664484 28132 net.cpp:129] Top shape: 64 50 8 8 (204800)
I0509 14:30:26.664496 28132 net.cpp:137] Memory required for data: 5108480
I0509 14:30:26.664527 28132 layer_factory.hpp:77] Creating layer pool2
I0509 14:30:26.664549 28132 net.cpp:84] Creating Layer pool2
I0509 14:30:26.664572 28132 net.cpp:406] pool2 <- conv2
I0509 14:30:26.664592 28132 net.cpp:380] pool2 -> pool2
I0509 14:30:26.664692 28132 net.cpp:122] Setting up pool2
I0509 14:30:26.664721 28132 net.cpp:129] Top shape: 64 50 4 4 (51200)
I0509 14:30:26.664736 28132 net.cpp:137] Memory required for data: 5313280
I0509 14:30:26.664748 28132 layer_factory.hpp:77] Creating layer ip1
I0509 14:30:26.664772 28132 net.cpp:84] Creating Layer ip1
I0509 14:30:26.664790 28132 net.cpp:406] ip1 <- pool2
I0509 14:30:26.664818 28132 net.cpp:380] ip1 -> ip1
I0509 14:30:26.675755 28132 net.cpp:122] Setting up ip1
I0509 14:30:26.675825 28132 net.cpp:129] Top shape: 64 500 (32000)
I0509 14:30:26.675835 28132 net.cpp:137] Memory required for data: 5441280
I0509 14:30:26.675864 28132 layer_factory.hpp:77] Creating layer relu1
I0509 14:30:26.675882 28132 net.cpp:84] Creating Layer relu1
I0509 14:30:26.675894 28132 net.cpp:406] relu1 <- ip1
I0509 14:30:26.675914 28132 net.cpp:367] relu1 -> ip1 (in-place)
I0509 14:30:26.675933 28132 net.cpp:122] Setting up relu1
I0509 14:30:26.675945 28132 net.cpp:129] Top shape: 64 500 (32000)
I0509 14:30:26.675951 28132 net.cpp:137] Memory required for data: 5569280
I0509 14:30:26.675958 28132 layer_factory.hpp:77] Creating layer ip2
I0509 14:30:26.675981 28132 net.cpp:84] Creating Layer ip2
I0509 14:30:26.675992 28132 net.cpp:406] ip2 <- ip1
I0509 14:30:26.676005 28132 net.cpp:380] ip2 -> ip2
I0509 14:30:26.676576 28132 net.cpp:122] Setting up ip2
I0509 14:30:26.676594 28132 net.cpp:129] Top shape: 64 52 (3328)
I0509 14:30:26.676599 28132 net.cpp:137] Memory required for data: 5582592
I0509 14:30:26.676612 28132 layer_factory.hpp:77] Creating layer ip2_ip2_0_split
I0509 14:30:26.676626 28132 net.cpp:84] Creating Layer ip2_ip2_0_split
I0509 14:30:26.676636 28132 net.cpp:406] ip2_ip2_0_split <- ip2
I0509 14:30:26.676654 28132 net.cpp:380] ip2_ip2_0_split -> ip2_ip2_0_split_0
I0509 14:30:26.676672 28132 net.cpp:380] ip2_ip2_0_split -> ip2_ip2_0_split_1
I0509 14:30:26.676745 28132 net.cpp:122] Setting up ip2_ip2_0_split
I0509 14:30:27.902397 28132 net.cpp:129] Top shape: 64 52 (3328)
I0509 14:30:27.902468 28132 net.cpp:129] Top shape: 64 52 (3328)
I0509 14:30:27.902485 28132 net.cpp:137] Memory required for data: 5609216
I0509 14:30:27.902505 28132 layer_factory.hpp:77] Creating layer accuracy
I0509 14:30:27.902541 28132 net.cpp:84] Creating Layer accuracy
I0509 14:30:27.902565 28132 net.cpp:406] accuracy <- ip2_ip2_0_split_0
I0509 14:30:27.902592 28132 net.cpp:406] accuracy <- label_data_1_split_0
I0509 14:30:27.902637 28132 net.cpp:380] accuracy -> accuracy
…
