…
I0509 19:47:32.501544 11060 net.cpp:294] The NetState phase (0) differed from the phase (1) specified by a rule in layer data
I0509 19:47:32.501662 11060 net.cpp:294] The NetState phase (0) differed from the phase (1) specified by a rule in layer accuracy
I0509 19:47:32.502041 11060 net.cpp:51] Initializing net from parameters: 
name: "LeNet"
state {
  phase: TRAIN
  level: 0
  stage: ""
}
layer {
  name: "data"
  type: "Data"
  top: "data"
  top: "label"
  include {
    phase: TRAIN
  }
  transform_param {
    scale: 0.00390625
  }
  data_param {
    source: "examples/final_sp/sp_train_lmdb_int3"
    batch_size: 64
    backend: LMDB
  }
}
layer {
  name: "conv1"
  type: "Convolution"
  bottom: "data"
  top: "conv1"
  param {
    lr_mult: 1
  }
  param {
    lr_mult: 2
  }
  convolution_param {
    num_output: 20
    kernel_size: 5
    stride: 1
    weight_filler {
      type: "xavier"
    }
    bias_filler {
      type: "constant"
    }
  }
}
layer {
  name: "pool1"
  type: "Pooling"
  bottom: "conv1"
  top: "pool1"
  pooling_param {
    pool: MAX
    kernel_size: 2
    stride: 2
  }
}
layer {
  name: "conv2"
  type: "Convolution"
  bottom: "pool1"
  top: "conv2"
  param {
    lr_mult: 1
  }
  param {
    lr_mult: 2
  }
  convolution_param {
    num_output: 50
    kernel_size: 5
    stride: 1
    weight_filler {
      type: "xavier"
    }
    bias_filler {
      type: "constant"
    }
  }
}
layer {
  name: "pool2"
  type: "Pooling"
  bottom: "conv2"
  top: "pool2"
  pooling_param {
    pool: MAX
    kernel_size: 2
    stride: 2
  }
}
layer {
  name: "ip1"
  type: "InnerProduct"
  bottom: "pool2"
  top: "ip1"
  param {
    lr_mult: 1
  }
  param {
    lr_mult: 2
  }
  inner_product_param {
    num_output: 500
    weight_filler {
      type: "xavier"
    }
    bias_filler {
      type: "constant"
    }
  }
}
layer {
  name: "relu1"
  type: "ReLU"
  bottom: "ip1"
  top: "ip1"
}
layer {
  name: "ip2"
  type: "InnerProduct"
  bottom: "ip1"
  top: "ip2"
  param {
    lr_mult: 1
  }
  param {
    lr_mult: 2
  }
  inner_product_param {
    num_output: 52
    weight_filler {
      type: "xavier"
    }
    bias_filler {
      type: "constant"
    }
  }
}
layer {
  name: "loss"
  type: "SoftmaxWithLoss"
  bottom: "ip2"
  bottom: "label"
  top: "loss"
}
I0509 19:47:32.502245 11060 layer_factory.hpp:77] Creating layer data
I0509 19:47:32.626973 11060 db_lmdb.cpp:35] Opened lmdb examples/final_sp/sp_train_lmdb_int3
I0509 19:47:32.691833 11060 net.cpp:84] Creating Layer data
I0509 19:47:32.691920 11060 net.cpp:380] data -> data
I0509 19:47:32.692001 11060 net.cpp:380] data -> label
I0509 19:47:32.697612 11060 data_layer.cpp:45] output data size: 64,3,28,28
I0509 19:47:32.707199 11060 net.cpp:122] Setting up data
I0509 19:47:32.707269 11060 net.cpp:129] Top shape: 64 3 28 28 (150528)
I0509 19:47:32.707296 11060 net.cpp:129] Top shape: 64 (64)
I0509 19:47:32.707311 11060 net.cpp:137] Memory required for data: 602368
I0509 19:47:32.707396 11060 layer_factory.hpp:77] Creating layer conv1
I0509 19:47:32.707471 11060 net.cpp:84] Creating Layer conv1
I0509 19:47:32.707496 11060 net.cpp:406] conv1 <- data
I0509 19:47:32.707554 11060 net.cpp:380] conv1 -> conv1
I0509 19:47:32.715646 11060 net.cpp:122] Setting up conv1
I0509 19:47:32.715698 11060 net.cpp:129] Top shape: 64 20 24 24 (737280)
I0509 19:47:32.715713 11060 net.cpp:137] Memory required for data: 3551488
I0509 19:47:32.715775 11060 layer_factory.hpp:77] Creating layer pool1
I0509 19:47:32.715837 11060 net.cpp:84] Creating Layer pool1
I0509 19:47:32.715889 11060 net.cpp:406] pool1 <- conv1
I0509 19:47:32.715924 11060 net.cpp:380] pool1 -> pool1
I0509 19:47:32.716179 11060 net.cpp:122] Setting up pool1
I0509 19:47:32.716210 11060 net.cpp:129] Top shape: 64 20 12 12 (184320)
I0509 19:47:32.716226 11060 net.cpp:137] Memory required for data: 4288768
I0509 19:47:32.716240 11060 layer_factory.hpp:77] Creating layer conv2
I0509 19:47:32.716289 11060 net.cpp:84] Creating Layer conv2
I0509 19:47:32.716307 11060 net.cpp:406] conv2 <- pool1
I0509 19:47:32.716336 11060 net.cpp:380] conv2 -> conv2
I0509 19:47:32.718768 11060 net.cpp:122] Setting up conv2
I0509 19:47:32.718819 11060 net.cpp:129] Top shape: 64 50 8 8 (204800)
I0509 19:47:32.718837 11060 net.cpp:137] Memory required for data: 5107968
I0509 19:47:32.718878 11060 layer_factory.hpp:77] Creating layer pool2
I0509 19:47:32.718919 11060 net.cpp:84] Creating Layer pool2
I0509 19:47:32.718940 11060 net.cpp:406] pool2 <- conv2
I0509 19:47:32.718968 11060 net.cpp:380] pool2 -> pool2
I0509 19:47:32.719089 11060 net.cpp:122] Setting up pool2
I0509 19:47:32.719121 11060 net.cpp:129] Top shape: 64 50 4 4 (51200)
I0509 19:47:32.719141 11060 net.cpp:137] Memory required for data: 5312768
I0509 19:47:32.719157 11060 layer_factory.hpp:77] Creating layer ip1
I0509 19:47:32.719192 11060 net.cpp:84] Creating Layer ip1
I0509 19:47:32.719259 11060 net.cpp:406] ip1 <- pool2
I0509 19:47:32.719297 11060 net.cpp:380] ip1 -> ip1
I0509 19:47:32.725558 11060 net.cpp:122] Setting up ip1
I0509 19:47:32.725596 11060 net.cpp:129] Top shape: 64 500 (32000)
I0509 19:47:32.725605 11060 net.cpp:137] Memory required for data: 5440768
I0509 19:47:32.725633 11060 layer_factory.hpp:77] Creating layer relu1
I0509 19:47:32.725652 11060 net.cpp:84] Creating Layer relu1
I0509 19:47:32.725663 11060 net.cpp:406] relu1 <- ip1
I0509 19:47:32.725680 11060 net.cpp:367] relu1 -> ip1 (in-place)
I0509 19:47:32.725703 11060 net.cpp:122] Setting up relu1
I0509 19:47:32.725715 11060 net.cpp:129] Top shape: 64 500 (32000)
I0509 19:47:32.725723 11060 net.cpp:137] Memory required for data: 5568768
I0509 19:47:32.725730 11060 layer_factory.hpp:77] Creating layer ip2
I0509 19:47:32.725752 11060 net.cpp:84] Creating Layer ip2
I0509 19:47:32.725761 11060 net.cpp:406] ip2 <- ip1
I0509 19:47:32.725776 11060 net.cpp:380] ip2 -> ip2
I0509 19:47:32.726161 11060 net.cpp:122] Setting up ip2
I0509 19:47:32.726174 11060 net.cpp:129] Top shape: 64 52 (3328)
I0509 19:47:32.726181 11060 net.cpp:137] Memory required for data: 5582080
I0509 19:47:32.726197 11060 layer_factory.hpp:77] Creating layer loss
I0509 19:47:32.726214 11060 net.cpp:84] Creating Layer loss
I0509 19:47:32.726224 11060 net.cpp:406] loss <- ip2
I0509 19:47:32.726236 11060 net.cpp:406] loss <- label
I0509 19:47:32.726256 11060 net.cpp:380] loss -> loss
I0509 19:47:32.726315 11060 layer_factory.hpp:77] Creating layer loss
…
I0509 19:47:32.726960 11060 solver.cpp:190] Creating test net (#0) specified by net file: models/sp_lenet_int3/lenet_train_val.prototxt
I0509 19:47:32.727026 11060 net.cpp:294] The NetState phase (1) differed from the phase (0) specified by a rule in layer data
I0509 19:47:32.727174 11060 net.cpp:51] Initializing net from parameters: 
name: "LeNet"
state {
  phase: TEST
}
layer {
  name: "data"
  type: "Data"
  top: "data"
  top: "label"
  include {
    phase: TEST
  }
  transform_param {
    scale: 0.00390625
  }
  data_param {
    source: "examples/final_sp/sp_val_lmdb_int3"
    batch_size: 64
    backend: LMDB
  }
}
layer {
  name: "conv1"
  type: "Convolution"
  bottom: "data"
  top: "conv1"
  param {
    lr_mult: 1
  }
  param {
    lr_mult: 2
  }
  convolution_param {
    num_output: 20
    kernel_size: 5
    stride: 1
    weight_filler {
      type: "xavier"
    }
    bias_filler {
      type: "constant"
    }
  }
}
layer {
  name: "pool1"
  type: "Pooling"
  bottom: "conv1"
  top: "pool1"
  pooling_param {
    pool: MAX
    kernel_size: 2
    stride: 2
  }
}
layer {
  name: "conv2"
  type: "Convolution"
  bottom: "pool1"
  top: "conv2"
  param {
    lr_mult: 1
  }
  param {
    lr_mult: 2
  }
  convolution_param {
    num_output: 50
    kernel_size: 5
    stride: 1
    weight_filler {
      type: "xavier"
    }
    bias_filler {
      type: "constant"
    }
  }
}
layer {
  name: "pool2"
  type: "Pooling"
  bottom: "conv2"
  top: "pool2"
  pooling_param {
    pool: MAX
    kernel_size: 2
    stride: 2
  }
}
layer {
  name: "ip1"
  type: "InnerProduct"
  bottom: "pool2"
  top: "ip1"
  param {
    lr_mult: 1
  }
  param {
    lr_mult: 2
  }
  inner_product_param {
    num_output: 500
    weight_filler {
      type: "xavier"
    }
    bias_filler {
      type: "constant"
    }
  }
}
layer {
  name: "relu1"
  type: "ReLU"
  bottom: "ip1"
  top: "ip1"
}
layer {
  name: "ip2"
  type: "InnerProduct"
  bottom: "ip1"
  top: "ip2"
  param {
    lr_mult: 1
  }
  param {
    lr_mult: 2
  }
  inner_product_param {
    num_output: 52
    weight_filler {
      type: "xavier"
    }
    bias_filler {
      type: "constant"
    }
  }
}
layer {
  name: "accuracy"
  type: "Accuracy"
  bottom: "ip2"
  bottom: "label"
  top: "accuracy"
  include {
    phase: TEST
  }
}
layer {
  name: "loss"
  type: "SoftmaxWithLoss"
  bottom: "ip2"
  bottom: "label"
  top: "loss"
}
I0509 19:47:32.727368 11060 layer_factory.hpp:77] Creating layer data
I0509 19:47:33.330370 11060 db_lmdb.cpp:35] Opened lmdb examples/final_sp/sp_val_lmdb_int3
I0509 19:47:33.612679 11060 net.cpp:84] Creating Layer data
I0509 19:47:33.612792 11060 net.cpp:380] data -> data
I0509 19:47:33.612857 11060 net.cpp:380] data -> label
I0509 19:47:33.613247 11060 data_layer.cpp:45] output data size: 64,3,28,28
I0509 19:47:33.630580 11060 net.cpp:122] Setting up data
I0509 19:47:33.630817 11060 net.cpp:129] Top shape: 64 3 28 28 (150528)
I0509 19:47:33.630964 11060 net.cpp:129] Top shape: 64 (64)
I0509 19:47:33.631027 11060 net.cpp:137] Memory required for data: 602368
I0509 19:47:33.631075 11060 layer_factory.hpp:77] Creating layer label_data_1_split
I0509 19:47:33.631147 11060 net.cpp:84] Creating Layer label_data_1_split
I0509 19:47:33.631170 11060 net.cpp:406] label_data_1_split <- label
I0509 19:47:33.631203 11060 net.cpp:380] label_data_1_split -> label_data_1_split_0
I0509 19:47:33.631285 11060 net.cpp:380] label_data_1_split -> label_data_1_split_1
I0509 19:47:33.631464 11060 net.cpp:122] Setting up label_data_1_split
I0509 19:47:33.631490 11060 net.cpp:129] Top shape: 64 (64)
I0509 19:47:33.631505 11060 net.cpp:129] Top shape: 64 (64)
I0509 19:47:33.631562 11060 net.cpp:137] Memory required for data: 602880
I0509 19:47:33.631599 11060 layer_factory.hpp:77] Creating layer conv1
I0509 19:47:33.631682 11060 net.cpp:84] Creating Layer conv1
I0509 19:47:33.631702 11060 net.cpp:406] conv1 <- data
I0509 19:47:33.631726 11060 net.cpp:380] conv1 -> conv1
I0509 19:47:33.633260 11060 net.cpp:122] Setting up conv1
I0509 19:47:33.633309 11060 net.cpp:129] Top shape: 64 20 24 24 (737280)
I0509 19:47:33.633323 11060 net.cpp:137] Memory required for data: 3552000
I0509 19:47:33.633363 11060 layer_factory.hpp:77] Creating layer pool1
I0509 19:47:33.633425 11060 net.cpp:84] Creating Layer pool1
I0509 19:47:33.633440 11060 net.cpp:406] pool1 <- conv1
I0509 19:47:33.633467 11060 net.cpp:380] pool1 -> pool1
I0509 19:47:33.633589 11060 net.cpp:122] Setting up pool1
I0509 19:47:33.633615 11060 net.cpp:129] Top shape: 64 20 12 12 (184320)
I0509 19:47:33.633626 11060 net.cpp:137] Memory required for data: 4289280
I0509 19:47:33.633639 11060 layer_factory.hpp:77] Creating layer conv2
I0509 19:47:33.633682 11060 net.cpp:84] Creating Layer conv2
I0509 19:47:33.633695 11060 net.cpp:406] conv2 <- pool1
I0509 19:47:33.633719 11060 net.cpp:380] conv2 -> conv2
I0509 19:47:33.634876 11060 net.cpp:122] Setting up conv2
I0509 19:47:33.634903 11060 net.cpp:129] Top shape: 64 50 8 8 (204800)
I0509 19:47:33.634913 11060 net.cpp:137] Memory required for data: 5108480
I0509 19:47:33.634937 11060 layer_factory.hpp:77] Creating layer pool2
I0509 19:47:33.634953 11060 net.cpp:84] Creating Layer pool2
I0509 19:47:33.634965 11060 net.cpp:406] pool2 <- conv2
I0509 19:47:33.634984 11060 net.cpp:380] pool2 -> pool2
I0509 19:47:33.635071 11060 net.cpp:122] Setting up pool2
I0509 19:47:33.635089 11060 net.cpp:129] Top shape: 64 50 4 4 (51200)
I0509 19:47:33.635102 11060 net.cpp:137] Memory required for data: 5313280
I0509 19:47:33.635110 11060 layer_factory.hpp:77] Creating layer ip1
I0509 19:47:33.635130 11060 net.cpp:84] Creating Layer ip1
I0509 19:47:33.635141 11060 net.cpp:406] ip1 <- pool2
I0509 19:47:33.635160 11060 net.cpp:380] ip1 -> ip1
I0509 19:47:33.642760 11060 net.cpp:122] Setting up ip1
I0509 19:47:33.642803 11060 net.cpp:129] Top shape: 64 500 (32000)
I0509 19:47:33.642812 11060 net.cpp:137] Memory required for data: 5441280
I0509 19:47:33.642838 11060 layer_factory.hpp:77] Creating layer relu1
I0509 19:47:33.642855 11060 net.cpp:84] Creating Layer relu1
I0509 19:47:33.642866 11060 net.cpp:406] relu1 <- ip1
I0509 19:47:33.642885 11060 net.cpp:367] relu1 -> ip1 (in-place)
I0509 19:47:33.642902 11060 net.cpp:122] Setting up relu1
I0509 19:47:33.642913 11060 net.cpp:129] Top shape: 64 500 (32000)
I0509 19:47:33.642920 11060 net.cpp:137] Memory required for data: 5569280
I0509 19:47:33.642957 11060 layer_factory.hpp:77] Creating layer ip2
I0509 19:47:33.642979 11060 net.cpp:84] Creating Layer ip2
I0509 19:47:33.642988 11060 net.cpp:406] ip2 <- ip1
I0509 19:47:33.643003 11060 net.cpp:380] ip2 -> ip2
I0509 19:47:33.643570 11060 net.cpp:122] Setting up ip2
I0509 19:47:33.643586 11060 net.cpp:129] Top shape: 64 52 (3328)
I0509 19:47:33.643594 11060 net.cpp:137] Memory required for data: 5582592
I0509 19:47:33.643640 11060 layer_factory.hpp:77] Creating layer ip2_ip2_0_split
I0509 19:47:33.643656 11060 net.cpp:84] Creating Layer ip2_ip2_0_split
I0509 19:47:33.643666 11060 net.cpp:406] ip2_ip2_0_split <- ip2
I0509 19:47:33.643681 11060 net.cpp:380] ip2_ip2_0_split -> ip2_ip2_0_split_0
I0509 19:47:33.643697 11060 net.cpp:380] ip2_ip2_0_split -> ip2_ip2_0_split_1
I0509 19:47:33.643764 11060 net.cpp:122] Setting up ip2_ip2_0_split
I0509 19:47:33.643775 11060 net.cpp:129] Top shape: 64 52 (3328)
I0509 19:47:33.643803 11060 net.cpp:129] Top shape: 64 52 (3328)
I0509 19:47:33.643812 11060 net.cpp:137] Memory required for data: 5609216
I0509 19:47:33.643820 11060 layer_factory.hpp:77] Creating layer accuracy
I0509 19:47:33.643831 11060 net.cpp:84] Creating Layer accuracy
I0509 19:47:33.643841 11060 net.cpp:406] accuracy <- ip2_ip2_0_split_0
I0509 19:47:33.643851 11060 net.cpp:406] accuracy <- label_data_1_split_0
I0509 19:47:33.643865 11060 net.cpp:380] accuracy -> accuracy
…
