…
I0502 02:38:47.908094 14557 net.cpp:294] The NetState phase (0) differed from the phase (1) specified by a rule in layer data
I0502 02:38:47.908118 14557 net.cpp:294] The NetState phase (0) differed from the phase (1) specified by a rule in layer accuracy
I0502 02:38:47.908227 14557 net.cpp:51] Initializing net from parameters: 
name: "LeNet"
state {
  phase: TRAIN
  level: 0
  stage: ""
}
layer {
  name: "data"
  type: "Data"
  top: "data"
  top: "label"
  include {
    phase: TRAIN
  }
  transform_param {
    scale: 0.00390625
  }
  data_param {
    source: "examples/final_sp/sp_train_lmdb"
    batch_size: 64
    backend: LMDB
  }
}
layer {
  name: "conv1"
  type: "Convolution"
  bottom: "data"
  top: "conv1"
  param {
    lr_mult: 1
  }
  param {
    lr_mult: 2
  }
  convolution_param {
    num_output: 20
    kernel_size: 5
    stride: 1
    weight_filler {
      type: "xavier"
    }
    bias_filler {
      type: "constant"
    }
  }
}
layer {
  name: "pool1"
  type: "Pooling"
  bottom: "conv1"
  top: "pool1"
  pooling_param {
    pool: MAX
    kernel_size: 2
    stride: 2
  }
}
layer {
  name: "conv2"
  type: "Convolution"
  bottom: "pool1"
  top: "conv2"
  param {
    lr_mult: 1
  }
  param {
    lr_mult: 2
  }
  convolution_param {
    num_output: 50
    kernel_size: 5
    stride: 1
    weight_filler {
      type: "xavier"
    }
    bias_filler {
      type: "constant"
    }
  }
}
layer {
  name: "pool2"
  type: "Pooling"
  bottom: "conv2"
  top: "pool2"
  pooling_param {
    pool: MAX
    kernel_size: 2
    stride: 2
  }
}
layer {
  name: "ip1"
  type: "InnerProduct"
  bottom: "pool2"
  top: "ip1"
  param {
    lr_mult: 1
  }
  param {
    lr_mult: 2
  }
  inner_product_param {
    num_output: 500
    weight_filler {
      type: "xavier"
    }
    bias_filler {
      type: "constant"
    }
  }
}
layer {
  name: "relu1"
  type: "ReLU"
  bottom: "ip1"
  top: "ip1"
}
layer {
  name: "ip2"
  type: "InnerProduct"
  bottom: "ip1"
  top: "ip2"
  param {
    lr_mult: 1
  }
  param {
    lr_mult: 2
  }
  inner_product_param {
    num_output: 52
    weight_filler {
      type: "xavier"
    }
    bias_filler {
      type: "constant"
    }
  }
}
layer {
  name: "loss"
  type: "SoftmaxWithLoss"
  bottom: "ip2"
  bottom: "label"
  top: "loss"
}
I0502 02:38:47.908291 14557 layer_factory.hpp:77] Creating layer data
I0502 02:38:47.908398 14557 db_lmdb.cpp:35] Opened lmdb examples/final_sp/sp_train_lmdb
I0502 02:38:47.908427 14557 net.cpp:84] Creating Layer data
I0502 02:38:47.908439 14557 net.cpp:380] data -> data
I0502 02:38:47.908470 14557 net.cpp:380] data -> label
I0502 02:38:47.909173 14557 data_layer.cpp:45] output data size: 64,3,28,28
I0502 02:38:47.913893 14557 net.cpp:122] Setting up data
I0502 02:38:47.913924 14557 net.cpp:129] Top shape: 64 3 28 28 (150528)
I0502 02:38:47.913931 14557 net.cpp:129] Top shape: 64 (64)
I0502 02:38:47.913935 14557 net.cpp:137] Memory required for data: 602368
I0502 02:38:47.913949 14557 layer_factory.hpp:77] Creating layer conv1
I0502 02:38:47.913985 14557 net.cpp:84] Creating Layer conv1
I0502 02:38:47.913995 14557 net.cpp:406] conv1 <- data
I0502 02:38:47.914014 14557 net.cpp:380] conv1 -> conv1
I0502 02:38:47.915489 14557 net.cpp:122] Setting up conv1
I0502 02:38:47.915508 14557 net.cpp:129] Top shape: 64 20 24 24 (737280)
I0502 02:38:47.915513 14557 net.cpp:137] Memory required for data: 3551488
I0502 02:38:47.915540 14557 layer_factory.hpp:77] Creating layer pool1
I0502 02:38:47.915558 14557 net.cpp:84] Creating Layer pool1
I0502 02:38:47.915592 14557 net.cpp:406] pool1 <- conv1
I0502 02:38:47.915603 14557 net.cpp:380] pool1 -> pool1
I0502 02:38:47.915704 14557 net.cpp:122] Setting up pool1
I0502 02:38:47.915714 14557 net.cpp:129] Top shape: 64 20 12 12 (184320)
I0502 02:38:47.915717 14557 net.cpp:137] Memory required for data: 4288768
I0502 02:38:47.915722 14557 layer_factory.hpp:77] Creating layer conv2
I0502 02:38:47.915738 14557 net.cpp:84] Creating Layer conv2
I0502 02:38:47.915745 14557 net.cpp:406] conv2 <- pool1
I0502 02:38:47.915757 14557 net.cpp:380] conv2 -> conv2
I0502 02:38:47.923497 14557 net.cpp:122] Setting up conv2
I0502 02:38:47.923631 14557 net.cpp:129] Top shape: 64 50 8 8 (204800)
I0502 02:38:47.923637 14557 net.cpp:137] Memory required for data: 5107968
I0502 02:38:47.923655 14557 layer_factory.hpp:77] Creating layer pool2
I0502 02:38:47.923673 14557 net.cpp:84] Creating Layer pool2
I0502 02:38:47.923679 14557 net.cpp:406] pool2 <- conv2
I0502 02:38:47.923689 14557 net.cpp:380] pool2 -> pool2
I0502 02:38:47.923743 14557 net.cpp:122] Setting up pool2
I0502 02:38:47.923750 14557 net.cpp:129] Top shape: 64 50 4 4 (51200)
I0502 02:38:47.923755 14557 net.cpp:137] Memory required for data: 5312768
I0502 02:38:47.923760 14557 layer_factory.hpp:77] Creating layer ip1
I0502 02:38:47.923770 14557 net.cpp:84] Creating Layer ip1
I0502 02:38:47.923775 14557 net.cpp:406] ip1 <- pool2
I0502 02:38:47.923785 14557 net.cpp:380] ip1 -> ip1
I0502 02:38:47.927268 14557 net.cpp:122] Setting up ip1
I0502 02:38:47.927289 14557 net.cpp:129] Top shape: 64 500 (32000)
I0502 02:38:47.927294 14557 net.cpp:137] Memory required for data: 5440768
I0502 02:38:47.927309 14557 layer_factory.hpp:77] Creating layer relu1
I0502 02:38:47.927325 14557 net.cpp:84] Creating Layer relu1
I0502 02:38:47.927332 14557 net.cpp:406] relu1 <- ip1
I0502 02:38:47.927341 14557 net.cpp:367] relu1 -> ip1 (in-place)
I0502 02:38:47.927357 14557 net.cpp:122] Setting up relu1
I0502 02:38:47.927366 14557 net.cpp:129] Top shape: 64 500 (32000)
I0502 02:38:47.927371 14557 net.cpp:137] Memory required for data: 5568768
I0502 02:38:47.927376 14557 layer_factory.hpp:77] Creating layer ip2
I0502 02:38:47.927386 14557 net.cpp:84] Creating Layer ip2
I0502 02:38:47.927393 14557 net.cpp:406] ip2 <- ip1
I0502 02:38:47.927404 14557 net.cpp:380] ip2 -> ip2
I0502 02:38:47.927960 14557 net.cpp:122] Setting up ip2
I0502 02:38:47.927973 14557 net.cpp:129] Top shape: 64 52 (3328)
I0502 02:38:47.927975 14557 net.cpp:137] Memory required for data: 5582080
I0502 02:38:47.927983 14557 layer_factory.hpp:77] Creating layer loss
I0502 02:38:47.927996 14557 net.cpp:84] Creating Layer loss
I0502 02:38:47.928004 14557 net.cpp:406] loss <- ip2
I0502 02:38:47.928010 14557 net.cpp:406] loss <- label
I0502 02:38:47.928021 14557 net.cpp:380] loss -> loss
I0502 02:38:47.928042 14557 layer_factory.hpp:77] Creating layer loss
…
I0502 02:38:47.928437 14557 solver.cpp:190] Creating test net (#0) specified by net file: models/sp_final_lenet/lenet_train_val.prototxt
I0502 02:38:47.928483 14557 net.cpp:294] The NetState phase (1) differed from the phase (0) specified by a rule in layer data
I0502 02:38:47.928573 14557 net.cpp:51] Initializing net from parameters: 
name: "LeNet"
state {
  phase: TEST
}
layer {
  name: "data"
  type: "Data"
  top: "data"
  top: "label"
  include {
    phase: TEST
  }
  transform_param {
    scale: 0.00390625
  }
  data_param {
    source: "examples/final_sp/sp_val_lmdb"
    batch_size: 64
    backend: LMDB
  }
}
layer {
  name: "conv1"
  type: "Convolution"
  bottom: "data"
  top: "conv1"
  param {
    lr_mult: 1
  }
  param {
    lr_mult: 2
  }
  convolution_param {
    num_output: 20
    kernel_size: 5
    stride: 1
    weight_filler {
      type: "xavier"
    }
    bias_filler {
      type: "constant"
    }
  }
}
layer {
  name: "pool1"
  type: "Pooling"
  bottom: "conv1"
  top: "pool1"
  pooling_param {
    pool: MAX
    kernel_size: 2
    stride: 2
  }
}
layer {
  name: "conv2"
  type: "Convolution"
  bottom: "pool1"
  top: "conv2"
  param {
    lr_mult: 1
  }
  param {
    lr_mult: 2
  }
  convolution_param {
    num_output: 50
    kernel_size: 5
    stride: 1
    weight_filler {
      type: "xavier"
    }
    bias_filler {
      type: "constant"
    }
  }
}
layer {
  name: "pool2"
  type: "Pooling"
  bottom: "conv2"
  top: "pool2"
  pooling_param {
    pool: MAX
    kernel_size: 2
    stride: 2
  }
}
layer {
  name: "ip1"
  type: "InnerProduct"
  bottom: "pool2"
  top: "ip1"
  param {
    lr_mult: 1
  }
  param {
    lr_mult: 2
  }
  inner_product_param {
    num_output: 500
    weight_filler {
      type: "xavier"
    }
    bias_filler {
      type: "constant"
    }
  }
}
layer {
  name: "relu1"
  type: "ReLU"
  bottom: "ip1"
  top: "ip1"
}
layer {
  name: "ip2"
  type: "InnerProduct"
  bottom: "ip1"
  top: "ip2"
  param {
    lr_mult: 1
  }
  param {
    lr_mult: 2
  }
  inner_product_param {
    num_output: 52
    weight_filler {
      type: "xavier"
    }
    bias_filler {
      type: "constant"
    }
  }
}
layer {
  name: "accuracy"
  type: "Accuracy"
  bottom: "ip2"
  bottom: "label"
  top: "accuracy"
  include {
    phase: TEST
  }
}
layer {
  name: "loss"
  type: "SoftmaxWithLoss"
  bottom: "ip2"
  bottom: "label"
  top: "loss"
}
I0502 02:38:47.928670 14557 layer_factory.hpp:77] Creating layer data
I0502 02:38:47.928752 14557 db_lmdb.cpp:35] Opened lmdb examples/final_sp/sp_val_lmdb
I0502 02:38:47.928784 14557 net.cpp:84] Creating Layer data
I0502 02:38:47.928794 14557 net.cpp:380] data -> data
I0502 02:38:47.928807 14557 net.cpp:380] data -> label
I0502 02:38:47.928931 14557 data_layer.cpp:45] output data size: 64,3,28,28
I0502 02:38:47.939323 14557 net.cpp:122] Setting up data
I0502 02:38:47.939352 14557 net.cpp:129] Top shape: 64 3 28 28 (150528)
I0502 02:38:47.939360 14557 net.cpp:129] Top shape: 64 (64)
I0502 02:38:47.939368 14557 net.cpp:137] Memory required for data: 602368
I0502 02:38:47.939376 14557 layer_factory.hpp:77] Creating layer label_data_1_split
I0502 02:38:47.939395 14557 net.cpp:84] Creating Layer label_data_1_split
I0502 02:38:47.939402 14557 net.cpp:406] label_data_1_split <- label
I0502 02:38:47.939414 14557 net.cpp:380] label_data_1_split -> label_data_1_split_0
I0502 02:38:47.939427 14557 net.cpp:380] label_data_1_split -> label_data_1_split_1
I0502 02:38:47.939494 14557 net.cpp:122] Setting up label_data_1_split
I0502 02:38:47.939504 14557 net.cpp:129] Top shape: 64 (64)
I0502 02:38:47.939510 14557 net.cpp:129] Top shape: 64 (64)
I0502 02:38:47.939515 14557 net.cpp:137] Memory required for data: 602880
I0502 02:38:47.939520 14557 layer_factory.hpp:77] Creating layer conv1
I0502 02:38:47.939538 14557 net.cpp:84] Creating Layer conv1
I0502 02:38:47.939543 14557 net.cpp:406] conv1 <- data
I0502 02:38:47.939556 14557 net.cpp:380] conv1 -> conv1
I0502 02:38:47.939790 14557 net.cpp:122] Setting up conv1
I0502 02:38:47.939800 14557 net.cpp:129] Top shape: 64 20 24 24 (737280)
I0502 02:38:47.939805 14557 net.cpp:137] Memory required for data: 3552000
I0502 02:38:47.939821 14557 layer_factory.hpp:77] Creating layer pool1
I0502 02:38:47.939846 14557 net.cpp:84] Creating Layer pool1
I0502 02:38:47.939852 14557 net.cpp:406] pool1 <- conv1
I0502 02:38:47.939860 14557 net.cpp:380] pool1 -> pool1
I0502 02:38:47.939908 14557 net.cpp:122] Setting up pool1
I0502 02:38:47.939916 14557 net.cpp:129] Top shape: 64 20 12 12 (184320)
I0502 02:38:47.939921 14557 net.cpp:137] Memory required for data: 4289280
I0502 02:38:47.939926 14557 layer_factory.hpp:77] Creating layer conv2
I0502 02:38:47.939941 14557 net.cpp:84] Creating Layer conv2
I0502 02:38:47.939949 14557 net.cpp:406] conv2 <- pool1
I0502 02:38:47.939960 14557 net.cpp:380] conv2 -> conv2
I0502 02:38:47.940733 14557 net.cpp:122] Setting up conv2
I0502 02:38:47.940752 14557 net.cpp:129] Top shape: 64 50 8 8 (204800)
I0502 02:38:47.940758 14557 net.cpp:137] Memory required for data: 5108480
I0502 02:38:47.940771 14557 layer_factory.hpp:77] Creating layer pool2
I0502 02:38:47.940783 14557 net.cpp:84] Creating Layer pool2
I0502 02:38:47.940788 14557 net.cpp:406] pool2 <- conv2
I0502 02:38:47.940795 14557 net.cpp:380] pool2 -> pool2
I0502 02:38:47.940847 14557 net.cpp:122] Setting up pool2
I0502 02:38:47.940856 14557 net.cpp:129] Top shape: 64 50 4 4 (51200)
I0502 02:38:47.940861 14557 net.cpp:137] Memory required for data: 5313280
I0502 02:38:47.940865 14557 layer_factory.hpp:77] Creating layer ip1
I0502 02:38:47.940876 14557 net.cpp:84] Creating Layer ip1
I0502 02:38:47.940881 14557 net.cpp:406] ip1 <- pool2
I0502 02:38:47.940891 14557 net.cpp:380] ip1 -> ip1
I0502 02:38:47.946081 14557 net.cpp:122] Setting up ip1
I0502 02:38:47.946101 14557 net.cpp:129] Top shape: 64 500 (32000)
I0502 02:38:47.946107 14557 net.cpp:137] Memory required for data: 5441280
I0502 02:38:47.946122 14557 layer_factory.hpp:77] Creating layer relu1
I0502 02:38:47.946135 14557 net.cpp:84] Creating Layer relu1
I0502 02:38:47.946141 14557 net.cpp:406] relu1 <- ip1
I0502 02:38:47.946149 14557 net.cpp:367] relu1 -> ip1 (in-place)
I0502 02:38:47.946159 14557 net.cpp:122] Setting up relu1
I0502 02:38:47.946166 14557 net.cpp:129] Top shape: 64 500 (32000)
I0502 02:38:47.946169 14557 net.cpp:137] Memory required for data: 5569280
I0502 02:38:47.946174 14557 layer_factory.hpp:77] Creating layer ip2
I0502 02:38:47.946187 14557 net.cpp:84] Creating Layer ip2
I0502 02:38:47.946192 14557 net.cpp:406] ip2 <- ip1
I0502 02:38:47.946202 14557 net.cpp:380] ip2 -> ip2
I0502 02:38:47.946630 14557 net.cpp:122] Setting up ip2
I0502 02:38:47.946640 14557 net.cpp:129] Top shape: 64 52 (3328)
I0502 02:38:47.946645 14557 net.cpp:137] Memory required for data: 5582592
I0502 02:38:47.946653 14557 layer_factory.hpp:77] Creating layer ip2_ip2_0_split
I0502 02:38:47.946663 14557 net.cpp:84] Creating Layer ip2_ip2_0_split
I0502 02:38:47.946668 14557 net.cpp:406] ip2_ip2_0_split <- ip2
I0502 02:38:47.946676 14557 net.cpp:380] ip2_ip2_0_split -> ip2_ip2_0_split_0
I0502 02:38:47.946686 14557 net.cpp:380] ip2_ip2_0_split -> ip2_ip2_0_split_1
I0502 02:38:47.946730 14557 net.cpp:122] Setting up ip2_ip2_0_split
I0502 02:38:47.946738 14557 net.cpp:129] Top shape: 64 52 (3328)
I0502 02:38:47.946745 14557 net.cpp:129] Top shape: 64 52 (3328)
I0502 02:38:47.946749 14557 net.cpp:137] Memory required for data: 5609216
I0502 02:38:47.946754 14557 layer_factory.hpp:77] Creating layer accuracy
I0502 02:38:47.946763 14557 net.cpp:84] Creating Layer accuracy
I0502 02:38:47.946770 14557 net.cpp:406] accuracy <- ip2_ip2_0_split_0
I0502 02:38:47.946776 14557 net.cpp:406] accuracy <- label_data_1_split_0
I0502 02:38:47.946784 14557 net.cpp:380] accuracy -> accuracy
…
