…
I0509 14:54:40.798672  5085 net.cpp:294] The NetState phase (0) differed from the phase (1) specified by a rule in layer data
I0509 14:54:40.798683  5085 net.cpp:294] The NetState phase (0) differed from the phase (1) specified by a rule in layer accuracy
I0509 14:54:40.798748  5085 net.cpp:51] Initializing net from parameters: 
name: "LeNet"
state {
  phase: TRAIN
  level: 0
  stage: ""
}
layer {
  name: "data"
  type: "Data"
  top: "data"
  top: "label"
  include {
    phase: TRAIN
  }
  transform_param {
    scale: 0.00390625
  }
  data_param {
    source: "examples/final_sp/sp_train_lmdb_int1"
    batch_size: 64
    backend: LMDB
  }
}
layer {
  name: "conv1"
  type: "Convolution"
  bottom: "data"
  top: "conv1"
  param {
    lr_mult: 1
  }
  param {
    lr_mult: 2
  }
  convolution_param {
    num_output: 20
    kernel_size: 5
    stride: 1
    weight_filler {
      type: "xavier"
    }
    bias_filler {
      type: "constant"
    }
  }
}
layer {
  name: "pool1"
  type: "Pooling"
  bottom: "conv1"
  top: "pool1"
  pooling_param {
    pool: MAX
    kernel_size: 2
    stride: 2
  }
}
layer {
  name: "conv2"
  type: "Convolution"
  bottom: "pool1"
  top: "conv2"
  param {
    lr_mult: 1
  }
  param {
    lr_mult: 2
  }
  convolution_param {
    num_output: 50
    kernel_size: 5
    stride: 1
    weight_filler {
      type: "xavier"
    }
    bias_filler {
      type: "constant"
    }
  }
}
layer {
  name: "pool2"
  type: "Pooling"
  bottom: "conv2"
  top: "pool2"
  pooling_param {
    pool: MAX
    kernel_size: 2
    stride: 2
  }
}
layer {
  name: "ip1"
  type: "InnerProduct"
  bottom: "pool2"
  top: "ip1"
  param {
    lr_mult: 1
  }
  param {
    lr_mult: 2
  }
  inner_product_param {
    num_output: 500
    weight_filler {
      type: "xavier"
    }
    bias_filler {
      type: "constant"
    }
  }
}
layer {
  name: "relu1"
  type: "ReLU"
  bottom: "ip1"
  top: "ip1"
}
layer {
  name: "ip2"
  type: "InnerProduct"
  bottom: "ip1"
  top: "ip2"
  param {
    lr_mult: 1
  }
  param {
    lr_mult: 2
  }
  inner_product_param {
    num_output: 52
    weight_filler {
      type: "xavier"
    }
    bias_filler {
      type: "constant"
    }
  }
}
layer {
  name: "loss"
  type: "SoftmaxWithLoss"
  bottom: "ip2"
  bottom: "label"
  top: "loss"
}
I0509 14:54:40.798799  5085 layer_factory.hpp:77] Creating layer data
I0509 14:54:41.342988  5085 db_lmdb.cpp:35] Opened lmdb examples/final_sp/sp_train_lmdb_int1
I0509 14:54:41.672420  5085 net.cpp:84] Creating Layer data
I0509 14:54:41.672464  5085 net.cpp:380] data -> data
I0509 14:54:41.672502  5085 net.cpp:380] data -> label
I0509 14:54:41.673524  5085 data_layer.cpp:45] output data size: 64,3,28,28
I0509 14:54:41.679652  5085 net.cpp:122] Setting up data
I0509 14:54:41.679697  5085 net.cpp:129] Top shape: 64 3 28 28 (150528)
I0509 14:54:41.679710  5085 net.cpp:129] Top shape: 64 (64)
I0509 14:54:41.679719  5085 net.cpp:137] Memory required for data: 602368
I0509 14:54:41.679738  5085 layer_factory.hpp:77] Creating layer conv1
I0509 14:54:41.679778  5085 net.cpp:84] Creating Layer conv1
I0509 14:54:41.679791  5085 net.cpp:406] conv1 <- data
I0509 14:54:41.679818  5085 net.cpp:380] conv1 -> conv1
I0509 14:54:41.682497  5085 net.cpp:122] Setting up conv1
I0509 14:54:41.682529  5085 net.cpp:129] Top shape: 64 20 24 24 (737280)
I0509 14:54:41.682538  5085 net.cpp:137] Memory required for data: 3551488
I0509 14:54:41.682595  5085 layer_factory.hpp:77] Creating layer pool1
I0509 14:54:41.682624  5085 net.cpp:84] Creating Layer pool1
I0509 14:54:41.682656  5085 net.cpp:406] pool1 <- conv1
I0509 14:54:41.682673  5085 net.cpp:380] pool1 -> pool1
I0509 14:54:41.682763  5085 net.cpp:122] Setting up pool1
I0509 14:54:41.682780  5085 net.cpp:129] Top shape: 64 20 12 12 (184320)
I0509 14:54:41.682790  5085 net.cpp:137] Memory required for data: 4288768
I0509 14:54:41.682797  5085 layer_factory.hpp:77] Creating layer conv2
I0509 14:54:41.682821  5085 net.cpp:84] Creating Layer conv2
I0509 14:54:41.682831  5085 net.cpp:406] conv2 <- pool1
I0509 14:54:41.682845  5085 net.cpp:380] conv2 -> conv2
I0509 14:54:41.684460  5085 net.cpp:122] Setting up conv2
I0509 14:54:41.684499  5085 net.cpp:129] Top shape: 64 50 8 8 (204800)
I0509 14:54:41.684510  5085 net.cpp:137] Memory required for data: 5107968
I0509 14:54:41.684551  5085 layer_factory.hpp:77] Creating layer pool2
I0509 14:54:41.684568  5085 net.cpp:84] Creating Layer pool2
I0509 14:54:41.684581  5085 net.cpp:406] pool2 <- conv2
I0509 14:54:41.684597  5085 net.cpp:380] pool2 -> pool2
I0509 14:54:41.684680  5085 net.cpp:122] Setting up pool2
I0509 14:54:41.684696  5085 net.cpp:129] Top shape: 64 50 4 4 (51200)
I0509 14:54:41.684705  5085 net.cpp:137] Memory required for data: 5312768
I0509 14:54:41.684712  5085 layer_factory.hpp:77] Creating layer ip1
I0509 14:54:41.684729  5085 net.cpp:84] Creating Layer ip1
I0509 14:54:41.684738  5085 net.cpp:406] ip1 <- pool2
I0509 14:54:41.684753  5085 net.cpp:380] ip1 -> ip1
I0509 14:54:41.689589  5085 net.cpp:122] Setting up ip1
I0509 14:54:41.689617  5085 net.cpp:129] Top shape: 64 500 (32000)
I0509 14:54:41.689623  5085 net.cpp:137] Memory required for data: 5440768
I0509 14:54:41.689649  5085 layer_factory.hpp:77] Creating layer relu1
I0509 14:54:41.689667  5085 net.cpp:84] Creating Layer relu1
I0509 14:54:41.689677  5085 net.cpp:406] relu1 <- ip1
I0509 14:54:41.689690  5085 net.cpp:367] relu1 -> ip1 (in-place)
I0509 14:54:41.689709  5085 net.cpp:122] Setting up relu1
I0509 14:54:41.689721  5085 net.cpp:129] Top shape: 64 500 (32000)
I0509 14:54:41.689728  5085 net.cpp:137] Memory required for data: 5568768
I0509 14:54:41.689736  5085 layer_factory.hpp:77] Creating layer ip2
I0509 14:54:41.689751  5085 net.cpp:84] Creating Layer ip2
I0509 14:54:41.689761  5085 net.cpp:406] ip2 <- ip1
I0509 14:54:41.689803  5085 net.cpp:380] ip2 -> ip2
I0509 14:54:41.690274  5085 net.cpp:122] Setting up ip2
I0509 14:54:41.690291  5085 net.cpp:129] Top shape: 64 52 (3328)
I0509 14:54:41.690299  5085 net.cpp:137] Memory required for data: 5582080
I0509 14:54:41.690315  5085 layer_factory.hpp:77] Creating layer loss
I0509 14:54:41.690333  5085 net.cpp:84] Creating Layer loss
I0509 14:54:41.690345  5085 net.cpp:406] loss <- ip2
I0509 14:54:41.690356  5085 net.cpp:406] loss <- label
I0509 14:54:41.690374  5085 net.cpp:380] loss -> loss
I0509 14:54:41.690404  5085 layer_factory.hpp:77] Creating layer loss
…
I0509 14:54:41.691032  5085 solver.cpp:190] Creating test net (#0) specified by net file: models/sp_lenet_int1/lenet_train_val.prototxt
I0509 14:54:41.691098  5085 net.cpp:294] The NetState phase (1) differed from the phase (0) specified by a rule in layer data
I0509 14:54:41.691279  5085 net.cpp:51] Initializing net from parameters: 
name: "LeNet"
state {
  phase: TEST
}
layer {
  name: "data"
  type: "Data"
  top: "data"
  top: "label"
  include {
    phase: TEST
  }
  transform_param {
    scale: 0.00390625
  }
  data_param {
    source: "examples/final_sp/sp_val_lmdb_int1"
    batch_size: 64
    backend: LMDB
  }
}
layer {
  name: "conv1"
  type: "Convolution"
  bottom: "data"
  top: "conv1"
  param {
    lr_mult: 1
  }
  param {
    lr_mult: 2
  }
  convolution_param {
    num_output: 20
    kernel_size: 5
    stride: 1
    weight_filler {
      type: "xavier"
    }
    bias_filler {
      type: "constant"
    }
  }
}
layer {
  name: "pool1"
  type: "Pooling"
  bottom: "conv1"
  top: "pool1"
  pooling_param {
    pool: MAX
    kernel_size: 2
    stride: 2
  }
}
layer {
  name: "conv2"
  type: "Convolution"
  bottom: "pool1"
  top: "conv2"
  param {
    lr_mult: 1
  }
  param {
    lr_mult: 2
  }
  convolution_param {
    num_output: 50
    kernel_size: 5
    stride: 1
    weight_filler {
      type: "xavier"
    }
    bias_filler {
      type: "constant"
    }
  }
}
layer {
  name: "pool2"
  type: "Pooling"
  bottom: "conv2"
  top: "pool2"
  pooling_param {
    pool: MAX
    kernel_size: 2
    stride: 2
  }
}
layer {
  name: "ip1"
  type: "InnerProduct"
  bottom: "pool2"
  top: "ip1"
  param {
    lr_mult: 1
  }
  param {
    lr_mult: 2
  }
  inner_product_param {
    num_output: 500
    weight_filler {
      type: "xavier"
    }
    bias_filler {
      type: "constant"
    }
  }
}
layer {
  name: "relu1"
  type: "ReLU"
  bottom: "ip1"
  top: "ip1"
}
layer {
  name: "ip2"
  type: "InnerProduct"
  bottom: "ip1"
  top: "ip2"
  param {
    lr_mult: 1
  }
  param {
    lr_mult: 2
  }
  inner_product_param {
    num_output: 52
    weight_filler {
      type: "xavier"
    }
    bias_filler {
      type: "constant"
    }
  }
}
layer {
  name: "accuracy"
  type: "Accuracy"
  bottom: "ip2"
  bottom: "label"
  top: "accuracy"
  include {
    phase: TEST
  }
}
layer {
  name: "loss"
  type: "SoftmaxWithLoss"
  bottom: "ip2"
  bottom: "label"
  top: "loss"
}
I0509 14:54:41.691424  5085 layer_factory.hpp:77] Creating layer data
I0509 14:54:41.712276  5085 db_lmdb.cpp:35] Opened lmdb examples/final_sp/sp_val_lmdb_int1
I0509 14:54:41.712859  5085 net.cpp:84] Creating Layer data
I0509 14:54:41.712882  5085 net.cpp:380] data -> data
I0509 14:54:41.712904  5085 net.cpp:380] data -> label
I0509 14:54:41.713045  5085 data_layer.cpp:45] output data size: 64,3,28,28
I0509 14:54:41.722725  5085 net.cpp:122] Setting up data
I0509 14:54:41.722751  5085 net.cpp:129] Top shape: 64 3 28 28 (150528)
I0509 14:54:41.722759  5085 net.cpp:129] Top shape: 64 (64)
I0509 14:54:41.722764  5085 net.cpp:137] Memory required for data: 602368
I0509 14:54:41.722772  5085 layer_factory.hpp:77] Creating layer label_data_1_split
I0509 14:54:41.722790  5085 net.cpp:84] Creating Layer label_data_1_split
I0509 14:54:41.722797  5085 net.cpp:406] label_data_1_split <- label
I0509 14:54:41.722808  5085 net.cpp:380] label_data_1_split -> label_data_1_split_0
I0509 14:54:41.722824  5085 net.cpp:380] label_data_1_split -> label_data_1_split_1
I0509 14:54:41.722887  5085 net.cpp:122] Setting up label_data_1_split
I0509 14:54:41.722894  5085 net.cpp:129] Top shape: 64 (64)
I0509 14:54:41.722898  5085 net.cpp:129] Top shape: 64 (64)
I0509 14:54:41.722901  5085 net.cpp:137] Memory required for data: 602880
I0509 14:54:41.722905  5085 layer_factory.hpp:77] Creating layer conv1
I0509 14:54:41.722919  5085 net.cpp:84] Creating Layer conv1
I0509 14:54:41.722925  5085 net.cpp:406] conv1 <- data
I0509 14:54:41.722934  5085 net.cpp:380] conv1 -> conv1
I0509 14:54:41.723192  5085 net.cpp:122] Setting up conv1
I0509 14:54:41.723202  5085 net.cpp:129] Top shape: 64 20 24 24 (737280)
I0509 14:54:41.723206  5085 net.cpp:137] Memory required for data: 3552000
I0509 14:54:41.723218  5085 layer_factory.hpp:77] Creating layer pool1
I0509 14:54:41.723240  5085 net.cpp:84] Creating Layer pool1
I0509 14:54:41.723244  5085 net.cpp:406] pool1 <- conv1
I0509 14:54:41.723250  5085 net.cpp:380] pool1 -> pool1
I0509 14:54:41.723291  5085 net.cpp:122] Setting up pool1
I0509 14:54:41.723299  5085 net.cpp:129] Top shape: 64 20 12 12 (184320)
I0509 14:54:41.723302  5085 net.cpp:137] Memory required for data: 4289280
I0509 14:54:41.723305  5085 layer_factory.hpp:77] Creating layer conv2
I0509 14:54:41.723320  5085 net.cpp:84] Creating Layer conv2
I0509 14:54:41.723325  5085 net.cpp:406] conv2 <- pool1
I0509 14:54:41.723331  5085 net.cpp:380] conv2 -> conv2
I0509 14:54:41.723676  5085 net.cpp:122] Setting up conv2
I0509 14:54:41.723685  5085 net.cpp:129] Top shape: 64 50 8 8 (204800)
I0509 14:54:41.723688  5085 net.cpp:137] Memory required for data: 5108480
I0509 14:54:41.723701  5085 layer_factory.hpp:77] Creating layer pool2
I0509 14:54:41.723708  5085 net.cpp:84] Creating Layer pool2
I0509 14:54:41.723713  5085 net.cpp:406] pool2 <- conv2
I0509 14:54:41.723721  5085 net.cpp:380] pool2 -> pool2
I0509 14:54:41.723775  5085 net.cpp:122] Setting up pool2
I0509 14:54:41.723783  5085 net.cpp:129] Top shape: 64 50 4 4 (51200)
I0509 14:54:41.723786  5085 net.cpp:137] Memory required for data: 5313280
I0509 14:54:41.723789  5085 layer_factory.hpp:77] Creating layer ip1
I0509 14:54:41.723796  5085 net.cpp:84] Creating Layer ip1
I0509 14:54:41.723800  5085 net.cpp:406] ip1 <- pool2
I0509 14:54:41.723822  5085 net.cpp:380] ip1 -> ip1
I0509 14:54:41.727211  5085 net.cpp:122] Setting up ip1
I0509 14:54:41.727233  5085 net.cpp:129] Top shape: 64 500 (32000)
I0509 14:54:41.727236  5085 net.cpp:137] Memory required for data: 5441280
I0509 14:54:41.727253  5085 layer_factory.hpp:77] Creating layer relu1
I0509 14:54:41.727264  5085 net.cpp:84] Creating Layer relu1
I0509 14:54:41.727269  5085 net.cpp:406] relu1 <- ip1
I0509 14:54:41.727277  5085 net.cpp:367] relu1 -> ip1 (in-place)
I0509 14:54:41.727288  5085 net.cpp:122] Setting up relu1
I0509 14:54:41.727293  5085 net.cpp:129] Top shape: 64 500 (32000)
I0509 14:54:41.727298  5085 net.cpp:137] Memory required for data: 5569280
I0509 14:54:41.727301  5085 layer_factory.hpp:77] Creating layer ip2
I0509 14:54:41.727313  5085 net.cpp:84] Creating Layer ip2
I0509 14:54:41.727318  5085 net.cpp:406] ip2 <- ip1
I0509 14:54:41.727322  5085 net.cpp:380] ip2 -> ip2
I0509 14:54:41.727892  5085 net.cpp:122] Setting up ip2
I0509 14:54:41.727905  5085 net.cpp:129] Top shape: 64 52 (3328)
I0509 14:54:41.727910  5085 net.cpp:137] Memory required for data: 5582592
I0509 14:54:41.727918  5085 layer_factory.hpp:77] Creating layer ip2_ip2_0_split
I0509 14:54:41.727926  5085 net.cpp:84] Creating Layer ip2_ip2_0_split
I0509 14:54:41.727931  5085 net.cpp:406] ip2_ip2_0_split <- ip2
I0509 14:54:41.727938  5085 net.cpp:380] ip2_ip2_0_split -> ip2_ip2_0_split_0
I0509 14:54:41.727946  5085 net.cpp:380] ip2_ip2_0_split -> ip2_ip2_0_split_1
I0509 14:54:41.727993  5085 net.cpp:122] Setting up ip2_ip2_0_split
I0509 14:54:41.728001  5085 net.cpp:129] Top shape: 64 52 (3328)
I0509 14:54:41.728006  5085 net.cpp:129] Top shape: 64 52 (3328)
I0509 14:54:41.728010  5085 net.cpp:137] Memory required for data: 5609216
I0509 14:54:41.728016  5085 layer_factory.hpp:77] Creating layer accuracy
I0509 14:54:41.728025  5085 net.cpp:84] Creating Layer accuracy
I0509 14:54:41.728029  5085 net.cpp:406] accuracy <- ip2_ip2_0_split_0
I0509 14:54:41.728032  5085 net.cpp:406] accuracy <- label_data_1_split_0
I0509 14:54:41.728037  5085 net.cpp:380] accuracy -> accuracy
…
