…
I0509 16:44:30.945266  8397 net.cpp:294] The NetState phase (0) differed from the phase (1) specified by a rule in layer data
I0509 16:44:30.945276  8397 net.cpp:294] The NetState phase (0) differed from the phase (1) specified by a rule in layer accuracy
I0509 16:44:30.945348  8397 net.cpp:51] Initializing net from parameters: 
name: "LeNet"
state {
  phase: TRAIN
  level: 0
  stage: ""
}
layer {
  name: "data"
  type: "Data"
  top: "data"
  top: "label"
  include {
    phase: TRAIN
  }
  transform_param {
    scale: 0.00390625
  }
  data_param {
    source: "examples/final_sp/sp_train_lmdb_int3"
    batch_size: 64
    backend: LMDB
  }
}
layer {
  name: "conv1"
  type: "Convolution"
  bottom: "data"
  top: "conv1"
  param {
    lr_mult: 1
  }
  param {
    lr_mult: 2
  }
  convolution_param {
    num_output: 20
    kernel_size: 5
    stride: 1
    weight_filler {
      type: "xavier"
    }
    bias_filler {
      type: "constant"
    }
  }
}
layer {
  name: "pool1"
  type: "Pooling"
  bottom: "conv1"
  top: "pool1"
  pooling_param {
    pool: MAX
    kernel_size: 2
    stride: 2
  }
}
layer {
  name: "conv2"
  type: "Convolution"
  bottom: "pool1"
  top: "conv2"
  param {
    lr_mult: 1
  }
  param {
    lr_mult: 2
  }
  convolution_param {
    num_output: 50
    kernel_size: 5
    stride: 1
    weight_filler {
      type: "xavier"
    }
    bias_filler {
      type: "constant"
    }
  }
}
layer {
  name: "pool2"
  type: "Pooling"
  bottom: "conv2"
  top: "pool2"
  pooling_param {
    pool: MAX
    kernel_size: 2
    stride: 2
  }
}
layer {
  name: "ip1"
  type: "InnerProduct"
  bottom: "pool2"
  top: "ip1"
  param {
    lr_mult: 1
  }
  param {
    lr_mult: 2
  }
  inner_product_param {
    num_output: 500
    weight_filler {
      type: "xavier"
    }
    bias_filler {
      type: "constant"
    }
  }
}
layer {
  name: "relu1"
  type: "ReLU"
  bottom: "ip1"
  top: "ip1"
}
layer {
  name: "ip2"
  type: "InnerProduct"
  bottom: "ip1"
  top: "ip2"
  param {
    lr_mult: 1
  }
  param {
    lr_mult: 2
  }
  inner_product_param {
    num_output: 52
    weight_filler {
      type: "xavier"
    }
    bias_filler {
      type: "constant"
    }
  }
}
layer {
  name: "loss"
  type: "SoftmaxWithLoss"
  bottom: "ip2"
  bottom: "label"
  top: "loss"
}
I0509 16:44:30.945390  8397 layer_factory.hpp:77] Creating layer data
I0509 16:44:30.974884  8397 db_lmdb.cpp:35] Opened lmdb examples/final_sp/sp_train_lmdb_int3
I0509 16:44:30.984813  8397 net.cpp:84] Creating Layer data
I0509 16:44:30.984876  8397 net.cpp:380] data -> data
I0509 16:44:30.984935  8397 net.cpp:380] data -> label
I0509 16:44:30.986202  8397 data_layer.cpp:45] output data size: 64,3,28,28
I0509 16:44:30.994392  8397 net.cpp:122] Setting up data
I0509 16:44:30.994448  8397 net.cpp:129] Top shape: 64 3 28 28 (150528)
I0509 16:44:30.994464  8397 net.cpp:129] Top shape: 64 (64)
I0509 16:44:30.994477  8397 net.cpp:137] Memory required for data: 602368
I0509 16:44:30.994500  8397 layer_factory.hpp:77] Creating layer conv1
I0509 16:44:30.994596  8397 net.cpp:84] Creating Layer conv1
I0509 16:44:30.994619  8397 net.cpp:406] conv1 <- data
I0509 16:44:30.994657  8397 net.cpp:380] conv1 -> conv1
I0509 16:44:31.002005  8397 net.cpp:122] Setting up conv1
I0509 16:44:31.002050  8397 net.cpp:129] Top shape: 64 20 24 24 (737280)
I0509 16:44:31.002060  8397 net.cpp:137] Memory required for data: 3551488
I0509 16:44:31.002100  8397 layer_factory.hpp:77] Creating layer pool1
I0509 16:44:31.002131  8397 net.cpp:84] Creating Layer pool1
I0509 16:44:31.002187  8397 net.cpp:406] pool1 <- conv1
I0509 16:44:31.002208  8397 net.cpp:380] pool1 -> pool1
I0509 16:44:31.002331  8397 net.cpp:122] Setting up pool1
I0509 16:44:31.002351  8397 net.cpp:129] Top shape: 64 20 12 12 (184320)
I0509 16:44:31.002365  8397 net.cpp:137] Memory required for data: 4288768
I0509 16:44:31.002382  8397 layer_factory.hpp:77] Creating layer conv2
I0509 16:44:31.002416  8397 net.cpp:84] Creating Layer conv2
I0509 16:44:31.002429  8397 net.cpp:406] conv2 <- pool1
I0509 16:44:31.002447  8397 net.cpp:380] conv2 -> conv2
I0509 16:44:31.003811  8397 net.cpp:122] Setting up conv2
I0509 16:44:31.003835  8397 net.cpp:129] Top shape: 64 50 8 8 (204800)
I0509 16:44:31.003844  8397 net.cpp:137] Memory required for data: 5107968
I0509 16:44:31.003866  8397 layer_factory.hpp:77] Creating layer pool2
I0509 16:44:31.003883  8397 net.cpp:84] Creating Layer pool2
I0509 16:44:31.003893  8397 net.cpp:406] pool2 <- conv2
I0509 16:44:31.003907  8397 net.cpp:380] pool2 -> pool2
I0509 16:44:31.003968  8397 net.cpp:122] Setting up pool2
I0509 16:44:31.003980  8397 net.cpp:129] Top shape: 64 50 4 4 (51200)
I0509 16:44:31.003988  8397 net.cpp:137] Memory required for data: 5312768
I0509 16:44:31.003998  8397 layer_factory.hpp:77] Creating layer ip1
I0509 16:44:31.004015  8397 net.cpp:84] Creating Layer ip1
I0509 16:44:31.004026  8397 net.cpp:406] ip1 <- pool2
I0509 16:44:31.004040  8397 net.cpp:380] ip1 -> ip1
I0509 16:44:31.009194  8397 net.cpp:122] Setting up ip1
I0509 16:44:31.009225  8397 net.cpp:129] Top shape: 64 500 (32000)
I0509 16:44:31.009230  8397 net.cpp:137] Memory required for data: 5440768
I0509 16:44:31.009248  8397 layer_factory.hpp:77] Creating layer relu1
I0509 16:44:31.009260  8397 net.cpp:84] Creating Layer relu1
I0509 16:44:31.009266  8397 net.cpp:406] relu1 <- ip1
I0509 16:44:31.009279  8397 net.cpp:367] relu1 -> ip1 (in-place)
I0509 16:44:31.009294  8397 net.cpp:122] Setting up relu1
I0509 16:44:31.009304  8397 net.cpp:129] Top shape: 64 500 (32000)
I0509 16:44:31.009308  8397 net.cpp:137] Memory required for data: 5568768
I0509 16:44:31.009315  8397 layer_factory.hpp:77] Creating layer ip2
I0509 16:44:31.009330  8397 net.cpp:84] Creating Layer ip2
I0509 16:44:31.009338  8397 net.cpp:406] ip2 <- ip1
I0509 16:44:31.009347  8397 net.cpp:380] ip2 -> ip2
I0509 16:44:31.009680  8397 net.cpp:122] Setting up ip2
I0509 16:44:31.009691  8397 net.cpp:129] Top shape: 64 52 (3328)
I0509 16:44:31.009696  8397 net.cpp:137] Memory required for data: 5582080
I0509 16:44:31.009706  8397 layer_factory.hpp:77] Creating layer loss
I0509 16:44:31.009721  8397 net.cpp:84] Creating Layer loss
I0509 16:44:31.009728  8397 net.cpp:406] loss <- ip2
I0509 16:44:31.009735  8397 net.cpp:406] loss <- label
I0509 16:44:31.009747  8397 net.cpp:380] loss -> loss
I0509 16:44:31.009770  8397 layer_factory.hpp:77] Creating layer loss
…
I0509 16:44:31.010293  8397 solver.cpp:190] Creating test net (#0) specified by net file: models/sp_lenet_int3/lenet_train_val.prototxt
I0509 16:44:31.010365  8397 net.cpp:294] The NetState phase (1) differed from the phase (0) specified by a rule in layer data
I0509 16:44:31.010486  8397 net.cpp:51] Initializing net from parameters: 
name: "LeNet"
state {
  phase: TEST
}
layer {
  name: "data"
  type: "Data"
  top: "data"
  top: "label"
  include {
    phase: TEST
  }
  transform_param {
    scale: 0.00390625
  }
  data_param {
    source: "examples/final_sp/sp_val_lmdb_int3"
    batch_size: 64
    backend: LMDB
  }
}
layer {
  name: "conv1"
  type: "Convolution"
  bottom: "data"
  top: "conv1"
  param {
    lr_mult: 1
  }
  param {
    lr_mult: 2
  }
  convolution_param {
    num_output: 20
    kernel_size: 5
    stride: 1
    weight_filler {
      type: "xavier"
    }
    bias_filler {
      type: "constant"
    }
  }
}
layer {
  name: "pool1"
  type: "Pooling"
  bottom: "conv1"
  top: "pool1"
  pooling_param {
    pool: MAX
    kernel_size: 2
    stride: 2
  }
}
layer {
  name: "conv2"
  type: "Convolution"
  bottom: "pool1"
  top: "conv2"
  param {
    lr_mult: 1
  }
  param {
    lr_mult: 2
  }
  convolution_param {
    num_output: 50
    kernel_size: 5
    stride: 1
    weight_filler {
      type: "xavier"
    }
    bias_filler {
      type: "constant"
    }
  }
}
layer {
  name: "pool2"
  type: "Pooling"
  bottom: "conv2"
  top: "pool2"
  pooling_param {
    pool: MAX
    kernel_size: 2
    stride: 2
  }
}
layer {
  name: "ip1"
  type: "InnerProduct"
  bottom: "pool2"
  top: "ip1"
  param {
    lr_mult: 1
  }
  param {
    lr_mult: 2
  }
  inner_product_param {
    num_output: 500
    weight_filler {
      type: "xavier"
    }
    bias_filler {
      type: "constant"
    }
  }
}
layer {
  name: "relu1"
  type: "ReLU"
  bottom: "ip1"
  top: "ip1"
}
layer {
  name: "ip2"
  type: "InnerProduct"
  bottom: "ip1"
  top: "ip2"
  param {
    lr_mult: 1
  }
  param {
    lr_mult: 2
  }
  inner_product_param {
    num_output: 52
    weight_filler {
      type: "xavier"
    }
    bias_filler {
      type: "constant"
    }
  }
}
layer {
  name: "accuracy"
  type: "Accuracy"
  bottom: "ip2"
  bottom: "label"
  top: "accuracy"
  include {
    phase: TEST
  }
}
layer {
  name: "loss"
  type: "SoftmaxWithLoss"
  bottom: "ip2"
  bottom: "label"
  top: "loss"
}
I0509 16:44:31.010612  8397 layer_factory.hpp:77] Creating layer data
I0509 16:44:31.018623  8397 db_lmdb.cpp:35] Opened lmdb examples/final_sp/sp_val_lmdb_int3
I0509 16:44:31.026284  8397 net.cpp:84] Creating Layer data
I0509 16:44:31.026307  8397 net.cpp:380] data -> data
I0509 16:44:31.026326  8397 net.cpp:380] data -> label
I0509 16:44:31.026432  8397 data_layer.cpp:45] output data size: 64,3,28,28
I0509 16:44:31.035782  8397 net.cpp:122] Setting up data
I0509 16:44:31.035809  8397 net.cpp:129] Top shape: 64 3 28 28 (150528)
I0509 16:44:31.035816  8397 net.cpp:129] Top shape: 64 (64)
I0509 16:44:31.035820  8397 net.cpp:137] Memory required for data: 602368
I0509 16:44:31.035828  8397 layer_factory.hpp:77] Creating layer label_data_1_split
I0509 16:44:31.035845  8397 net.cpp:84] Creating Layer label_data_1_split
I0509 16:44:31.035856  8397 net.cpp:406] label_data_1_split <- label
I0509 16:44:31.035866  8397 net.cpp:380] label_data_1_split -> label_data_1_split_0
I0509 16:44:31.035881  8397 net.cpp:380] label_data_1_split -> label_data_1_split_1
I0509 16:44:31.035929  8397 net.cpp:122] Setting up label_data_1_split
I0509 16:44:31.035938  8397 net.cpp:129] Top shape: 64 (64)
I0509 16:44:31.035943  8397 net.cpp:129] Top shape: 64 (64)
I0509 16:44:31.035948  8397 net.cpp:137] Memory required for data: 602880
I0509 16:44:31.035953  8397 layer_factory.hpp:77] Creating layer conv1
I0509 16:44:31.035966  8397 net.cpp:84] Creating Layer conv1
I0509 16:44:31.035972  8397 net.cpp:406] conv1 <- data
I0509 16:44:31.035980  8397 net.cpp:380] conv1 -> conv1
I0509 16:44:31.036209  8397 net.cpp:122] Setting up conv1
I0509 16:44:31.036219  8397 net.cpp:129] Top shape: 64 20 24 24 (737280)
I0509 16:44:31.036224  8397 net.cpp:137] Memory required for data: 3552000
I0509 16:44:31.036238  8397 layer_factory.hpp:77] Creating layer pool1
I0509 16:44:31.036260  8397 net.cpp:84] Creating Layer pool1
I0509 16:44:31.036267  8397 net.cpp:406] pool1 <- conv1
I0509 16:44:31.036273  8397 net.cpp:380] pool1 -> pool1
I0509 16:44:31.036311  8397 net.cpp:122] Setting up pool1
I0509 16:44:31.036319  8397 net.cpp:129] Top shape: 64 20 12 12 (184320)
I0509 16:44:31.036324  8397 net.cpp:137] Memory required for data: 4289280
I0509 16:44:31.036327  8397 layer_factory.hpp:77] Creating layer conv2
I0509 16:44:31.036339  8397 net.cpp:84] Creating Layer conv2
I0509 16:44:31.036345  8397 net.cpp:406] conv2 <- pool1
I0509 16:44:31.036352  8397 net.cpp:380] conv2 -> conv2
I0509 16:44:31.036718  8397 net.cpp:122] Setting up conv2
I0509 16:44:31.036728  8397 net.cpp:129] Top shape: 64 50 8 8 (204800)
I0509 16:44:31.036733  8397 net.cpp:137] Memory required for data: 5108480
I0509 16:44:31.036743  8397 layer_factory.hpp:77] Creating layer pool2
I0509 16:44:31.036751  8397 net.cpp:84] Creating Layer pool2
I0509 16:44:31.036756  8397 net.cpp:406] pool2 <- conv2
I0509 16:44:31.036762  8397 net.cpp:380] pool2 -> pool2
I0509 16:44:31.037142  8397 net.cpp:122] Setting up pool2
I0509 16:44:31.037151  8397 net.cpp:129] Top shape: 64 50 4 4 (51200)
I0509 16:44:31.037156  8397 net.cpp:137] Memory required for data: 5313280
I0509 16:44:31.037161  8397 layer_factory.hpp:77] Creating layer ip1
I0509 16:44:31.037171  8397 net.cpp:84] Creating Layer ip1
I0509 16:44:31.037178  8397 net.cpp:406] ip1 <- pool2
I0509 16:44:31.037186  8397 net.cpp:380] ip1 -> ip1
I0509 16:44:31.039716  8397 net.cpp:122] Setting up ip1
I0509 16:44:31.039734  8397 net.cpp:129] Top shape: 64 500 (32000)
I0509 16:44:31.039738  8397 net.cpp:137] Memory required for data: 5441280
I0509 16:44:31.039754  8397 layer_factory.hpp:77] Creating layer relu1
I0509 16:44:31.039770  8397 net.cpp:84] Creating Layer relu1
I0509 16:44:31.039777  8397 net.cpp:406] relu1 <- ip1
I0509 16:44:31.039784  8397 net.cpp:367] relu1 -> ip1 (in-place)
I0509 16:44:31.039793  8397 net.cpp:122] Setting up relu1
I0509 16:44:31.039800  8397 net.cpp:129] Top shape: 64 500 (32000)
I0509 16:44:31.039804  8397 net.cpp:137] Memory required for data: 5569280
I0509 16:44:31.039808  8397 layer_factory.hpp:77] Creating layer ip2
I0509 16:44:31.039820  8397 net.cpp:84] Creating Layer ip2
I0509 16:44:31.039825  8397 net.cpp:406] ip2 <- ip1
I0509 16:44:31.039832  8397 net.cpp:380] ip2 -> ip2
I0509 16:44:31.040053  8397 net.cpp:122] Setting up ip2
I0509 16:44:31.040061  8397 net.cpp:129] Top shape: 64 52 (3328)
I0509 16:44:31.040066  8397 net.cpp:137] Memory required for data: 5582592
I0509 16:44:31.040073  8397 layer_factory.hpp:77] Creating layer ip2_ip2_0_split
I0509 16:44:31.040082  8397 net.cpp:84] Creating Layer ip2_ip2_0_split
I0509 16:44:31.040087  8397 net.cpp:406] ip2_ip2_0_split <- ip2
I0509 16:44:31.040096  8397 net.cpp:380] ip2_ip2_0_split -> ip2_ip2_0_split_0
I0509 16:44:31.040107  8397 net.cpp:380] ip2_ip2_0_split -> ip2_ip2_0_split_1
I0509 16:44:31.040146  8397 net.cpp:122] Setting up ip2_ip2_0_split
I0509 16:44:31.040153  8397 net.cpp:129] Top shape: 64 52 (3328)
I0509 16:44:31.040158  8397 net.cpp:129] Top shape: 64 52 (3328)
I0509 16:44:31.040163  8397 net.cpp:137] Memory required for data: 5609216
I0509 16:44:31.040168  8397 layer_factory.hpp:77] Creating layer accuracy
I0509 16:44:31.040174  8397 net.cpp:84] Creating Layer accuracy
I0509 16:44:31.040180  8397 net.cpp:406] accuracy <- ip2_ip2_0_split_0
I0509 16:44:31.040186  8397 net.cpp:406] accuracy <- label_data_1_split_0
I0509 16:44:31.040194  8397 net.cpp:380] accuracy -> accuracy
…
