…
I0509 14:18:58.919802 20582 net.cpp:294] The NetState phase (0) differed from the phase (1) specified by a rule in layer data
I0509 14:18:58.919849 20582 net.cpp:294] The NetState phase (0) differed from the phase (1) specified by a rule in layer accuracy
I0509 14:18:58.920116 20582 net.cpp:51] Initializing net from parameters: 
name: "LeNet"
state {
  phase: TRAIN
  level: 0
  stage: ""
}
layer {
  name: "data"
  type: "Data"
  top: "data"
  top: "label"
  include {
    phase: TRAIN
  }
  transform_param {
    scale: 0.00390625
  }
  data_param {
    source: "examples/final_sp/sp_train_lmdb_int1"
    batch_size: 64
    backend: LMDB
  }
}
layer {
  name: "conv1"
  type: "Convolution"
  bottom: "data"
  top: "conv1"
  param {
    lr_mult: 1
  }
  param {
    lr_mult: 2
  }
  convolution_param {
    num_output: 20
    kernel_size: 5
    stride: 1
    weight_filler {
      type: "xavier"
    }
    bias_filler {
      type: "constant"
    }
  }
}
layer {
  name: "pool1"
  type: "Pooling"
  bottom: "conv1"
  top: "pool1"
  pooling_param {
    pool: MAX
    kernel_size: 2
    stride: 2
  }
}
layer {
  name: "conv2"
  type: "Convolution"
  bottom: "pool1"
  top: "conv2"
  param {
    lr_mult: 1
  }
  param {
    lr_mult: 2
  }
  convolution_param {
    num_output: 50
    kernel_size: 5
    stride: 1
    weight_filler {
      type: "xavier"
    }
    bias_filler {
      type: "constant"
    }
  }
}
layer {
  name: "pool2"
  type: "Pooling"
  bottom: "conv2"
  top: "pool2"
  pooling_param {
    pool: MAX
    kernel_size: 2
    stride: 2
  }
}
layer {
  name: "ip1"
  type: "InnerProduct"
  bottom: "pool2"
  top: "ip1"
  param {
    lr_mult: 1
  }
  param {
    lr_mult: 2
  }
  inner_product_param {
    num_output: 500
    weight_filler {
      type: "xavier"
    }
    bias_filler {
      type: "constant"
    }
  }
}
layer {
  name: "relu1"
  type: "ReLU"
  bottom: "ip1"
  top: "ip1"
}
layer {
  name: "ip2"
  type: "InnerProduct"
  bottom: "ip1"
  top: "ip2"
  param {
    lr_mult: 1
  }
  param {
    lr_mult: 2
  }
  inner_product_param {
    num_output: 52
    weight_filler {
      type: "xavier"
    }
    bias_filler {
      type: "constant"
    }
  }
}
layer {
  name: "loss"
  type: "SoftmaxWithLoss"
  bottom: "ip2"
  bottom: "label"
  top: "loss"
}
I0509 14:18:58.920295 20582 layer_factory.hpp:77] Creating layer data
I0509 14:18:59.296762 20582 db_lmdb.cpp:35] Opened lmdb examples/final_sp/sp_train_lmdb_int1
I0509 14:18:59.307260 20582 net.cpp:84] Creating Layer data
I0509 14:18:59.307382 20582 net.cpp:380] data -> data
I0509 14:18:59.307520 20582 net.cpp:380] data -> label
I0509 14:18:59.310230 20582 data_layer.cpp:45] output data size: 64,3,28,28
I0509 14:18:59.322418 20582 net.cpp:122] Setting up data
I0509 14:18:59.322499 20582 net.cpp:129] Top shape: 64 3 28 28 (150528)
I0509 14:18:59.322525 20582 net.cpp:129] Top shape: 64 (64)
I0509 14:18:59.322546 20582 net.cpp:137] Memory required for data: 602368
I0509 14:18:59.322584 20582 layer_factory.hpp:77] Creating layer conv1
I0509 14:18:59.322669 20582 net.cpp:84] Creating Layer conv1
I0509 14:18:59.322705 20582 net.cpp:406] conv1 <- data
I0509 14:18:59.322793 20582 net.cpp:380] conv1 -> conv1
I0509 14:18:59.329485 20582 net.cpp:122] Setting up conv1
I0509 14:18:59.329566 20582 net.cpp:129] Top shape: 64 20 24 24 (737280)
I0509 14:18:59.329599 20582 net.cpp:137] Memory required for data: 3551488
I0509 14:18:59.329691 20582 layer_factory.hpp:77] Creating layer pool1
I0509 14:18:59.329752 20582 net.cpp:84] Creating Layer pool1
I0509 14:18:59.329895 20582 net.cpp:406] pool1 <- conv1
I0509 14:18:59.329941 20582 net.cpp:380] pool1 -> pool1
I0509 14:18:59.330502 20582 net.cpp:122] Setting up pool1
I0509 14:18:59.330878 20582 net.cpp:129] Top shape: 64 20 12 12 (184320)
I0509 14:18:59.330912 20582 net.cpp:137] Memory required for data: 4288768
I0509 14:18:59.330935 20582 layer_factory.hpp:77] Creating layer conv2
I0509 14:18:59.330991 20582 net.cpp:84] Creating Layer conv2
I0509 14:18:59.331269 20582 net.cpp:406] conv2 <- pool1
I0509 14:18:59.331336 20582 net.cpp:380] conv2 -> conv2
I0509 14:18:59.335007 20582 net.cpp:122] Setting up conv2
I0509 14:18:59.335180 20582 net.cpp:129] Top shape: 64 50 8 8 (204800)
I0509 14:18:59.335204 20582 net.cpp:137] Memory required for data: 5107968
I0509 14:18:59.335242 20582 layer_factory.hpp:77] Creating layer pool2
I0509 14:18:59.335289 20582 net.cpp:84] Creating Layer pool2
I0509 14:18:59.335311 20582 net.cpp:406] pool2 <- conv2
I0509 14:18:59.335340 20582 net.cpp:380] pool2 -> pool2
I0509 14:18:59.335486 20582 net.cpp:122] Setting up pool2
I0509 14:18:59.335513 20582 net.cpp:129] Top shape: 64 50 4 4 (51200)
I0509 14:18:59.335533 20582 net.cpp:137] Memory required for data: 5312768
I0509 14:18:59.335549 20582 layer_factory.hpp:77] Creating layer ip1
I0509 14:18:59.335590 20582 net.cpp:84] Creating Layer ip1
I0509 14:18:59.335606 20582 net.cpp:406] ip1 <- pool2
I0509 14:18:59.335633 20582 net.cpp:380] ip1 -> ip1
I0509 14:18:59.342439 20582 net.cpp:122] Setting up ip1
I0509 14:18:59.342478 20582 net.cpp:129] Top shape: 64 500 (32000)
I0509 14:18:59.342484 20582 net.cpp:137] Memory required for data: 5440768
I0509 14:18:59.342519 20582 layer_factory.hpp:77] Creating layer relu1
I0509 14:18:59.342536 20582 net.cpp:84] Creating Layer relu1
I0509 14:18:59.342546 20582 net.cpp:406] relu1 <- ip1
I0509 14:18:59.342562 20582 net.cpp:367] relu1 -> ip1 (in-place)
I0509 14:18:59.342584 20582 net.cpp:122] Setting up relu1
I0509 14:18:59.342597 20582 net.cpp:129] Top shape: 64 500 (32000)
I0509 14:18:59.342603 20582 net.cpp:137] Memory required for data: 5568768
I0509 14:18:59.342610 20582 layer_factory.hpp:77] Creating layer ip2
I0509 14:18:59.342628 20582 net.cpp:84] Creating Layer ip2
I0509 14:18:59.342638 20582 net.cpp:406] ip2 <- ip1
I0509 14:18:59.342658 20582 net.cpp:380] ip2 -> ip2
I0509 14:18:59.343106 20582 net.cpp:122] Setting up ip2
I0509 14:18:59.343122 20582 net.cpp:129] Top shape: 64 52 (3328)
I0509 14:18:59.343127 20582 net.cpp:137] Memory required for data: 5582080
I0509 14:18:59.343142 20582 layer_factory.hpp:77] Creating layer loss
I0509 14:18:59.343161 20582 net.cpp:84] Creating Layer loss
I0509 14:18:59.343173 20582 net.cpp:406] loss <- ip2
I0509 14:18:59.343183 20582 net.cpp:406] loss <- label
I0509 14:18:59.343200 20582 net.cpp:380] loss -> loss
I0509 14:18:59.343230 20582 layer_factory.hpp:77] Creating layer loss
…
I0509 14:18:59.343896 20582 solver.cpp:190] Creating test net (#0) specified by net file: models/sp_lenet_int1/lenet_train_val.prototxt
I0509 14:18:59.343971 20582 net.cpp:294] The NetState phase (1) differed from the phase (0) specified by a rule in layer data
I0509 14:18:59.344133 20582 net.cpp:51] Initializing net from parameters: 
name: "LeNet"
state {
  phase: TEST
}
layer {
  name: "data"
  type: "Data"
  top: "data"
  top: "label"
  include {
    phase: TEST
  }
  transform_param {
    scale: 0.00390625
  }
  data_param {
    source: "examples/final_sp/sp_val_lmdb_int1"
    batch_size: 64
    backend: LMDB
  }
}
layer {
  name: "conv1"
  type: "Convolution"
  bottom: "data"
  top: "conv1"
  param {
    lr_mult: 1
  }
  param {
    lr_mult: 2
  }
  convolution_param {
    num_output: 20
    kernel_size: 5
    stride: 1
    weight_filler {
      type: "xavier"
    }
    bias_filler {
      type: "constant"
    }
  }
}
layer {
  name: "pool1"
  type: "Pooling"
  bottom: "conv1"
  top: "pool1"
  pooling_param {
    pool: MAX
    kernel_size: 2
    stride: 2
  }
}
layer {
  name: "conv2"
  type: "Convolution"
  bottom: "pool1"
  top: "conv2"
  param {
    lr_mult: 1
  }
  param {
    lr_mult: 2
  }
  convolution_param {
    num_output: 50
    kernel_size: 5
    stride: 1
    weight_filler {
      type: "xavier"
    }
    bias_filler {
      type: "constant"
    }
  }
}
layer {
  name: "pool2"
  type: "Pooling"
  bottom: "conv2"
  top: "pool2"
  pooling_param {
    pool: MAX
    kernel_size: 2
    stride: 2
  }
}
layer {
  name: "ip1"
  type: "InnerProduct"
  bottom: "pool2"
  top: "ip1"
  param {
    lr_mult: 1
  }
  param {
    lr_mult: 2
  }
  inner_product_param {
    num_output: 500
    weight_filler {
      type: "xavier"
    }
    bias_filler {
      type: "constant"
    }
  }
}
layer {
  name: "relu1"
  type: "ReLU"
  bottom: "ip1"
  top: "ip1"
}
layer {
  name: "ip2"
  type: "InnerProduct"
  bottom: "ip1"
  top: "ip2"
  param {
    lr_mult: 1
  }
  param {
    lr_mult: 2
  }
  inner_product_param {
    num_output: 52
    weight_filler {
      type: "xavier"
    }
    bias_filler {
      type: "constant"
    }
  }
}
layer {
  name: "accuracy"
  type: "Accuracy"
  bottom: "ip2"
  bottom: "label"
  top: "accuracy"
  include {
    phase: TEST
  }
}
layer {
  name: "loss"
  type: "SoftmaxWithLoss"
  bottom: "ip2"
  bottom: "label"
  top: "loss"
}
I0509 14:18:59.344285 20582 layer_factory.hpp:77] Creating layer data
I0509 14:18:59.496927 20582 db_lmdb.cpp:35] Opened lmdb examples/final_sp/sp_val_lmdb_int1
I0509 14:18:59.497728 20582 net.cpp:84] Creating Layer data
I0509 14:18:59.497815 20582 net.cpp:380] data -> data
I0509 14:18:59.497913 20582 net.cpp:380] data -> label
I0509 14:18:59.498672 20582 data_layer.cpp:45] output data size: 64,3,28,28
I0509 14:18:59.509433 20582 net.cpp:122] Setting up data
I0509 14:18:59.509637 20582 net.cpp:129] Top shape: 64 3 28 28 (150528)
I0509 14:18:59.509748 20582 net.cpp:129] Top shape: 64 (64)
I0509 14:18:59.509835 20582 net.cpp:137] Memory required for data: 602368
I0509 14:18:59.509927 20582 layer_factory.hpp:77] Creating layer label_data_1_split
I0509 14:18:59.510049 20582 net.cpp:84] Creating Layer label_data_1_split
I0509 14:18:59.510139 20582 net.cpp:406] label_data_1_split <- label
I0509 14:18:59.510550 20582 net.cpp:380] label_data_1_split -> label_data_1_split_0
I0509 14:18:59.510794 20582 net.cpp:380] label_data_1_split -> label_data_1_split_1
I0509 14:18:59.511132 20582 net.cpp:122] Setting up label_data_1_split
I0509 14:18:59.511433 20582 net.cpp:129] Top shape: 64 (64)
I0509 14:18:59.511468 20582 net.cpp:129] Top shape: 64 (64)
I0509 14:18:59.511483 20582 net.cpp:137] Memory required for data: 602880
I0509 14:18:59.511503 20582 layer_factory.hpp:77] Creating layer conv1
I0509 14:18:59.511569 20582 net.cpp:84] Creating Layer conv1
I0509 14:18:59.511596 20582 net.cpp:406] conv1 <- data
I0509 14:18:59.511641 20582 net.cpp:380] conv1 -> conv1
I0509 14:18:59.513247 20582 net.cpp:122] Setting up conv1
I0509 14:18:59.513319 20582 net.cpp:129] Top shape: 64 20 24 24 (737280)
I0509 14:18:59.513341 20582 net.cpp:137] Memory required for data: 3552000
I0509 14:18:59.513396 20582 layer_factory.hpp:77] Creating layer pool1
I0509 14:18:59.513499 20582 net.cpp:84] Creating Layer pool1
I0509 14:18:59.513525 20582 net.cpp:406] pool1 <- conv1
I0509 14:18:59.513556 20582 net.cpp:380] pool1 -> pool1
I0509 14:18:59.513746 20582 net.cpp:122] Setting up pool1
I0509 14:18:59.513782 20582 net.cpp:129] Top shape: 64 20 12 12 (184320)
I0509 14:18:59.513799 20582 net.cpp:137] Memory required for data: 4289280
I0509 14:18:59.513816 20582 layer_factory.hpp:77] Creating layer conv2
I0509 14:18:59.513875 20582 net.cpp:84] Creating Layer conv2
I0509 14:18:59.513895 20582 net.cpp:406] conv2 <- pool1
I0509 14:18:59.513936 20582 net.cpp:380] conv2 -> conv2
I0509 14:18:59.515352 20582 net.cpp:122] Setting up conv2
I0509 14:18:59.515609 20582 net.cpp:129] Top shape: 64 50 8 8 (204800)
I0509 14:18:59.515636 20582 net.cpp:137] Memory required for data: 5108480
I0509 14:18:59.515684 20582 layer_factory.hpp:77] Creating layer pool2
I0509 14:18:59.515718 20582 net.cpp:84] Creating Layer pool2
I0509 14:18:59.515738 20582 net.cpp:406] pool2 <- conv2
I0509 14:18:59.515769 20582 net.cpp:380] pool2 -> pool2
I0509 14:18:59.515944 20582 net.cpp:122] Setting up pool2
I0509 14:18:59.515976 20582 net.cpp:129] Top shape: 64 50 4 4 (51200)
I0509 14:18:59.516012 20582 net.cpp:137] Memory required for data: 5313280
I0509 14:18:59.516031 20582 layer_factory.hpp:77] Creating layer ip1
I0509 14:18:59.516064 20582 net.cpp:84] Creating Layer ip1
I0509 14:18:59.516085 20582 net.cpp:406] ip1 <- pool2
I0509 14:18:59.516129 20582 net.cpp:380] ip1 -> ip1
I0509 14:18:59.526459 20582 net.cpp:122] Setting up ip1
I0509 14:18:59.526629 20582 net.cpp:129] Top shape: 64 500 (32000)
I0509 14:18:59.526715 20582 net.cpp:137] Memory required for data: 5441280
I0509 14:18:59.526831 20582 layer_factory.hpp:77] Creating layer relu1
I0509 14:18:59.526906 20582 net.cpp:84] Creating Layer relu1
I0509 14:18:59.526967 20582 net.cpp:406] relu1 <- ip1
I0509 14:18:59.527030 20582 net.cpp:367] relu1 -> ip1 (in-place)
I0509 14:18:59.527062 20582 net.cpp:122] Setting up relu1
I0509 14:18:59.527079 20582 net.cpp:129] Top shape: 64 500 (32000)
I0509 14:18:59.527089 20582 net.cpp:137] Memory required for data: 5569280
I0509 14:18:59.527101 20582 layer_factory.hpp:77] Creating layer ip2
I0509 14:18:59.527132 20582 net.cpp:84] Creating Layer ip2
I0509 14:18:59.527143 20582 net.cpp:406] ip2 <- ip1
I0509 14:18:59.527161 20582 net.cpp:380] ip2 -> ip2
I0509 14:18:59.527695 20582 net.cpp:122] Setting up ip2
I0509 14:18:59.527716 20582 net.cpp:129] Top shape: 64 52 (3328)
I0509 14:18:59.527726 20582 net.cpp:137] Memory required for data: 5582592
I0509 14:18:59.527745 20582 layer_factory.hpp:77] Creating layer ip2_ip2_0_split
I0509 14:18:59.527768 20582 net.cpp:84] Creating Layer ip2_ip2_0_split
I0509 14:18:59.527781 20582 net.cpp:406] ip2_ip2_0_split <- ip2
I0509 14:18:59.527798 20582 net.cpp:380] ip2_ip2_0_split -> ip2_ip2_0_split_0
I0509 14:18:59.527829 20582 net.cpp:380] ip2_ip2_0_split -> ip2_ip2_0_split_1
I0509 14:18:59.527909 20582 net.cpp:122] Setting up ip2_ip2_0_split
I0509 14:18:59.527925 20582 net.cpp:129] Top shape: 64 52 (3328)
I0509 14:18:59.527938 20582 net.cpp:129] Top shape: 64 52 (3328)
I0509 14:18:59.527947 20582 net.cpp:137] Memory required for data: 5609216
I0509 14:18:59.527958 20582 layer_factory.hpp:77] Creating layer accuracy
I0509 14:18:59.527981 20582 net.cpp:84] Creating Layer accuracy
I0509 14:18:59.527992 20582 net.cpp:406] accuracy <- ip2_ip2_0_split_0
I0509 14:18:59.528007 20582 net.cpp:406] accuracy <- label_data_1_split_0
I0509 14:18:59.528026 20582 net.cpp:380] accuracy -> accuracy
…
