…
I0509 16:07:50.439332  7836 net.cpp:294] The NetState phase (0) differed from the phase (1) specified by a rule in layer data
I0509 16:07:50.439343  7836 net.cpp:294] The NetState phase (0) differed from the phase (1) specified by a rule in layer accuracy
I0509 16:07:50.439409  7836 net.cpp:51] Initializing net from parameters: 
name: "LeNet"
state {
  phase: TRAIN
  level: 0
  stage: ""
}
layer {
  name: "data"
  type: "Data"
  top: "data"
  top: "label"
  include {
    phase: TRAIN
  }
  transform_param {
    scale: 0.00390625
  }
  data_param {
    source: "examples/final_sp/sp_train_lmdb_int2"
    batch_size: 64
    backend: LMDB
  }
}
layer {
  name: "conv1"
  type: "Convolution"
  bottom: "data"
  top: "conv1"
  param {
    lr_mult: 1
  }
  param {
    lr_mult: 2
  }
  convolution_param {
    num_output: 20
    kernel_size: 5
    stride: 1
    weight_filler {
      type: "xavier"
    }
    bias_filler {
      type: "constant"
    }
  }
}
layer {
  name: "pool1"
  type: "Pooling"
  bottom: "conv1"
  top: "pool1"
  pooling_param {
    pool: MAX
    kernel_size: 2
    stride: 2
  }
}
layer {
  name: "conv2"
  type: "Convolution"
  bottom: "pool1"
  top: "conv2"
  param {
    lr_mult: 1
  }
  param {
    lr_mult: 2
  }
  convolution_param {
    num_output: 50
    kernel_size: 5
    stride: 1
    weight_filler {
      type: "xavier"
    }
    bias_filler {
      type: "constant"
    }
  }
}
layer {
  name: "pool2"
  type: "Pooling"
  bottom: "conv2"
  top: "pool2"
  pooling_param {
    pool: MAX
    kernel_size: 2
    stride: 2
  }
}
layer {
  name: "ip1"
  type: "InnerProduct"
  bottom: "pool2"
  top: "ip1"
  param {
    lr_mult: 1
  }
  param {
    lr_mult: 2
  }
  inner_product_param {
    num_output: 500
    weight_filler {
      type: "xavier"
    }
    bias_filler {
      type: "constant"
    }
  }
}
layer {
  name: "relu1"
  type: "ReLU"
  bottom: "ip1"
  top: "ip1"
}
layer {
  name: "ip2"
  type: "InnerProduct"
  bottom: "ip1"
  top: "ip2"
  param {
    lr_mult: 1
  }
  param {
    lr_mult: 2
  }
  inner_product_param {
    num_output: 52
    weight_filler {
      type: "xavier"
    }
    bias_filler {
      type: "constant"
    }
  }
}
layer {
  name: "loss"
  type: "SoftmaxWithLoss"
  bottom: "ip2"
  bottom: "label"
  top: "loss"
}
I0509 16:07:50.439465  7836 layer_factory.hpp:77] Creating layer data
I0509 16:07:51.062829  7836 db_lmdb.cpp:35] Opened lmdb examples/final_sp/sp_train_lmdb_int2
I0509 16:07:51.062948  7836 net.cpp:84] Creating Layer data
I0509 16:07:51.063004  7836 net.cpp:380] data -> data
I0509 16:07:51.063088  7836 net.cpp:380] data -> label
I0509 16:07:51.064680  7836 data_layer.cpp:45] output data size: 64,3,28,28
I0509 16:07:51.073359  7836 net.cpp:122] Setting up data
I0509 16:07:51.073465  7836 net.cpp:129] Top shape: 64 3 28 28 (150528)
I0509 16:07:51.073498  7836 net.cpp:129] Top shape: 64 (64)
I0509 16:07:51.073585  7836 net.cpp:137] Memory required for data: 602368
I0509 16:07:51.073623  7836 layer_factory.hpp:77] Creating layer conv1
I0509 16:07:51.073698  7836 net.cpp:84] Creating Layer conv1
I0509 16:07:51.073722  7836 net.cpp:406] conv1 <- data
I0509 16:07:51.073823  7836 net.cpp:380] conv1 -> conv1
I0509 16:07:51.079118  7836 net.cpp:122] Setting up conv1
I0509 16:07:51.079185  7836 net.cpp:129] Top shape: 64 20 24 24 (737280)
I0509 16:07:51.079202  7836 net.cpp:137] Memory required for data: 3551488
I0509 16:07:51.079267  7836 layer_factory.hpp:77] Creating layer pool1
I0509 16:07:51.079303  7836 net.cpp:84] Creating Layer pool1
I0509 16:07:51.079386  7836 net.cpp:406] pool1 <- conv1
I0509 16:07:51.079428  7836 net.cpp:380] pool1 -> pool1
I0509 16:07:51.079627  7836 net.cpp:122] Setting up pool1
I0509 16:07:51.079658  7836 net.cpp:129] Top shape: 64 20 12 12 (184320)
I0509 16:07:51.079672  7836 net.cpp:137] Memory required for data: 4288768
I0509 16:07:51.079685  7836 layer_factory.hpp:77] Creating layer conv2
I0509 16:07:51.079735  7836 net.cpp:84] Creating Layer conv2
I0509 16:07:51.079754  7836 net.cpp:406] conv2 <- pool1
I0509 16:07:51.079779  7836 net.cpp:380] conv2 -> conv2
I0509 16:07:51.082311  7836 net.cpp:122] Setting up conv2
I0509 16:07:51.082355  7836 net.cpp:129] Top shape: 64 50 8 8 (204800)
I0509 16:07:51.082367  7836 net.cpp:137] Memory required for data: 5107968
I0509 16:07:51.082403  7836 layer_factory.hpp:77] Creating layer pool2
I0509 16:07:51.082432  7836 net.cpp:84] Creating Layer pool2
I0509 16:07:51.082448  7836 net.cpp:406] pool2 <- conv2
I0509 16:07:51.082473  7836 net.cpp:380] pool2 -> pool2
I0509 16:07:51.082617  7836 net.cpp:122] Setting up pool2
I0509 16:07:51.082641  7836 net.cpp:129] Top shape: 64 50 4 4 (51200)
I0509 16:07:51.082650  7836 net.cpp:137] Memory required for data: 5312768
I0509 16:07:51.082659  7836 layer_factory.hpp:77] Creating layer ip1
I0509 16:07:51.082681  7836 net.cpp:84] Creating Layer ip1
I0509 16:07:51.082695  7836 net.cpp:406] ip1 <- pool2
I0509 16:07:51.082715  7836 net.cpp:380] ip1 -> ip1
I0509 16:07:51.093628  7836 net.cpp:122] Setting up ip1
I0509 16:07:51.093672  7836 net.cpp:129] Top shape: 64 500 (32000)
I0509 16:07:51.093683  7836 net.cpp:137] Memory required for data: 5440768
I0509 16:07:51.093715  7836 layer_factory.hpp:77] Creating layer relu1
I0509 16:07:51.093735  7836 net.cpp:84] Creating Layer relu1
I0509 16:07:51.093787  7836 net.cpp:406] relu1 <- ip1
I0509 16:07:51.093809  7836 net.cpp:367] relu1 -> ip1 (in-place)
I0509 16:07:51.093832  7836 net.cpp:122] Setting up relu1
I0509 16:07:51.093847  7836 net.cpp:129] Top shape: 64 500 (32000)
I0509 16:07:51.093854  7836 net.cpp:137] Memory required for data: 5568768
I0509 16:07:51.093863  7836 layer_factory.hpp:77] Creating layer ip2
I0509 16:07:51.093885  7836 net.cpp:84] Creating Layer ip2
I0509 16:07:51.093896  7836 net.cpp:406] ip2 <- ip1
I0509 16:07:51.093912  7836 net.cpp:380] ip2 -> ip2
I0509 16:07:51.094672  7836 net.cpp:122] Setting up ip2
I0509 16:07:51.094694  7836 net.cpp:129] Top shape: 64 52 (3328)
I0509 16:07:51.094704  7836 net.cpp:137] Memory required for data: 5582080
I0509 16:07:51.094722  7836 layer_factory.hpp:77] Creating layer loss
I0509 16:07:51.094770  7836 net.cpp:84] Creating Layer loss
I0509 16:07:51.094784  7836 net.cpp:406] loss <- ip2
I0509 16:07:51.094796  7836 net.cpp:406] loss <- label
I0509 16:07:51.094813  7836 net.cpp:380] loss -> loss
I0509 16:07:51.094851  7836 layer_factory.hpp:77] Creating layer loss
…
I0509 16:07:51.095897  7836 solver.cpp:190] Creating test net (#0) specified by net file: models/sp_lenet_int2/lenet_train_val.prototxt
I0509 16:07:51.095985  7836 net.cpp:294] The NetState phase (1) differed from the phase (0) specified by a rule in layer data
I0509 16:07:51.096246  7836 net.cpp:51] Initializing net from parameters: 
name: "LeNet"
state {
  phase: TEST
}
layer {
  name: "data"
  type: "Data"
  top: "data"
  top: "label"
  include {
    phase: TEST
  }
  transform_param {
    scale: 0.00390625
  }
  data_param {
    source: "examples/final_sp/sp_val_lmdb_int2"
    batch_size: 64
    backend: LMDB
  }
}
layer {
  name: "conv1"
  type: "Convolution"
  bottom: "data"
  top: "conv1"
  param {
    lr_mult: 1
  }
  param {
    lr_mult: 2
  }
  convolution_param {
    num_output: 20
    kernel_size: 5
    stride: 1
    weight_filler {
      type: "xavier"
    }
    bias_filler {
      type: "constant"
    }
  }
}
layer {
  name: "pool1"
  type: "Pooling"
  bottom: "conv1"
  top: "pool1"
  pooling_param {
    pool: MAX
    kernel_size: 2
    stride: 2
  }
}
layer {
  name: "conv2"
  type: "Convolution"
  bottom: "pool1"
  top: "conv2"
  param {
    lr_mult: 1
  }
  param {
    lr_mult: 2
  }
  convolution_param {
    num_output: 50
    kernel_size: 5
    stride: 1
    weight_filler {
      type: "xavier"
    }
    bias_filler {
      type: "constant"
    }
  }
}
layer {
  name: "pool2"
  type: "Pooling"
  bottom: "conv2"
  top: "pool2"
  pooling_param {
    pool: MAX
    kernel_size: 2
    stride: 2
  }
}
layer {
  name: "ip1"
  type: "InnerProduct"
  bottom: "pool2"
  top: "ip1"
  param {
    lr_mult: 1
  }
  param {
    lr_mult: 2
  }
  inner_product_param {
    num_output: 500
    weight_filler {
      type: "xavier"
    }
    bias_filler {
      type: "constant"
    }
  }
}
layer {
  name: "relu1"
  type: "ReLU"
  bottom: "ip1"
  top: "ip1"
}
layer {
  name: "ip2"
  type: "InnerProduct"
  bottom: "ip1"
  top: "ip2"
  param {
    lr_mult: 1
  }
  param {
    lr_mult: 2
  }
  inner_product_param {
    num_output: 52
    weight_filler {
      type: "xavier"
    }
    bias_filler {
      type: "constant"
    }
  }
}
layer {
  name: "accuracy"
  type: "Accuracy"
  bottom: "ip2"
  bottom: "label"
  top: "accuracy"
  include {
    phase: TEST
  }
}
layer {
  name: "loss"
  type: "SoftmaxWithLoss"
  bottom: "ip2"
  bottom: "label"
  top: "loss"
}
I0509 16:07:51.096426  7836 layer_factory.hpp:77] Creating layer data
I0509 16:07:51.106719  7836 db_lmdb.cpp:35] Opened lmdb examples/final_sp/sp_val_lmdb_int2
I0509 16:07:51.106770  7836 net.cpp:84] Creating Layer data
I0509 16:07:51.106798  7836 net.cpp:380] data -> data
I0509 16:07:51.106828  7836 net.cpp:380] data -> label
I0509 16:07:51.107065  7836 data_layer.cpp:45] output data size: 64,3,28,28
I0509 16:07:51.118842  7836 net.cpp:122] Setting up data
I0509 16:07:51.119119  7836 net.cpp:129] Top shape: 64 3 28 28 (150528)
I0509 16:07:51.119230  7836 net.cpp:129] Top shape: 64 (64)
I0509 16:07:51.119333  7836 net.cpp:137] Memory required for data: 602368
I0509 16:07:51.119388  7836 layer_factory.hpp:77] Creating layer label_data_1_split
I0509 16:07:51.119419  7836 net.cpp:84] Creating Layer label_data_1_split
I0509 16:07:51.119431  7836 net.cpp:406] label_data_1_split <- label
I0509 16:07:51.119467  7836 net.cpp:380] label_data_1_split -> label_data_1_split_0
I0509 16:07:51.119530  7836 net.cpp:380] label_data_1_split -> label_data_1_split_1
I0509 16:07:51.119645  7836 net.cpp:122] Setting up label_data_1_split
I0509 16:07:51.119664  7836 net.cpp:129] Top shape: 64 (64)
I0509 16:07:51.119675  7836 net.cpp:129] Top shape: 64 (64)
I0509 16:07:51.119724  7836 net.cpp:137] Memory required for data: 602880
I0509 16:07:51.119757  7836 layer_factory.hpp:77] Creating layer conv1
I0509 16:07:51.119822  7836 net.cpp:84] Creating Layer conv1
I0509 16:07:51.119838  7836 net.cpp:406] conv1 <- data
I0509 16:07:51.119856  7836 net.cpp:380] conv1 -> conv1
I0509 16:07:51.120959  7836 net.cpp:122] Setting up conv1
I0509 16:07:51.120986  7836 net.cpp:129] Top shape: 64 20 24 24 (737280)
I0509 16:07:51.120995  7836 net.cpp:137] Memory required for data: 3552000
I0509 16:07:51.121021  7836 layer_factory.hpp:77] Creating layer pool1
I0509 16:07:51.121060  7836 net.cpp:84] Creating Layer pool1
I0509 16:07:51.121071  7836 net.cpp:406] pool1 <- conv1
I0509 16:07:51.121089  7836 net.cpp:380] pool1 -> pool1
I0509 16:07:51.121171  7836 net.cpp:122] Setting up pool1
I0509 16:07:51.121189  7836 net.cpp:129] Top shape: 64 20 12 12 (184320)
I0509 16:07:51.121201  7836 net.cpp:137] Memory required for data: 4289280
I0509 16:07:51.121209  7836 layer_factory.hpp:77] Creating layer conv2
I0509 16:07:51.121240  7836 net.cpp:84] Creating Layer conv2
I0509 16:07:51.121253  7836 net.cpp:406] conv2 <- pool1
I0509 16:07:51.121268  7836 net.cpp:380] conv2 -> conv2
I0509 16:07:51.122076  7836 net.cpp:122] Setting up conv2
I0509 16:07:51.122097  7836 net.cpp:129] Top shape: 64 50 8 8 (204800)
I0509 16:07:51.122107  7836 net.cpp:137] Memory required for data: 5108480
I0509 16:07:51.122125  7836 layer_factory.hpp:77] Creating layer pool2
I0509 16:07:51.122138  7836 net.cpp:84] Creating Layer pool2
I0509 16:07:51.122145  7836 net.cpp:406] pool2 <- conv2
I0509 16:07:51.122157  7836 net.cpp:380] pool2 -> pool2
I0509 16:07:51.122216  7836 net.cpp:122] Setting up pool2
I0509 16:07:51.122226  7836 net.cpp:129] Top shape: 64 50 4 4 (51200)
I0509 16:07:51.122231  7836 net.cpp:137] Memory required for data: 5313280
I0509 16:07:51.122236  7836 layer_factory.hpp:77] Creating layer ip1
I0509 16:07:51.122249  7836 net.cpp:84] Creating Layer ip1
I0509 16:07:51.122258  7836 net.cpp:406] ip1 <- pool2
I0509 16:07:51.122272  7836 net.cpp:380] ip1 -> ip1
I0509 16:07:51.126148  7836 net.cpp:122] Setting up ip1
I0509 16:07:51.126178  7836 net.cpp:129] Top shape: 64 500 (32000)
I0509 16:07:51.126183  7836 net.cpp:137] Memory required for data: 5441280
I0509 16:07:51.126206  7836 layer_factory.hpp:77] Creating layer relu1
I0509 16:07:51.126220  7836 net.cpp:84] Creating Layer relu1
I0509 16:07:51.126229  7836 net.cpp:406] relu1 <- ip1
I0509 16:07:51.126240  7836 net.cpp:367] relu1 -> ip1 (in-place)
I0509 16:07:51.126255  7836 net.cpp:122] Setting up relu1
I0509 16:07:51.126265  7836 net.cpp:129] Top shape: 64 500 (32000)
I0509 16:07:51.126268  7836 net.cpp:137] Memory required for data: 5569280
I0509 16:07:51.126276  7836 layer_factory.hpp:77] Creating layer ip2
I0509 16:07:51.126291  7836 net.cpp:84] Creating Layer ip2
I0509 16:07:51.126297  7836 net.cpp:406] ip2 <- ip1
I0509 16:07:51.126310  7836 net.cpp:380] ip2 -> ip2
I0509 16:07:51.126694  7836 net.cpp:122] Setting up ip2
I0509 16:07:51.126705  7836 net.cpp:129] Top shape: 64 52 (3328)
I0509 16:07:51.126709  7836 net.cpp:137] Memory required for data: 5582592
I0509 16:07:51.126727  7836 layer_factory.hpp:77] Creating layer ip2_ip2_0_split
I0509 16:07:51.126744  7836 net.cpp:84] Creating Layer ip2_ip2_0_split
I0509 16:07:51.126749  7836 net.cpp:406] ip2_ip2_0_split <- ip2
I0509 16:07:51.126760  7836 net.cpp:380] ip2_ip2_0_split -> ip2_ip2_0_split_0
I0509 16:07:51.126771  7836 net.cpp:380] ip2_ip2_0_split -> ip2_ip2_0_split_1
I0509 16:07:51.126811  7836 net.cpp:122] Setting up ip2_ip2_0_split
I0509 16:07:51.126821  7836 net.cpp:129] Top shape: 64 52 (3328)
I0509 16:07:51.126827  7836 net.cpp:129] Top shape: 64 52 (3328)
I0509 16:07:51.126833  7836 net.cpp:137] Memory required for data: 5609216
I0509 16:07:51.126837  7836 layer_factory.hpp:77] Creating layer accuracy
I0509 16:07:51.126847  7836 net.cpp:84] Creating Layer accuracy
I0509 16:07:51.126854  7836 net.cpp:406] accuracy <- ip2_ip2_0_split_0
I0509 16:07:51.126862  7836 net.cpp:406] accuracy <- label_data_1_split_0
I0509 16:07:51.126870  7836 net.cpp:380] accuracy -> accuracy
…
